pair_sampling/emb_mds/model_emb5.pt (torch_old, 5741 bytes, 8 tensors)

embedding.weight f4 [21, 5]
000000 00 00 00 00 00 00 00 00 00 00 00 00 00 00 00 00
       0.0 0.0 0.0 0.0
000010 00 00 00 00 3c fc 65 3e c7 cb ed 3f 50 1c 34 c0
       0.0 0.22459501 1.8577813 -2.814228
000020 65 7a e6 be f6 a0 b1 bf 8e c4 37 3d 52 90 30 bf
       -0.45015255 -1.3877246 0.044865184 -0.68970215
000030 e8 3b c9 bf 49 3e 8d 3f df 51 11 40 c4 49 73 bf
       -1.5721407 1.1034633 2.270622 -0.9503443
000040 a7 e1 00 c0 29 83 a9 be 52 04 70 3f ac 9e cd bf
       -2.0137727 -0.3310788 0.9375659 -1.6064048
000050 4f f5 7d bf d1 82 36 3e 1d 19 c4 bf 23 aa aa 3f
       -0.99202436 0.1782334 -1.5320164 1.3333172
000060 9a 91 be bf 23 56 a6 3f bb 01 2b 3f 58 1a c2 bf
       -1.4888184 1.2995037 0.66799515 -1.516429
000070 77 ed 9a 3f 09 3c 06 40 02 d2 8d bf 43 45 8b be
       1.2103719 2.0974143 -1.1079714 -0.2720128
000080 80 3b a6 bf c7 a4 81 c0 69 eb 60 3f 3b 5f 61 3f
       -1.2986908 -4.0513644 0.8785921 0.88035935
000090 98 d9 37 3f d7 9a 4f 3f e1 00 67 3f d0 43 b4 3d
       0.71816397 0.8109564 0.90235716 0.08801997
0000a0 0f 54 09 40 c8 7f 71 c0 10 1f 28 be 9b d3 8b bf
       2.1457555 -3.7734241 -0.164181 -1.0923952
0000b0 42 90 77 3f 26 b0 4e bf ef e2 ba bf cf 95 04 40
       0.96704495 -0.8073753 -1.4600505 2.0716436
0000c0 c4 b1 19 c0 40 ca 94 3f 7e c8 00 bf 38 27 f7 bf
       -2.401475 1.1624222 -0.50305927 -1.9308844
0000d0 44 f9 1c c0 21 6a 15 bf 68 8c 1c 3e a0 50 68 be
       -2.452714 -0.58365065 0.15287936 -0.22687006
0000e0 27 1b 87 3f a7 cb 0a bf bb 48 77 3e a0 e9 e8 3f
       1.0555161 -0.54217 0.24148838 1.8196297
0000f0 08 d5 4d bf ec 3d d8 bf b6 dc e4 3f 75 2c 33 3f
       -0.80403185 -1.6893897 1.7879856 0.6998971
000100 da 50 df bf c6 ab 05 3f 6c 1f 69 3f 2e 4b 53 3e
       -1.7446549 0.5221523 0.9106357 0.20634148
000110 66 b1 59 3f 2c 24 77 3e 57 f5 d2 bf d9 c8 d2 be
       0.85036314 0.24134892 -1.6481122 -0.4116886
000120 9a f6 c2 3f 8d a4 2c 3d ba a3 da bd 3c 3e 81 bf
       1.5231507 0.042149115 -0.106757596 -1.0097117
000130 50 46 e9 3e 7a 58 38 3f 1b dd ba bf 35 b6 1b 3f
       0.45561457 0.72010005 -1.4598726 0.608249
000140 33 67 1d 3f 8d f9 33 3f 90 e0 cf bf 8e e8 ba bf
       0.61485595 0.7030266 -1.6240406 -1.460222
000150 5e 53 81 3f 14 ec 10 c0 f1 04 ba 3f 54 ec ab bf
       1.0103567 -2.264409 1.4532758 -1.3431497
000160 1d 36 7f bf 53 b3 be bf 72 08 9e be ab 5b ef be
       -0.99691945 -1.4898475 -0.30865818 -0.46749625
000170 01 d3 2b be 8e fa 94 3f 0f 83 d4 be fd fd a5 bf
       -0.1677971 1.1638963 -0.4150624 -1.2968136
000180 f2 2e 61 3e 13 5e cd 3e 61 4b 7f 3f 00 94 cd 3f
       0.21990564 0.40110835 0.99724394 1.6060791
000190 95 ba b0 bf 9a 2e f6 3f 85 94 a1 3f 3c 81 26 40
       -1.380694 1.9232972 1.262345 2.6016378
0001a0 ef 4f 23 bf
       -0.63793844

lstm.weight_ih_l0 f4 [40, 5]
000000 ee a5 03 bf 9f fa 0a 3d 29 f0 66 be 5b d1 2d bf
       -0.51425064 0.033930417 -0.22552551 -0.67897576
000010 6d 0a 14 bf 01 7d 39 bf b1 31 46 bf 8c 2f 48 bd
       -0.5782841 -0.72456366 -0.77419573 -0.04887347
000020 01 44 ba be 12 08 04 bf 28 ea 05 bf 90 2e 4b bf
       -0.36380008 -0.51574814 -0.5231042 -0.79367924
000030 74 d0 57 3f b9 ee 4b bf 4b 38 75 3d 00 ba 24 3e
       0.8430245 -0.79661137 0.05986814 0.16086578
000040 c6 4a 91 3d 41 32 40 3e 55 7a 45 bf d7 31 1c bd
       0.0709434 0.1876917 -0.7713979 -0.03813347
000050 e4 6b f8 bf 60 0c ad 3f e8 9d b9 3e 85 51 17 3e
       -1.9407926 1.3519402 0.36253285 0.14777191
000060 3f 07 4e ba c0 91 92 bf 25 af cd 3d ba c6 9b bf
       -0.0007859356 -1.1450729 0.10043172 -1.2170022
000070 ed c1 c7 3d b6 1e 62 bf d2 ff a8 bf 14 8f 62 3f
       0.09753785 -0.8832811 -1.320307 0.8849957
000080 12 68 18 3e 09 f6 2d 3d 52 6f 13 3e 1d 4e df 3c
       0.1488345 0.042470966 0.14397934 0.027258927
000090 4c 73 21 be 26 b3 8c 3f 93 09 9a 3d 25 37 95 3f
       -0.15766639 1.0992172 0.075213574 1.1657454
0000a0 69 95 1a 3e 8a 69 3a bf 7d 13 69 bf ce 96 cc 3e
       0.15096058 -0.7281729 -0.9104536 0.39958805
0000b0 b1 4a 90 3e 46 61 b9 3e 5a 8e 38 be 33 ba 3f 3e
       0.28181985 0.36207026 -0.18023053 0.18723373
0000c0 54 3f be bf 8c cd 46 3f bc 68 cf be b1 3c 07 be
       -1.4863076 0.7765739 -0.40509593 -0.13206746
0000d0 ff 62 4c bf 5f b6 40 3e d5 55 34 3f 67 0e 82 be
       -0.79838556 0.18819569 0.7044347 -0.25401613
0000e0 cf 56 89 bc 5f c2 08 3e 37 c6 d7 3e f4 85 a1 3f
       -0.016765026 0.13355397 0.42143413 1.2619004
0000f0 a6 13 b7 bd e9 9f b3 3d 0f 70 89 3f 83 c2 15 3c
       -0.089392945 0.08770735 1.0737323 0.0091406135
000100 84 ec 06 3f 1f 51 94 bf c1 47 1f 3f ec 91 d2 be
       0.52704644 -1.1587256 0.6221886 -0.41126955
000110 4b 16 6f 3d be 47 01 bf ec b3 98 3e e6 41 0d 3d
       0.05837087 -0.50500095 0.2982477 0.034486674
000120 44 64 97 3f 49 38 35 3f 33 5a a2 3d fd b3 f6 bd
       1.1827474 0.7078901 0.079273604 -0.12046049
000130 00 74 1f 3e 08 f1 ae 3e 0b e0 30 3f a1 ce a9 3e
       0.15571594 0.34168267 0.6909186 0.33165458
000140 33 6e 38 be ab 2d 5e 3f 68 ff 04 3f 9a c2 23 3f
       -0.18010788 0.86788434 0.5195222 0.63968813
000150 d5 4e a6 be 7f 8b 5b bf 16 15 fa be 68 5b 11 bf
       -0.3248202 -0.8575973 -0.48844212 -0.567801
000160 94 a1 2f bc 6e 0e 34 be b0 6e 82 bf 25 65 c4 be
       -0.010719676 -0.1758363 -1.0190029 -0.38358417
000170 50 32 56 3f 17 cc a4 3f 68 23 c4 bf 4f 8a 02 3f
       0.8367052 1.2874783 -1.5323305 0.5099229
000180 ff 95 c4 bf 32 0c bd bd 11 1f 2b be 3c 3e c6 bf
       -1.5358275 -0.09230842 -0.1671107 -1.5487742
000190 ce 91 57 be ab 01 bb 3e ef ba 44 3f 0c dd 7d be
       -0.21051714 0.3652471 0.7684774 -0.24791354
0001a0 3c c4 1c 3f 46 8c bc bd 19 22 2b bf fc 8c 8a 3e
       0.6123693 -0.092064425 -0.66848904 0.27060688
0001b0 9d e6 83 3f b3 6f f9 3e cc cb 50 be 16 e4 40 3e
       1.0304753 0.48718032 -0.20390242 0.18837008
0001c0 64 2c 51 bf c7 b8 84 bf 84 1a c1 be 35 e9 58 3f
       -0.8170836 -1.036889 -0.37715542 0.84730846
0001d0 17 d6 13 be ef 75 98 bd 8e ab 48 3f 44 62 04 3e
       -0.14437138 -0.07444369 0.7838677 0.1292811
0001e0 09 dd 3d bf 8d a5 a7 3e 42 e8 61 3f b6 87 93 3e
       -0.741654 0.32743493 0.8824502 0.28814477
0001f0 d7 8e 78 be 7b 03 c0 3e 5a 4e c8 3f fa 6a a4 be
       -0.24273239 0.37502655 1.5648911 -0.32112867
000200 fb 86 ce 3f 5a 4f 4e bd af cb 82 3e 72 c3 53 3e
       1.6134943 -0.050368644 0.25546023 0.20680025
000210 a5 64 c6 3d 4d 07 89 3f 0a f2 9d be d7 09 d4 3c
       0.09687165 1.0705353 -0.30848724 0.025883598
000220 9b d0 de 3d 3f c9 2e 3f 13 c4 c6 3e 20 9b 0f 3e
       0.10879632 0.6827583 0.38821468 0.14024019
000230 a9 0b 7f bc 94 b7 b2 bf 7e 43 0d 3f dd a6 7e 3e
       -0.015566745 -1.3962274 0.5518111 0.24868341
000240 f7 3c a8 3e 66 38 3e 3f 5f eb 5c bc 49 fb 4c be
       0.32859012 0.7430481 -0.013483851 -0.20017733
000250 d5 47 c9 3d 7f c3 01 3f 2f eb a5 bf bb 62 c9 bf
       0.09828154 0.5068893 -1.2962397 -1.5733255
000260 af 20 ac 3e 6c 62 53 3e 5a 26 53 3f 52 c8 0e bf
       0.33618686 0.20643014 0.82480395 -0.55774415
000270 f3 12 67 3f a0 7f 1d bf e0 7e 39 3f 2b 8b de be
       0.9026329 -0.61522865 0.7245922 -0.43465552
000280 f2 d2 40 3e 40 4b b1 3e 55 e1 cb be 4f ab f1 bd
       0.18830469 0.34627724 -0.39820352 -0.11800253
000290 60 40 37 bf 6b dd b8 3e af d8 10 bf d8 55 5e bf
       -0.71582603 0.36106429 -0.5658063 -0.8684974
0002a0 07 45 a5 bf 7f ec 48 3f 03 93 62 3e 7d 5b 58 be
       -1.291169 0.78485864 0.22126393 -0.2112865
0002b0 04 0e 2a 3d a9 cf 3e 3f 3c 1a 80 3f 98 fe 9d b9
       0.041517273 0.74535614 1.0008006 -0.0003013506
0002c0 fe 7f 1e bf a1 fa 59 be 2b a6 03 bf 07 f5 29 3d
       -0.6191405 -0.21287014 -0.5142543 0.041493442
0002d0 09 35 05 be 6e 56 48 bd e6 e4 6f 3f 51 89 68 3e
       -0.13008513 -0.04891055 0.93708646 0.22708632
0002e0 97 e3 a4 be 25 02 a2 3e 66 e6 f6 bf fc 01 53 be
       -0.32204887 0.3164226 -1.9289062 -0.20606226
0002f0 11 02 2f 3e 6c 09 12 be 95 a9 f7 3d 87 4d 97 be
       0.17090632 -0.14261407 0.12092892 -0.29551336
000300 6b fe eb be d7 a2 51 bf 6a 62 8c 3f 57 6b 6f bf
       -0.46092543 -0.818891 1.0967534 -0.9352316
000310 dd 5f 8d be b5 17 4c be df 6e a6 bf 78 66 4e bc
       -0.276122 -0.19930919 -1.3002585 -0.012597673

lstm.weight_hh_l0 f4 [40, 10]
000000 ee c0 7b bf 6e 9d b2 3f c9 0c 73 3f 27 93 08 c0
       -0.9834126 1.3954294 0.94941384 -2.1339815
000010 1f 35 9e bf ec 63 fa be fb 3b c3 3e 18 03 78 bf
       -1.2359961 -0.4890436 0.381317 -0.9687972
000020 9c 7d 06 c0 b2 02 47 bf 9c 9f 83 3e 05 c8 6b 3f
       -2.1014166 -0.7773849 0.2570771 0.9210208
000030 9c 89 b5 3f 62 d5 da be 44 3c ae 3f 7a 4c 3f 3f
       1.418262 -0.42740923 1.3612142 0.7472607
000040 60 3c ab 3f 03 c6 bf 3d e8 bb e1 3c 01 37 5c bd
       1.33778 0.093639396 0.027555421 -0.053763393
000050 b8 f9 58 bf ff 1f d9 be 32 81 29 3f 23 20 4d 3f
       -0.8475604 -0.42407224 0.6621276 0.8012716
000060 52 00 d7 3f c7 d5 27 3f 31 b5 c3 3f a7 28 b1 3e
       1.6796973 0.65560573 1.528967 0.34601328
000070 75 0f be 3e e0 a3 47 bf a4 68 dd bd 36 be ca bf
       0.37121168 -0.7798443 -0.10810974 -1.5839298
000080 b5 2f 25 3f 0f 15 05 c0 e3 57 38 3f 41 fd ce 3c
       0.6452592 -2.0794103 0.72009104 0.025267245
000090 f4 27 a6 be 91 0e f4 be 4c b7 3b 3d 74 0d a7 bf
       -0.32452357 -0.47667363 0.045829102 -1.305098
0000a0 e5 b5 66 bf 83 a5 ed 3d 10 25 a0 3f a9 b3 fa bf
       -0.901213 0.116038345 1.251131 -1.9586078
0000b0 a5 b9 7e bf fe f0 1d 3c aa 26 8a 3f 17 d5 46 bf
       -0.9950202 0.009639977 1.0793049 -0.776689
0000c0 51 39 ab bf b3 f2 1b c0 b1 bd b9 bf 86 4c 65 bf
       -1.3376867 -2.4366882 -1.4511014 -0.8956989
0000d0 68 86 69 be ea 69 f4 bf 73 28 8a bf ce a9 10 bf
       -0.22805178 -1.9094822 -1.0793594 -0.565091
0000e0 6f 93 b5 bf 93 c5 ec bf 67 ea b9 3e 5b ae 97 bf
       -1.4185618 -1.8497795 0.36311647 -1.1850084
0000f0 b7 36 e6 bf 01 12 c6 3f 4a 9c 82 bf 7b 37 1a bf
       -1.7985448 1.5474244 -1.0203946 -0.60240906
000100 81 d2 ce be db 87 ea bf 08 13 fa 3c 54 b8 33 bf
       -0.40394977 -1.832271 0.030526653 -0.7020314
000110 34 71 af be d6 c5 59 be d0 de 0d bf 49 14 3d bf
       -0.34266055 -0.21266875 -0.5541811 -0.7385908
000120 47 67 9d 3f 22 e0 df be 6c 8d b8 bf 3d eb 64 3f
       1.2297143 -0.43725687 -1.4418159 0.89421445
000130 6c 12 d1 3f 9b 78 93 3f c9 ed 23 c0 e1 bc 9d 3e
       1.6333747 1.1521181 -2.5613883 0.30808166
000140 7f 29 3e be 4b 4a ee bf 49 14 04 3f dd 76 3f c0
       -0.18570517 -1.8616422 0.5159345 -2.9916298
000150 b5 28 5d 3d 46 75 bc 3f e0 21 7e 3e 8c 08 e3 bf
       0.0539939 1.4723289 0.2481761 -1.7736983
000160 fe 01 04 bf 4e b2 9b bf d5 d7 9b 3d c7 3f 04 c0
       -0.5156554 -1.2163789 0.07609526 -2.0663927
000170 55 8f e8 3f 28 9f 77 bf 7a 9e 9b 3e 04 69 0a 40
       1.8168741 -0.9672723 0.30394346 2.1626596
000180 37 4b 48 be 66 5d 4e 3b 3f 71 17 40 86 00 0d 3f
       -0.19559942 0.0031488775 2.366287 0.55078924
000190 09 be 66 3d fd 8c a8 bf c4 47 45 3f cc eb 50 3f
       0.056333575 -1.3168026 0.7706263 0.816098
0001a0 77 8c 8b bf 7f 84 ae bf cf 27 46 bd 97 8c 04 bf
       -1.0902241 -1.3634185 -0.04837781 -0.51777023
0001b0 de 07 5b 3f 94 0d 02 40 b1 48 92 3f ea 8b 5a bf
       0.8555888 2.0320787 1.1428434 -0.8536974
0001c0 64 ae 71 bf d9 8c b4 3f 57 81 93 3e e0 d7 df 3f
       -0.94406724 1.4105483 0.28809616 1.7487755
0001d0 2c ec fb be 29 7b 93 3f 8f 9e 36 bf b9 17 70 3f
       -0.49203622 1.152196 -0.7133569 0.937862
0001e0 a1 1f 53 3e cf 10 7d bf 35 cc f0 3d c7 fd 58 bf
       0.20617534 -0.9885377 0.117576994 -0.84762233
0001f0 ae 86 38 40 ed 0b 5a 3f 9c 2b fb 3e c3 50 35 be
       2.8832202 0.8517445 0.4905671 -0.1770659
000200 09 ab 31 3f 98 97 00 bf d5 c4 db bf 49 3a 43 bf
       0.69401604 -0.50231314 -1.7169443 -0.7626081
000210 70 da 81 3f b8 5b 4e bf 0b b2 65 3f 33 94 4f 3e
       1.0144787 -0.806087 0.89724797 0.20271377
000220 fd 9a 8d bf f4 36 8a 3e 32 8a 1e bd 0f ce 8c bf
       -1.1062924 0.2699505 -0.038706012 -1.1000384
000230 6b 28 96 bf ef 07 22 40 01 1f 81 be f8 4f 64 3f
       -1.1731085 2.5317342 -0.25218967 0.8918452
000240 1c 4a 9e be 81 93 18 ba 13 89 5c bf 00 95 e4 be
       -0.30915916 -0.00058203196 -0.8614666 -0.44644928
000250 c1 db db 3e c2 04 39 3f ef c1 80 3f 7f 01 b2 be
       0.42941096 0.72272885 1.0059184 -0.34766766
000260 92 93 26 3f 4c ba 94 bf 93 a9 51 bf 64 f7 8b 3e
       0.65068924 -1.1619353 -0.81899375 0.27337182
000270 64 35 06 bf 53 53 9b 3f eb 41 55 bf 0d 8d e5 3e
       -0.5242522 1.2134804 -0.8330371 0.44834176
000280 85 b2 d2 3e 3f d1 07 3e f8 c1 d3 bd b8 b4 1c 3f
       0.41151825 0.13263415 -0.10339731 0.61213255
000290 45 e3 7a be 4f 5c 9f bf fb 2a a5 be cf 04 1a bf
       -0.24500759 -1.2450045 -0.32259354 -0.6016359
0002a0 0e cb 8a bf bf e4 27 bf 58 06 88 3e f9 61 ed 3f
       -1.0843217 -0.65583414 0.2656734 1.8545524
0002b0 c3 d1 1e bf 21 ff d6 3e de 53 b6 3f 47 c1 a2 3e
       -0.6203882 0.41991523 1.4244344 0.31788084
0002c0 e3 f8 ba bf 57 82 0c 3f 4f b8 76 bf 8d bf 90 3f
       -1.4607204 0.5488638 -0.9637498 1.1308457
0002d0 10 1c 95 bf a4 5e 17 bf 89 a7 64 be 4c 9c 11 3f
       -1.1649189 -0.59128785 -0.22329535 0.56879115
0002e0 90 46 9a bf 1d 48 ad bd b4 1c 9c 3f 0b 08 6b bf
       -1.2052784 -0.0846102 1.219626 -0.9180915
0002f0 c1 45 ae bf dd ba ca 3e 1d 85 0d 3f 21 fd 3e bf
       -1.3615037 0.3959569 0.5528124 -0.74604994
000300 0e 86 69 3e 5b 0b 1b 3f f6 3f 95 3e 36 e2 e9 3e
       0.22805044 0.605642 0.2915036 0.45680398
000310 54 d6 19 3f 09 2a 1b 3e 2b 5a f9 3e b6 39 fc 3e
       0.60092664 0.15152754 0.48701605 0.4926278
000320 e2 6f 58 be 33 e0 61 bf 4d 34 b0 bf 3c b1 79 be
       -0.2113643 -0.88232726 -1.3765961 -0.24384016
000330 02 0c 03 40 dd 18 fd 3e 46 e6 e2 3e f7 c0 b8 3f
       2.047608 0.49433032 0.4431631 1.4433888
000340 22 d5 45 bf de 41 04 bf a8 3f 7c be 08 30 c2 3f
       -0.7727834 -0.51663005 -0.24633658 1.5170908
000350 64 c2 0e bf f5 3b 01 bf 4d 6d cd bf 1b 89 50 3f
       -0.55765367 -0.5048211 -1.6048981 0.81459206
000360 67 c0 e1 be a9 18 5b be f8 2c c5 be 38 e1 a2 3e
       -0.44092104 -0.21396126 -0.3851087 0.31812453
000370 c9 bd b5 bf db 45 b8 be 1b 40 9e 3e 1e 06 a0 3e
       -1.4198543 -0.35990795 0.30908284 0.31254667
000380 67 5a a9 3f 21 29 69 3e 1c 1b ff 3e b6 b3 ea 3e
       1.3230714 0.22769596 0.4982537 0.45840234
000390 47 ee cb 3e ab 10 c3 bc 4f c6 68 bd 83 a0 1f 3f
       0.3983023 -0.023811659 -0.056829747 0.62354296
0003a0 df db 82 be 29 04 10 3f 11 d8 aa 3f 53 85 a9 3e
       -0.25558373 0.5625635 1.3347188 0.3310953
0003b0 43 28 bb 3e 95 89 e5 be ee 2b 9c be ad 64 0f be
       0.36554155 -0.4483153 -0.30502266 -0.14003249
0003c0 32 a6 4e be 6d 2e 04 3e cd 0a e8 be b3 03 18 3f
       -0.20180586 0.12908335 -0.4532074 0.59380645
0003d0 c1 be 0f 3f 6a 74 53 3f d3 61 67 bf cb 4d ec bd
       0.5615044 0.8259951 -0.9038364 -0.11538275
0003e0 82 c4 44 be b0 93 2b 3f 8c b2 f5 be f3 6c 51 3f
       -0.19215587 0.6702223 -0.47987783 0.8180687
0003f0 f4 8b 6c be b9 c6 29 bc d8 13 9f bf e2 2b 82 3e
       -0.23100263 -0.010362321 -1.2427931 0.25424105

lstm.bias_ih_l0 f4 [40]
000000 72 25 6d 3e ef e7 9a 3f 47 b4 ce 3d 98 6d ef 3e
       0.23158816 1.210203 0.10092979 0.467633
000010 5b 24 2d 3f 0e 94 2b 3f a7 42 50 3e ba 39 06 3f
       0.676336 0.6702279 0.20337926 0.52431834
000020 60 f4 70 3d 1d fc 83 3f 0c f5 06 3f 5e 3a 2b 3f
       0.058826804 1.0311314 0.5271766 0.66885936
000030 03 91 a1 3e 59 6f 18 be fc 8f 48 3e 8d 01 f3 3c
       0.31555948 -0.14886226 0.19586176 0.029663825
000040 45 ca 59 3e 78 61 11 3f db 1a 12 3d 8f 78 63 3e
       0.21268566 0.5678935 0.035670143 0.22213958
000050 d0 75 34 bf a3 b0 e0 3e 31 d1 3b 3e 0e 2f 08 bc
       -0.7049227 0.43884763 0.18341519 -0.008312
000060 35 e9 19 3e d4 d3 71 3e 64 4f 30 3e 85 b3 24 be
       0.15030368 0.23615962 0.17217785 -0.16084106
000070 a2 14 9e be 05 be 60 be 66 92 54 3e 82 b0 82 3f
       -0.30875117 -0.21947487 0.20758972 1.0210116
000080 9b 1b 36 3f ec 79 6a 3f 1c 52 8f 3f 6b c5 2d 3f
       0.7113587 0.9159229 1.1196933 0.6787936
000090 dc 4c b8 3f 91 e6 37 3f 8f 5c 8c 3e 0f d8 22 3f
       1.4398456 0.7183619 0.27414367 0.6361093

lstm.bias_hh_l0 f4 [40]
000000 77 7b 92 3e a7 8e ae 3f 3f 39 ef 3e 25 56 fe 3e
       0.2860982 1.3637284 0.46723363 0.49675098
000010 7f da fa 3e 93 1b 5d 3e 63 dd 81 3e 2a bd 96 3e
       0.48994824 0.2159255 0.25364217 0.29441196
000020 32 f4 b1 3d d7 76 63 3f 46 9a b8 3e 2b 36 4a 3e
       0.08689155 0.8885321 0.360552 0.19747226
000030 b2 0c 5c bd aa 43 ee be 2b 2a 35 3e 3d 88 3a 3e
       -0.053723045 -0.46536 0.17691867 0.18216033
000040 e7 13 54 3f 56 2a 10 3e 92 38 8d 3e 83 c1 ec 3d
       0.8284287 0.1407865 0.27582222 0.11560347
000050 5e fd bf be 80 86 5b 3e 74 90 80 be 1a 3d 4e 3c
       -0.3749799 0.21438026 -0.2511021 0.01258781
000060 0c fd 6d bd 46 aa 59 3e 65 f7 1d be 06 21 88 3e
       -0.058102652 0.2125636 -0.15426405 0.26587695
000070 f2 a9 c3 3d 44 02 96 be f1 29 90 3e f9 df 90 3f
       0.09553899 -0.29298604 0.28157 1.1318351
000080 f6 0d 0d 3f 18 57 2e 3f f0 6e a9 3f 98 e3 25 3f
       0.5509943 0.68101645 1.323698 0.64800406
000090 82 ea f4 3f da c4 06 3f a3 26 08 3f e2 e5 79 3f
       1.9134066 0.5264412 0.53183955 0.976164

hidden_layer.weight f4 [10, 20]
000000 f5 48 79 3f 28 a5 9e be c9 1b 70 bf 8d 0f 73 be
       0.9737695 -0.3098538 -0.93792397 -0.23736401
000010 fc 53 c6 3e 8c 0a 33 be 16 6c b4 be f2 af 50 3e
       0.3873595 -0.17484492 -0.35238713 0.20379618
000020 22 6d cd be 3a de 79 39 07 e0 0b bd ae 30 2b bd
       -0.40122324 0.00023829276 -0.034149196 -0.04179447
000030 07 98 c9 3e a3 b8 23 3f 81 97 05 be 14 18 80 3c
       0.393738 0.6395361 -0.13046075 0.015636481
000040 65 3f 7b 3e e1 39 32 3e 3f 44 64 3f b6 93 61 3e
       0.24535902 0.17404892 0.89166635 0.22029004
000050 d3 5b 86 3f 2a fc b6 3e 3a c8 00 be 95 cf 91 3f
       1.0496773 0.3573926 -0.1257638 1.1391474
000060 30 54 1d be 38 9e 42 3f df ee a8 bc 1e 66 ac 3e
       -0.15364146 0.7602267 -0.020621715 0.3367166
000070 f5 93 a7 bf 67 ee 42 3f bf 91 53 bf e1 14 66 bc
       -1.3092028 0.76145023 -0.82644266 -0.014043064
000080 ba e2 50 3f 90 18 b5 3e 76 ed 4f bf 4e 16 51 bf
       0.8159596 0.35370302 -0.8122171 -0.8167466
000090 cb b0 51 3f 5b 81 d2 3e 04 a4 8b 3b 70 de 03 3f
       0.8191039 0.41114315 0.0042614955 0.5151129
0000a0 9c 2b 64 bd f6 d1 49 3f b9 8b 4d bf d4 d3 2d be
       -0.05570565 0.78836 -0.80291325 -0.16975337
0000b0 e5 b3 fe be 62 3a 68 3b c5 23 15 bf 95 41 3b 3f
       -0.49746624 0.003543519 -0.58257705 0.73146945
0000c0 7a 98 50 3f f6 73 f0 bd 4f 11 c3 bf ea 77 cb bd
       0.8148266 -0.11740868 -1.5239657 -0.09934981
0000d0 a0 95 8b bf 8f 0e a4 be a7 ee 88 be d3 86 1a 3f
       -1.0905037 -0.32042357 -0.26744577 0.60361975
0000e0 9f 8b 2c bf 87 bd 4b bd 0d 65 fe 3d 04 f6 16 bd
       -0.67400545 -0.049741294 0.12421618 -0.036855713
0000f0 4b 06 55 bf 04 c0 31 bf 28 4c bf bf 34 25 67 bd
       -0.8321273 -0.6943362 -1.4945116 -0.056431964
000100 fe 90 9a be b4 2c 98 bf 7a f5 87 be 6c cc 00 3f
       -0.30188745 -1.1888642 -0.2655447 0.50311923
000110 f4 03 8e 3f 42 39 0d bf 87 20 11 bf 65 6c 1b bf
       1.1094956 -0.55165493 -0.5669026 -0.6071227
000120 6e b8 8e 3d 28 76 27 3e d0 bf 70 3f 85 3b 12 bf
       0.06968771 0.16353667 0.9404268 -0.5712207
000130 b1 3a d3 bf 80 4b 8a bf 4c 3b 73 3f 37 39 69 3f
       -1.6502286 -1.0804291 0.95012355 0.9110293
000140 74 b4 fc 3d 6d 9a f2 be 43 f3 78 bd f6 c9 94 be
       0.12339106 -0.47383443 -0.060778867 -0.29060334
000150 e1 d9 b8 be 40 18 e4 bf 5b 96 12 bf d2 61 e1 be
       -0.36103728 -1.78199 -0.57260674 -0.44019943
000160 25 cf 81 3f 85 34 df be 65 54 36 be 29 ef cc bf
       1.014134 -0.43594757 -0.17805631 -1.6010486
000170 47 43 95 bd be c5 92 3e bd 67 49 be ba ed 2f 3f
       -0.07288223 0.2866649 -0.1966848 0.68722117
000180 ce b1 77 3f 72 58 79 3e cd 61 19 bf bb ee 82 3e
       0.96755683 0.24350145 -0.5991486 0.25572762
000190 a8 79 a0 3f eb a8 e0 3e 6c fb 44 bf c0 6f 95 3f
       1.2537127 0.43878874 -0.7694614 1.1674728
0001a0 73 34 03 bf a6 69 8a bf c0 d1 ba be cd a4 c2 3e
       -0.51251906 -1.0813491 -0.36488152 0.38016358
0001b0 e9 7e 27 be 96 af c5 3e bd 00 a7 bf 25 c6 4a 3f
       -0.16357006 0.38610524 -1.30471 0.79208595
0001c0 f4 29 dc be 5e f9 eb bd 46 1c 48 be 62 c4 37 bd
       -0.43000758 -0.115221724 -0.19542035 -0.04486502
0001d0 f2 0c 0b 3e 5b 17 d5 3b 94 6e c5 3d 70 07 bc bf
       0.13579157 0.0065030283 0.09640232 -1.468977
0001e0 ac 0d 93 bf 76 d7 a2 be 3b f5 64 3f 04 71 2b bf
       -1.1488547 -0.3180501 0.8943669 -0.66969323
0001f0 25 eb 11 3e 7e 40 ef be 85 24 f2 3d 3a d0 b1 be
       0.14249857 -0.4672889 0.11823372 -0.34729177
000200 08 ac a5 bc 53 0c 98 bf 12 65 a4 be 35 85 1c 3f
       -0.020223632 -1.1878761 -0.3210836 0.6114076
000210 a3 c9 e2 3e 2d 71 20 3f 46 8b 79 3e dc 16 45 bf
       0.44294462 0.6267269 0.24369535 -0.76988006
000220 12 c2 59 bf b0 3e b4 bf 3c ea e9 3e 81 e6 02 bf
       -0.8506175 -1.4081631 0.4568652 -0.5113297
000230 88 b1 96 3b 23 5a db 3e d1 36 43 bf 82 6d 17 3f
       0.0045988 0.42842206 -0.7625552 0.5915147
000240 8b 37 0c 3f 65 14 82 bd 38 d3 db be 16 73 7d bf
       0.5477225 -0.06351546 -0.42934585 -0.9900373
000250 27 08 2a 3f 85 60 a4 bd 7f 6c ce 3e 7d f7 5b be
       0.6641869 -0.08026222 0.4031715 -0.21481128
000260 78 a6 11 3f 9c 0a d5 3e d6 7c ac bf 1b c8 9e bf
       0.56894636 0.41609657 -1.3475597 -1.2404817
000270 5b 76 fc be 9e 88 f0 be 08 67 04 3f d6 58 2d bf
       -0.49309048 -0.4697923 0.51719713 -0.6771368
000280 44 1f 91 bf 6b b5 44 be 92 48 b3 3f 5e cb 1f bf
       -1.1337667 -0.1920983 1.4006522 -0.6241969
000290 19 33 91 3c 00 04 53 bf 77 94 78 3f 05 52 39 3f
       0.01772456 -0.8242798 0.9710154 0.72390777
0002a0 79 16 09 bf e2 dd e1 3e f9 d2 e1 bc fe 59 60 bf
       -0.53549916 0.44114596 -0.02756642 -0.8763732
0002b0 e4 88 8c 3e ba c6 51 3f cc 5c 07 3d fd ec 5e bf
       0.2744819 0.8194386 0.033047482 -0.87080365
0002c0 ec 6c 48 3f 37 6c 12 bf 08 aa aa 3d 15 fc eb 3d
       0.782912 -0.5719637 0.08333212 0.1152269
0002d0 89 8e b0 3f 19 de 85 3e c8 45 21 bf 92 4b 2a be
       1.3793498 0.2614601 -0.629971 -0.1663039
0002e0 89 a0 44 3e db 7c 33 be f3 ad a0 bf 45 56 b0 bf
       0.19201864 -0.17528097 -1.2553085 -1.3776327
0002f0 6b be cf be f4 5f b1 be 43 57 3e bf ce b2 59 bf
       -0.40574965 -0.3464352 -0.743519 -0.8503846
000300 f7 af 95 3e ef 45 81 3e c0 27 ad bf 25 9b 07 3d
       0.29235813 0.25248668 -1.3527756 0.03310694
000310 75 86 8c 3f 63 be a1 3e 4d 35 97 be 58 e2 3b 3f
       1.0978533 0.31590566 -0.29532853 0.7339225

hidden_layer.bias f4 [10]
000000 97 54 52 bf 19 15 4a be e6 ff 0c 3e 8e a9 0f be
       -0.82160324 -0.1973461 0.13769493 -0.14029524
000010 46 fa a4 be c9 ce 8e be 2b 29 23 3d 4a 82 32 bf
       -0.32222193 -0.2789214 0.039834183 -0.69730055
000020 9d 67 06 be 2f 54 aa 3d
       -0.13125463 0.08316838

output_layer.weight f4 [1, 10]
000000 f8 e5 89 3f 0f ab fd 3f 40 86 97 3f ab 55 89 c0
       1.0773306 1.9817828 1.1837845 -4.2917075
000010 18 21 0d 40 ff c0 16 c0 f9 34 b3 3f d0 d1 04 40
       2.205145 -2.3555295 1.4000541 2.075306
000020 6e 7c cf bf 19 06 e4 bf
       -1.6209848 -1.7814361
