pair_sampling/emb_mds/model_emb3.pt (torch_old, 5253 bytes, 8 tensors)

embedding.weight f4 [21, 3]
000000 00 00 00 00 00 00 00 00 00 00 00 00 0f b9 00 40
       0.0 0.0 0.0 2.011295
000010 06 34 fd be 10 a8 89 bf 5e 1a 1a 3f 37 73 18 3f
       -0.49453753 -1.0754414 0.60196483 0.59550804
000020 4b 5b da 3f b9 d0 11 c0 b0 0b 0c bf d6 48 60 bf
       1.705911 -2.2783644 -0.54705334 -0.8761114
000030 f3 e7 86 c0 fa 86 76 40 af 2a d5 3f 2d 72 87 bf
       -4.215814 3.8519883 1.6653651 -1.0581719
000040 7f 69 42 be e8 7c 5a 40 9f 41 68 3f 57 15 4d 3d
       -0.18985556 3.4138737 0.9072513 0.05006918
000050 54 2d 45 40 ee 60 95 bf 8f 39 87 3c b7 09 c9 3e
       3.0808916 -1.1670206 0.016506938 0.39265224
000060 5f 2c f7 be a6 79 02 40 42 c0 4e c0 02 96 97 bf
       -0.4827604 2.0386748 -3.2304845 -1.1842654
000070 46 75 15 c0 51 42 9e be a5 a0 ab bf 79 f6 ee be
       -2.3352828 -0.3090997 -1.34084 -0.4667242
000080 96 92 e0 3f 7c 2c 4a 3f f2 47 be 3e 8b a1 99 bf
       1.7544734 0.7897413 0.37164265 -1.2002424
000090 e8 f2 7a bf d7 8e fa bf f8 cd 42 c0 51 94 99 bf
       -0.98026896 -1.9574841 -3.0438213 -1.1998388
0000a0 a3 64 c9 bf 3d 7a 93 bf 89 83 aa 3e 0e 0d e9 bf
       -1.5733837 -1.1521679 0.33303478 -1.8207109
0000b0 05 4f 49 be 93 40 26 c0 87 8e 0c c0 ad a9 6c bd
       -0.1965905 -2.5976913 -2.1961992 -0.057779003
0000c0 ae 90 fb bc 57 f5 0d bf c9 fe 82 bc c1 a9 e6 3f
       -0.030708637 -0.55452484 -0.015990632 1.8020555
0000d0 79 d2 12 c0 cb 11 d6 bf 69 5b 00 40 df f9 82 40
       -2.2940962 -1.672418 2.0055792 4.093002
0000e0 25 f4 cd bf f3 f0 c6 be 75 f7 63 3f f4 9a c9 3f
       -1.6090132 -0.38855705 0.89049464 1.5750413
0000f0 d5 aa d5 bf 04 5f 9a 3e 75 95 21 c0
       -1.6692759 0.30150616 -2.5247471

lstm.weight_ih_l0 f4 [40, 3]
000000 29 55 23 3f 51 9b 92 3e 22 b3 80 bf 9e f8 0f bf
       0.6380182 0.28634122 -1.0054667 -0.56238735
000010 1a df 9a 3e 9c d6 29 3d 42 d2 d8 3e ea bf d0 bd
       0.30248338 0.041464433 0.42347914 -0.10192855
000020 15 5c 91 bf fe a3 ba 3e b2 5d f6 bc 58 fd cb be
       -1.1356226 0.3645324 -0.030073974 -0.39841723
000030 f1 3d 99 3e 06 f0 27 3f f0 73 1c bd 7a 70 ed bf
       0.2993007 0.6560062 -0.038196504 -1.854995
000040 78 48 64 3e 8c fd d0 be 8e 6d d5 3e 86 ea 1e bf
       0.2229327 -0.4081844 0.41685146 -0.62076604
000050 64 48 74 3e 00 f0 b3 3f d0 14 40 bf 32 ef 3e 3d
       0.2385574 1.4057617 -0.7503176 0.046614833
000060 b7 c8 8f 3f 18 44 29 3f 7d 6b 7b be 52 d4 81 3f
       1.1233128 0.6611953 -0.24552722 1.014292
000070 ac 10 d4 3e 85 78 ec be ab 48 94 3f 2a 26 92 bf
       0.4141897 -0.461857 1.1584677 -1.1417897
000080 4d c6 a8 be ec aa bc 3e 53 34 25 be 57 c5 6f bf
       -0.3296379 0.36849153 -0.16133241 -0.9366049
000090 b1 c2 51 bf b9 32 17 3f 2b 61 f6 3b b9 c2 b9 3e
       -0.819377 0.5906177 0.0075189075 0.36281374
0000a0 36 f6 9f be 31 48 60 bf 5e 1a 3a 3e 24 21 eb 3d
       -0.31242532 -0.87610155 0.18174121 0.114809304
0000b0 96 6d 3a bf 7e 76 99 3e 9e 2e db 3e d4 71 cd 3e
       -0.72823465 0.29973215 0.42809004 0.40125906
0000c0 fa 5a 1d bf 11 69 e5 3d 47 e0 bb 3e 0d 0f a4 3d
       -0.61466944 0.112016805 0.36694548 0.08010683
0000d0 1a 75 87 bf 04 2f 5f bf f8 0a 3d 3f 11 ea 03 3d
       -1.0582612 -0.87181115 0.7384486 0.032205645
0000e0 c2 ab f8 be 88 50 c5 3f c3 8d 9a bf f9 05 15 3e
       -0.4856854 1.5415201 -1.2074512 0.1455306
0000f0 e4 6c 9a 3f 25 ed 33 bf d7 21 f1 3d d8 b7 aa 3e
       1.2064481 -0.7028373 0.117740326 0.33343387
000100 ef 4a 5d bd 07 e5 26 bf 8d 2e 9c 3d aa 4d c3 be
       -0.05402654 -0.6519322 0.07626066 -0.3814519
000110 81 02 1a be 69 f1 a5 3d d2 27 a7 3d 4b 66 37 bf
       -0.15040018 0.08102686 0.08161892 -0.7164046
000120 fc 59 11 bf 17 3e 96 3e f3 dc 42 3e eb 75 87 bf
       -0.5677793 0.29344246 0.19029598 -1.0582861
000130 0f aa c9 3a 0b 89 f9 bf 19 19 c2 3f 58 2e 1f 3f
       0.0015385764 -1.9494947 1.5163909 0.6218009
000140 d3 16 26 be 65 21 b4 3e d1 b6 c9 be 83 b4 16 bf
       -0.16219644 0.35181728 -0.3939729 -0.5886919
000150 98 d0 8c 3f c7 9d 06 3f 0a ec a4 3e c3 ce d9 bf
       1.1001158 0.525845 0.32211334 -1.7016224
000160 fd 3c ff 3e 35 46 5b 3d 99 40 d9 be 7e 93 bb bf
       0.49851218 0.05353375 -0.42432097 -1.4654386
000170 dd 0d 3c bc 69 c0 6d bf 1d fb bb 3e 10 f6 90 bf
       -0.011477915 -0.9287172 0.36715022 -1.1325092
000180 e9 88 b0 bd 75 32 02 be 31 b3 23 3f e4 59 c8 3e
       -0.086198635 -0.1271456 0.639453 0.3913108
000190 27 3f fb be 6c 3d ed bd 48 8b 30 3f 51 ea da 3e
       -0.4907162 -0.11583981 0.68962526 0.42756894
0001a0 88 4d 13 bf eb 9c e7 bf 23 47 00 bf 01 b2 7b 3e
       -0.5754018 -1.8094763 -0.50108546 0.24579622
0001b0 39 cd bd 3f 9c 42 0d bf 1b e9 8e bf b6 d9 1e 3f
       1.4828254 -0.5517976 -1.1164888 0.6205095
0001c0 fe 89 5b be 38 2a c3 3f 3f d1 b9 bd b0 99 b8 be
       -0.21439359 1.5247259 -0.09073114 -0.36054754
0001d0 e5 68 cd be 1e be e6 3e 5f 60 e7 3c 9f c3 87 bf
       -0.4011909 0.45066923 0.028244196 -1.0606574

lstm.weight_hh_l0 f4 [40, 10]
000000 51 03 ec 3e 9c 8f 38 bf bf ce 1a bf 6a ee d4 3d
       0.4609628 -0.7209413 -0.6047172 0.103970364
000010 3a a4 4e bf 52 55 80 3f 5b d7 3f be d3 2c 60 bd
       -0.8071934 1.0026038 -0.18734495 -0.054730248
000020 98 b0 b4 bf bc 86 e2 bf 75 49 c2 be 82 95 30 3f
       -1.4116392 -1.7697368 -0.37946668 0.6897813
000030 ea d4 c1 3f c3 97 18 3f 00 f8 9b bf aa 6f e2 3f
       1.5143101 0.5960657 -1.2185059 1.7690327
000040 9e 45 46 3f 05 0e 0f 40 0b 63 33 3f 29 67 e8 be
       0.7744998 2.2352307 0.70073 -0.45391205
000050 88 ca 0b 40 42 d3 5a 3d 70 ba 88 3f 4d 4f 10 40
       2.1842365 0.053424127 1.0681896 2.2548401
000060 e9 25 61 bf 4c 97 fa 3f e5 0c 35 bf c9 4e 36 3f
       -0.8794847 1.9577422 -0.707228 0.71213967
000070 e3 79 04 3e 92 15 10 3e ce 75 3e 3e 82 91 4f bf
       0.12937121 0.14070728 0.18599626 -0.810814
000080 a1 29 f3 be 1d b2 17 40 4f a0 b9 3f 79 c0 a1 be
       -0.47492698 2.3702462 1.4502047 -0.31592157
000090 99 bd b4 be 0a 44 fb 3f 0c 82 f5 bf 9f c8 bf 3f
       -0.35300902 1.9630139 -1.9180312 1.49831
0000a0 34 99 0a bf df 52 83 3d a8 50 f2 3e 3c 3f 5c bf
       -0.5414002 0.06412291 0.4732716 -0.8603399
0000b0 b1 14 15 bd ed d8 33 3e 40 ef a5 be 96 20 86 3f
       -0.036396686 0.1756322 -0.32409096 1.0478694
0000c0 78 99 49 40 98 9e b2 bf b4 5d 47 c0 3d 3c 52 3f
       3.149992 -1.3954649 -3.1150942 0.82123166
0000d0 c5 a9 41 bf 76 c5 ac 3f 2c e8 33 bf 0a bb 3e 3f
       -0.7564967 1.349776 -0.7027614 0.7450415
0000e0 7c 2b a3 3f d7 66 aa bd a6 33 3c 3f 23 41 cf 3f
       1.2747645 -0.083203964 0.7351631 1.6191753
0000f0 48 be a4 3f f8 94 43 3f 00 99 45 bf e0 1d 9e 3f
       1.2870569 0.76399183 -0.77186584 1.2352867
000100 b0 83 a0 bf e0 71 b4 be 16 a6 e7 3e 98 f9 37 3d
       -1.2540188 -0.3524313 0.452439 0.044915766
000110 a7 46 03 bf f4 bf 12 bf 3a a5 8b 3f 9f 3d 1b 40
       -0.5127968 -0.5732415 1.0909798 2.425636
000120 aa 4a 7e 3f 02 7e b1 3f 6c b5 0a c0 b5 03 19 3d
       0.9933268 1.386658 -2.167323 0.03735705
000130 38 6c cb bd e8 14 16 3f e5 7a 7d 3f 35 55 b8 bf
       -0.099327505 0.5862565 0.9901565 -1.4401003
000140 08 1c 6b 3f 91 dd b4 bf b1 42 89 3e 98 25 7d 3e
       0.9183965 -1.4130117 0.26808694 0.24721372
000150 c7 72 de bb 21 55 92 3f 49 38 ac bf 24 03 7c bf
       -0.006788585 1.1432229 -1.3454677 -0.9844229
000160 4f 01 86 3e 6e 2d 13 c0 c1 dd 0e 40 f9 7f 44 bf
       0.26172873 -2.2996478 2.2322848 -0.7675777
000170 f0 c1 4e 3f 6e 40 0b bf 9a 14 ff 3d cd 89 35 3e
       0.80764675 -0.54395187 0.12455101 0.17728348
000180 34 19 cb 3f b8 28 8d bf b7 5a 6d 3d 9a fd 3f c0
       1.5867066 -1.1028051 0.05794784 -2.9998536
000190 14 21 e5 3d fe b8 29 be 93 bd ce be 3e d5 db 3d
       0.1118795 -0.16574475 -0.4037901 0.10734032
0001a0 60 ec 55 3f 24 b8 98 3e 23 6a 46 3e dd 66 4f 3e
       0.83563805 0.29827988 0.19376425 0.20254083
0001b0 d0 d4 29 bf ca 84 66 bf 2c e7 f8 3e 09 b5 c2 bd
       -0.6634035 -0.9004637 0.4861387 -0.09507186
0001c0 a6 28 93 3f d5 80 9d be e0 bc 88 bc 83 86 a5 3d
       1.149678 -0.30762354 -0.016691625 0.08082297
0001d0 99 4d a2 3f 0c bc 36 bf 47 83 39 3f 10 9e d9 be
       1.2679931 -0.71380687 0.7246594 -0.42503405
0001e0 96 40 19 3f 8b 13 96 3f 83 0f 39 3f 7a 56 87 3e
       0.59864175 1.1724714 0.72289294 0.26433164
0001f0 7b 94 bb be 9b cd c1 3f 01 ba 57 3f cf ce 28 be
       -0.3663672 1.5140871 0.84268194 -0.16485141
000200 6b 29 22 bf 4d 4d ec 3f b6 e9 1b 3f 85 79 3f 3f
       -0.6334445 1.846109 0.6090349 0.747948
000210 07 ae 83 be e8 72 93 3e fd 99 5f bf 2f 77 aa bf
       -0.2571871 0.28798604 -0.8734434 -1.3317622
000220 bf 6d 43 3e 13 d0 b1 be 30 4c e9 bd 27 45 cf 3e
       0.19084834 -0.3472906 -0.11391485 0.40482447
000230 76 e8 23 be 1d 17 d0 be 11 90 00 be b3 44 79 be
       -0.16006646 -0.40642634 -0.12554957 -0.24342613
000240 60 42 d1 be 7c e4 22 bf f0 d4 9e be b4 e1 e9 be
       -0.40870953 -0.6362989 -0.31021833 -0.4568001
000250 8c 91 8a bf bd 78 22 3f fa e7 b2 be 7e 0e d8 3f
       -1.0825667 0.6346548 -0.3494261 1.6879423
000260 0c 28 f9 3e 2e 72 49 40 64 84 0e bf b6 0c 18 3f
       0.48663366 3.147594 -0.5567076 0.59394395
000270 cb 94 ed bd cb b8 e0 be 07 a6 91 bf e1 98 44 3e
       -0.11600646 -0.43890986 -1.1378793 0.19198944
000280 16 15 16 bf c2 21 a7 3d a2 d4 fb 3e 05 d9 d4 3d
       -0.58625925 0.08160736 0.49185663 0.10392956
000290 23 69 86 be 05 40 10 be 4b 06 b9 be 52 8d 96 3d
       -0.26252088 -0.14086922 -0.36137614 0.073511735
0002a0 03 d9 1e bf 78 87 1b bd f8 6a 04 3f f6 f9 90 3d
       -0.62049884 -0.03797099 0.5172572 0.07078926
0002b0 3f 85 45 3e 0f 4e 16 bf 54 e9 43 3f 59 d1 59 3e
       0.1928911 -0.5871286 0.76527905 0.21271266
0002c0 6a b4 83 be 37 cd cc be d9 e0 55 bd 53 37 09 3f
       -0.25723583 -0.40000317 -0.052216385 0.53600043
0002d0 fd c3 b3 be d8 93 37 bf c4 72 10 3f 87 5e e1 3e
       -0.35110465 -0.71709967 0.5642512 0.4401743
0002e0 23 44 fd 3d 7b c3 fe bd 6c 41 15 3e 40 c0 09 3f
       0.12366512 -0.12439629 0.14575738 0.53808975
0002f0 e1 3c 55 bf 0a 78 0b bf 1f 49 a0 3e 76 64 44 bf
       -0.8329602 -0.5448004 0.31305787 -0.7671579
000300 4a 34 67 3f 20 0f 97 3d fc 3b fa bd 56 d0 fc 3e
       0.9031416 0.07375932 -0.12218472 0.49377698
000310 c3 d1 4d be 43 0a c9 3f 71 84 ef be cd 6f b0 3e
       -0.20099549 1.5706257 -0.46780732 0.34460297
000320 f6 e2 3f 3f f3 9e 2a 3e f2 e8 11 3e ed d6 c6 3f
       0.7495569 0.16662197 0.14249018 1.553434
000330 b3 73 17 3f 38 82 9e 3e d0 23 44 3f 25 83 9d be
       0.5916092 0.30958724 0.76617146 -0.30764118
000340 0b fa 87 bf a7 ae ec 3d ba 7d c3 be 9f 70 d5 3e
       -1.0623182 0.1155675 -0.3818186 0.41687486
000350 2f e1 79 bf 0b 90 14 3e 42 a7 a1 be 0d 95 46 3e
       -0.9760923 0.14508073 -0.3157292 0.19392796
000360 af 9b fb 3e eb 6d 82 3f 0a 5f e0 bd 83 c3 9d 3e
       0.49142215 1.0189794 -0.10955627 0.30813226
000370 a7 08 8a bf f4 06 15 40 be 9c e7 bd e1 bb ba be
       -1.078389 2.3285494 -0.11309193 -0.36471465
000380 fe 93 3e bf 8b 04 9a 3e 52 a8 23 3f 08 12 4e 3e
       -0.7444457 0.3008159 0.6392871 0.20124066
000390 fa 44 55 be 5e 24 b5 bd 30 58 1f 3f 95 70 96 be
       -0.20827094 -0.08844827 0.6224394 -0.29382768
0003a0 34 e2 0b be 86 d1 c1 3f c5 d0 5f 3e dd a4 83 bf
       -0.13660508 1.5142066 0.21856983 -1.0284687
0003b0 13 41 4a bf 09 3a e6 be 16 ac 4d 3e 1d 89 4c bf
       -0.79005545 -0.44966152 0.20085177 -0.7989672
0003c0 35 62 d2 be 51 39 64 3f 95 ad 39 3f d4 6b 82 3e
       -0.4109055 0.8914996 0.7253049 0.2547289
0003d0 54 4e 79 3e 61 1e c9 be b5 51 71 3f 71 f6 33 3f
       0.24346286 -0.3928099 0.942653 0.70297915
0003e0 9b 05 53 3f d1 a5 50 3f dc 19 54 bf 2a ec 18 bf
       0.8243043 0.81503016 -0.8285196 -0.5973536
0003f0 b9 85 c5 be 9d 31 2e 3f 43 aa d6 3e c1 da b2 3f
       -0.38578585 0.68044454 0.41926774 1.3973008

lstm.bias_ih_l0 f4 [40]
000000 83 d8 38 3f 2a a6 45 3f 36 55 15 3f f7 60 bf 3f
       0.7220537 0.7720667 0.58333147 1.4951466
000010 40 8d a3 3f 9e a8 6b 3f ce 1a 6f 3f f7 b0 91 3f
       1.2777481 0.92054164 0.93400276 1.138213
000020 41 bc 92 3e 2f a8 89 3e e6 13 f8 3e 6d 4c 95 3e
       0.2865925 0.26886126 0.4845268 0.2915987
000030 eb 71 87 3f f4 09 ab 3e 0e 3e d2 3e 6a 6a 48 3e
       1.058164 0.3340603 0.4106297 0.19571844
000040 5d b9 3d 3e dd 8b e5 3e 71 7e 9a 3d c1 21 66 bf
       0.18527742 0.4483327 0.07543648 -0.89895254
000050 73 eb 2d 3d 7f ac 9d bd a2 c2 25 3e 7b 6d a3 3d
       0.04246087 -0.07698917 0.16187528 0.07979866
000060 25 5e 6d bf e8 87 64 bd 1b b3 72 bd ad 25 85 3d
       -0.9272178 -0.055793673 -0.05925284 0.06501327
000070 f0 aa 22 bd 53 1e 0c 3e 0d 5e fd 3f 13 2e 8e 3f
       -0.0397138 0.13683443 1.9794327 1.1107811
000080 4d 81 fe 3e 25 e3 93 3f f3 68 37 3f fe 7b cb 3e
       0.49708024 1.1553694 0.71644515 0.39743036
000090 e8 d3 13 3c b4 34 32 3f ba 1c 13 3f fd 7e 40 3f
       0.00902269 0.6961167 0.5746571 0.7519377

lstm.bias_hh_l0 f4 [40]
000000 fe 81 89 3f ec 5d 34 3f 7f 0f b9 3e a9 83 8c 3f
       1.0742795 0.70455813 0.36144635 1.097768
000010 54 34 81 3f d1 2d 1d 3f 77 0f 8a 3f 50 49 b7 3f
       1.0094094 0.61398035 1.078597 1.4319248
000020 3c b1 f7 3e 00 46 db 3e a0 00 bf 3a 2a 40 c8 3e
       0.48377407 0.42826843 0.001457233 0.39111453
000030 42 16 86 3f 4d e6 78 be 04 3b af bd 61 c8 05 3e
       1.0475543 -0.24306603 -0.08556178 0.1306472
000040 be 2a d4 3e 76 a9 e9 3d d2 76 5d bd 66 43 68 bf
       0.4143886 0.11409275 -0.054068394 -0.9072784
000050 50 c7 8c 3d 0f 18 4d 3d c9 b9 2a 3e 45 dc ab 3e
       0.06873953 0.050071772 0.16672434 0.3356649
000060 b9 d5 41 bf 93 1a 07 bc b9 b1 1f 3e a8 a6 76 be
       -0.7571674 -0.008246082 0.1559514 -0.24087012
000070 f7 08 3e be 58 bf a2 3e ab 61 e3 3f 9a 2f 98 3f
       -0.18558107 0.3178661 1.7764181 1.1889527
000080 b8 c5 c9 3e a3 8a a6 3f f7 69 69 3f f3 1d 56 3e
       0.3940866 1.3011059 0.91177315 0.20909862
000090 f8 01 92 3e db 04 a1 3f 77 94 4b 3f e1 7f 03 3f
       0.28517127 1.2579607 0.79523414 0.51367

hidden_layer.weight f4 [10, 20]
000000 58 2c 34 bf b1 6b 87 3e 6f 7a d9 bf 12 fa 06 be
       -0.70380163 0.2644935 -1.6990489 -0.13181332
000010 c7 f3 e0 bd 5f d3 c5 bf 6e 71 9d bf 05 e9 de 3d
       -0.10983997 -1.545513 -1.2300241 0.10884289
000020 53 68 8e bf ac 03 74 be e0 a0 9b be 5a 0b ed 3e
       -1.1125587 -0.23829526 -0.30396175 0.46297723
000030 11 2b 9c 3e 25 cf a0 3e f6 82 83 3f f9 ff 43 be
       0.30501607 0.3140804 1.0274341 -0.19140615
000040 c1 e3 25 bf 55 22 a6 3e 9b 9a e1 be 88 bc 17 3e
       -0.6480065 0.32448068 -0.44063267 0.14818013
000050 97 ab 34 3f 34 ab 69 3f f8 a3 68 bd dc 04 f4 3e
       0.70574325 0.9127686 -0.056796998 0.47659957
000060 b4 84 89 3e 88 9c 00 3f 28 57 8e be 5b 69 0b bf
       0.26859057 0.5023885 -0.2780087 -0.54457635
000070 72 cd a7 3e a4 77 59 3c 60 e4 65 3f 4d f7 1f bf
       0.3277393 0.013273153 0.898016 -0.62486726
000080 30 7c 3b bf 46 93 e5 3e 9c a1 1d bf 2d c0 23 3e
       -0.7323637 0.44838923 -0.6157472 0.15991278
000090 ec ff 69 bf 30 27 b6 be 0a f3 a1 be 88 32 77 bd
       -0.9140613 -0.35576773 -0.31630737 -0.060350925
0000a0 7c 0c 08 3f 5e e7 26 3f d5 32 12 bf f8 db ce 3e
       0.5314405 0.6519679 -0.57108814 0.40402198
0000b0 60 c6 d6 3e bc 4a 0b bf 27 9f 89 3f f9 2a 5f 3d
       0.41948223 -0.5441091 1.0751694 0.05448434
0000c0 46 69 09 bf 48 b3 02 3c 65 a3 25 3d cb fc 3d be
       -0.5367626 0.007977314 0.04043903 -0.18553464
0000d0 9c a8 e3 3e ef 01 4f 3f 3d 63 6d 3e 54 ed 77 bf
       0.44464576 0.80862325 0.23182388 -0.9684651
0000e0 87 47 1f 3e bc 3a 35 3f 7e a8 95 bf 04 1f 05 3f
       0.1555463 0.70792747 -1.1692045 0.5200045
0000f0 3f 07 c7 3e ed cd 8b 3f f3 e5 89 be 40 e5 f0 3e
       0.38872716 1.0922219 -0.2693325 0.47049904
000100 2c 06 68 3d 18 eb ce bd 73 8a 7e bf 4d 2e 56 bd
       0.05664651 -0.10103434 -0.99430007 -0.05229025
000110 28 3e b7 be d6 69 e6 be 23 d3 ae 3e e2 7d fb be
       -0.3578961 -0.4500262 0.3414546 -0.49119478
000120 b1 11 8b be ad 67 eb 3e 94 a6 8f be b0 4e bd be
       -0.27161935 0.45977536 -0.28056777 -0.36974096
000130 c2 16 0c be 66 b6 1b be 6b 4b 53 bf e8 45 05 3f
       -0.13680556 -0.15206298 -0.82536954 0.52059793
000140 ff be b6 3e 17 15 37 3f 6c c1 35 bd b0 12 0f 3f
       0.35692593 0.71516556 -0.044373915 0.5588789
000150 0d 5d 18 bf dc 83 65 be 0b fb c5 bf 96 15 32 bf
       -0.59516984 -0.22413582 -1.5467237 -0.6956419
000160 97 8e 50 3e 93 f6 08 bf a4 90 1c 3f e7 c7 21 bf
       0.20366894 -0.5350124 0.61158204 -0.6319565
000170 8d c9 3f bf af 23 5e 3f 83 81 d9 3e 9d fd 8b 3e
       -0.7491692 0.867732 0.42481622 0.2734193
000180 d4 0e 7e bf b2 1a 02 be dd 01 10 bf ef 1d 20 bf
       -0.99241376 -0.12705496 -0.56252843 -0.62545675
000190 c8 8a 95 bd d3 fb 3e 3f 8b 0b 24 3f 06 bc 87 3e
       -0.07301861 0.74603003 0.64080113 0.26510638
0001a0 b5 2f c8 be 87 e2 4b 3f ee b1 df bf b5 72 32 bf
       -0.39098898 0.7964253 -1.7476175 -0.6970628
0001b0 14 57 87 be 69 2a bf be 8e 2f 8d be 04 08 86 bf
       -0.26433623 -0.37337044 -0.27575344 -1.0471196
0001c0 3a a9 c0 bf 1c c1 52 3e 76 64 2e 3f a2 34 bc 3e
       -1.5051644 0.20581478 0.6812204 0.36758906
0001d0 48 1c aa 3e b5 dd c3 be 19 db f2 3d d4 d1 25 3c
       0.33224702 -0.38255087 0.11858196 0.010120828
0001e0 b8 b7 c9 be 35 62 e3 ba 92 0f 93 be 23 ea 32 bd
       -0.3939798 -0.0017347994 -0.28722817 -0.04368032
0001f0 fc a9 3b 3f 00 87 32 3e 05 5d 01 bf c0 90 35 bf
       0.7330625 0.17434311 -0.5053256 -0.70923996
000200 56 4b 2d be 28 af 11 40 34 b9 d1 bd 24 6c dc 3e
       -0.1692327 2.2763157 -0.10240403 0.43051255
000210 8d dc ed 3e cc eb 02 bd 9b 6a 10 3f 11 f5 2b bf
       0.4645733 -0.031963155 0.5641267 -0.67170817
000220 1b 05 00 3f 7f 8d a6 3e 78 64 14 3f 78 a2 7f be
       0.5000779 0.32529828 0.57965803 -0.2496432
000230 4b 86 26 3f 01 12 3c 3f ab b4 de be 99 04 88 be
       0.65048665 0.7346497 -0.43497214 -0.26566008
000240 cb 64 a2 3e 87 86 40 bd e0 76 b9 bf d2 5b 04 bf
       0.31717524 -0.047003295 -1.4489403 -0.51702607
000250 a9 f5 92 be ca 53 89 bc a1 09 6e be 34 f3 ad be
       -0.2870305 -0.016763587 -0.2324586 -0.33974612
000260 4c 53 b8 bd cd bc 68 3e 91 f3 f7 bd 36 4f a9 3e
       -0.090002626 0.22728272 -0.121070035 0.33068246
000270 80 2e 82 be 3a d6 ce be 73 58 8b bf 6a 21 7a be
       -0.25426102 -0.40397817 -1.0886368 -0.24426809
000280 d5 ea 0e bd ed ad 8f 3e 95 72 41 bf 7c 13 45 be
       -0.034891922 0.28062382 -0.75565463 -0.19245714
000290 4a 08 88 bf 24 69 82 be 65 d3 bb bd 67 6d c3 be
       -1.062753 -0.2547084 -0.0917118 -0.38169405
0002a0 a1 b5 ba 3d 91 8c a8 3f a2 ce 73 bf a7 f3 43 3f
       0.09116674 1.3167897 -0.9523717 0.7654366
0002b0 1c 01 4e 3e a5 4f 83 bf fe 87 dc 3e 80 cf b9 be
       0.2011761 -1.025868 0.43072504 -0.36291122
0002c0 4a f0 64 3f 49 85 8f 3e 8c 9e 35 3f 25 7f 1d be
       0.8942915 0.28031376 0.7094505 -0.15380533
0002d0 8d 13 10 3e e3 f4 84 bd 0c dc 8a bc 75 24 14 bf
       0.14069958 -0.06492021 -0.01695063 -0.5786813
0002e0 78 23 a0 3e 4f 36 bc 3e 49 6f 81 3f da b1 c3 3e
       0.3127706 0.36760184 1.0112087 0.38221627
0002f0 75 8f 3e 3f de ff 67 3f ba 32 bc be 12 d3 76 3f
       0.7443765 0.906248 -0.3675745 0.9641582
000300 67 31 32 3f 36 47 62 bf 5a 64 9b be 95 cc d9 be
       0.6960663 -0.8838991 -0.3035 -0.42538896
000310 ee 5d 97 bd 05 9e cf 3d ef ff 1c 3f 35 40 d5 be
       -0.073909625 0.10137562 0.61328024 -0.4165055

hidden_layer.bias f4 [10]
000000 a5 e0 69 bf f4 62 96 3f bd 34 83 bd 57 4c 85 3f
       -0.91358405 1.1748948 -0.064065434 1.0413922
000010 4e 2e af bc b4 0c 29 bd 68 17 7f bf df ea 41 bf
       -0.021384384 -0.04127188 -0.9964509 -0.7574901
000020 18 1e 55 3e c6 25 c3 bd
       0.20812261 -0.09528689

output_layer.weight f4 [1, 10]
000000 02 89 87 c0 4c be a9 3f dc e9 06 c0 5b de 72 3f
       -4.2354746 1.3261199 -2.1080236 0.9487054
000010 32 f2 3f c0 45 bc 0e c0 72 1b 55 c0 8b 2c 08 c0
       -2.9991574 -2.230241 -3.3298001 -2.1277187
000020 6f e7 f5 3f 2c eb fa bf
       1.9211253 -1.9603019
