ignore.pt (torch_old, 112141 bytes, 21 tensors)

tcr_embedding.weight f4 [21, 10]
0	0x00000000	0.0
1	0x00000000	0.0
2	0x00000000	0.0
3	0x00000000	0.0
4	0x00000000	0.0
5	0x00000000	0.0
6	0x00000000	0.0
7	0x00000000	0.0
8	0x00000000	0.0
9	0x00000000	0.0
10	0x3ee172a9	0.4403279
11	0x3f5fec37	0.8746981
12	0x3f1453a4	0.57940125
13	0xbe79b4eb	-0.24385421
14	0x3fac80ba	1.3476784
15	0xbfb07610	-1.378603
16	0xbf037fc5	-0.51366836
17	0xbdf04cd0	-0.11733401
18	0xbfe1d475	-1.7642962
19	0xbf296722	-0.66172993
20	0xc009edd7	-2.1551416
21	0x3f230e27	0.6369347
22	0x3fa28a44	1.2698445
23	0xbf7a9ba3	-0.9789373
24	0xbf457a5d	-0.77139837
25	0xbee530b4	-0.4476372
26	0xbf373d58	-0.7157798
27	0xbf3e50d6	-0.74342096
28	0x3f5a0017	0.8515639
29	0x3f626e3a	0.8844944
30	0x3faef2ea	1.3667881
31	0x3f1672c5	0.58768874
32	0x3fa0f75a	1.2575486
33	0x3eba555f	0.36393258
34	0x3f632bfe	0.88739
35	0x3f59ba04	0.8504946
36	0xbdfc1b44	-0.12309888
37	0x3fe3ded9	1.7802383
38	0xbde4f8b6	-0.1118025
39	0xbee050dc	-0.4381169
40	0xc0139417	-2.3059137
41	0xbf446857	-0.7672171
42	0x3e930e3d	0.287218
43	0xbee983d0	-0.45608377
44	0x3fc1ab79	1.5130454
45	0x3e9bbb28	0.30416226
46	0xbf871878	-1.0554342
47	0xbedc992c	-0.4308561
48	0xbec61f9e	-0.38695997
49	0xbf8b6929	-1.0891467
50	0x3e898f99	0.2686737
51	0xbef47c00	-0.47750854
52	0xbf32f346	-0.69902456
53	0x3eb23388	0.3480494
54	0x3f80b845	1.0056235
55	0x3ee59db5	0.44846883
56	0xbdf46e9a	-0.11935158
57	0x3e13f5e4	0.14449269
58	0x3f1257c2	0.5716516
59	0x3d6a2255	0.057161648
60	0xc009286a	-2.1430917
61	0xbe936699	-0.28789213
62	0xbd495185	-0.04915001
63	0x3fa43671	1.2829114
64	0x3f054954	0.52065015
65	0xbea217d5	-0.31658807
66	0x3fcc97a2	1.5983775
67	0x3fa352d9	1.2759658
68	0xbfb585a0	-1.4181404
69	0xbf9c8f9a	-1.2231324
70	0xbe4a4521	-0.19752933
71	0xbf96154f	-1.1725253
72	0xbfaa54a9	-1.3307086
73	0xbf88f108	-1.0698557
74	0x3e1d120e	0.15338919
75	0x3f9917c9	1.1960384
76	0x3e44b43a	0.19209376
77	0x3f842f1c	1.0326877
78	0x3f16a3ba	0.58843577
79	0xbf0e1784	-0.5550463
80	0xbea4276b	-0.32061324
81	0xc0008c78	-2.0085735
82	0x3e8c0ee8	0.27355123
83	0x3d07fdfe	0.03320121
84	0xbfaa2a04	-1.3294072
85	0x3e031019	0.1279911
86	0x3f43e363	0.7651884
87	0x3edb36b5	0.42815176
88	0xbf55ee5c	-0.8356683
89	0x3f953cd2	1.1659186
90	0x3e25127c	0.16120332
91	0x3e94e5cd	0.29081574
92	0x3f86990c	1.0515456
93	0xbebf3ea8	-0.3735249
94	0x3ea407ed	0.32037297
95	0xbea2adac	-0.31773126
96	0x4008d845	2.1382
97	0xbe855cbe	-0.2604732
98	0xbdd1730f	-0.10227024
99	0xbe6a1eaa	-0.2286326
100	0x3e7a52f0	0.244457
101	0x3fd797c5	1.6843191
102	0x3f8444c1	1.0333482
103	0x4037f911	2.8745768
104	0xbed65351	-0.4186044
105	0x3eba96fc	0.36443317
106	0xbf1b6ae3	-0.6070997
107	0xbee8ee99	-0.45494536
108	0x3ee06a31	0.43831018
109	0x3f373f34	0.71580815
110	0xbf86d6bf	-1.0534285
111	0x3d867e26	0.0656703
112	0x3f3854ae	0.7200421
113	0xbf49e4d9	-0.7886482
114	0x3edb4b69	0.4283097
115	0x3e691a62	0.2276397
116	0xbf352aeb	-0.7076861
117	0x3faf7e89	1.371049
118	0x3fc25a1c	1.5183749
119	0x3df11a53	0.11772599
120	0x4025ad2e	2.588695
121	0xbdd85b1a	-0.10564251
122	0xbd9f8729	-0.07789452
123	0xbebafeb4	-0.36522448
124	0x3f5ae1a0	0.85500526
125	0xbfe6b562	-1.8024104
126	0xbf4e3a5c	-0.805578
127	0xbffeb738	-1.9899664
128	0x3f81a57e	1.0128629
129	0x3f867a0e	1.0505998
130	0x3e3b2046	0.1827403
131	0x3fc08455	1.5040385
132	0xbf50449a	-0.8135468
133	0xbed0d73c	-0.4078921
134	0x3fc48b07	1.5354928
135	0xbece01ca	-0.4023574
136	0x3eb043b7	0.34426662
137	0xbf949d22	-1.1610453
138	0xbdd6789a	-0.10472222
139	0xbf04f9e3	-0.51943797
140	0xbf061fe7	-0.5239243
141	0xbf549e6f	-0.8305425
142	0xbee15773	-0.4401203
143	0xbf78852d	-0.9707821
144	0xbf3d0e37	-0.73849815
145	0xbf044fef	-0.5168447
146	0x3f712767	0.9420075
147	0xbf8df80a	-1.109132
148	0xbe68ddad	-0.22740813
149	0xbf2dbae0	-0.67863274
150	0x3e7eb36e	0.24873134
151	0xbfaf09de	-1.3674886
152	0x3fabe223	1.3428386
153	0xbe8442d7	-0.25832245
154	0xbea28da1	-0.3174868
155	0xbf40e02e	-0.7534207
156	0xbf0c51a6	-0.54812086
157	0x3fbefbd6	1.4920604
158	0x3e6aa601	0.22914888
159	0xbea8d096	-0.32971638
160	0x3eb6ec5a	0.35727197
161	0x3e77d7d2	0.24203423
162	0xbdab68cf	-0.083696
163	0xbe071d49	-0.13194765
164	0xbf917051	-1.1362401
165	0xbf4df9d7	-0.8045935
166	0xbd7e89c3	-0.0621431
167	0xbec36466	-0.38162535
168	0x3eeca7a2	0.46221644
169	0xbf5f10d1	-0.87135035
170	0x3fb552f1	1.4165937
171	0xbe4536aa	-0.19259134
172	0xbf632c37	-0.8873934
173	0x3f7fb521	0.99885756
174	0x3f9e4340	1.2364273
175	0xbf4f9b72	-0.81096566
176	0x3e1b5a20	0.15171099
177	0x3ecaa886	0.39581698
178	0x3e6b86a5	0.23000582
179	0xbe292920	-0.16519594
180	0xbd5af8b1	-0.053459827
181	0x3ed45cd2	0.41477066
182	0xbf45d8ed	-0.7728413
183	0xbf90b312	-1.1304648
184	0x3f2d00da	0.67579424
185	0x3f895e31	1.073187
186	0x3f0dbb53	0.5536396
187	0x3e476f0c	0.19475955
188	0xbf04c0f8	-0.51856947
189	0xbe03c572	-0.12868288
190	0xbfa07e90	-1.2538624
191	0xbea99802	-0.33123785
192	0xc017f7e9	-2.3745062
193	0x3e880364	0.26565087
194	0x3f942c92	1.1576102
195	0x3f67d6b1	0.9056197
196	0x3dfe5481	0.124184616
197	0x3ed1c627	0.4097149
198	0x3dcfa8d5	0.10139624
199	0x404207f8	3.0317364
200	0x3f103d52	0.5634357
201	0x3ec5157d	0.38492957
202	0x3e1bbaad	0.1520793
203	0xbe819051	-0.25305417
204	0xbd0bd333	-0.034136962
205	0x3fc419bf	1.5320357
206	0xbca279b6	-0.019833427
207	0xbf37b2bc	-0.717571
208	0xbd718da9	-0.05897299
209	0x3ddfa23d	0.10919616

pep_embedding.weight f4 [21, 10]
0	0x00000000	0.0
1	0x00000000	0.0
2	0x00000000	0.0
3	0x00000000	0.0
4	0x00000000	0.0
5	0x00000000	0.0
6	0x00000000	0.0
7	0x00000000	0.0
8	0x00000000	0.0
9	0x00000000	0.0
10	0xbecba33e	-0.3977298
11	0x3f6f74dd	0.93537694
12	0x3f436888	0.7633138
13	0x3f2e63f7	0.68121284
14	0x3e571eba	0.21007815
15	0xbf2f045b	-0.6836602
16	0xbfbbe0e2	-1.4678004
17	0xbf6ad825	-0.9173606
18	0xbf49884c	-0.787236
19	0x3ff1f1df	1.8901938
20	0xbf214d88	-0.6300893
21	0x3f25f067	0.6481995
22	0x3f44684c	0.76721644
23	0x3ed96a3e	0.4246387
24	0x3e88a542	0.26688582
25	0x3f83b6ab	1.0290121
26	0xbef53d51	-0.47898343
27	0x3faad9a7	1.3347672
28	0x3f3e4fe7	0.7434067
29	0x3f8d54a6	1.1041458
30	0x3dafaa2e	0.08577381
31	0x3e941a05	0.289261
32	0xbf189ce5	-0.596144
33	0x3d8fdf9b	0.07025071
34	0xbf13788f	-0.5760583
35	0xbc126f42	-0.008937659
36	0x3f5b4614	0.85653806
37	0xbdbc756c	-0.09202084
38	0x3f9b4408	1.2130136
39	0x3f467a74	0.775306
40	0x3f4433c9	0.7664152
41	0xbecac653	-0.39604434
42	0xbf944024	-1.1582074
43	0x3f1d792b	0.6151301
44	0xbd1f0386	-0.03882172
45	0xbde511a1	-0.11185003
46	0x3ed965cc	0.42460477
47	0x3f56f24d	0.8396347
48	0xbe783853	-0.24240236
49	0x3fcf3739	1.6188728
50	0xbdda4082	-0.10656835
51	0xbc22d6df	-0.009938925
52	0x3f712c41	0.9420815
53	0x3e22ac80	0.15886116
54	0x3f96b94f	1.1775302
55	0xbef279ff	-0.473587
56	0xbd9d0605	-0.07667164
57	0x3f9d90b1	1.2309781
58	0x3f783902	0.96961987
59	0x3f2e5cbf	0.6811027
60	0x3f896fcf	1.0737246
61	0x3fe4f4ea	1.7887242
62	0xc011fe08	-2.2811298
63	0xbf822ac4	-1.0169301
64	0xbf30b330	-0.6902342
65	0x3f016297	0.5054106
66	0x3e830e23	0.25596723
67	0x3e4d6828	0.20059264
68	0xbfc5d2fa	-1.545501
69	0xbe0b79f7	-0.13620745
70	0xbecbbbec	-0.3979181
71	0x3e0278d1	0.127414
72	0xbf32196e	-0.6957005
73	0xbf3d6950	-0.7398882
74	0x3e53ffb0	0.20703006
75	0x3f1424e3	0.57868785
76	0x3f7d9683	0.9905779
77	0x3fe4981e	1.7858922
78	0x3fe33399	1.7750121
79	0xbfe1fc3f	-1.7655104
80	0x3f07feae	0.53122985
81	0xbf9791da	-1.1841385
82	0xbdcd86f8	-0.10035509
83	0xbfa8d989	-1.3191386
84	0x3fbd88bf	1.4807357
85	0x3f9f5eb3	1.2450775
86	0x3f7974ef	0.9744405
87	0xbe5427fd	-0.2071838
88	0x3f08ef83	0.53490466
89	0x3f2f381b	0.68444985
90	0xbf8ead3b	-1.1146616
91	0xbe1e2b85	-0.15446289
92	0xbf9b056f	-1.2111033
93	0x3e3d67a8	0.18496573
94	0x3f81404d	1.0097748
95	0x3f8f3443	1.1187824
96	0x3f54b282	0.8308488
97	0xc013501a	-2.301764
98	0x3f59ecdc	0.85127044
99	0xbe824c92	-0.25449044
100	0xbdd35dd5	-0.103206314
101	0x3f54a7f1	0.8306876
102	0xbf26c769	-0.65148026
103	0x3fffd717	1.9987515
104	0x3ddcda30	0.107838035
105	0xbef5af69	-0.4798539
106	0xbeb5bd7a	-0.35496122
107	0xbea23590	-0.3168149
108	0x3e5e796d	0.21726008
109	0xbec663b8	-0.38747954
110	0x40030b80	2.047577
111	0xbdf47775	-0.11936847
112	0x3f6a6000	0.91552734
113	0xbf8de98b	-1.1086897
114	0xbfcbd39c	-1.5923953
115	0x3f1e0313	0.6172344
116	0x3ed2dc0a	0.411835
117	0x3f6e95a0	0.9319706
118	0xbef64d0d	-0.4810566
119	0x3f5679c7	0.8377957
120	0xbeadb523	-0.3392726
121	0xbefe00ef	-0.49610087
122	0x3f893975	1.072066
123	0xbcb92c87	-0.02260424
124	0xbf7b3418	-0.98126364
125	0xbf747a3c	-0.95499015
126	0xbe9b6073	-0.30347022
127	0x3f864417	1.0489529
128	0x3eeaaa66	0.4583313
129	0xbe4c1d19	-0.19932975
130	0x3e890426	0.26760978
131	0xbf2b95f4	-0.67025685
132	0xbf12bfb9	-0.57323796
133	0xbdf7b04d	-0.120941736
134	0x3f42444c	0.7588546
135	0xbfefbad3	-1.8728889
136	0x3f667e61	0.9003659
137	0x3f2bd8f4	0.6712792
138	0xbf6804a1	-0.90632063
139	0xbff66c36	-1.9251773
140	0xbf3e301c	-0.7429216
141	0xbf9fe3f2	-1.2491438
142	0x3fb72dd5	1.4310862
143	0x3f2e346d	0.68048745
144	0x3f917de3	1.1366543
145	0x3fccf0ba	1.6010964
146	0x3f85fb38	1.0467291
147	0x3f8ab0b0	1.0835171
148	0xbf437f71	-0.76366335
149	0x3f1c3815	0.61023074
150	0xbf66254c	-0.8990066
151	0x3f955cc8	1.166894
152	0x3f8741d2	1.0566962
153	0x3dce8e32	0.10085715
154	0xbf214320	-0.6299305
155	0x3ea69da8	0.32542157
156	0xbea036e1	-0.3129187
157	0x3d3f2808	0.046669036
158	0x3ed6cc92	0.4195295
159	0xbfc65057	-1.5493268
160	0xbe92ed26	-0.28696555
161	0xbf3e76e0	-0.7440014
162	0xbe86ca96	-0.26326436
163	0x3e51e68e	0.20498106
164	0xbeca781f	-0.3954477
165	0x3cb14a08	0.021641746
166	0x3f4ca696	0.7994169
167	0x3f4a168b	0.7894065
168	0x3ed8f283	0.42372522
169	0x3fcb85a6	1.5900161
170	0xbf886c2d	-1.0658013
171	0xbfe69052	-1.8012793
172	0x3f95f1ae	1.171438
173	0x3fbd075a	1.4767869
174	0x3f5884ac	0.8457744
175	0xbeb5c9c5	-0.355055
176	0xc00ab56f	-2.1673238
177	0x3e89f80d	0.2694706
178	0xbef6d369	-0.48208168
179	0x3f06806d	0.5253971
180	0xbf121fa8	-0.57079554
181	0x3ef42c7d	0.47690192
182	0x3f32ebf8	0.6989131
183	0xbfb7969a	-1.4342835
184	0x3f275f3e	0.65379703
185	0xbde96a26	-0.11397199
186	0x3e2f86e5	0.17141302
187	0xbf158085	-0.5839923
188	0x3d4f0567	0.05054226
189	0xbf8b35a2	-1.0875742
190	0x3fcfde39	1.6239692
191	0x3f5594fe	0.8343047
192	0x3f8f8368	1.1211977
193	0xbc072c30	-0.008250281
194	0xbfb62392	-1.4229605
195	0xbf819b3a	-1.0125496
196	0xbe601d5b	-0.21886198
197	0xbfc2fd2c	-1.5233512
198	0xbf0ae1bd	-0.542507
199	0xbf12b4a4	-0.57306886
200	0xbfd22ef0	-1.6420574
201	0xbe70404e	-0.2346203
202	0xbf8cf4e6	-1.1012237
203	0xbefce5e8	-0.49394155
204	0xbf8a0a5e	-1.0784414
205	0x3fa03d67	1.2518739
206	0xbeef42f6	-0.46730775
207	0x3ff8cb9d	1.9437138
208	0xbf572c80	-0.84052277
209	0xbde2637e	-0.11054133

tcr_lstm.weight_ih_l0 f4 [120, 10]
0	0xbef6ccb1	-0.48203042
1	0xbd0f5933	-0.034997176
2	0x3c2b660a	0.01046134
3	0xbe35e910	-0.17764688
4	0x3e9bc287	0.3042185
5	0x3e705a70	0.23471999
6	0x3dc6fe76	0.09716503
7	0xbdec481a	-0.1153719
8	0x3e99459e	0.29935926
9	0x3eda62d7	0.42653534
10	0xbd99f1f5	-0.07516853
11	0x3e76f110	0.24115396
12	0x3ecd674b	0.4011787
13	0x3f121439	0.5706211
14	0x3e0419a6	0.12900409
15	0x3d37ca24	0.04487051
16	0xbeb51dcd	-0.353743
17	0x3e2b04cf	0.16701053
18	0x3ea2a3a1	0.31765464
19	0x3ee1ca8e	0.4409985
20	0x3da101bf	0.07861661
21	0xbdd05d7f	-0.10174083
22	0xbd9096eb	-0.07060035
23	0x3ece2999	0.40266111
24	0xbe12a4f7	-0.14320742
25	0x3ed22e76	0.41051072
26	0x3f1cebf0	0.6129751
27	0x3ea24868	0.31695867
28	0xbe8237f4	-0.25433314
29	0xbdecced6	-0.11562888
30	0x3dbb810e	0.091554746
31	0xbe8f5903	-0.27997598
32	0x3eeaaaac	0.45833337
33	0xbec3a074	-0.38208354
34	0x3e893c26	0.26803702
35	0xbf05c495	-0.52253085
36	0xbc837695	-0.016047755
37	0xbe68297e	-0.22672078
38	0xbf1e0fa6	-0.6174263
39	0xbf113c57	-0.56732696
40	0xbda61034	-0.08108559
41	0x3f0fc816	0.5616468
42	0x3f2120f9	0.6294094
43	0x3e24c432	0.16090468
44	0x3d241755	0.040061314
45	0x3e340b1c	0.17582363
46	0xbe631650	-0.2217648
47	0x3e01c83a	0.12674037
48	0x3ef29c2b	0.47384772
49	0x3e29d1c8	0.16583931
50	0xbf5a3600	-0.8523865
51	0xbdd5d3bb	-0.10440775
52	0xbe20cd2e	-0.1570327
53	0xbe59b6d8	-0.21261156
54	0xbe84740b	-0.25869784
55	0xbe3a3e4f	-0.18187831
56	0xbed632fa	-0.41835767
57	0xbeb55d6a	-0.35422832
58	0xbf40d765	-0.75328666
59	0xbeba32c2	-0.3636685
60	0xbe0b1129	-0.13580765
61	0x3ee29dc9	0.44261006
62	0x3e8b927c	0.27260196
63	0xbe82ed7a	-0.25571805
64	0x3e313ca9	0.17308296
65	0xbd411530	-0.047139347
66	0xbe2cd1e8	-0.16876948
67	0xbed431a0	-0.4144411
68	0xbdb9c2cc	-0.09070358
69	0xbd56321a	-0.052293874
70	0xbee61810	-0.44940233
71	0x3e147705	0.14498527
72	0x3ea73fdf	0.32665917
73	0x3e735ca8	0.23765814
74	0xbe6d2765	-0.23159559
75	0xbe1bf52e	-0.15230247
76	0xbf8871f8	-1.065978
77	0xbcfd7d66	-0.030943584
78	0xbe51fe84	-0.20507246
79	0xbe4e22f0	-0.20130515
80	0x3dce4103	0.10070994
81	0x3e7448a7	0.2385584
82	0xbef2a4da	-0.47391397
83	0x3ec76511	0.38944295
84	0xbed0f6a4	-0.40813172
85	0xbe1d5287	-0.15363513
86	0x3e6060fb	0.21911995
87	0xbef29cf6	-0.47385377
88	0x3e2f5dad	0.17125578
89	0xbe670b90	-0.22563004
90	0xbdd04325	-0.10169057
91	0xbf31d9fc	-0.6947324
92	0xbec4def2	-0.38451344
93	0x3ea08e1e	0.31358427
94	0xbebd9ccc	-0.3703369
95	0xbd8acf7d	-0.067778565
96	0x3f3a3bd0	0.72747517
97	0x3f016c2d	0.5055569
98	0xbef2682c	-0.47345102
99	0xbe4e23db	-0.20130865
100	0xbefd68df	-0.49494073
101	0x3f21d6bc	0.63218284
102	0x3d87bf2d	0.06628261
103	0x3f046174	0.517112
104	0xbf027609	-0.5096136
105	0xbeda8ac3	-0.42683992
106	0xbdf2d16f	-0.118563525
107	0xbf4bd739	-0.7962528
108	0xbe79d46c	-0.24397439
109	0xbe5958af	-0.21225236
110	0x3e7ca914	0.24673873
111	0x3f4f84df	0.8106212
112	0xbe16bb8e	-0.14719984
113	0x3e1c7fb7	0.15283094
114	0xbe7c3a0b	-0.24631517
115	0xbebb0827	-0.36529657
116	0xbeab700e	-0.33483928
117	0xbe3bfd60	-0.18358374
118	0x3f630754	0.88683057
119	0xbe067d1c	-0.13133663
120	0xbe977a4d	-0.29585496
121	0x3e860728	0.26177335
122	0x3e8bea70	0.273273
123	0xbe1c50ee	-0.15265247
124	0xbee6a267	-0.45045778
125	0xbe874730	-0.264215
126	0x3e81a354	0.25319922
127	0xbdf62db1	-0.12020434
128	0x3df730f1	0.12069882
129	0xbf0be5ca	-0.54647505
130	0xbe45c18e	-0.19312117
131	0xbdb55ab4	-0.08855191
132	0xbea3aebf	-0.31969258
133	0xbdd60b49	-0.10451371
134	0x3e14af96	0.14520106
135	0xbeafffb4	-0.34374774
136	0xbd24c719	-0.040228937
137	0xbdfef0fe	-0.12448309
138	0x3e30b6fc	0.17257303
139	0xbe84b1cf	-0.25916907
140	0x3e54cdff	0.20781706
141	0x3ea38364	0.3193618
142	0x3d2359f9	0.039880726
143	0x3f25a54d	0.64705354
144	0x3d620a88	0.055185825
145	0xbec644eb	-0.38724455
146	0x3e05034e	0.12989542
147	0x3e9cc715	0.30620638
148	0x3d9a6d31	0.07540358
149	0xbe6197a3	-0.22030501
150	0xbd4e9168	-0.05043164
151	0x3e66e40a	0.22547927
152	0xbe2810c5	-0.16412647
153	0x3ecaadde	0.39585775
154	0x3e294b26	0.16532573
155	0x3e6b5958	0.229833
156	0xbd94685d	-0.07246468
157	0x3e1e28b9	0.15445222
158	0x3e446d53	0.19182329
159	0x3ead6a9d	0.33870402
160	0x3e439561	0.19099952
161	0x3e9e9b73	0.30977973
162	0x3e75331e	0.23945281
163	0x3f0b4274	0.54398274
164	0x3f16ec22	0.5895406
165	0xbcfbfad2	-0.030759249
166	0x3dfdcb44	0.123922855
167	0x3e3b17b4	0.18270761
168	0xbef8cf93	-0.48595867
169	0xbe8027af	-0.25030276
170	0x3d03504d	0.032059003
171	0x3da4ec9c	0.08052942
172	0x3e22abf8	0.15885913
173	0xbe337671	-0.1752565
174	0x3e911828	0.28338742
175	0x3d1b84f7	0.037968602
176	0xbe34af66	-0.17645034
177	0x3f5e97ab	0.86950177
178	0xbea90b94	-0.33016646
179	0xbe8254f8	-0.2545545
180	0x3e633bbf	0.2219076
181	0x3ef08ab5	0.46980825
182	0xbe8b8655	-0.27250925
183	0x3ec65053	0.38733158
184	0x3ee92ef4	0.45543635
185	0xbdf2a82f	-0.11848485
186	0xbdeee00a	-0.11663826
187	0x3ecabcb4	0.39597094
188	0x3dd3838e	0.103278264
189	0xbeba8e58	-0.36436725
190	0x3c7f4fc8	0.015582986
191	0x3f0cd6ed	0.5501545
192	0xbdb0565d	-0.086102225
193	0x3e2ca398	0.16859281
194	0xbed2364c	-0.4105705
195	0xbf4e5a1d	-0.8060625
196	0xbd25f295	-0.040514547
197	0xbdd6aa35	-0.10481683
198	0xbd615929	-0.05501667
199	0x3ee373d1	0.44424298
200	0xbee2fa30	-0.44331503
201	0xbecc139b	-0.39858708
202	0x3f5272fd	0.8220671
203	0xbef0c2b8	-0.4702356
204	0x3e5671d6	0.20941862
205	0xbd8f9d9f	-0.07012486
206	0xbdc8637d	-0.09784601
207	0x3f1a8dae	0.60372436
208	0xbe45ef4b	-0.19329564
209	0x3ec9739c	0.39346015
210	0xbc05af08	-0.0081594065
211	0x3f2784ac	0.65436816
212	0x3ed5b52c	0.41739786
213	0x3efc09bc	0.49226177
214	0x3cc26ba5	0.02373297
215	0xbe797959	-0.24362697
216	0x3e967770	0.29388
217	0x3ebde8f4	0.37091792
218	0xbf48acd2	-0.783887
219	0xbe5501a8	-0.20801413
220	0xbed3e136	-0.4138276
221	0x3f08012e	0.531268
222	0x3e0a9756	0.13534293
223	0xbe5805c6	-0.21095952
224	0x3d4a75cb	0.049428742
225	0xbf19a456	-0.6001638
226	0x3e85411b	0.26026234
227	0xbf5e9ead	-0.8696087
228	0x3e5b22a1	0.21399929
229	0xbeb12151	-0.3459573
230	0x3e0acfe2	0.13555863
231	0x3cf1e8bf	0.029529927
232	0x3e6d8e3f	0.23198794
233	0x3f231463	0.6370298
234	0xbe0b195c	-0.13583893
235	0xbd91f65e	-0.07127069
236	0xbea81e76	-0.3283574
237	0xbd4e88c3	-0.050423395
238	0x3d8bf130	0.06833112
239	0x3f3a98a1	0.72889143
240	0x3ee8ce2f	0.45469806
241	0x3e6cda78	0.23130214
242	0x3c6e7043	0.0145531325
243	0x3f29ac27	0.6627831
244	0x3e2687f6	0.16262802
245	0xbe196d2c	-0.14983052
246	0x3ecaccb3	0.39609298
247	0xbdb7d75c	-0.089766234
248	0xbf0c99c0	-0.54922104
249	0xbedc2d20	-0.43003178
250	0xbf01d2a1	-0.5071202
251	0x3f00de80	0.5033951
252	0x3e9a84dd	0.30179492
253	0x3c23fa80	0.010008454
254	0xbf1933c1	-0.59844595
255	0xbe7e705b	-0.24847548

tcr_lstm.weight_hh_l0 f4 [120, 30]
0	0x3edb27e0	0.4280386
1	0xbb43e9c6	-0.0029893978
2	0xbe684289	-0.22681631
3	0xbf62fad5	-0.8866399
4	0x3ec11ca4	0.37717164
5	0x3e3beafd	0.1835136
6	0x3e879890	0.26483583
7	0x3fafcdf0	1.3734722
8	0x3df2402d	0.11828647
9	0xbd64268d	-0.055700827
10	0xbef4f35f	-0.47841927
11	0xbee1825c	-0.4404477
12	0x3eac4590	0.33646822
13	0x3f454dc0	0.7707176
14	0x3ecfb04f	0.405642
15	0xbf03b087	-0.51441234
16	0xbc9ddc52	-0.019270096
17	0x3ebb0053	0.36523685
18	0xbdb379a1	-0.08763433
19	0xbd307bc9	-0.0430868
20	0xbecd7f9b	-0.40136418
21	0x3e20aa39	0.15689935
22	0x3eb45b8a	0.3522609
23	0xbd1fb389	-0.038989577
24	0x3ec73532	0.38907772
25	0x3eece79b	0.4627045
26	0x3e857493	0.26065502
27	0xbde0a79f	-0.10969471
28	0xbf65e122	-0.8979665
29	0x3f27ccdc	0.65546966
30	0x3e3aeb77	0.18253885
31	0x3f9b619d	1.2139164
32	0x3ebb099e	0.36530775
33	0xbf0ff486	-0.5623249
34	0x3f4cff18	0.8007674
35	0xbf1774bc	-0.591625
36	0x3ec2b0fd	0.38025656
37	0x3f803f45	1.0019308
38	0xbe316ca2	-0.17326596
39	0xbe31b9fa	-0.173561
40	0xbe49a025	-0.19689997
41	0xbf014091	-0.50489146
42	0x3edba60a	0.42900115
43	0x3f912ef9	1.134246
44	0xbe4f47fc	-0.20242304
45	0xbe262313	-0.16224317
46	0xbf010330	-0.5039549
47	0x3ebb3c86	0.36569613
48	0xbd05d187	-0.032670524
49	0xbec4ee49	-0.38463047
50	0xbf88b819	-1.0681182
51	0xbec99bcb	-0.39376673
52	0x3efb497e	0.49079508
53	0x3eca60c1	0.39526942
54	0xbda11ad8	-0.07866448
55	0xbea456b4	-0.320974
56	0x3e74424d	0.23853417
57	0x3f46134a	0.7737318
58	0xbe79886a	-0.24368444
59	0x3efbffa8	0.49218488
60	0xbd9fef14	-0.078092724
61	0xbd69344c	-0.05693464
62	0xbf8b3412	-1.0875266
63	0xbf06c08b	-0.5263755
64	0xbee79930	-0.4523406
65	0xbdd49745	-0.10380415
66	0x3e827584	0.25480282
67	0x3f8018e2	1.0007594
68	0x3ea48d25	0.32138935
69	0x3f320466	0.6953796
70	0x3e7279d7	0.2367929
71	0x3dae93d6	0.08524291
72	0x3ed29fcc	0.4113754
73	0xbdbdcb12	-0.09267248
74	0x3edbb4da	0.42911416
75	0xbe4e1c73	-0.2012804
76	0x3e18e9e1	0.14932968
77	0xbed15d63	-0.4089156
78	0x3d4e0524	0.05029787
79	0xbe71ac52	-0.23600891
80	0x3d90fbd3	0.07079282
81	0x3edab80f	0.4271855
82	0x3f1cb2fa	0.61210597
83	0xbd102cae	-0.03519886
84	0x3e4b88ae	0.19876358
85	0x3ea98b4e	0.33114094
86	0x3e97e9bd	0.29670516
87	0x3ee7c6e0	0.45268917
88	0xbd46d1dd	-0.048539985
89	0x3ec4d2c1	0.38442042
90	0x3f32975b	0.697622
91	0x3e92710c	0.28601873
92	0x3f041fc4	0.5161097
93	0x3f0174f5	0.5056909
94	0xbd4ea963	-0.05045451
95	0x3e4936be	0.19649789
96	0xbf8ae47e	-1.085098
97	0xbe07bb89	-0.13255133
98	0x3e72383a	0.23654261
99	0xbe4fed3c	-0.20305341
100	0xbf25fb4f	-0.6483659
101	0xbc567c9d	-0.013091234
102	0xbdf508d4	-0.119645745
103	0xbf52fad4	-0.82413983
104	0x3f7b1553	0.98079413
105	0x3e01a851	0.12661864
106	0xbd82e49b	-0.06391259
107	0x3df56f82	0.11984159
108	0xbc0848db	-0.008318151
109	0x3e78e0f4	0.24304563
110	0xbe5e5bd4	-0.21714717
111	0x3e94036f	0.2890887
112	0x3e2c1ac3	0.16807084
113	0x3d7f1480	0.06227541
114	0xbe780702	-0.24221423
115	0x3f0a16ce	0.5394105
116	0xbdf536cd	-0.11973343
117	0x3f414db2	0.7550918
118	0xbd6cf1db	-0.05784784
119	0x3e8ec386	0.27883548
120	0x3e051fbc	0.13000387
121	0xbecd3e33	-0.40086517
122	0xbbeca588	-0.0072218813
123	0xbf7a4412	-0.9776012
124	0xbed64493	-0.41849193
125	0xbea56a77	-0.3230779
126	0x3f15d258	0.58524084
127	0x3f81f808	1.0153818
128	0xbe38744e	-0.18013117
129	0xbf197c88	-0.59955645
130	0xbe801a5d	-0.25020114
131	0x3ed10e84	0.40831387
132	0x3e15a44a	0.14613453
133	0xbe950e0e	-0.29112285
134	0x3e95fd9f	0.2929506
135	0x3f20f84f	0.6287889
136	0x3ecce309	0.40016964
137	0xbdc0442c	-0.09388003
138	0xbee3177e	-0.4435386
139	0xbe761ef8	-0.24035251
140	0xbe124c37	-0.14286886
141	0x3e7af465	0.24507292
142	0x3ebd86eb	0.37016997
143	0x3e29145a	0.1651167
144	0xbeb1fc74	-0.3476292
145	0xbe974449	-0.29544285
146	0x3dcd46b8	0.10023254
147	0xbe8e623a	-0.27809316
148	0xbd8cac85	-0.06868843
149	0x3f5e741c	0.8689592
150	0x3f27fa5a	0.6561638
151	0xbf75ac57	-0.95966095
152	0xbec6ba90	-0.3881421
153	0x3e88b3b7	0.26699612
154	0x3e0e5faf	0.13903688
155	0x3e540331	0.20704342
156	0xbd64a870	-0.055824697
157	0xbed909eb	-0.4239038
158	0x3f521210	0.8205881
159	0x3e8d90c1	0.276495
160	0xbeca4465	-0.39505306
161	0x3e2a1063	0.16607814
162	0x3dc01ef9	0.093809076
163	0xbe68563a	-0.22689143
164	0x3eb5c8c0	0.35504723
165	0xbea10580	-0.3144951
166	0xbc67f4f5	-0.014157523
167	0xbe985986	-0.297558
168	0xbefd8ea1	-0.4952288
169	0xbcc54d8d	-0.02408483
170	0x3ec8bd5b	0.39206967
171	0xbe63e0ce	-0.22253725
172	0x3f00fae4	0.5038283
173	0xbfb96e71	-1.4486829
174	0xbd368598	-0.044561
175	0x3e4d58ae	0.2005336
176	0x3ebbba12	0.36665398
177	0xbe2c9584	-0.1685391
178	0x3f3316c1	0.69956595
179	0xbdf25349	-0.11832292
180	0x3f10a082	0.56494915
181	0x3cbc5f0c	0.02299454
182	0x3ea64e2d	0.32481518
183	0xbe8002a0	-0.25002003
184	0xbe9bb0a8	-0.30408216
185	0xbd2c8262	-0.04211653
186	0xbebfb6fa	-0.37444288
187	0x3e5884a1	0.21144344
188	0xbe287cf9	-0.16453923
189	0x3f47f3e1	0.78106505
190	0x3ec6141a	0.3868721
191	0xbe5d843e	-0.21632478
192	0x3eab8920	0.33503056
193	0x3d82b7fd	0.06382749
194	0xbe8d57d3	-0.27606067
195	0xbea103ea	-0.314483
196	0xbf173bee	-0.5907582
197	0x3e9e36ef	0.30901286
198	0x3f166aab	0.5875651
199	0x3f58b050	0.8464403
200	0xbe8bc9c9	-0.27302387
201	0x3f0b17be	0.543331
202	0x3e78ebfd	0.24308772
203	0x3f0d8438	0.55279875
204	0x3dc562da	0.09637995
205	0x3ddf99e4	0.10918024
206	0xbee709a8	-0.45124555
207	0x3e076a90	0.13224244
208	0x3ed8672e	0.4226622
209	0xbdc9b8d9	-0.0984971
210	0x3e364399	0.17799224
211	0xbe8383a9	-0.25686386
212	0xbe06c88f	-0.13162445
213	0x3f333a9b	0.700113
214	0xbd85067a	-0.06495376
215	0x3dc7e9d4	0.09761396
216	0x3ec9c690	0.39409304
217	0xbf0f5b85	-0.5599902
218	0x3f07de0d	0.530732
219	0x3d8f380c	0.06993112
220	0xbd8c4764	-0.06849554
221	0xbec1879f	-0.37798783
222	0x3da3d8e7	0.08000355
223	0xbf07c437	-0.53033775
224	0xbe7a40e6	-0.2443882
225	0x3dee6955	0.11641184
226	0x3eb84faa	0.3599828
227	0xbf5290a5	-0.8225196
228	0x3ea85132	0.32874447
229	0xbdda3848	-0.10655266
230	0xbf30a2c4	-0.6899836
231	0x3e87607e	0.26440805
232	0xbf23b486	-0.6394733
233	0x3e551ac3	0.2081099
234	0xbeb1af6d	-0.34704152
235	0x3e817fb2	0.25292736
236	0xbf317966	-0.69325864
237	0x3e8e06fb	0.277397
238	0x3f04772b	0.51744336
239	0xbee1ae6a	-0.4407838
240	0xbe8f9a35	-0.28047338
241	0xbadbaf2f	-0.0016760583
242	0xbea858d9	-0.32880285
243	0x3e79fd68	0.24413073
244	0x3f260197	0.64846176
245	0x3eaea92b	0.3411344
246	0xbe6aeba0	-0.22941446
247	0xbf81d14b	-1.0141996
248	0x3e202214	0.15638
249	0xbeee86a4	-0.46587098
250	0xbec3411f	-0.3813562
251	0xbf1a9058	-0.603765
252	0x3eb88564	0.3603927
253	0x3e96c0bd	0.29443923
254	0x3f72edfe	0.948944
255	0x3eaeabe3	0.34115514

tcr_lstm.bias_ih_l0 f4 [120]
0	0xbe0deea3	-0.13860564
1	0xbee29baa	-0.44259387
2	0x3e569bc6	0.2095786
3	0x3e92b4d6	0.28653592
4	0x3e873c41	0.26413158
5	0x3edc4fc8	0.43029618
6	0x3f13f2a7	0.57792133
7	0x3ef0a266	0.469989
8	0x3f05a408	0.52203417
9	0x3e6c57a2	0.23080304
10	0x3d158226	0.036501072
11	0x3e789e34	0.242791
12	0x3e2fd94e	0.17172739
13	0x3ecbbfce	0.39794773
14	0x3ecf1394	0.40444624
15	0x3e9eb774	0.3099934
16	0x3ed4e6f1	0.41582444
17	0x3eeb1e02	0.45921332
18	0x3dc2514f	0.09488165
19	0x3ea6136f	0.32436702
20	0x3e8fce1a	0.2808693
21	0xbdc1bace	-0.09459458
22	0x3ea5d9bf	0.3239269
23	0x3ef22e99	0.47301176
24	0x3e49fdf6	0.19725785
25	0x3e40d4fb	0.18831246
26	0xbdab0ba4	-0.0835183
27	0x3e2fea88	0.1717931
28	0x3e6e3810	0.23263574
29	0x3ebda240	0.3703785
30	0xbd9daf25	-0.07699422
31	0x3e6794a0	0.2261529
32	0x3b4fbd15	0.0031698395
33	0xbd1ec6fb	-0.03876398
34	0xbbb02244	-0.0053751785
35	0x3d395347	0.045245435
36	0x3eee1a5d	0.4650449
37	0x3e6f3695	0.23360665
38	0x3e936a24	0.28791916
39	0x3ec31670	0.38103056
40	0x3df975e9	0.12180693
41	0x3caf1302	0.021371368
42	0xbcda040c	-0.026613258
43	0x3ec21908	0.37909722
44	0x3e8aca36	0.271074
45	0xbe99f879	-0.30072382
46	0xbe13dc6e	-0.14439556
47	0x3dc73346	0.097265765
48	0x3db5249a	0.08844872
49	0xbd0f874e	-0.035041146
50	0x3e98319a	0.29725343
51	0xbd38e8b2	-0.04514379
52	0x3e0d3d3a	0.13792887
53	0x3e3f6fd5	0.18695004
54	0xbd8aa8e8	-0.067704976
55	0xbe17a72f	-0.14809869
56	0x3e75248b	0.23939721
57	0x3df96f96	0.121794865
58	0x3e00a92a	0.12564531
59	0x3e4ea3c0	0.20179653
60	0x3d3de932	0.04636497
61	0xbda8791c	-0.08226225
62	0x3af70b17	0.001884791
63	0xbe2cfdf1	-0.16893746
64	0x3d52378c	0.051322505
65	0xbe8de8c4	-0.2771665
66	0xbcaf6952	-0.021412525
67	0xbce666f6	-0.028125267
68	0xbd928150	-0.07153571
69	0x3df48675	0.11939708
70	0x3cfd2dc4	0.030905612
71	0xbe1e12e9	-0.15436901
72	0xbd3f695c	-0.046731338
73	0x3e97b9fa	0.29634076
74	0xbda39888	-0.079880774
75	0xbdce31e8	-0.100681126
76	0x3dc9d9eb	0.09856018
77	0x3cbf25ea	0.023333509
78	0x3de56a12	0.11201872
79	0xbe07e91a	-0.13272515
80	0x3ce40d5e	0.027838405
81	0xbd732abe	-0.059366934
82	0x3dbad130	0.091219306
83	0xbe81c655	-0.25346628
84	0x3d298404	0.041385666
85	0xbc0bd6d8	-0.008535109
86	0x3e08fe28	0.13378203
87	0xbe1b388d	-0.15158291
88	0xbd4a8a38	-0.049448222
89	0xbe87a135	-0.2649018
90	0x3ed6c48d	0.4194683
91	0x3ec1f24d	0.37880173
92	0x3ed955c8	0.42448258
93	0x3e277959	0.16354884
94	0x3e8804fe	0.2656631
95	0x3f052876	0.52014863
96	0x3ef01774	0.46892893
97	0x3f010c99	0.5040985
98	0x3f213842	0.6297647
99	0xbd0e705c	-0.034775123
100	0x3e80fb2a	0.25191623
101	0x3e92a50f	0.28641555
102	0x3e86731d	0.262597
103	0x3f220331	0.6328612
104	0x3f0d2bcf	0.5514497
105	0x3f02653c	0.5093572
106	0x3f1d4bb2	0.61443627
107	0x3ed0d54e	0.4078774
108	0x3e247b08	0.16062558
109	0x3e6843a8	0.22682059
110	0x3eed87f8	0.46392798
111	0x3e070b52	0.13187912
112	0x3f0bcec6	0.54612386
113	0x3ec70077	0.38867542
114	0x3e663838	0.22482383
115	0x3f26df89	0.6518484
116	0x3e9f4ef6	0.3111493
117	0x3e8b16f0	0.27165937
118	0x3dfa2ab7	0.122151785
119	0x3f33cb3c	0.70231986

tcr_lstm.bias_hh_l0 f4 [120]
0	0xbd8aff64	-0.06786993
1	0xbed982f5	-0.42482725
2	0x3e1513fe	0.14558408
3	0x3de82ee2	0.11337067
4	0x3e208b24	0.15678078
5	0x3e8d5d95	0.2761046
6	0x3f049e3c	0.51803946
7	0x3ef6b1d1	0.48182538
8	0x3ed9d10b	0.425423
9	0x3eb6297c	0.35578525
10	0x3d787a84	0.060663715
11	0x3e73c7d2	0.23806694
12	0x3e556bd3	0.20841913
13	0x3ebcd817	0.36883613
14	0x3ec50811	0.38482717
15	0x3e8e3d0e	0.27780956
16	0x3efbed3e	0.4920444
17	0x3f1ab7ab	0.60436505
18	0x3ddf41e3	0.10901239
19	0x3f0b02e9	0.54301316
20	0x3eca6acd	0.39534608
21	0xbd70d04a	-0.05879239
22	0x3e84d7a5	0.25945774
23	0x3ee43d44	0.44577992
24	0x3e239293	0.15973882
25	0x3d9967f3	0.0749053
26	0xbdd44ea9	-0.10366566
27	0x3dcd792d	0.10032878
28	0x3e7f81ae	0.24951813
29	0x3eaf1076	0.34192246
30	0xbd454d52	-0.04816944
31	0x3e46d3fd	0.19416805
32	0x3e06cb19	0.13163413
33	0xbdc569d9	-0.096393295
34	0xbd890601	-0.06690598
35	0x3e3a0bb4	0.18168527
36	0x3e85f1fb	0.2616118
37	0x3e33f14f	0.1757252
38	0x3eb56314	0.35427153
39	0x3ec73588	0.3890803
40	0x3de20d1f	0.11037659
41	0x3d2a19fe	0.041528694
42	0x3e18cb32	0.14921263
43	0x3f025e0a	0.5092474
44	0x3e56f843	0.20993142
45	0xbe4402eb	-0.19141738
46	0xbe0073b6	-0.1254414
47	0x3e02ac06	0.12760934
48	0x3d386abf	0.045023676
49	0xbcdb034c	-0.02673497
50	0x3e8acf6b	0.27111372
51	0xbce3b2c9	-0.027795212
52	0x3e18be06	0.14916238
53	0xbd64dcc7	-0.055874612
54	0xbd55b8d8	-0.052178234
55	0xbe10695f	-0.14102696
56	0x3ebdd6f6	0.37078065
57	0x3dd4f0f8	0.10397524
58	0x3e68a32f	0.227185
59	0x3e89ec0e	0.26937908
60	0x3e0f55a3	0.13997512
61	0xbe01386b	-0.12619178
62	0xbd5822d2	-0.052767582
63	0xbe5b6ac9	-0.21427454
64	0xbe5561b7	-0.20838057
65	0xbe8fe41c	-0.2810372
66	0x3d35b037	0.044357505
67	0xbe57ed0d	-0.21086521
68	0xbd5df879	-0.05419204
69	0xbd78a026	-0.060699604
70	0x3e01a7b8	0.12661636
71	0x3e02f3e8	0.12788355
72	0xbe5e0d30	-0.21684718
73	0x3d901d4b	0.07036837
74	0xbd997489	-0.074929304
75	0xbda13ac5	-0.078725375
76	0x3d78fc94	0.060787752
77	0x3b0b72ae	0.0021278071
78	0xbd5c8c60	-0.05384481
79	0xb9184d64	-0.0001452468
80	0xbd2462e9	-0.04013339
81	0xbdd2a81e	-0.10285972
82	0x3cdbba4e	0.026822235
83	0xbd88da08	-0.06682211
84	0x3e1ca81d	0.15298505
85	0xbdfe2c77	-0.12410825
86	0x3dda2609	0.10651786
87	0xbd4dfc8c	-0.050289676
88	0x3da36609	0.07978446
89	0x3d19c51b	0.03754149
90	0x3ebcd12a	0.3687833
91	0x3e52fa7f	0.20603369
92	0x3edda77c	0.43291843
93	0x3e9345ef	0.28764293
94	0x3e671a50	0.22568631
95	0x3f02008a	0.5078207
96	0x3f02bf95	0.5107358
97	0x3ee6afb4	0.45055926
98	0x3f2685d5	0.6504796
99	0xbca69b34	-0.020337678
100	0x3e918f28	0.28429532
101	0x3e10e063	0.14148097
102	0x3e4f4671	0.20241715
103	0x3ec5a3fe	0.3860168
104	0x3ec244b2	0.37943035
105	0x3eaa9b7a	0.33321744
106	0x3edec5ed	0.4351038
107	0x3f0f4f50	0.55980396
108	0x3e1e336b	0.15449302
109	0x3e2c78b6	0.16842923
110	0x3ef9b8d1	0.48773816
111	0x3dfc27bd	0.12312267
112	0x3eaea587	0.34110662
113	0x3ec4f687	0.38469335
114	0x3edbc5a1	0.42924216
115	0x3f559f00	0.8344574
116	0x3e791969	0.243261
117	0x3ea99400	0.33120728
118	0x3e6a1e09	0.2286302
119	0x3f38eaaa	0.7223307

tcr_lstm.weight_ih_l1 f4 [120, 30]
0	0xbe5ba0af	-0.21448015
1	0x3d3db847	0.04631832
2	0xbeb32ef1	-0.3499675
3	0x3e014792	0.12624958
4	0x3cf0adc4	0.029379733
5	0xbcf9e992	-0.030506883
6	0x3c664f7e	0.014057038
7	0x3cbe7bbe	0.023252364
8	0x3edc740a	0.4305728
9	0x3e9cef31	0.3065124
10	0xbdfb8b39	-0.12282414
11	0x3e547594	0.20747977
12	0x3ed6d3f3	0.4195858
13	0xbd0e6292	-0.034761973
14	0x3e6f564b	0.23372762
15	0xbedf0f0e	-0.43566173
16	0x3e5d8350	0.21632123
17	0xbe81b87b	-0.2533606
18	0xbf5b759f	-0.8572635
19	0xbf06c579	-0.5264507
20	0x3f00ebfb	0.5036008
21	0xbcc977b4	-0.024593212
22	0xbebf7ad1	-0.3739839
23	0xbea53617	-0.3226783
24	0xbd7c357f	-0.061574455
25	0xbf622f64	-0.8835356
26	0x3e26db69	0.16294636
27	0x3e1354a4	0.14387757
28	0x3dde119d	0.10843203
29	0x3c9b18c0	0.0189327
30	0x3d5ca72b	0.05387036
31	0x3e8663ca	0.26248008
32	0xbd5327fd	-0.051551808
33	0x3f2cc3e1	0.6748639
34	0xbee029a9	-0.43781784
35	0x3e911231	0.2833419
36	0x3f017b0a	0.5057837
37	0xbe9905eb	-0.29887328
38	0x3d9eeec7	0.07760387
39	0x3e885837	0.26629803
40	0xbbb9bafd	-0.0056680427
41	0x3e6f75f4	0.2338484
42	0x3dfee4ce	0.12445985
43	0x3efa509f	0.48889634
44	0x3f26a200	0.6509094
45	0x3d78e120	0.06076157
46	0xbe19dce6	-0.15025672
47	0xbe46ffa2	-0.19433454
48	0xbedfcf88	-0.4371302
49	0xbe66aaac	-0.22526044
50	0xbe60dca2	-0.21959165
51	0x3dbad94d	0.09123478
52	0xbf313590	-0.69222355
53	0xbe2a6c23	-0.16642813
54	0xbe3e897a	-0.1860713
55	0x3e0fa58a	0.14027992
56	0xbea8108f	-0.32825133
57	0x3d03bc86	0.03216221
58	0xbd66cbb9	-0.05634663
59	0xbd570652	-0.052496262
60	0x3eae6ad6	0.34065884
61	0xbf496b54	-0.78679395
62	0xbcdc20a8	-0.02687104
63	0xbf1fc1bc	-0.6240499
64	0x3eb45e8a	0.35228378
65	0xbe9e9ad3	-0.30977497
66	0xbdf73f46	-0.12072615
67	0x3e5355ff	0.20638274
68	0xbf08d618	-0.5345168
69	0x3e8e46aa	0.27788287
70	0xbec62cff	-0.38706204
71	0x3e1d6178	0.15369213
72	0x3e9fc214	0.31202757
73	0x3e659478	0.22419918
74	0xbf2a3d67	-0.6649994
75	0x3e0bb56e	0.13643429
76	0xbe9d3ac2	-0.3070889
77	0x3e66343c	0.22480863
78	0xbf056fe6	-0.5212387
79	0xbe308564	-0.17238384
80	0xbf078253	-0.52933234
81	0xbea89a5e	-0.32930273
82	0x3f8c5352	1.0962927
83	0xbe80adc9	-0.25132588
84	0xbdd6de2f	-0.10491597
85	0xbeecfc30	-0.46286154
86	0x3c39b76b	0.011335234
87	0xbe0e2cb2	-0.13884237
88	0xbeab2f44	-0.33434498
89	0xbc76a22c	-0.015053313
90	0x3eb01098	0.3438766
91	0x3e92f1ac	0.28700006
92	0x3e8ca8cb	0.2747253
93	0xbe49644c	-0.19667166
94	0x3f2d7ebc	0.67771506
95	0x3e62b29a	0.22138444
96	0xbe33c7e7	-0.17556725
97	0xbe75bc57	-0.23997627
98	0xbd358c98	-0.044323534
99	0xbe94e8d2	-0.29083878
100	0x3ef38a8d	0.47566643
101	0xbeb210db	-0.34778485
102	0x3e37e11a	0.17956963
103	0x3ebb4823	0.36578473
104	0x3d4e2d9c	0.050336465
105	0xbf488f6e	-0.78343856
106	0xbdaa5c6a	-0.08318408
107	0x3ee9e1ef	0.45680186
108	0x3ec8b208	0.39198327
109	0xbeab271e	-0.33428282
110	0xbf1bd09e	-0.608652
111	0xbec92b23	-0.39290723
112	0x3d77e0c9	0.060517106
113	0xbe0c9740	-0.13729572
114	0xbf15595a	-0.58339465
115	0x3d844adc	0.06459591
116	0x3e96fd8e	0.29490322
117	0x3f1f42dc	0.62211394
118	0xbe1f799c	-0.15573734
119	0x3f103f5a	0.56346667
120	0x3ed15ae6	0.40889663
121	0xbe275398	-0.16340482
122	0x3e82f779	0.25579432
123	0x3ea03779	0.31292322
124	0x3dba6f44	0.091032535
125	0xbddcf45d	-0.10788796
126	0xbf03015b	-0.51173943
127	0x3dec2d41	0.11532069
128	0xbd8d88bf	-0.06910848
129	0xbe389023	-0.18023734
130	0xbee2852e	-0.44242233
131	0xbdae2500	-0.08503151
132	0x3f013e40	0.5048561
133	0xbe542dba	-0.20720568
134	0x3efa3bd8	0.48873782
135	0x3dc72ab3	0.09724941
136	0x3e827535	0.25480047
137	0xbe57b35e	-0.21064517
138	0xbe8a477d	-0.27007666
139	0xbe9e12f0	-0.30873823
140	0xbee1a8d6	-0.44074124
141	0x3d34cb61	0.04413927
142	0x3dda688b	0.10664471
143	0x3ec4803b	0.38379082
144	0x3e6c1f69	0.23058857
145	0xbec202a0	-0.37892628
146	0xbe1fd452	-0.15608338
147	0x3eaa5874	0.3327061
148	0xbdf431ed	-0.11923585
149	0x3ceacd59	0.02866237
150	0xbed3af06	-0.4134447
151	0x3ec6e352	0.38845307
152	0x3e3ac5ab	0.18239467
153	0xbe90d07c	-0.2828406
154	0xbee8c768	-0.45464635
155	0x3d3e3e3d	0.046446074
156	0x3e508261	0.20362236
157	0x3b53471c	0.003223843
158	0xbe5ccfe5	-0.2156368
159	0x3f219066	0.6311096
160	0xbcd1fa18	-0.02563195
161	0x3e85d3ed	0.2613825
162	0x3d95bb80	0.073111534
163	0x3e82c419	0.25540236
164	0x3df6f4ab	0.120583855
165	0x3f140e70	0.5783453
166	0xbf037faa	-0.51366675
167	0x3e01bd6a	0.12669912
168	0x3e873ecc	0.26415098
169	0xbcbfcfc4	-0.0234145
170	0x3e62a388	0.22132695
171	0x3e70bac9	0.23508753
172	0x3e3f1005	0.18658455
173	0x3ec15035	0.37756506
174	0x3dbd8d5b	0.09255477
175	0xbf44aed2	-0.76829255
176	0x3e5f73bc	0.21821493
177	0x3ee6e7f5	0.45098844
178	0x3eefb74f	0.4681954
179	0xbb8d5184	-0.004312696
180	0xbe9ccb90	-0.30624056
181	0xbec6a00f	-0.3879399
182	0xbecfa255	-0.40553537
183	0x3f1ab431	0.604312
184	0xbe954c7f	-0.29159924
185	0x3e255094	0.1614402
186	0x3ea63c28	0.3246777
187	0xbeb16db8	-0.3465402
188	0x3ef4ba34	0.47798312
189	0x3f1ae8b1	0.6051131
190	0x3ca012e9	0.019540267
191	0x3cd3dfa6	0.02586348
192	0xbe03cc9f	-0.12871026
193	0xbcd3f0a2	-0.025871579
194	0x3dc12ee5	0.094327725
195	0xbe426e85	-0.18987472
196	0x3d6e1232	0.05812282
197	0xbec9825d	-0.39357272
198	0xbf2508de	-0.64466655
199	0x3e42b5dd	0.19014688
200	0x3d3f5356	0.046710335
201	0x3e468327	0.19385968
202	0xbe82ed32	-0.2557159
203	0xbdc8e027	-0.09808379
204	0xbeea59f2	-0.45771748
205	0xbaf94779	-0.0019018493
206	0xbef4dc09	-0.47824124
207	0x3e88482e	0.2661757
208	0x3e16b8b0	0.1471889
209	0xbea89f8a	-0.3293422
210	0x3e7337ef	0.23751806
211	0x3ef43397	0.4769561
212	0x3e2841d8	0.16431367
213	0xbe04b27a	-0.12958708
214	0xbe80ad47	-0.251322
215	0xbde2ad5c	-0.11068222
216	0x3efc3bfc	0.49264514
217	0xbf2fe357	-0.6870627
218	0xbef474dd	-0.4774541
219	0xbcf31f08	-0.029677883
220	0x3f1f3bb4	0.62200475
221	0xbdece82c	-0.11567721
222	0xbe79d02d	-0.24395819
223	0x3ed15091	0.4088178
224	0xbc1fb3ed	-0.0097474875
225	0xbe999616	-0.2999732
226	0x3d8e44e1	0.06946731
227	0xbf0c227f	-0.54740137
228	0x3e588829	0.21145691
229	0x3e78aee6	0.24285468
230	0x3e82be10	0.2553563
231	0x3e6144af	0.21998857
232	0xbc8a2140	-0.016861558
233	0xbd63c05e	-0.055603378
234	0xbef12a5b	-0.47102627
235	0xbf15b7b9	-0.58483464
236	0xbe800529	-0.25003937
237	0xbe48fafb	-0.19626991
238	0x3e0fb1b9	0.1403264
239	0x3ed7f6a3	0.42180356
240	0x3dda3d3c	0.10656211
241	0x3e00eeb4	0.12591058
242	0x3f4aa03a	0.79150736
243	0x3dc52b18	0.0962736
244	0xbeae6d59	-0.340678
245	0xbf12965b	-0.57260674
246	0xbd048132	-0.032349773
247	0x3e2e1512	0.17000225
248	0x3e929f79	0.28637293
249	0x3dde941b	0.108680926
250	0x3e5e872c	0.21731251
251	0xbbe69b5e	-0.007037564
252	0xbebb5a93	-0.3659254
253	0xbe99a431	-0.3000808
254	0x3d07e222	0.03317464
255	0x3e7c834c	0.24659461

tcr_lstm.weight_hh_l1 f4 [120, 30]
0	0x3e18bc84	0.14915663
1	0xbf3b0c64	-0.7306578
2	0x3d947edd	0.0725076
3	0xbe432a24	-0.19059044
4	0xbe9c8640	-0.30571175
5	0xbea3ad22	-0.31968027
6	0xbf12e168	-0.5737519
7	0x3db71ea9	0.08941395
8	0x3f793212	0.97342026
9	0xbf101fab	-0.5629832
10	0xbb49734f	-0.0030738895
11	0xbfa722e5	-1.3057524
12	0x3e8b5785	0.2721521
13	0x3e374e31	0.17900921
14	0x3dd1ab3a	0.10237737
15	0x3efab996	0.48969716
16	0xbdc83d1c	-0.09777281
17	0xbdd2e2de	-0.10297178
18	0xbd47cdc9	-0.048780236
19	0x3da9a0a5	0.08282594
20	0x3eea0102	0.45703894
21	0xbebdcd80	-0.37070847
22	0xbea1093f	-0.31452367
23	0x3e232a81	0.15934183
24	0x3dd54951	0.104143746
25	0x3f464180	0.77443695
26	0x3ecc2a3d	0.39875975
27	0xbe1ba36a	-0.15199056
28	0xbedcbc69	-0.43112496
29	0x3d83b78e	0.06431495
30	0x3f28c4a6	0.6592506
31	0xbe34ad11	-0.17644145
32	0xbd4f0932	-0.05054588
33	0xbf25fd47	-0.64839596
34	0xbe8efa30	-0.27925253
35	0x3e1976ef	0.14986776
36	0x3eec6a35	0.4617478
37	0x3f074d89	0.52852684
38	0xbcd1b238	-0.025597677
39	0xbf0f94bc	-0.56086326
40	0x3e97a1ba	0.29615575
41	0xbabfa9c8	-0.0014622742
42	0xbdf7de58	-0.121029556
43	0xbe0c6afa	-0.13712683
44	0xbefa06c7	-0.48833296
45	0x3f71ca47	0.94449276
46	0xbeac8e4e	-0.3370232
47	0xbedcdc10	-0.43136644
48	0xbd91b847	-0.07115226
49	0xbe4e9aa3	-0.20176177
50	0xbe7d9d45	-0.24767025
51	0xbee2e9fb	-0.44319138
52	0xbe841a0e	-0.25801128
53	0xbe0651d2	-0.1311715
54	0x3e7531fe	0.23944852
55	0x3e04ecbb	0.1298093
56	0x3ed079cb	0.4071792
57	0xbf3f59ea	-0.7474657
58	0x3d962e14	0.073330075
59	0x3be7c00d	0.007072455
60	0x3e86b93d	0.263132
61	0x3e42b07d	0.19012637
62	0x3f41aa6c	0.7565067
63	0x3c0b4cce	0.008502198
64	0x3ecc7c92	0.3993879
65	0x3e86c05d	0.26318637
66	0xbc0f5a56	-0.008749565
67	0xbe0b2b23	-0.13590674
68	0xbd7c6615	-0.06162079
69	0x3cdb4966	0.026768398
70	0xbe20bb0f	-0.15696357
71	0xbe5c33c8	-0.21504128
72	0xbe387e1e	-0.1801686
73	0xbf112194	-0.5669186
74	0xbe637bed	-0.22215243
75	0xbef062d8	-0.46950412
76	0x3efc8a71	0.49324372
77	0xbdf5bd4e	-0.11998998
78	0x3c47021f	0.012146502
79	0xbe089794	-0.13339072
80	0x3f0bce23	0.54611415
81	0x3f5a2850	0.8521776
82	0x3ef18ec5	0.47179237
83	0xbeef7254	-0.46766913
84	0x3f2b0a80	0.66812897
85	0xbf9a425c	-1.2051501
86	0xbd3859de	-0.04500758
87	0x3f00a0a5	0.50245124
88	0xbf0147ae	-0.505
89	0xbd3afb5c	-0.04564987
90	0x3d3901c4	0.0451677
91	0x3d209043	0.03920008
92	0xbec51515	-0.38492647
93	0xbd74401f	-0.059631463
94	0x3ddc4335	0.10755006
95	0xbede5eb8	-0.4343164
96	0xbeebdda8	-0.46067548
97	0x3e08a9a8	0.13345969
98	0xbde1c625	-0.11024121
99	0xbe8e91a9	-0.27845505
100	0x3e68b4c3	0.22725205
101	0x3edf0afd	0.4356307
102	0x3c44241b	0.011971499
103	0x3e86aaa7	0.26302072
104	0xbe25737c	-0.16157335
105	0xbee7779e	-0.45208448
106	0xbe0ef35c	-0.13960022
107	0x3d2a29ea	0.04154388
108	0xbecabc26	-0.3959667
109	0x3d781c62	0.060573943
110	0xbea9618a	-0.3308223
111	0xbd9a8bfe	-0.07546233
112	0xbdcdc472	-0.100472346
113	0xbe990b06	-0.29891223
114	0x3f176474	0.59137654
115	0xbd0fe5f3	-0.035131406
116	0xbe17a96c	-0.14810723
117	0x3e343540	0.17598438
118	0x3f07c7e0	0.5303936
119	0x3eb0d9b0	0.34541082
120	0x3c909875	0.017650822
121	0x3f1f8caf	0.6232404
122	0xbf8427bd	-1.0324627
123	0xbdc36f00	-0.09542656
124	0xbe3966b3	-0.18105583
125	0x386cad48	5.6428165e-05
126	0xbd002d9f	-0.031293508
127	0xbda0fd19	-0.078607745
128	0xbebbc60a	-0.3667453
129	0x3f1fc3de	0.62408245
130	0x3b4efe7d	0.0031584792
131	0x3f28a729	0.65880066
132	0x3f34e02e	0.7065457
133	0xbc89f56c	-0.01684066
134	0xbe133925	-0.14377268
135	0x3e1178ea	0.14206281
136	0x3d957e6a	0.07299502
137	0xbe831988	-0.25605416
138	0xbc4fe3c8	-0.012688585
139	0xbd134d48	-0.035962373
140	0xbf18ce22	-0.59689534
141	0xbf65d81f	-0.897829
142	0x3ecd21ef	0.40064952
143	0xbe005c5a	-0.1253523
144	0x3e281c43	0.16417031
145	0xbf790a89	-0.972817
146	0xbdf0a829	-0.11750824
147	0x3d85c7b3	0.0653223
148	0x3f8282cd	1.0196167
149	0x3c56ac22	0.013102563
150	0xbea5794e	-0.3231911
151	0x3e05f6d0	0.13082433
152	0x3dc9b7d8	0.098495185
153	0x3d8f86d3	0.070081376
154	0xbb6b4d8f	-0.0035904383
155	0xbe5be980	-0.21475792
156	0xbebadcbb	-0.3649653
157	0xbed8412b	-0.4223722
158	0x3b1ce16e	0.0023938078
159	0xbe1452c0	-0.14484692
160	0xbededb00	-0.4352646
161	0x3db2d772	0.08732499
162	0x3dbff1e4	0.09372309
163	0x3e8af5f3	0.2714077
164	0xbe1b0b6a	-0.15141073
165	0xbd3ab44d	-0.045582104
166	0x3edc9358	0.43081164
167	0xbe8163bf	-0.25271413
168	0x3de6e841	0.11274768
169	0xbdc53769	-0.09629709
170	0x3ec32cba	0.3812006
171	0x3da46f70	0.080290675
172	0x3f07c035	0.5302766
173	0x3e26884c	0.1626293
174	0xbe9df1b0	-0.30848455
175	0x3f21225d	0.6294306
176	0x3f1e708d	0.6189049
177	0xbef2fde1	-0.4745932
178	0xbce5fe7e	-0.028075453
179	0x3eb64dd3	0.3560625
180	0x3be9cfe6	0.007135379
181	0xbe1243ed	-0.14283724
182	0xbf0424e0	-0.51618767
183	0xbdcf8818	-0.1013338
184	0xbdfd2a21	-0.12361551
185	0x3d966518	0.07343501
186	0x3e4b1a25	0.19834192
187	0xbee1dd73	-0.44114265
188	0x3e4a7315	0.19770463
189	0xbe8fe812	-0.28106743
190	0xbe175335	-0.14777835
191	0xbec61522	-0.38687998
192	0xbebb1c8e	-0.36545223
193	0x3e630f16	0.22173724
194	0x3e366d49	0.17815126
195	0x3e8fbb3b	0.28072533
196	0x3f1c7b52	0.6112567
197	0xbeafdd31	-0.34348443
198	0xbceec734	-0.029147722
199	0xbdff0432	-0.12451972
200	0x3d051724	0.03249277
201	0xbe81340b	-0.25235018
202	0x3e480628	0.19533598
203	0x3c7e4324	0.015518937
204	0xbe384b5d	-0.17997499
205	0xbd9680fe	-0.07348822
206	0xbec5d205	-0.38636795
207	0xbccff130	-0.025383562
208	0x3e8f1d1d	0.279519
209	0x3d94d51b	0.07267209
210	0xbdacd3d2	-0.08438839
211	0xbeadf1b2	-0.3397346
212	0x3e28b68c	0.16475886
213	0xbe90b35f	-0.2826185
214	0x3dbfef53	0.09371819
215	0xbf21cee9	-0.63206345
216	0xbe9ec5f0	-0.3101039
217	0x3de9d8fe	0.11418341
218	0xbf2ef6cd	-0.6834534
219	0xbf256d77	-0.64620155
220	0xbe8124ae	-0.25223297
221	0xbef4b8dd	-0.4779729
222	0x3e5ae6c6	0.21377096
223	0x3ee4f555	0.44718423
224	0x3ec14186	0.37745303
225	0xbdf25ecd	-0.11834488
226	0x3b7cec67	0.0038593055
227	0xbe0804fd	-0.13283153
228	0x3da33cf5	0.07970611
229	0xbf2a9774	-0.6663735
230	0x3de18772	0.11012162
231	0xbd21d1a5	-0.039506573
232	0xbf20c652	-0.6280261
233	0x3f39ca80	0.72574615
234	0x3e4d5d80	0.20055199
235	0x3cbb33e6	0.022851896
236	0xbeaa0f51	-0.3321481
237	0xbe0e10a5	-0.13873537
238	0xbd27e063	-0.040985476
239	0x3f541ac2	0.8285333
240	0xbe0b5524	-0.13606697
241	0xbd3b8c3f	-0.045788046
242	0x3f1ba438	0.6079745
243	0xbeef4676	-0.46733445
244	0xbe2bb69e	-0.16768882
245	0xbdcbee91	-0.09957612
246	0xbeec2e96	-0.46129292
247	0xbea10d29	-0.31455353
248	0x3e70ccf3	0.23515682
249	0x3e8737bf	0.26409718
250	0xbf748828	-0.9552026
251	0xbe89c8a6	-0.26910895
252	0xbf3d0e29	-0.7384973
253	0xbec0925d	-0.37611666
254	0x3e989c50	0.29806757
255	0x3cd11c61	0.025526227

tcr_lstm.bias_ih_l1 f4 [120]
0	0x3de98954	0.114031464
1	0x3eb2cd15	0.3492209
2	0x3e2ba0ff	0.16760634
3	0x3e993add	0.29927722
4	0x3f0ce722	0.5504018
5	0x3e29c4a4	0.16578919
6	0x3eb56316	0.3542716
7	0x3e781ef7	0.24230562
8	0x3d4d66b4	0.050146773
9	0x3f12ca36	0.573398
10	0x3f1689f1	0.5880423
11	0x3e95ce01	0.2925873
12	0x3df9a231	0.12189139
13	0x3e6ccb98	0.2312454
14	0x3e0b36af	0.13595079
15	0x3ebedfe9	0.37280205
16	0x3ec356e4	0.3815223
17	0x3ee9ab37	0.4563844
18	0x3e36fd17	0.17869984
19	0x3e172e18	0.14763677
20	0x3d971d07	0.073785834
21	0xbc5d9cda	-0.013526166
22	0x3e9e079d	0.30865183
23	0x3ed894d6	0.42301053
24	0x3e82332f	0.25429675
25	0x3e8562cf	0.26051947
26	0x3ea24a40	0.31697273
27	0x3d83d700	0.06437492
28	0x3ee87680	0.45402908
29	0x3e5d8353	0.21632127
30	0x3f0a8ae0	0.54118156
31	0x3f18d0dd	0.596937
32	0x3e9ea2d3	0.309836
33	0x3e5cd446	0.21565351
34	0x3e3474e0	0.1762271
35	0x3d1ef09e	0.03880369
36	0x3e865023	0.26233014
37	0x3ec037b1	0.3754249
38	0x3d358e39	0.044325087
39	0x3dfa4748	0.12220627
40	0x3e6cfb54	0.23142749
41	0xbdc3dc60	-0.095635176
42	0x3e8c75b9	0.27433565
43	0x3ef698bb	0.481634
44	0x3ec01f70	0.37523985
45	0x3eed40d8	0.46338534
46	0x3e0233d7	0.12715088
47	0x3d9720b8	0.073792875
48	0x3e8f5944	0.27997792
49	0x3e14ba99	0.14524306
50	0x3e836f3d	0.25670806
51	0x3e0d41c6	0.13794622
52	0x3e36ea2b	0.17862765
53	0x3dc3d800	0.09562683
54	0xbd85011f	-0.064943545
55	0xbcdba670	-0.026812762
56	0x3e21a357	0.15784965
57	0x3eb12b03	0.34603128
58	0x3ea94446	0.330599
59	0x3e46a46d	0.19398661
60	0x3e6a9ac9	0.22910608
61	0x3e3d2069	0.18469395
62	0x3ea97a3e	0.33101076
63	0xbd3a99cb	-0.045556825
64	0xbdbdf20b	-0.09274682
65	0xbda47f92	-0.080321446
66	0xbdc0a12c	-0.09405741
67	0x3c917a37	0.017758472
68	0xbdace57a	-0.08442207
69	0x3def0807	0.11671453
70	0x3e4d20e4	0.20032078
71	0xbbeba486	-0.0071912436
72	0x3da82dc6	0.082118556
73	0xbce47835	-0.02788935
74	0x3e50c125	0.20386179
75	0x3d892226	0.066959664
76	0x3cf7b125	0.030235836
77	0x3ce2784c	0.027645253
78	0xbe0c2e98	-0.13689649
79	0xbc883bbb	-0.016630044
80	0xbe4039e7	-0.18772088
81	0xbdd7dfb2	-0.10540713
82	0x3cff396d	0.031155312
83	0x3d982f6b	0.07430919
84	0x3b739f00	0.0037173629
85	0xbe3ca0f6	-0.18420777
86	0xbc450e5f	-0.012027352
87	0x3cf72d19	0.030172871
88	0xbe6679b8	-0.2250737
89	0xbd582ad7	-0.05277523
90	0x3f035f20	0.51317024
91	0x3e2fc306	0.1716424
92	0x3f2c0c74	0.672065
93	0x3ee25d88	0.44211984
94	0x3eef0ed3	0.46690997
95	0x3cff18e0	0.031139791
96	0x3e8add1c	0.27121818
97	0x3e70849a	0.23488083
98	0x3eda432f	0.42629382
99	0x3dfa985a	0.1223609
100	0x3ee5d5df	0.44889733
101	0xbdedeedc	-0.116178244
102	0xbcfd3f19	-0.030913876
103	0x3e46fe8d	0.19433041
104	0x3ec386d7	0.38188812
105	0x3f0617f7	0.5238032
106	0x3e69089c	0.2275719
107	0x3d931ed6	0.07183616
108	0x3f070e51	0.5275622
109	0x3db4d827	0.0883029
110	0x3e4f2893	0.20230322
111	0xbb6cbe46	-0.0036124154
112	0x3e941ff2	0.28930622
113	0x3ec39405	0.38198867
114	0x3e270933	0.16312103
115	0x3e5bc5db	0.21462195
116	0x3f0cba3f	0.5497169
117	0x3e05af3b	0.13055126
118	0x3f2db894	0.6785977
119	0x3ebac1fe	0.3647613

tcr_lstm.bias_hh_l1 f4 [120]
0	0x3deb37c7	0.11485248
1	0x3e896014	0.26831114
2	0x3e9defe4	0.30847085
3	0x3e8689e7	0.26277086
4	0x3ed1a9d3	0.40949878
5	0x3dec3531	0.11533583
6	0x3eef2a3f	0.4671192
7	0x3e5f50f2	0.21808222
8	0x3e96ea56	0.2947566
9	0x3ef86842	0.48517042
10	0x3ecdff88	0.40234017
11	0x3ecf6239	0.40504625
12	0x3cd4e683	0.025988823
13	0x3c84ce24	0.016211577
14	0x3e4fcc4d	0.20292778
15	0x3ef216fa	0.47283155
16	0x3eed06ed	0.46294346
17	0x3e909985	0.28242126
18	0x3d108065	0.035278697
19	0x3e786f0d	0.24261113
20	0x3e07ac9c	0.13249439
21	0xbd2d916e	-0.04237502
22	0x3e802971	0.25031617
23	0x3ea53270	0.32265043
24	0x3e5e26a7	0.21694432
25	0x3eee6ace	0.4656586
26	0x3e6b6184	0.22986418
27	0x3d854c12	0.0650865
28	0x3ee295b7	0.44254848
29	0x3eb00987	0.3438227
30	0x3ef890e2	0.48548037
31	0x3ef938b3	0.4867607
32	0x3e6f7a4d	0.23386498
33	0x3e28d387	0.16486941
34	0x3e3f62d8	0.1869005
35	0x3dd1b122	0.102388635
36	0x3e914b50	0.2837777
37	0x3e2b0ee0	0.16704893
38	0x3d9be22b	0.076114975
39	0x3dd665d0	0.10468638
40	0x3e9f6d26	0.3113796
41	0xbdf3454b	-0.11878451
42	0x3e7892fa	0.24274817
43	0x3ee98466	0.45608824
44	0x3e697aae	0.22800705
45	0x3e7aec8c	0.24504298
46	0x3e037db0	0.12840915
47	0x3c15c2b8	0.009140663
48	0x3e0b478b	0.1360151
49	0x3d18fd29	0.037350807
50	0x3e5feec4	0.21868426
51	0x3e77b54a	0.2419025
52	0x3e78170c	0.24227542
53	0x3ddedd44	0.10882047
54	0x3cf3c1da	0.029755522
55	0xbe0889be	-0.13333794
56	0xbcb25d0a	-0.02177288
57	0x3e8b699f	0.2722902
58	0x3eb70c10	0.3575139
59	0x3e716e28	0.23577178
60	0x3e6d6a75	0.23185141
61	0xbc131552	-0.008977251
62	0x3d3584cf	0.04431611
63	0xbea666ed	-0.325004
64	0xbde8c10c	-0.11364946
65	0x3d24449f	0.040104505
66	0xbd928c97	-0.07155722
67	0x3d603f6a	0.054747976
68	0xbd485eab	-0.048918407
69	0x3d866553	0.06562295
70	0x3c7e757d	0.015530941
71	0xbdd7978f	-0.105269544
72	0xbdcf16fd	-0.101118065
73	0xbe4c0267	-0.19922791
74	0x3db61c1e	0.08892082
75	0xbdfd9794	-0.12382427
76	0xbe7cd0a6	-0.24688968
77	0x3e17e835	0.14834674
78	0x3d83d0f1	0.06436337
79	0x3d6a27f8	0.057167023
80	0xbd252bed	-0.040325094
81	0x3da185b1	0.07886828
82	0xbd74a865	-0.059730906
83	0xbd2534a9	-0.040333424
84	0x3e4d4b8e	0.20048353
85	0xbd9b980e	-0.075973615
86	0x3da758a7	0.08171206
87	0x3d8603a3	0.065436624
88	0x3cbeaa19	0.023274468
89	0x3d021058	0.031753868
90	0x3efaa815	0.4895636
91	0x3eb0dc63	0.34543142
92	0x3f2690fe	0.6506499
93	0x3ee22d52	0.44175202
94	0x3edc0036	0.4296891
95	0x3e54b8fe	0.20773694
96	0x3e87147c	0.26382816
97	0x3e86ddab	0.26340994
98	0x3e9cc5d5	0.30619684
99	0x3e7a7f43	0.24462609
100	0x3e455902	0.19272235
101	0xbb50fccb	-0.0031888958
102	0x3d8ef13d	0.06979606
103	0x3e91d6ae	0.284841
104	0x3edf3535	0.4359528
105	0x3f02e24c	0.5112655
106	0x3e8adcb7	0.27121517
107	0x3da93c57	0.08263462
108	0x3efa77b3	0.48919448
109	0x3e9fe0ef	0.31226298
110	0x3e56522b	0.20929782
111	0x3e10a12f	0.14123987
112	0x3e936fca	0.28796226
113	0x3e86cab1	0.26326516
114	0x3e872bac	0.26400506
115	0x3e9aa5fc	0.3020476
116	0x3ea4369f	0.32072923
117	0x3e8eed97	0.27915642
118	0x3f1b9707	0.60777324
119	0x3f04abbc	0.51824546
