ignore.pt (torch_old, 287661 bytes, 21 tensors)

tcr_embedding.weight f4 [21, 10]
0.0 0.0 0.0 0.0 0.0 0.0 0.0 0.0
0.0 0.0 -0.40526313 1.2782762 -0.26268113 -1.9661822 -0.7874642 -0.84425426
1.0764326 -0.7516514 0.64810413 -2.2462144 0.23338246 1.2285377 3.165372 -0.97056675
0.5584471 -0.44550982 0.21697156 0.6499175 -0.32572907 0.33240387 1.6725991 -0.38947058
0.1675954 -1.0165646 -0.41132638 1.0494473 -0.64111215 -1.4015046 0.6025976 -0.24280213
-2.0712397 -0.4909739 -0.23793076 0.723294 1.0150802 0.7924344 0.547622 0.22004113
-1.984503 0.7581115 0.6838085 0.028112914 -0.2730778 -0.25822875 -1.0602905 1.0661035
-0.9157959 0.031465158 0.15955655 0.6927101 -0.27095637 -1.404897 -1.3853425 -0.7514631
1.6620526 0.86003715 -0.07424984 -0.2607564 0.5082874 -2.0147505 -0.3601341 0.3236228
0.12811983 1.0287844 0.4060045 2.478755 1.1081173 -0.63226575 0.87267256 0.44228595
-0.8756077 -0.0022990433 0.5214536 -0.43171388 -1.1675 0.8116135 -0.16010031 -0.45957524
-1.0386118 0.21368624 -0.020949692 1.0249659 -0.25167757 0.7033845 -0.03312116 -1.2706137
-1.5209055 -0.9073848 -0.8657088 -0.67104465 -3.0285828 -0.48270494 0.51639616 -1.0169593
-0.20328902 -1.4919829 0.28578162 1.0879779 1.9046878 -0.255938 -0.008421824 -2.170991
-0.039302975 1.8628589 -0.4385255 -0.70106214 0.6467733 0.075803906 -2.519886 -1.4393005
0.55138355 -1.7434025 0.6398445 0.029813966 0.020373808 0.47025594 0.2874599 1.092061
-0.104384735 -0.6717509 0.57287616 -0.22756374 -0.4030395 -1.0029676 1.3198144 0.01671981
-0.21740098 3.208695 -0.29123762 -0.92523664 1.0793524 -1.4433722 -0.00025837903 -0.307612
-0.7726228 -0.017922105 -1.6215372 1.627111 0.2571062 1.4336866 0.29007247 -0.046378642
1.0201303 1.1269606 1.2006302 -2.4465072 -1.8744963 -1.6897668 -0.27633402 1.3262624
-0.93128896 0.7104538 -0.03061923 -0.06731361 -0.36171567 -1.2587048 1.7713344 1.975286
0.48302013 0.45913017 1.1396239 0.067421995 0.6889903 -0.16377181 -1.6771729 -0.68285555
0.18442847 -1.130549 0.58867466 0.5130613 -0.34793344 2.0244124 -1.3131332 0.07547477
1.5726248 0.28984213 -1.5336844 -0.18480204 -0.1651061 -0.19518478 1.1935538 1.6596154
-1.2588426 0.14975615 -0.77737737 -0.09832682 -0.4885475 0.6686287 -1.041021 2.4675498
0.586286 0.0037519115 -0.04727116 1.6058551 0.097260825 -1.1417562 1.4129213 1.3540165
-1.0371587 0.27040586
00000000: 0000 0000 0000 0000 0000 0000 0000 0000
00000010: 0000 0000 0000 0000 0000 0000 0000 0000
00000020: 0000 0000 0000 0000 a67e cfbe 8e9e a33f
00000030: 247e 86be dcab fbbf 4197 49bf 0c21 58bf
00000040: 8bc8 893f 3a6c 40bf 27ea 253f fac1 0fc0
00000050: d0fb 6e3e b940 9d3f 7495 4a40 1077 78bf
00000060: 64f6 0e3f dd19 e4be cb2d 5e3e fe60 263f
00000070: f6c5 a6be d730 aa3e ba17 d63f b068 c7be
00000080: 219e 2b3e ca1e 82bf 5f99 d2be 4a54 863f
00000090: ed1f 24bf 8164 b3bf d643 1a3f 1fa1 78be
000000a0: 318f 04c0 ee60 fbbe 1fa4 73be cc29 393f
000000b0: 26ee 813f fbdc 4a3f f530 0c3f 7652 613e
000000c0: 3204 febf 9813 423f 130e 2f3f 0e4d e63c
000000d0: dad0 8bbe 8f36 84be 99b7 87bf 1476 883f
000000e0: 9a71 6abf 9ce1 003d cb62 233e 7355 313f
000000f0: cbba 8abe aad3 b3bf e752 b1bf e35f 40bf
00000100: 24be d43f 652b 5c3f 4d10 98bd dd81 85be
00000110: 1f1f 023f acf1 00c0 7f63 b8be e3b1 a53e
00000120: d831 033e 35af 833f d2df cf3e eca3 1e40
00000130: cad6 8d3f 2bdc 21bf 7867 5f3f 4e73 e23e
00000140: d427 60bf 8cab 16bb fc7d 053f 9a09 ddbe
00000150: a470 95bf e7c5 4f3f 56f1 23be 724d ebbe
00000160: 3bf1 84bf 91d0 5a3e b09e abbc 1532 833f
00000170: e2db 80be 0211 343f 0eaa 07bd 78a3 a2bf
00000180: 08ad c2bf 5f4a 68bf 189f 5dbf 95c9 2bbf
00000190: 4dd4 41c0 1a25 f7be 8a32 043f b92b 82bf
000001a0: ff2a 50be 4cf9 bebf f851 923e dc42 8b3f
000001b0: cfcc f33f 4e0a 83be b1fb 09bc 84f1 0ac0
000001c0: 28fc 20bd 2972 ee3f 6a86 e0be cf78 33bf
000001d0: ef92 253f 143f 9b3d d045 21c0 003b b8bf
000001e0: 7927 0d3f d027 dfbf d9cc 233f 6b3c f43c
000001f0: f9e6 a63c 63c5 f03e f22d 933e a8c8 8b3f
00000200: aac7 d5bd def7 2bbf 03a8 123f 7806 69be
00000210: 315b cebe 3e61 80bf aeef a83f fcf7 883c
00000220: 5d9e 5ebe 425b 4d40 191d 95be 4fdc 6cbf
00000230: 3828 8a3f 6cc0 b8bf 0c77 87b9 527f 9dbe
00000240: 9cca 45bf 61d1 92bc 888e cfbf 2c45 d03f
00000250: 6da3 833e 0b83 b73f 6184 943e 88f7 3dbd
00000260: a193 823f 3f40 903f 40ae 993f 9393 1cc0
00000270: 7fef efbf 474a d8bf a77b 8dbe f7c2 a93f
00000280: f468 6ebf 4de0 353f 2ed5 fabc b8db 89bd
00000290: cc32 b9be 3d1d a1bf 16bb e23f 2cd6 fc3f
000002a0: 6a4e f73e 1c13 eb3e 32df 913f 8b14 8a3d
000002b0: ab61 303f ccb3 27be 9aad d6bf 9fcf 2ebf
000002c0: d1da 3c3e d4b5 90bf 62b3 163f fc57 033f
000002d0: 5524 b2be f98f 0140 c014 a8bf 8492 9a3d
000002e0: c54b c93f 3066 943e c54f c4bf bf3c 3dbe
000002f0: 9311 29be 85de 47be 5fc6 983f 476e d43f
00000300: c121 a1bf ad59 193e 3402 47bf 925f c9bd
00000310: e622 fabe 402b 2b3f 2d40 85bf 56ec 1d40
00000320: d716 163f a1e2 753b 679f 41bd a98c cd3f
00000330: af30 c73d 1125 92bf 9bda b43f 6a50 ad3f
00000340: 9ec1 84bf a372 8a3e

pep_embedding.weight f4 [21, 10]
0.0 0.0 0.0 0.0 0.0 0.0 0.0 0.0
0.0 0.0 1.4509993 0.24594879 0.8600498 -1.246202 -1.3867584 -1.7494023
-0.8073599 -0.9360635 -0.33331674 0.3865692 0.08907702 2.571529 -1.4630548 0.5669644
-0.76586276 0.07889206 -0.32182974 -0.36694458 0.59255564 -0.68635285 -0.29795665 -0.45659405
-0.19762634 0.62497795 0.27540246 2.4626448 -0.0043268357 -0.38134584 1.0885723 -0.819879
1.3206758 -0.7242388 -0.62788665 1.2484668 0.61984867 -1.3375062 -0.6733276 0.8458844
0.00066481455 0.08342149 -1.2509043 0.19216557 -1.2196443 0.23335293 -0.9230694 0.56056654
-0.3344659 -0.41706583 -0.25456277 -0.18719995 -0.3366026 -0.2940917 -0.10515092 0.8449288
-0.96770394 -0.04388502 -0.83529764 -0.35561338 -0.6295813 -0.5213214 -0.11806212 0.34074357
-0.4121903 -0.9350626 2.0085988 0.58474004 0.2889548 -0.05617274 -0.71523786 0.547274
0.4519059 0.8041355 2.200433 0.0053118374 0.68530387 -0.94603896 -0.72953594 1.457564
1.0048958 0.9189534 0.17062432 1.0813432 -0.063720785 0.22285369 0.27958852 -0.33954963
0.7331805 0.95531917 -0.15232988 0.19120549 -1.88393 -0.3872242 -0.10239328 -1.1264528
0.92355776 -0.12766775 1.4650847 0.23238172 1.1700723 -0.06755022 -0.4983507 0.26424837
0.870456 -0.27509454 -1.8554595 -1.7219238 1.9663393 1.4725835 0.16688873 -0.9584926
-1.611961 1.9220569 -1.6688552 -0.30040815 0.77703875 1.183566 0.81860214 0.13487619
-0.27657062 -0.38182676 -1.3141428 -1.1622788 -2.5745616 0.5253727 -0.29722962 -1.9902316
-1.128379 0.6730486 -0.6731164 0.75967014 0.74382037 0.50165826 0.9463202 1.0799344
-0.28059265 0.10004209 0.75801724 -1.0672642 -0.0038052136 0.44850528 0.35457465 -0.49406385
-0.68468016 -0.39846882 -0.025260357 1.3532497 -0.28836685 0.40474293 -1.5395744 -1.2284901
0.4762859 0.5963622 -0.5645536 -0.6093013 0.36569822 -0.7194244 0.8884446 -1.2866639
-0.037126638 0.20581128 -0.5561827 -1.1909145 0.9262012 -1.1919844 0.4798661 0.4806861
1.5367538 0.20580088 -0.010312738 0.5207117 0.11065709 0.5614457 0.4061139 -0.6498924
1.0900561 1.2512958 -0.5958005 0.5039424 -0.38557082 0.8382686 -0.13234156 -0.2678743
0.014573929 0.42046773 0.16010402 0.12089058 -0.8129309 -1.2672628 1.2319536 -0.36158115
1.2694914 -0.74382997 -0.43039462 -0.6371624 -1.2358865 0.948812 -1.1180981 0.008997653
-0.19433999 1.3578031
00000000: 0000 0000 0000 0000 0000 0000 0000 0000
00000010: 0000 0000 0000 0000 0000 0000 0000 0000
00000020: 0000 0000 0000 0000 58ba b93f 00da 7b3e
00000030: 392c 5c3f 8c83 9fbf 4d81 b1bf 6aec dfbf
00000040: 23af 4ebf dca1 6fbf 7ea8 aabe 66ec c53e
00000050: 036e b63d ee93 2440 6145 bbbf 9424 113f
00000060: 950f 44bf 2992 a13d dec6 a4be 29e0 bbbe
00000070: bab1 173f d2b4 2fbf c68d 98be b2c6 e9be
00000080: 8f5e 4abe 8efe 1f3f 8d01 8d3e f99b 1d40
00000090: 21c8 8dbb c33f c3be 5656 8b3f 97e3 51bf
000000a0: e80b a93f b767 39bf 2ebd 20bf c3cd 9f3f
000000b0: 67ae 1e3f 6733 abbf 335f 2cbf e18b 583f
000000c0: f346 2e3a e3d8 aa3d a21d a0bf 0dc7 443e
000000d0: 4e1d 9cbf 12f4 6e3e 474e 6cbf 4a81 0f3f
000000e0: 1d3f abbe a789 d5be 0d56 82be 58b1 3fbe
000000f0: 2d57 acbe 3093 96be 5e59 d7bd 414d 583f
00000100: 72bb 77bf c7c0 33bd 11d6 55bf f512 b6be
00000110: 3d2c 21bf 5275 05bf 8eca f1bd f175 ae3e
00000120: 9b0a d3be 4360 6fbf e28c 0040 86b1 153f
00000130: e2f1 933e 6315 66bd d419 37bf 261a 0c3f
00000140: 3660 e73e d3db 4d3f e5d3 0c40 ec0e ae3b
00000150: 1370 2f3f 9c2f 72bf dec2 3abf 7591 ba3f
00000160: 6da0 803f 8840 6b3f 24b8 2e3e 7469 8a3f
00000170: 0b80 82bd c233 643e 3a26 8f3e 73d9 adbe
00000180: b8b1 3b3f cc8f 743f 5dfc 1bbe 5fcb 433e
00000190: 9e24 f1bf 4042 c6be 91b3 d1bd 9b2f 90bf
000001a0: 486e 6c3f 56bb 02be e587 bb3f 79f5 6d3e
000001b0: eec4 953f c557 8abd d327 ffbe 904b 873e
000001c0: 34d6 5e3f 31d9 8cbe b27f edbf 0068 dcbf
000001d0: 02b1 fb3f 9e7d bc3f e1e4 2a3e c55f 75bf
000001e0: bd54 cebf f605 f63f 0c9d d5bf 19cf 99be
000001f0: 03ec 463f 177f 973f e98f 513f fc1c 0a3e
00000200: aa9a 8dbe cc7e c3be d535 a8bf 8dc5 94bf
00000210: 9ec5 24c0 d37e 063f 7b2e 98be e9bf febf
00000220: b96e 90bf ea4c 2c3f 5b51 2cbf be79 423f
00000230: 036b 3e3f ad6c 003f 0a42 723f 4a3b 8a3f
00000240: d7a9 8fbe dee2 cc3d 6b0d 423f 1d9c 88bf
00000250: e460 79bb 7ca2 e53e cf8a b53e f0f5 fcbe
00000260: 3347 2fbf 1b04 ccbe cfee cebc 4937 ad3f
00000270: d2a4 93be 773a cf3e c610 c5bf 2a3f 9dbf
00000280: bfdb f33e 31ab 183f 9686 10bf 2cfb 1bbf
00000290: cc3c bb3e 332c 38bf 1b71 633f 67b1 a4bf
000002a0: 1a12 18bd 31c0 523e fd61 0ebf e36f 98bf
000002b0: 861b 6d3f f292 98bf 02b1 f53e 7d1c f63e
000002c0: 59b4 c43f 77bd 523e c2f6 28bc 5d4d 053f
000002d0: 2fa0 e23d e8ba 0f3f 29ee cf3e 595f 26bf
000002e0: f586 8b3f 762a a03f 6286 18bf 5e02 013f
000002f0: 8a69 c5be c598 563f 8c84 07be d226 89be
00000300: 7dc7 6e3c 8c47 d73e 4ff2 233e 7b95 f73d
00000310: 3d1c 50bf ab35 a2bf a8b0 9d3f 2a21 b9be
00000320: b27e a23f a46b 3ebf af5c dcbe 131d 23bf
00000330: 8731 9ebf 58e5 723f d71d 8fbf e46a 133c
00000340: 1001 47be 7ecc ad3f

tcr_lstm.weight_ih_l0 f4 [200, 10]
0.04856689 0.08277294 -0.26721168 -0.8060046 -0.20044804 0.46366447 0.00877298 -0.2191497
0.12266539 -0.37030345 0.23525526 0.777037 0.04058113 -0.57590467 -0.55721945 -0.045208428
0.19740966 0.13718684 0.37386402 0.46457577 -0.46246102 -0.18677302 -0.43281916 0.019563567
0.14236629 0.15878071 -0.34014398 -0.515541 -0.20052251 -0.16645126 0.3913995 -0.026695495
0.31085864 -0.6221676 -0.10212255 -0.19064358 -0.58097714 -0.16740309 -0.056406245 -0.055361763
-0.4300728 0.0041635395 -0.79138184 0.40393764 0.10917494 0.13459307 0.317191 0.2905601
-0.43644822 0.046376865 0.2652204 0.04385906 0.09847852 -0.49367234 -0.03903973 0.0069695427
0.21935615 -0.057316683 0.20433338 -0.19639967 -0.71302783 -0.51403314 0.17045999 0.14567487
0.3556802 -0.24419966 0.1842251 0.23838587 -0.21557547 -0.2260386 -0.08362903 -0.08109599
0.08600666 0.6923737 -0.09314053 0.25651318 0.32375962 -0.14813164 -0.70460004 0.15228257
0.3069293 -0.22742522 -0.17606889 -0.06944542 0.21519628 -0.104228266 -0.9221558 -0.117903516
-0.5304259 0.055356402 0.38579193 0.13237841 0.04196539 -0.7875686 0.2831956 0.63415235
-0.57222706 -0.09545499 0.3770812 -0.1672905 0.30491975 -0.02209186 0.2244112 0.12926704
-0.33970708 0.014191776 0.5451508 0.17257226 -0.21165204 -0.1383978 0.16959777 -0.2066876
0.36415002 -0.12187839 -0.065622136 0.02752729 -0.34400693 0.14740093 -0.5463163 -0.041138582
0.05715804 -0.11676738 -0.15484558 0.48824546 0.3389991 -0.026257845 0.0453661 -0.18587233
-0.5571107 -0.25196716 0.2301308 -0.37402618 0.5290666 0.62996453 0.07675147 -0.14359403
-0.38181347 0.23641297 -0.87329555 0.31984043 -0.14852479 0.48037925 0.2368952 0.36894578
0.3504642 -0.4158027 -0.3251167 0.057233315 0.05227513 0.5822804 0.15349425 0.47229198
-0.13236797 -0.17770146 -0.016378189 -0.18024188 -0.00026606937 0.16934705 0.031634267 0.25772944
-0.46345827 -0.20018862 0.13584131 -0.54846144 -0.14486209 -0.24898331 0.20832744 0.2535685
-0.21172431 -0.06247583 0.4869777 -0.6236269 0.028624233 -0.03558571 -0.4055173 -0.12124462
-0.51291823 0.053537898 -0.62983954 -0.03392841 -0.16530561 -0.2578802 0.25348946 0.11257438
0.07132213 -0.16334657 -0.07916044 -0.043256264 -0.33066535 0.19507878 0.13770984 -0.1603837
0.49302363 0.89224267 -0.32113647 0.07050497 0.16672878 -0.5677752 -0.1220353 0.23896351
0.23651868 0.40348658 0.23433702 -0.6523696 -0.17844164 -0.108869396 -0.34916598 -0.48282084
-0.32811627 -0.11006846 -0.01555352 0.10407734 0.5284204 -0.23254529 -0.13171357 -0.013247377
0.10624643 0.14004178 -0.1344107 -0.17968297 0.08733525 0.15612051 0.6814066 -0.12172846
0.15943442 0.17391233 0.008016201 0.5704046 -0.3872403 0.25719088 -1.0444031 0.06790095
0.5093955 0.25542405 -0.20178327 -0.26751286 0.26909557 -0.0076072933 -0.91152906 0.20988645
-0.089557566 0.6312234 -0.29263765 0.35449484 0.26540682 0.046723034 0.28882748 -0.25060105
0.517385 -0.23444098 0.005327833 -0.021538 0.25022772 -0.1619349 -0.18377693 -0.27961528
00000000: 13ee 463d dc84 a93d f8cf 88be 5156 4ebf
00000010: 4042 4dbe 6e65 ed3e 8cbc 0f3c c768 60be
00000020: fe37 fb3d 6a98 bdbe c1e6 703e e6eb 463f
00000030: 6638 263d 7d6e 13bf efa5 0ebf 792c 39bd
00000040: c225 4a3e b57a 0c3e 1b6b bf3e e0dc ed3e
00000050: b1c7 ecbe 6d41 3fbe 799a ddbe c643 a03c
00000060: 78c8 113e 6997 223e 5a27 aebe 7ffa 03bf
00000070: c655 4dbe 3372 2abe 8465 c83e 83b0 dabc
00000080: dd28 9f3e 6046 1fbf a125 d1bd 1238 43be
00000090: ebba 14bf b76b 2bbe 3c0a 67bd 04c3 62bd
000000a0: 8132 dcbe 4d6e 883b 0098 4abf ead0 ce3e
000000b0: 1c97 df3d c4d2 093e dc66 a23e 4bc4 943e
000000c0: 2476 dfbe abf5 3d3d f8ca 873e 8fa5 333d
000000d0: 1baf c93d 9fc2 fcbe 20e8 1fbd c360 e43b
000000e0: e69e 603e e6c4 6abd c53c 513e ff1c 49be
000000f0: fe88 36bf ad97 03bf 108d 2e3e cb2b 153e
00000100: b71b b63e 7a0f 7abe 81a5 3c3e 6d1b 743e
00000110: d1bf 5cbe aa76 67be b245 abbd a815 a6bd
00000120: 4224 b03d 673f 313f 76c0 bebd b255 833e
00000130: d2c3 a53e d2af 17be ab60 34bf f6ef 1b3e
00000140: d625 9d3e 28e2 68be 674b 34be 6639 8ebd
00000150: 6a5c 5c3e a175 d5bd 6712 6cbf 6677 f1bd
00000160: fec9 07bf 65bd 623d 8586 c53e 358e 073e
00000170: e7e3 2b3d 199e 49bf 04ff 903e cf57 223f
00000180: 797d 12bf e87d c3bd c910 c13e 334e 2bbe
00000190: 711e 9c3e fdf9 b4bc 0dcc 653e 945e 043e
000001a0: 16ee adbe 9f84 683c 018f 0b3f c8b6 303e
000001b0: 50bb 58be 27b8 0dbe 0aab 2d3e eaa5 53be
000001c0: df71 ba3e 619b f9bd e664 86bd e980 e13c
000001d0: ad21 b0be 45f0 163e 63db 0bbf ee80 28bd
000001e0: 8d1e 6a3d bc23 efbd d78f 1ebe 4ffb f93e
000001f0: 4a91 ad3e b11a d7bc ced1 393d 5155 3ebe
00000200: cf9e 0ebf d701 81be 69a7 6b3e 5c80 bfbe
00000210: e970 073f 5b45 213f e02f 9d3d 500a 13be
00000220: 0e7d c3be 3e16 723e 4c90 5fbf 20c2 a33e
00000230: e216 18be 45f4 f53e a894 723e 76e6 bc3e
00000240: 0b70 b33e 17e4 d4be b275 a6be 7b6d 6a3d
00000250: 721e 563d 5410 153f 992d 1d3e 41d0 f13e
00000260: 788b 07be 5ff7 35be 8d2b 86bc 5491 38be
00000270: 3a7f 8bb9 5069 2d3e ef92 013d 1df5 833e
00000280: 674a edbe 3ffe 4cbe fc19 0b3e f867 0cbf
00000290: ba56 14be 7bf5 7ebe ca53 553e bbd3 813e
000002a0: 42ce 58be a8e6 7fbd 2455 f93e 03a6 1fbf
000002b0: 5e7d ea3c 52c2 11bd f79f cfbe 194f f8bd
000002c0: 9c4e 03bf 8e4a 5b3d 2a3d 21bf 84f8 0abd
000002d0: e045 29be e008 84be 5fc9 813e 668d e63d
000002e0: 5611 923d 5344 27be de1e a2bd 7b2d 31bd
000002f0: f84c a9be bbc2 473e cf03 0d3e a03b 24be
00000300: 986d fc3e 046a 643f 006c a4be e964 903d
00000310: f3ba 2a3e b759 11bf a5ed f9bd dab2 743e
00000320: f431 723e cb95 ce3e 0bf6 6f3e b201 27bf
00000330: 68b9 36be ebf6 debd e2c5 b2be 4b34 f7be
00000340: dbfe a7be 936b e1bd 31d4 7ebc 8026 d53d
00000350: 8f46 073f 5a20 6ebe ecdf 06be 870b 59bc
00000360: ba97 d93d 1d67 0f3e f5a2 09be d0fe 37be
00000370: d3dc b23d 0ede 1f3e aa70 2e3f c54c f9bd
00000380: c742 233e 1316 323e 6256 033c 0906 123f
00000390: 5c44 c6be 86ae 833e 00af 85bf a70f 8b3d
000003a0: be67 023f f1c6 823e 46a0 4ebe 72f7 88be
000003b0: e5c6 893e 9a46 f9bb f859 69bf 79ec 563e
000003c0: f569 b7bd db97 213f 9ad4 95be 5980 b53e
000003d0: 67e3 873e a760 3f3d 32e1 933e c84e 80be
000003e0: 5873 043f 4c11 70be 1a95 ae3b 7670 b0bc
000003f0: d91d 803e 43d2 25be 0530 3cbe bc29 8fbe

tcr_lstm.weight_hh_l0 f4 [200, 50]
0.5417974 -0.68612105 0.2971716 -0.33027646 0.63866436 0.1837956 -0.4320888 0.4219529
-0.13943592 -0.22727288 -0.4623051 -0.28594747 -0.04213347 -0.39573538 0.51558644 0.060075127
0.20724328 0.3432063 0.17337915 0.19511722 -1.2837108 -0.26983535 -0.06851814 -0.0678352
-0.25167435 0.09252185 0.08475117 0.2890147 -0.095838256 -0.4605069 0.097623385 0.7211203
-0.41136926 -0.3612906 -0.42296353 -0.37543783 0.080091976 -0.019851668 0.115551434 -0.58052486
0.4653316 0.10869909 -0.61087483 0.22847341 0.9160137 -0.28226894 -0.9359546 0.14223368
0.23737407 -0.09557306 0.60237324 0.29784608 0.16460785 0.03267475 0.084545836 -0.32737073
-0.8298173 0.5601793 0.15510723 -0.6351402 0.5070177 0.10860014 0.5571478 -0.22435121
-0.40127525 -0.07588256 -0.4501838 -0.4335043 -0.018839065 -0.0605443 0.112301275 -0.45980665
0.006158613 0.075713575 -0.2569715 -0.08584362 0.31070825 0.3129097 0.14493863 -0.38739574
-0.64854485 0.31945875 0.18865384 -0.35617742 0.6230811 0.05460968 0.78201497 -0.05237534
0.11974394 -0.17161442 0.41662472 0.07190813 0.12712401 -0.44939286 0.1746754 0.38578942
-1.11686 0.45030445 -0.3052535 -0.1470057 0.2427903 -0.333375 -0.38981175 -0.48844913
-0.30356246 0.093184985 -0.21089315 -0.1057398 0.47603932 0.062742226 0.19071898 0.9675737
0.03225558 -0.8524315 0.19043268 0.43522188 -0.28955254 0.25230265 0.7666456 0.3308488
-0.34468195 0.1733237 0.07074078 -0.025006896 -0.20818499 0.45316812 0.4668405 0.33089346
-0.2245928 -0.48258227 -0.19963129 0.27585733 0.1564709 -0.13031022 0.23359857 0.13890973
0.30056703 0.18671419 -0.186925 -0.24643645 -0.6771193 0.5618414 0.13619384 -0.25714216
0.600034 0.24244863 0.21654668 -0.029567875 0.008127968 0.41048372 0.3013891 -0.77106327
-0.074621886 0.5390749 -0.44177726 0.7635671 0.022489201 -0.06833144 -0.21452112 -0.0010370257
-0.006201291 0.08053718 -0.5890747 -0.37349704 0.2164716 -0.35985014 -0.037124816 -0.22907965
0.3955605 0.6854743 -0.06927464 -0.08664173 0.6823597 0.2656022 -0.46403232 -0.06418455
-0.25346202 0.21695751 0.8005308 -0.57864803 -0.3836316 -0.13020283 0.09922631 -0.16175815
0.017712772 -0.06503628 -0.224007 0.21196009 -0.9479406 0.017947847 -0.36852682 -0.025058966
-0.5089699 -0.22686766 0.2907028 0.0057664295 -0.3301594 0.29853386 -0.14083824 0.31388974
0.55205286 0.8718873 0.6435634 0.37083775 -0.642075 -0.2478645 0.06417325 0.050220534
-0.19536413 0.14497244 -0.00048565856 -0.13808222 -0.63284904 -0.35526258 -0.17972866 -0.23393269
-0.06354432 0.39882535 0.28008422 0.6123526 -0.536145 0.16077547 0.6339824 0.35546404
0.21576633 -0.7839447 0.4307609 0.2581209 1.016896 -0.09892064 0.3630655 -0.69645065
0.7336363 -0.3797552 0.066485725 0.045837585 0.088584855 -0.1458098 -0.8249596 0.11252506
-0.37761548 -0.09396454 -0.41912097 -0.40968332 -0.53861827 -0.12422928 0.44517952 -0.34603804
-0.37129715 -0.57300997 -0.17051405 -0.10295845 0.58838445 0.6372913 -0.43143362 0.05299788
00000000: 3cb3 0a3f a1a5 2fbf e026 983e ff19 a9be
00000010: 827f 233f ea34 3c3e be3a ddbe 360a d83e
00000020: 4ac8 0ebe 39ba 68be 41b3 ecbe b567 92be
00000030: 2594 2cbd d49d cabe 79fd 033f 5611 763d
00000040: 9537 543e bcb8 af3e 4e8a 313e cfcc 473e
00000050: a350 a4bf dc27 8abe 3d53 8cbd 2eed 8abd
00000060: 76db 80be 187c bd3d 0592 ad3d bcf9 933e
00000070: d946 c4bd 8fc7 ebbe c5ee c73d 579b 383f
00000080: fe9e d2be 15fb b8be ad8e d8be 6339 c0be
00000090: 4307 a43d f79f a2bc 3ba6 ec3d 479d 14bf
000000a0: f23f ee3e a19d de3d 4b62 1cbf eff4 693e
000000b0: e07f 6a3f 8e85 90be b89a 6fbf b5a5 113e
000000c0: 3012 733e cfbb c3bd 2235 1a3f 487f 983e
000000d0: f68e 283e f5d5 053d 5e26 ad3d 239d a7be
000000e0: e86e 54bf e967 0f3f 6ed4 1e3e 8c98 22bf
000000f0: e9cb 013f c069 de3d 3da1 0e3f 53bc 65be
00000100: f373 cdbe 5168 9bbd 7e7e e6be 47f4 ddbe
00000110: 6254 9abc 4dfd 77bd 36fe e53d c76b ebbe
00000120: 31ce c93b b80f 9b3d c591 83be c8ce afbd
00000130: 2715 9f3e b335 a03e cb6a 143e bc58 c6be
00000140: 0907 26bf 1990 a33e 792e 413e e35c b6be
00000150: 3e82 1f3f 66ae 5f3d 2232 483f 8687 56bd
00000160: 503c f53d b1bb 2fbe d64f d53e 9244 933d
00000170: cc2c 023e d216 e6be 1cde 323e 3186 c53e
00000180: 45f5 8ebf 4e8e e63e 304a 9cbe aa88 16be
00000190: 059e 783e 21b0 aabe 6895 c7be 0116 fabe
000001a0: 8a6c 9bbe c5d7 be3d 60f4 57be 1c8e d8bd
000001b0: 6dbb f33e ff7e 803d d64b 433e e9b2 773f
000001c0: 6d1e 043d f338 5abf c900 433e 67d5 de3e
000001d0: 3b40 94be d02d 813e e342 443f 0465 a93e
000001e0: 277a b0be c57b 313e 8be0 903d 43db ccbc
000001f0: 722e 55be a705 e83e b805 ef3e de6a a93e
00000200: a8fb 65be 0615 f7be 256c 4cbe 2c3d 8d3e
00000210: e839 203e 0b70 05be 7734 6f3e 5a3e 0e3e
00000220: ece3 993e 0132 3f3e 4469 3fbe d659 7cbe
00000230: b157 2dbf d7d4 0f3f 6676 0b3e 23a8 83be
00000240: d49b 193f 7444 783e 6abe 5d3e 5438 f2bc
00000250: 2b2b 053c ec2a d23e ac4f 9a3e 6764 45bf
00000260: 5cd3 98bd d000 0a3f a130 e2be 2279 433f
00000270: 463b b83c 5bf1 8bbd 6dab 5bbe cfec 87ba
00000280: 3334 cbbb adf0 a43d 99cd 16bf 013b bfbe
00000290: bbaa 5d3e 473e b8be 3110 18bd db93 6abe
000002a0: e886 ca3e 3e7b 2f3f dddf 8dbd 3871 b1bd
000002b0: 20af 2e3f 03fd 873e a595 edbe 3073 83bd
000002c0: c6c5 81be 1c2a 5e3e 96ef 4c3f 4722 14bf
000002d0: 5c6b c4be e453 05be 2a37 cb3d eea3 25be
000002e0: 601a 913c be31 85bd 1762 65be 110c 593e
000002f0: 3cac 72bf 5d07 933c 8caf bcbe 7648 cdbc
00000300: da4b 02bf ff4f 68be ffd6 943e 51f4 bc3b
00000310: a70a a9be 6ed9 983e e637 10be 28b6 a03e
00000320: 5653 0d3f 0234 5f3f 92c0 243f 72de bd3e
00000330: 075f 24bf 31d0 7dbe 446d 833d 0cb4 4d3d
00000340: 890d 48be a873 143e fd9f feb9 6d65 0dbe
00000350: 6502 22bf fae4 b5be ca0a 38be 0d8c 6fbe
00000360: 8623 82bd d632 cc3e 3367 8f3e 24c3 1c3f
00000370: cc40 09bf 53a2 243e ac4c 223f 62ff b53e
00000380: d9f1 5c3e 9ab0 48bf b18c dc3e 6c28 843e
00000390: a629 823f e896 cabd b9e3 b93e 974a 32bf
000003a0: 97cf 3b3f 466f c2be ab29 883d 31c0 3b3d
000003b0: fa6b b53d 2a4f 15be 8d30 53bf 8a73 e63d
000003c0: d156 c1be 7b70 c0bd 0697 d6be 03c2 d1be
000003d0: e3e2 09bf ec6b febd 92ee e33e e62b b1be
000003e0: a91a bebe c8b0 12bf 3c9b 2ebe e1db d2bd
000003f0: 5da0 163f 8625 233f dee4 dcbe 4e14 593d

tcr_lstm.bias_ih_l0 f4 [200]
0.27564216 0.39251408 0.51293045 0.035914227 0.22565539 0.28941345 0.14363718 -0.0403585
0.40858507 0.05194081 0.22476357 0.29226515 0.20418021 0.41241845 0.1446077 0.573927
0.08837199 0.20460328 0.21772459 0.38101965 0.048706364 0.69140315 0.22677283 0.25763276
0.12650326 -0.12106113 0.41443115 0.43832213 0.4741765 0.39316973 0.3802658 0.33172804
0.14319144 0.12178172 0.4367621 0.48661438 0.21394809 0.27900797 0.6020034 0.047743574
0.08728927 0.16150606 0.33830914 0.29687384 0.049249575 0.31726936 0.020800978 0.15416203
0.6859585 0.40383968 0.0615929 0.10651201 0.29022148 0.0153759 0.09538609 0.03461764
0.13278213 0.23431538 0.07098797 0.06392392 0.118622966 0.2704337 -0.0808552 0.047464453
0.7002029 -0.08426046 0.18215013 0.1661123 0.17329653 0.04424785 -0.117265776 -0.0007213801
-0.011971504 -0.018828722 0.16845651 -0.1373701 -0.052417092 0.1269579 0.10848961 -0.11623737
0.2270248 -0.22228262 0.361722 0.38628817 0.13470694 0.29934904 0.17618357 0.038107347
-0.06171164 0.09443525 -0.11596954 0.19360526 0.17714958 0.3217427 0.09901425 -0.02845056
0.32661602 0.36527973 -0.052998867 0.11048806 -0.05080335 -0.14644869 -0.112226255 0.14153206
-0.049486812 0.05860471 -0.05297157 -0.112850256 -0.10271123 0.048613917 0.03311027 0.10298872
0.0939321 -0.09127264 0.0225676 -0.23335984 0.0180829 -0.13877283 -0.08339019 0.04477273
-0.043883845 0.14508802 0.013895502 0.12305957 -0.046877474 -0.11511877 0.12256166 0.21690087
0.1361223 0.044216488 -0.063270874 0.17191699 -0.12265709 -0.17619023 0.057710685 -0.0011100945
-0.042212673 -0.14340222 -0.07488029 0.08812157 -0.13285305 -0.008794708 -0.030227698 -0.09291071
0.014242303 -0.1884313 -0.10290125 0.17103483 -0.031209797 0.06628132 0.5000691 0.52165306
0.66278297 0.34635317 0.31854692 0.12323329 0.47328746 0.4714809 0.5579957 0.34531367
0.1328155 0.652873 0.059435148 0.35778984 0.3386663 0.49489948 0.5905371 0.34324175
0.40904227 0.09736297 0.22511464 0.6014962 0.3826601 0.6152108 0.9522074 0.40389618
0.36691615 0.2033743 0.5367522 0.5537255 0.2991207 0.2421483 0.6278047 0.16776645
0.66450083 0.4131991 0.22380888 0.39632738 0.8390251 0.5170418 0.28016275 0.38321662
0.56787544 0.37514827 0.34338486 -0.039587554 0.11277942 0.14156882 0.39362785 0.35917675
00000000: f820 8d3e 9bf7 c83e 694f 033f cc1a 133d
00000010: 3512 673e 002e 943e a015 133e f44e 25bd
00000020: 1032 d13e e3bf 543d 6c28 663e c7a3 953e
00000030: 9e14 513e 8328 d33e 0a14 143e e1ec 123f
00000040: 60fc b43d 8683 513e 32f3 5e3e 0215 c33e
00000050: 5380 473d ccff 303f 2337 683e 71e8 833e
00000060: 128a 013e e6ee f7bd 5230 d43e c26b e03e
00000070: 43c7 f23e 8b4d c93e 33b2 c23e 42d8 a93e
00000080: c7a0 123e b268 f93d 489f df3e 8525 f93e
00000090: 3515 5b3e 22da 8e3e e51c 1a3f c48e 433d
000000a0: b7c4 b23d d861 253e db36 ad3e d9ff 973e
000000b0: ecb9 493d 2171 a23e d066 aa3c a7dc 1d3e
000000c0: fa9a 2f3f 13c4 ce3e d648 7c3d f822 da3d
000000d0: e997 943e 33eb 7b3c c859 c33d 3acb 0d3d
000000e0: 0af8 073e 5ff0 6f3e 2462 913d 8bea 823d
000000f0: 99f0 f23d 4976 8a3e 6997 a5bd 166a 423d
00000100: 7f40 333f c090 acbd 9085 3a3e 5819 2a3e
00000110: a574 313e 3c3d 353d 0a29 f0bd 001b 3dba
00000120: 2124 44bc b13e 9abc dd7f 2c3e bfaa 0cbe
00000130: 4eb3 56bd 4001 023e cd2f de3d dc0d eebd
00000140: 3079 683e 0e9e 63be a033 b93e 90c7 c53e
00000150: 9ef0 093e 4744 993e 7769 343e 7316 1c3d
00000160: 58c5 7cbd 4567 c13d 7081 edbd 7540 463e
00000170: b366 353e 76bb a43e fcc7 ca3d 2611 e9bc
00000180: 373a a73e f205 bb3e 5715 59bd 9047 e23d
00000190: 2c17 50bd a5f6 15be e1d6 e5bd c8ed 103e
000001a0: afb2 4abd 7e0b 703d b8f8 58bd 091e e7bd
000001b0: 445a d2bd 631f 473d a29e 073d c0eb d23d
000001c0: 795f c03d 26ed babd b0df b83c e2f5 6ebe
000001d0: 9722 943c 771a 0ebe 7ac8 aabd 9c63 373d
000001e0: 8cbf 33bd f491 143e f6a9 633c a806 fc3d
000001f0: 9802 40bd 64c3 ebbd 9c01 fb3d 431b 5e3e
00000200: a563 0b3e 591c 353d 2994 81bd 020b 303e
00000210: a433 fbbd 366b 34be 0a62 6c3d 9780 91ba
00000220: 32e7 2cbd 08d8 12be d65a 99bd 1579 b43d
00000230: a10a 08be ae17 10bc 14a0 f7bc f847 bebd
00000240: 8c58 693c 22f4 40be e4bd d2bd c123 2f3e
00000250: b0ab ffbc 80be 873d 8704 003f 0e8b 053f
00000260: 25ac 293f 3455 b13e 9518 a33e bc61 fc3d
00000270: bc52 f23e f265 f13e ced8 0e3f f4cc b03e
00000280: c900 083e af22 273f 4572 733d 3b30 b73e
00000290: ab65 ad3e 7763 fd3e 702d 173f 62bd af3e
000002a0: fd6d d13e 3d66 c73d 7484 663e a8fb 193f
000002b0: 06ec c33e 747e 1d3f ddc3 733f 7bcb ce3e
000002c0: 6fdc bb3e 5a41 503e 9868 093f f4c0 0d3f
000002d0: 5926 993e b9f5 773e cfb7 203f f8ca 2b3e
000002e0: ba1c 2a3f d58e d33e 282e 653e 6ceb ca3e
000002f0: 59ca 563f da5c 043f 7e71 8f3e f834 c43e
00000300: 4960 113f 6f13 c03e 24d0 af3e 8f26 22bd
00000310: e6f8 e63d 6bf7 103e 9789 c93e 04e6 b73e

tcr_lstm.bias_hh_l0 f4 [200]
0.35125062 0.45802176 0.5436733 0.075164095 0.31029508 0.37739822 0.056265704 -0.029162195
0.45604253 0.09189723 0.2137347 0.29994798 0.10688129 0.3381861 0.16468853 0.5721285
0.23811166 0.348486 0.24583259 0.38088295 0.09234134 0.6205274 0.35854676 0.117497
0.086109556 -0.11447942 0.45143956 0.37357944 0.43717268 0.3882014 0.20938453 0.27182803
0.11814289 0.16986202 0.4151335 0.43444666 0.10108004 0.28253856 0.5891694 0.16331597
0.01532925 0.12238536 0.27571565 0.31230864 -0.15574166 0.3019327 -0.052740138 0.117978945
0.63273394 0.48078543 -0.025552696 0.008769245 0.43396327 -0.00367492 0.22399992 -0.010006633
0.04837731 0.08409933 0.046161223 0.024611639 0.19432236 0.35982805 -0.016915305 0.15321168
0.58318865 0.00042559428 0.14513652 0.18600005 0.18828952 0.19096898 -0.00396043 -0.08142845
-0.07336969 -0.11786581 0.22134164 -0.15185466 -0.18179487 0.1404108 0.03901958 -0.09801584
0.15849985 -0.18186894 0.24891081 0.2218691 0.27479523 0.31137112 0.19080628 -0.033505227
-0.111459844 0.18839318 0.016216785 0.16106786 0.1870418 0.35451585 -0.04745515 0.087918915
0.3345191 0.27477217 -0.09206052 0.05058023 -0.15110932 -0.07694129 0.0614436 0.02503468
-0.017900828 -0.02998254 -0.074076846 0.019234596 -0.1283591 0.10594227 0.054500084 0.10238876
0.110605165 0.026857045 0.102700286 -0.0905277 0.012271645 -0.20110032 -0.12745152 0.076932155
-0.15221517 -0.0018964042 0.020524206 0.15369932 0.04423996 -0.12584294 0.12923668 0.18266186
0.22969088 0.12631144 -0.07196043 -0.0010958561 -0.1350315 0.02512117 0.12894458 -0.066998586
-0.022175344 -0.11836205 -0.06400385 -0.03540681 0.07971956 -0.14536352 -0.070936084 -0.09889383
0.05763728 0.012932592 -0.22316556 0.102621235 0.19771518 0.012207294 0.431972 0.70113796
0.5400834 0.35100594 0.322852 0.11010806 0.5921603 0.42986465 0.4949617 0.36875644
0.24322633 0.6101421 0.22513416 0.46409068 0.4731472 0.48757756 0.62315756 0.44299018
0.2877789 0.2144252 0.35344094 0.5356927 0.2239701 0.6026025 0.82543415 0.4140653
0.43603522 0.23806135 0.5518751 0.61867446 0.29731062 0.3873751 0.6041576 0.16058718
0.5557441 0.43418077 0.2181501 0.3613706 0.767184 0.5073401 0.27194005 0.35778928
0.77277595 0.47336793 0.31232044 -0.043293837 0.09936319 0.18987808 0.22948226 0.2966591
00000000: 1fd7 b33e d481 ea3e 2c2e 0b3f a2ef 993d
00000010: ffde 9e3e 573a c13e de76 663d 8ee5 eebc
00000020: 687e e93e 9d34 bc3d 45dd 5a3e c892 993e
00000030: 94e4 da3d ba26 ad3e 1ca4 283e 0377 123f
00000040: 8bd3 733e c26c b23e 8abb 7b3e 1703 c33e
00000050: 751d bd3d e2da 1e3f 7193 b73e 44a2 f03d
00000060: 355a b03d 3074 eabd 1623 e73e ce45 bf3e
00000070: 19d5 df3e 55c2 c63e e668 563e 0b2d 8b3e
00000080: e6f4 f13d 4ff0 2d3e 618c d43e cb6f de3e
00000090: 0d03 cf3d e5a8 903e ced3 163f 4d3c 273e
000000a0: 8927 7b3c 2da5 fa3d 9a2a 8d3e ebe6 9f3e
000000b0: be7a 1fbe ec96 9a3e 0b06 58bd f29e f13d
000000c0: dafa 213f 8229 f63e e353 d1bc e1ac 0f3c
000000d0: 6f30 de3e edd6 70bb 3c60 653e dcf2 23bc
000000e0: 4927 463d 453c ac3d 8d13 3d3d 599e c93c
000000f0: 71fc 463e 623b b83e f791 8abc 86e3 1c3e
00000100: da4b 153f 4c22 df39 ab9e 143e cc76 3e3e
00000110: f8ce 403e 5f8d 433e 7fc6 81bb f6c3 a6bd
00000120: d942 96bd a163 f1bd 62a7 623e ca7f 1bbe
00000130: 6f28 3abe d9c7 0f3e ffd2 1f3d 87bc c8bd
00000140: c94d 223e da3b 3abe 7ae2 7e3e a731 633e
00000150: f6b1 8c3e 096c 9f3e b962 433e c73c 09bd
00000160: 0f45 e4bd 24ea 403e 10d9 843c f9ee 243e
00000170: e387 3f3e 1a83 b53e 5560 42bd d50e b43d
00000180: 1646 ab3e f0ae 8c3e 3a8a bcbd 372d 4f3d
00000190: 67bc 1abe 6593 9dbd 49ac 7b3d 8715 cd3c
000001a0: c2a4 92bc f29d f5bc 9ab5 97bd df91 9d3c
000001b0: 9170 03be 43f8 d83d 7b3b 5f3d 33b1 d13d
000001c0: f684 e23d 4e03 dc3c 8754 d23d 9666 b9bd
000001d0: 020f 493c 3eed 4dbe a782 02be 9b8e 9d3d
000001e0: 4bde 1bbe c490 f8ba 6122 a83c 5b63 1d3e
000001f0: f634 353d f9dc 00be 9f56 043e b60b 3b3e
00000200: 1634 6b3e c957 013e fd5f 93bd d4a2 8fba
00000210: b345 0abe e9ca cd3c 0c0a 043e 8e36 89bd
00000220: 11a9 b5bc cd67 f2bd 7314 83bd bb06 11bd
00000230: 0244 a33d 2dda 14be f046 91bd d988 cabd
00000240: 1215 6c3d 39e3 533c 8385 64be 152b d23d
00000250: d975 4a3e 1a01 483c 6f2b dd3e c77d 333f
00000260: e842 0a3f 0db7 b33e db4c a53e 5680 e13d
00000270: d197 173f 3817 dc3e 9f6b fd3e a5cd bc3e
00000280: 5310 793e 4632 1c3f 9289 663e 4b9d ed3e
00000290: 5a40 f23e c4a3 f93e 4187 1f3f 9ccf e23e
000002a0: c257 933e 4892 5b3e 36f6 b43e 2823 093f
000002b0: 6b58 653e 2844 1a3f a74f 533f 5e00 d43e
000002c0: 0240 df3e 5bc6 733e b047 0d3f 7361 1e3f
000002d0: 1939 983e 0756 c63e 13aa 1a3f f770 243e
000002e0: 3f45 0e3f f14c de3e bd62 5f3e 9105 b93e
000002f0: 2c66 443f 0ae1 013f ba3b 8b3e 2830 b73e
00000300: a5d4 453f 485d f23e 77e8 9f3e e154 31bd
00000310: ee7e cb3d 666f 423e 66fd 6a3e b4e3 973e

tcr_lstm.weight_ih_l1 f4 [200, 50]
0.23800755 -0.30680802 0.21210055 -0.16019031 -0.026092894 -0.22687803 -0.85548115 0.25367674
-0.38721457 -0.5097295 -0.35216314 -0.4382077 0.68259203 -0.0926692 -0.2029389 -1.0365981
0.20817722 0.067477144 -0.027831936 -0.052849952 -0.17271882 -0.17232521 0.17816532 0.28717208
0.68204486 0.28448182 -0.20139986 0.6587762 0.18719994 -0.2761264 0.043477807 -0.15360074
-0.29231727 0.13056423 0.31308976 0.60855937 0.07372888 0.068523176 -0.017292518 0.16694532
-0.038280413 -0.17205156 0.12335466 -0.71856225 0.63199764 -0.09703593 0.50961494 -0.104212314
-0.24367963 0.15072083 0.26271197 0.25104684 0.47388953 -0.5407919 0.11291353 -0.31851646
0.07959262 0.13887343 0.10153902 0.22425605 -0.10692679 -0.058512162 -0.043848757 -0.032271814
0.38908505 -0.0933588 0.3405562 0.08713243 0.012307679 -0.07458632 0.13261642 0.33123964
-0.0044960626 -0.19224201 -0.021325946 0.19161399 0.14753158 0.047498517 0.0073455297 0.4545191
-0.1920076 -0.12685965 -0.2970235 0.18931744 0.3135629 0.08278277 0.5481841 0.42691422
-0.29589295 -0.23107356 -0.076410726 0.1275065 0.17585963 0.17652911 -0.15896805 0.4445446
-0.48814222 0.21575795 -0.29163775 0.4270477 -0.64135844 -0.3154052 0.106964014 -0.4794393
0.48239964 -0.42611942 -0.21438295 -0.38555253 0.023497295 -0.236123 -0.17350566 -0.09002395
0.8585425 -0.3205454 -0.13586076 0.16834994 0.37007624 0.50618666 -0.029401297 -0.21031809
0.19582078 -0.09321913 0.21265161 0.6295911 -0.4242711 0.3807276 -0.77709645 0.38093436
-0.26429462 -0.19573534 0.08598118 -0.59980464 -0.6166452 -0.16448745 0.52067477 -0.1548022
-0.7065853 0.38008067 0.11880405 -0.16677272 -0.16958213 0.23343131 0.46820292 -0.4152268
0.592423 -0.2709215 -0.10291364 -0.60814285 0.31781507 -0.016226191 -0.2714635 -0.23293078
0.25450972 -0.0154152475 -0.0029451256 0.044234186 -0.52764374 0.16977023 0.3017395 -0.269831
0.62166363 -0.011664339 0.022435822 0.340389 0.44539112 0.105055995 0.20600861 0.28122127
-0.20024103 0.4989586 -0.1695551 -0.30500093 -0.08153672 0.539057 0.23358184 0.28943643
0.15928662 -0.22802866 0.21693459 -0.2268473 -0.4986153 -0.69961864 0.21048577 0.19356774
-0.42334965 -0.38488024 -0.17258073 -0.13591607 0.110564105 -0.113800324 0.099455185 0.24679197
-0.34210745 0.26390663 0.34185836 -0.059450943 0.15471801 0.120929085 -0.013345244 0.53548735
-0.38216904 -0.24381472 -0.31861416 -0.30246642 0.1330447 0.2571061 0.411182 0.029263245
-0.64272726 -0.21889089 0.0041997363 -0.1439099 0.21567169 0.052934844 0.4290805 -0.60147333
-0.0012582551 0.029196436 -0.0032819249 0.2719666 0.3830734 0.31697506 -0.21966062 0.3227016
0.11083868 0.15054736 0.03792818 0.26932043 0.36460072 0.22685398 0.30967754 -0.3173523
-0.029434465 0.13572706 -0.46187642 0.3071127 -0.2620786 0.46631268 -0.54942995 -0.5068319
0.26068768 -0.058792606 0.25240222 -0.4120584 0.19418056 -0.41203675 -0.27676997 0.06779096
-0.021460012 -0.3027451 0.3014652 -0.113666154 -0.15335444 -0.25190955 -0.11057323 -0.0022878195
00000000: 40b8 733e f115 9dbe e330 593e ee08 24be
00000010: c4c0 d5bc b752 68be d000 5bbf ebe1 813e
00000020: fd40 c6be a27d 02bf ba4e b4be c25c e0be
00000030: 5abe 2e3f 59c9 bdbd 37cf 4fbe 3faf 84bf
00000040: 692c 553e 7531 8a3d cdff e3bc 3179 58bd
00000050: 34dd 30be 0576 30be f870 363e 3808 933e
00000060: 7e9a 2e3f 9aa7 913e c43b 4ebe 8fa5 283f
00000070: 57b1 3f3e 7160 8dbe c915 323d 8349 1dbe
00000080: 9caa 95be a1b2 053e 4d4d a03e 8cca 1b3f
00000090: 2bff 963d e155 8c3d 0aa9 8dbc b7f3 2a3e
000000a0: eccb 1cbd 492e 30be 5ea1 fc3d b2f3 37bf
000000b0: 99ca 213f c6ba c6bd 2076 023f 446d d5bd
000000c0: 2787 79be 9056 1a3e 2f82 863e 3689 803e
000000d0: a6a1 f23e 5771 0abf 353f e73d 9714 a3be
000000e0: 7501 a33d d634 0e3e b1f3 cf3d 61a3 653e
000000f0: 6ffc dabd 73aa 6fbd c19a 33bd 732f 04bd
00000100: 2836 c73e e632 bfbd 625d ae3e 7d72 b23d
00000110: 26a6 493c b6c0 98bd 99cc 073e 3e98 a93e
00000120: b553 93bb 17db 44be c0b3 aebc 7536 443e
00000130: 8512 173e ce8d 423d c5b2 f03b bab6 e83e
00000140: a49d 44be 7fe7 01be 7713 98be 6edc 413e
00000150: 518b a03e 038a a93d cb55 0c3f 8094 da3e
00000160: 487f 97be 8c9e 6cbe 3a7d 9cbd 1091 023e
00000170: 8c14 343e 0cc4 343e 85c8 22be 5a9b e33e
00000180: c7ed f9be a7ef 5c3e 8b51 95be ffa5 da3e
00000190: 1130 24bf ca7c a1be f30f db3d 1179 f5be
000001a0: 16fd f63e 532c dabe 3487 5bbe 2467 c5be
000001b0: 667d c03c 3aca 71be 78ab 31be 7a5e b8bd
000001c0: 71c9 5b3f 871e a4be 151f 0bbe ed63 2c3e
000001d0: a27a bd3e 7395 013f fdda f0bc a05d 57be
000001e0: 3e85 483e ace9 bebd 58c1 593e e22c 213f
000001f0: 103a d9be baee c23e cbef 46bf d409 c33e
00000200: a051 87be d86e 48be e716 b03d cc8c 19bf
00000210: 76dc 1dbf 666f 28be f14a 053f 7884 1ebe
00000220: c6e2 34bf ef99 c23e 8a4f f33d 78c6 2abe
00000230: f0a6 2dbe 9e08 6f3e 4bb8 ef3e 9b98 d4be
00000240: 09a9 173f 39b6 8abe 63c4 d2bd 40af 1bbf
00000250: a8b8 a23e caec 84bc 44fd 8abe 6885 6ebe
00000260: 194f 823e 3c90 7cbc 0203 41bb e82e 353d
00000270: a913 07bf 3fd8 2d3e 9a7d 9a3e 4a27 8abe
00000280: 5925 1f3f c91b 3fbc 54cb b73c 7847 ae3e
00000290: 4e0a e43e 9927 d73d ecf3 523e 3cfc 8f3e
000002a0: fc0b 4dbe 8077 ff3e da9f 2dbe 1529 9cbe
000002b0: b9fc a6bd a4ff 093f 1430 6f3e 0331 943e
000002c0: 081c 233e 5880 69be 1a24 5e3e a94a 68be
000002d0: 814a ffbe 351a 33bf 9589 573e 9f36 463e
000002e0: 49c1 d8be 060f c5be 01b9 30be 952d 0bbe
000002f0: 6f6f e23d 2510 e9bd 29af cb3d 09b7 7c3e
00000300: b528 afbe c51e 873e 0f08 af3e d582 73bd
00000310: 666e 1e3e aba9 f73d 03a6 5abc b315 093f
00000320: a9ab c3be 91aa 79be 6521 a3be e1dc 9abe
00000330: df3c 083e 69a3 833e 7286 d23e 79b9 ef3c
00000340: c689 24bf ef24 60be f19d 893b 1e5d 13be
00000350: 0ad9 5c3e 35d2 583d 70b0 db3e 28fa 19bf
00000360: 09ec a4ba 5d2d ef3c 9015 57bb 353f 8b3e
00000370: 3222 c43e 8e4a a23e b7ee 60be 2539 a53e
00000380: 64ff e23d 1629 1a3e 945a 1b3d 5ee4 893e
00000390: f2ac ba3e 694c 683e 0e8e 9e3e 007c a2be
000003a0: 8c20 f1bc 09fc 0a3e 117b ecbe e03d 9d3e
000003b0: 2b2f 86be 89c0 ee3e 71a7 0cbf bcbf 01bf
000003c0: db78 853e 84d0 70bd dd3a 813e 52f9 d2be
000003d0: 45d7 463e 7bf6 d2be cbb4 8dbe fdd5 8a3d
000003e0: e8cc afbc 6801 9bbe a659 9a3e cdc9 e8bd
000003f0: f208 1dbe 4afa 80be 3874 e2bd 3eef 15bb

tcr_lstm.weight_hh_l1 f4 [200, 50]
-0.21408181 -0.55915767 -0.17361416 0.3283297 -0.44845986 -0.516256 -0.5509039 0.56976265
0.22474742 -0.077714555 0.4981774 0.033838373 0.28534088 0.27401218 -0.085190035 -0.76098967
0.100017786 -0.42428362 0.31012058 0.520438 -0.43679875 -0.19663353 -0.67598873 -0.4697546
-0.03106686 0.45176056 0.20021631 0.48173386 0.1046227 0.060669597 0.43462965 -0.14379239
0.39508054 -0.21667016 -0.6663766 0.32143375 0.027685668 -0.1059075 0.64857084 -0.50859326
0.31758398 -0.10118806 0.060744613 0.41886726 0.00061924243 0.18598668 0.5233926 -0.31176808
0.3778827 0.19247244 0.03324098 0.44162852 0.10438773 0.07396407 0.49976408 0.144738
-0.1869555 -0.9222131 -0.13862425 0.11483078 -0.5878761 0.43619964 0.5303648 -0.4008243
-0.03971589 -0.3944633 0.085827656 -0.44550923 0.30164605 0.036529794 0.32856956 0.17201495
0.47333148 0.0020818932 -0.1741439 -0.17269358 0.18556607 -0.80150056 -0.0215635 0.39459413
-0.36448368 -0.13967392 0.29990643 -0.44117454 0.14088778 -0.4354906 0.42150137 0.105059676
-0.5374764 -0.021516869 -0.13469782 -0.06634183 -0.12838548 -0.07950422 1.2807273 -0.13395175
-0.0045683193 -0.46066886 -0.28151825 -0.1824834 -0.17207271 -0.073451 -0.19596411 -0.41170883
0.36407688 0.03752636 0.027123291 -0.2711863 -0.14735758 0.22579236 -0.08045014 -0.0897456
0.04463635 0.24107891 -0.34716168 0.005732072 -0.129699 0.21834238 0.21733132 -0.44293082
0.023421304 0.08851108 -0.38191658 0.68079495 0.12840308 0.41616392 -0.17259248 0.076436706
0.0104792025 0.2574733 0.77212685 -0.025699513 0.11127692 -0.0525507 -0.45921203 0.47749966
-0.019422084 0.102164425 0.26130927 0.4534041 -0.10670936 0.25750804 0.13430245 0.1231577
0.012356167 0.21872245 0.34413734 -0.0999655 -0.33171734 -0.1710701 -0.077808686 -0.060518563
0.0033124276 -0.7299478 -0.08477958 -0.3253739 0.22387995 -0.4247825 0.17314342 0.41426682
0.095856085 0.1201004 0.41042146 0.4116567 -0.096081495 0.3927594 0.17359157 -0.43337068
0.38063303 -0.08686577 -0.60247916 0.23674048 0.39889774 0.48450562 -0.34134814 0.060347553
-0.46817964 0.0127957845 0.040670555 0.50407994 0.082335934 -0.17935468 -0.07107569 -0.7668964
-0.033826962 -0.3291777 0.21047841 -0.2470313 0.5613754 0.022623532 0.4028632 -0.02510574
0.59888136 0.30446342 0.00026133502 0.24230058 -0.081445634 0.0008352967 -0.15121362 0.457109
-0.40831944 0.49660608 0.047347922 0.24022639 -0.034368996 0.21975693 0.030671833 0.29738423
0.10978221 0.03462196 -0.1981636 0.7227685 -0.35241303 -0.2726698 -0.70847183 0.043376576
-0.24186017 -0.5202621 0.860717 -0.26070967 0.46092728 -0.049531028 0.094277814 0.4283434
0.12337696 -0.43617812 -0.12767307 0.058017552 0.4916805 -0.22073953 0.694621 -0.08414221
0.3814303 -0.66399634 0.37517542 -0.6428479 0.13731381 0.034180228 0.39277446 0.23724441
0.1840867 -0.19955543 0.38868278 -0.2660643 0.12211623 -0.07258557 0.57864517 0.03160895
-0.5619159 0.4565394 0.57471365 -0.020225093 -0.049252942 -0.262109 0.32115495 0.27101034
00000000: 4338 5bbe f524 0fbf e9c7 31be d51a a83e
00000010: 889c e5be 5a29 04bf 0a08 0dbf f7db 113f
00000020: 3024 663e cf28 9fbd 1c11 ff3e 1b9a 0a3d
00000030: 3318 923e 534b 8c3e 1d78 aebd 38d0 42bf
00000040: 20d6 cc3d b43b d9be 20c8 9e3e 6d3b 053f
00000050: 16a4 dfbe 4d5a 49be 990d 2dbf ad83 f0be
00000060: ed7f febc 294d e73e 8105 4d3e d2a5 f63e
00000070: 6d44 d63d af80 783d c787 de3e 503e 13be
00000080: ff47 ca3e c8de 5dbe a897 2abf f792 a43e
00000090: 0ecd e23c 08e6 d8bd bd08 263f 2b33 02bf
000000a0: 5e9a a23e b03b cfbd 58cf 783d c575 d63e
000000b0: a854 223a 4b73 3e3e 0ffd 053f 11a0 9fbe
000000c0: d779 c13e 7f17 453e b227 083d 221d e23e
000000d0: 3cc9 d53d 797a 973d 14e1 ff3e 3336 143e
000000e0: 4371 3fbe 2816 6cbf 84f3 0dbe 662c eb3d
000000f0: 0c7f 16bf 8f55 df3e fdc5 073f d838 cdbe
00000100: 21ad 22bd 18f7 c9be 69c6 af3d c919 e4be
00000110: 5a71 9a3e 44a0 153d 453a a83e b024 303e
00000120: 8158 f23e 5f70 083b c752 32be 96d6 30be
00000130: 0805 3e3e 242f 4dbf f0a5 b0bc 3e08 ca3e
00000140: 9b9d babe ae06 0fbe 568d 993e a1e1 e1be
00000150: e344 103e a0f8 debe 07cf d73e 8729 d73d
00000160: 0e98 09bf 2544 b0bc 3aee 09be 3ade 87bd
00000170: 7c77 03be 1cd3 a2bd dfee a33f a62a 09be
00000180: d7b1 95bb cadc ebbe 2923 90be eedc 3abe
00000190: d433 30be 7a6d 96bd d1aa 48be 80cb d2be
000001a0: 4968 ba3e 3eb5 193d aa31 de3c eed8 8abe
000001b0: e8e4 16be 1d36 673e 0bc3 a4bd 8bcc b7bd
000001c0: 9bd4 363d 64dd 763e 2dbf b1be 1bd4 bb3b
000001d0: d1cf 04be 2595 5f3e 1a8c 5e3e d4c7 e2be
000001e0: 09de bf3c 4c45 b53d 928a c3be 9448 2e3f
000001f0: 197c 033e 7013 d53e 15bc 30be d98a 9c3d
00000200: f6b0 2b3c 8ad3 833e 1baa 453f c987 d2bc
00000210: 27e5 e33d 673f 57bd d71d ebbe d67a f43e
00000220: 101b 9fbc 953b d13d 54ca 853e 9524 e83e
00000230: 708a dabd 18d8 833e 9586 093e 1b3a fc3d
00000240: 8571 4a3c c7f8 5f3e c532 b03e b6ba ccbd
00000250: dbd6 a9be 002d 2fbe 295a 9fbd 50e2 77bd
00000260: 5015 593b dcdd 3abf eba0 adbd 6897 a6be
00000270: c940 653e 187d d9be 824c 313e c81a d43e
00000280: 3250 c43d 33f7 f53d c322 d23e abc4 d23e
00000290: 60c6 c4bd c317 c93e fdc1 313e c3e2 ddbe
000002a0: 55e2 c23e aee6 b1bd 133c 1abf 196c 723e
000002b0: 533c cc3e 1f11 f83e 2fc5 aebe ff2e 773d
000002c0: 3eb5 efbe 69a5 513c 2b96 263d 620b 013f
000002d0: be9f a83d c1a8 37be 2290 91bd 5353 44bf
000002e0: 248e 0abd fb89 a8be a787 573e c6f5 7cbe
000002f0: 4cb6 0f3f fc54 b93c 1644 ce3e 8eaa cdbc
00000300: 4a50 193f a1e2 9b3e cb03 8939 a51d 783e
00000310: f8cc a6bd d0f7 5a3a bed7 1abe 310a ea3e
00000320: 3f0f d1be 2743 fe3e e5ef 413d e8fd 753e
00000330: 81c6 0cbd f607 613e 7f43 fb3c bf42 983e
00000340: 7fd5 e03d c2cf 0d3d 66eb 4abe 5b07 393f
00000350: 7b6f b4be 609b 8bbe 695e 35bf a3ab 313d
00000360: 31aa 77be e62f 05bf f357 5c3f bd7b 85be
00000370: a9fe eb3e 0ce1 4abd ba14 c13d d34f db3e
00000380: 0fad fc3d bd52 dfbe bbbc 02be d0a3 6d3d
00000390: 8cbd fb3e 8b09 62be afd2 313f c052 acbd
000003a0: d54a c33e aafb 29bf fe16 c03e ae91 24bf
000003b0: fe9b 0c3e 9100 0c3d bc19 c93e 33f0 723e
000003c0: 3981 3c3e 4258 4cbe 6e01 c73e 9439 88be
000003d0: 1318 fa3d bea7 94bd 1722 143f 6378 013d
000003e0: b8d9 0fbf 88bf e93e 6f20 133f 18af a5bc
000003f0: 74bd 49bd 2733 86be 6c6e a43e dec1 8a3e

tcr_lstm.bias_ih_l1 f4 [200]
0.31457853 0.078267515 0.1245728 0.20456046 0.026101034 -0.13465561 -0.004374144 -0.023318741
-0.008561687 0.07792527 0.091661 0.07842708 0.08964819 -0.3324697 0.29139453 0.1409619
0.07735302 0.03856784 0.58106655 0.33402914 0.084938884 0.03173378 0.031633493 0.06042499
0.13591251 0.45617768 -0.0287 0.16999741 0.031173188 0.23175858 -0.03990793 0.11641362
0.15902188 0.020952102 0.0992576 -0.12544851 0.36612883 0.20840219 -0.058837503 0.06877358
0.15789731 0.080699295 -0.0072123017 0.18619816 0.124469265 0.14032283 -0.053293973 -0.06424107
0.26883754 0.29753152 -0.06825516 0.10818093 0.15694581 -0.112539515 -0.0017412753 0.5622455
-0.022542408 0.10878227 0.018360598 0.27728626 0.2248754 -0.13663216 -0.04633377 0.2776616
0.020197708 -0.18133307 0.050613124 -0.13039242 0.28671363 -0.012114945 0.07233337 0.27695164
-0.10325435 0.27217516 -0.073933706 -0.062298406 0.15332747 0.15695433 -0.0689007 0.12871048
0.32186452 0.08080253 0.2490181 -0.1347737 0.22105773 -0.03579921 0.07893814 0.004638695
0.2543373 -0.03895743 0.43514374 -0.19569974 -0.14019759 0.05784506 0.12695812 0.060581785
-0.11216134 0.11587701 0.16165915 0.15207282 -0.092528045 0.106168225 -0.059656724 0.09825016
-0.121335216 -0.15752728 0.17492071 0.05972249 0.12590736 0.24230431 0.13979681 0.06852518
-0.10918069 0.2345403 -0.21373662 0.34249777 0.17905703 -0.19830461 0.29051873 0.05399488
-0.03951633 0.15350378 -0.0048108995 0.23969676 -0.32039994 0.0029399174 0.04437544 -0.13562876
0.07041269 -0.10248095 0.04358545 -0.023686629 -0.30771402 -0.21112919 0.2578745 0.09928701
0.12654969 -0.13833334 0.054110188 -0.20650665 0.00059520116 0.19197908 0.060256235 -0.108563125
-0.009804163 -0.17299902 0.082856 0.24585868 -0.095902964 0.1779244 0.10019187 0.18168277
0.48753002 0.6123993 0.16485716 0.32620084 0.18033594 0.2020719 0.066514894 0.3713756
0.15750453 0.30152112 0.24519679 0.12712276 0.45251185 0.15685533 0.31107622 0.17147858
0.4833489 0.1983073 0.2144427 0.13467659 0.04408337 0.3396793 0.13257712 0.37909463
0.22739474 0.006033548 0.08624515 0.020912796 0.27504158 0.008766738 0.06886045 -0.0941636
0.34059507 0.11567784 0.27757126 0.31933814 0.18241842 0.08907868 0.3870251 0.1355915
0.116992906 0.14750642 0.15089874 0.10502666 0.106220186 -0.25156632 -0.112414524 0.18168058
00000000: 7010 a13e b84a a03d 0620 ff3d 4c78 513e
00000010: d6d1 d53c 29e3 09be fb54 8fbb f206 bfbc
00000020: 5146 0cbc 4997 9f3d c3b8 bb3d 609e a03d
00000030: 7899 b73d 7839 aabe aa31 953e 5158 103e
00000040: 436b 9e3d 50f9 1d3d c7c0 143f de05 ab3e
00000050: 70f4 ad3d 48fb 013d 1f92 013d 3280 773d
00000060: a62c 0b3e 1f90 e93e 431c ebbc cd13 2e3e
00000070: ea5e ff3c 1f52 6d3e 7f76 23bd 446a ee3d
00000080: a2d6 223e bea3 ab3c 9247 cb3d 9375 00be
00000090: 3d75 bb3e 6267 553e 98ff 70bd 2ad9 8c3d
000000a0: d5af 213e ac45 a53d 2c55 ecbb bbaa 3e3e
000000b0: bee9 fe3d cab0 0f3e c84a 5abd d290 83bd
000000c0: 13a5 893e 0d56 983e 5cc9 8bbd f78d dd3d
000000d0: 67b6 203e 1e7b e6bd 813b e4ba 52ef 0f3f
000000e0: dbaa b8bc 3dc9 de3d f768 963c 77f8 8d3e
000000f0: bd45 663e 4de9 0bbe 7bc8 3dbd a929 8e3e
00000100: aa75 a53c 60af 39be b54f 4f3d 9785 05be
00000110: 21cc 923e c37d 46bc 8523 943d 9bcc 8d3e
00000120: 0477 d3bd 8b5a 8b3e 8e6a 97bd 9d2c 7fbd
00000130: e001 1d3e a3b8 203e cf1b 8dbd aecc 033e
00000140: 6dcb a43e cc7b a53d 9afe 7e3e 1e02 0abe
00000150: f55c 623e 31a2 12bd 52aa a13d 3200 983b
00000160: 8038 823e d391 1fbd 29cb de3e 8365 48be
00000170: f58f 0fbe f1ee 6c3d 4f01 023e 9b24 783d
00000180: d8b4 e5bd ed50 ed3d fa89 253e fab8 1b3e
00000190: 587f bdbd ba6e d93d 9c5a 74bd 6137 c93d
000001a0: 997e f8bd d54e 21be 6a1e 333e 929f 743d
000001b0: dced 003e 9f1e 783e e526 0f3e ee56 8c3d
000001c0: 209a dfbd 552b 703e c6dd 5abe de5b af3e
000001d0: ba5a 373e 5d10 4bbe dfbe 943e bc29 5d3d
000001e0: e0db 21bd 1830 1d3e c0a4 9dbb 1173 753e
000001f0: 760b a4be a1ab 403b 05c3 353d 44e2 0abe
00000200: 8734 903d 88e1 d1bd a886 323d 760a c2bc
00000210: b18c 9dbe 4032 58be 2008 843e fd56 cb3d
00000220: 3e96 013e 41a7 0dbe a5a2 5d3d 7b76 53be
00000230: 4607 1c3a 2a96 443e 3ecf 763d 5856 debd
00000240: a4a1 20bc a826 31be 68b0 a93d 61c2 7b3e
00000250: c668 c4bd d031 363e 6531 cd3d 0c0b 3a3e
00000260: 899d f93e 33c6 1c3f 51d0 283e cc03 a73e
00000270: fca9 383e f0eb 4e3e f638 883d f124 be3e
00000280: de48 213e fa60 9a3e de14 7b3e 782c 023e
00000290: a2af e73e af9e 203e 6245 9f3e 1598 2f3e
000002a0: 8279 f73e 1211 4b3e de96 5b3e a9e8 093e
000002b0: c490 343d 72ea ad3e 4cc2 073e b118 c23e
000002c0: 2bda 683e 12b5 c53b 4ca1 b03d 5051 ab3c
000002d0: 40d2 8c3e 5da2 0f3c b506 8d3d d8d8 c0bd
000002e0: 7a62 ae3e 81e8 ec3d d21d 8e3e 4a80 a33e
000002f0: e5cb 3a3e e26e b63d 2728 c63e 80d8 0a3e
00000300: fa99 ef3d ec0b 173e 3385 1a3e 3818 d73d
00000310: f889 d93d 4dcd 80be 9639 e6bd 790a 3a3e
