mcpas_naive_lstm_model.pt (torch_old, 112251 bytes, 21 tensors)

tcr_embedding.weight f4 [21, 10]
00000000: 0000 0000 0000 0000 0000 0000 0000 0000
00000010: 0000 0000 0000 0000 0000 0000 0000 0000
00000020: 0000 0000 0000 0000 c350 b93e a5bc dc3e
00000030: d9e6 23bf 345c 32be 42d2 12c0 3c2d 963f
00000040: e485 d73d 1494 f63e a7a5 2b40 e2ab 54bd
00000050: 819c 25bf 291f b63f 7a74 c13f 3035 cc3d
00000060: 6c62 e6be cc46 253f ccf7 2c40 3ac0 68bb
00000070: 6a6e 62bf e09f 09c0 6c49 66bf 702a 8d3f
00000080: 53c2 f2be c1f7 c63f 14eb b73f 14b1 8c3f
00000090: d233 aebd 1137 993f c05e aebf 0115 5abe
000000a0: 3273 fd3f 7a61 87bf efaa 9bbf 7004 fd3f
000000b0: 7b42 643f ba56 a2bf 5f47 06bf 480a aabf
000000c0: b80d b1be bcb8 653f 7434 f03c 4acb de3e
000000d0: b7b8 c83e 6da7 cebf 6115 c0bd 00a0 02bf
000000e0: 9cd5 bd3e 3eb0 c93e 0906 cc3f 5a40 ce3f
000000f0: 6608 3bbe e5d9 efbe 1cf1 36bf e521 3cc0
00000100: 9fc8 f3bd 1747 99bf d16c 693e 9a6d a2be
00000110: eda0 f2be dcd0 05bf 400a ad3d 7cd8 d7be
00000120: 233d 0e40 819d ce3e 8b51 f3bf fb3d 943f
00000130: f96c 813f 0b77 0fc0 548d d8be aad4 e83f
00000140: 22ce d03f 7cb4 0bbf b7f4 af3e 219d 52be
00000150: a4c9 cb3f 2371 833f 5e45 50c0 75e5 6c3f
00000160: f71d ab3d 13d9 943e 6844 97bf df91 d3bf
00000170: 399b 29bf dd7a 8f3e 456c 193f 773b 2cbe
00000180: 678d cb3e 3983 c4be 8f63 e13f 8240 b83f
00000190: f167 e03e 674e 98bf 8f88 92bf cf59 913f
000001a0: 1252 c4bf c847 83bf 73d9 943f 2fd7 913f
000001b0: c3b0 d53f 20d9 8a3f 1b92 bfbe 3d44 dfbc
000001c0: 2287 d6be d8b7 41be f5fd c03e 219c 94bd
000001d0: a85c 9dbc 6b39 ccbf ccc8 82bf 292a c9bf
000001e0: 3bb3 b3bf 82dc d53e 04b2 903f 7a21 da3d
000001f0: 4bc4 a4be 8e64 fbbf b1dd 07c0 44fb e93c
00000200: 3f24 153f 40bf 34bf c490 0840 77a3 b23e
00000210: dd46 0cc0 15f6 c83f ae25 c83e f67c a03e
00000220: 4e20 683d 9bb5 c73f 4a92 08bf c90b d3bf
00000230: 77e7 843f 264b 4d3f 98ef a1bf 3c65 9bbe
00000240: 6d40 2f40 68bc a6be ba50 a63f bf5a 9a3f
00000250: 6f81 543f 4685 40bf 3afa 57bf 82a4 683f
00000260: 7cb8 b83e f6d3 d0be 447a 703f 7c2a de3f
00000270: 5a0f 373e 902c 2240 7850 2bbf 4fbb 0040
00000280: 06ac c83e 4c4f d73f 6f7f 8ebf 2417 923e
00000290: 0225 ff3d f230 e7bd 7347 05bf e4be 3abf
000002a0: 3306 f9bf 75b5 583e 6047 09c0 5bf2 73bf
000002b0: 92bc 1ec0 0a11 8c3f 9a76 a4bf 169e 323f
000002c0: f71c 80bd e2e3 26bf fb22 5bbe 7dc8 31be
000002d0: 59e2 083f b61e a1be 39e3 bcbf be49 3c3e
000002e0: e4a8 3bbf 2aac 64c0 d783 c23e c5fc 1d40
000002f0: 8731 ef3d b665 3bbe 298a 263e c455 07bf
00000300: 6154 513e f222 0ebe a2d9 76bf 8e97 a53f
00000310: b082 52bf 60b2 9d3f 476c abbd d96d ad3e
00000320: e3f9 16bf 3565 4f40 2477 943f 80e4 963d
00000330: ae94 573f 38c6 753f 7a6f 62bf 358c c9bf
00000340: 4f12 a63f fa84 eabe
0.0 0.0 0.0 0.0 0.0 0.0 0.0 0.0
0.0 0.0 0.3619443 0.43112674 -0.6402412 -0.17417985 -2.294083 1.1732554
0.105235845 0.4815985 2.6819856 -0.051921733 -0.6469193 1.4228259 1.5113671 0.09971082
-0.44996965 0.6456115 2.7026243 -0.0035514967 -0.8844973 -2.150383 -0.8995578 1.1028576
-0.47413883 1.5544358 1.4368615 1.099154 -0.08505978 1.196993 -1.3622665 -0.21297075
1.980078 -1.0576622 -1.216154 1.9766979 0.8916394 -1.2682717 -0.52452654 -1.3284388
-0.3458078 0.8973501 0.029321887 0.43514472 0.39203426 -1.6144844 -0.09379078 -0.5102539
0.37077034 0.39392275 1.5939342 1.6113389 -0.18264922 -0.46845928 -0.71461654 -2.9395688
-0.119035 -1.197482 0.22795416 -0.31724244 -0.47388402 -0.5227182 0.08449221 -0.42157352
2.2224815 0.4035454 -1.900926 1.1581415 1.0111381 -2.2416408 -0.42295325 1.81899
1.6312907 -0.5457227 0.3436639 -0.20567752 1.5920911 1.0268902 -3.2542338 0.92537624
0.08355325 0.29071864 -1.1817751 -1.6528891 -0.66252476 0.28023425 0.5993083 -0.16819559
0.3975632 -0.38381365 1.7608508 1.4394686 0.438293 -1.1898926 -1.1447924 1.1355532
-1.5337546 -1.0256281 1.162886 1.1393794 1.6694568 1.0847511 -0.37416157 -0.027254218
-0.41899973 -0.18917787 0.37693754 -0.07256342 -0.019209221 -1.5955023 -1.0217528 -1.5715991
-1.4039072 0.41769797 1.1304326 0.106509164 -0.3218101 -1.9640062 -2.122906 0.028562196
0.5825843 -0.70604324 2.1338358 0.3489034 -2.1918252 1.5700098 0.39091247 0.31345338
0.056671433 1.5602297 -0.5334822 -1.6487972 1.0383137 0.8019279 -1.2651243 -0.30350673
2.7383072 -0.32565618 1.2993386 1.2058944 0.8301 -0.7520336 -0.8436619 0.9087602
0.3607825 -0.40786713 0.9393656 1.7356715 0.1787695 2.5339699 -0.6691966 2.0114324
0.39193743 1.6821074 -1.113264 0.2853328 0.124582306 -0.112886325 -0.5206215 -0.72947526
-1.9455017 0.2116297 -2.1449814 -0.9529168 -2.4802594 1.09427 -1.2848694 0.6977247
-0.062555246 -0.6519147 -0.21400063 -0.17361636 0.5347038 -0.31468743 -1.4756843 0.18387505
-0.7330458 -3.573008 0.3799121 2.4685528 0.116793685 -0.18300518 0.16263641 -0.5286524
0.20442344 -0.13880518 -0.9642583 1.2936876 -0.82230663 1.2320061 -0.08370262 0.3387287
-0.58975047 3.2405522 1.1598859 0.07367802 0.8421124 0.9600558 -0.8845135 -1.5745913
1.2974337 -0.45804578

pep_embedding.weight f4 [21, 10]
00000000: 0000 0000 0000 0000 0000 0000 0000 0000
00000010: 0000 0000 0000 0000 0000 0000 0000 0000
00000020: 0000 0000 0000 0000 9147 8dbf c0f8 8c3f
00000030: d9d0 04bf b5f5 9dbe d620 1d3d 1ec1 8bbf
00000040: 708e 29bf b788 133e 102e 94bf 58c6 5ebf
00000050: 2307 733f f02b 03bf 6749 b23e e610 8d3d
00000060: e1d6 763f c547 623e 8248 f3bc adfa c33e
00000070: 274b bf3e 069b 67bf 3477 a83f b52d 48bf
00000080: 1129 e3be ab51 08be cd77 b23f ca3d 3c3e
00000090: 40bd a23e 98ab afbe dd0d 4bbe d77d 26bf
000000a0: cfeb a83e facc f93d 30a6 77be 29b0 b5bc
000000b0: c6b2 3bbe 2d00 c53e 14d0 943d 5e68 ecbd
000000c0: 5d2e a23e 7e57 ffbe 482f dd3c bed7 d6be
000000d0: b831 333f a696 ddbe a289 613d 6195 52bf
000000e0: 8bc6 dd3e 3395 5e3e 4bf9 813e 69a1 853e
000000f0: 63cc 8639 d783 dbbe 3e21 3d3f aa0a 3c3e
00000100: 2914 09be aab7 9e3e 5dc9 d03e 4884 b1bf
00000110: 0ac6 dc3e 1b78 7d3f 95b7 903e e3a1 763f
00000120: 76a6 8ebe 65a4 94be 1a84 073f e447 0cbf
00000130: 45ac 27bf 584d 46bf 7c4e 80bf be33 d5be
00000140: 0901 2c3f 5482 3f3f 381f c93f d2f7 fdbe
00000150: 87a5 4c3e aa71 febd 588b 4dbe 4e84 91be
00000160: 1301 ebbb 3ee8 673e abc8 edbe 8671 0fbf
00000170: 251f 253f efb5 31bf a677 a03e 9517 e8bc
00000180: c0bd 6f3d 6cab bfbe 67cd ee3e 76f6 42bf
00000190: 41d2 5ebf 148b 67bf 57cb 5c3d 5770 463f
000001a0: bb5a 89be 6fc1 493f c443 493f fd8c a73f
000001b0: 9a08 5d3f 1ac5 893f c609 643f 403f a5be
000001c0: 46b0 60bf c76d af3e b1e9 b1bf 1a3b c4bd
000001d0: 0499 123f 3176 aabe 9235 34bf bb9f cd3f
000001e0: 4afe bcbb c857 a3be c9fc 1c3f a6cb 263e
000001f0: 2f71 c6be 6694 66be 2259 943d 45ce 5abe
00000200: 8b9a 303f 64cf c43e 9738 93bf bce4 b23e
00000210: e86b 953f 0ebf 903f 425e 24bf 11ad 283e
00000220: 713a 873f 759f 2bbe 21d3 0abf 70b0 463f
00000230: e131 38bf 7b13 12bf 9d58 f0be e4bc 94bf
00000240: c46b 0b3e c0b9 11bf a13b 783e 8993 023f
00000250: f7e8 6a3f 8cbc 07bf a7d8 2d3f e6a2 15bf
00000260: b940 32bf ecdd 413e 1166 52bf 7c5d 7bbf
00000270: 70e1 d4be 28d7 c23f 0633 44be c0ad 61be
00000280: cde9 013e 2dde 163e 0dd8 c73e 5212 7e3e
00000290: 5a08 173f 2f3c e9be 7906 e23f bcc6 0cbf
000002a0: b341 7bbe 8cab 36bf bcc9 f33d 3c21 80bd
000002b0: 8cac dfbe 5449 953f 54cc 7abe 2873 ec3f
000002c0: 2639 24bf 2b66 8f3d 61f0 4b3f e548 ad3e
000002d0: f84d ac3e 448b 5b3f 87e5 64be 0f3b 863f
000002e0: ce1e 433d 1e33 2e3f f4b6 e2bb dd8b c0bd
000002f0: ba47 053f 7c58 f4bd d703 a83e 64f5 36bf
00000300: 5820 7bbf 11c6 a5bd 5dc6 b4be a3f5 023f
00000310: f7b3 7b3e 92ce c03e 0b99 0c3e 8406 a5bf
00000320: dccb c8bf 7fe1 663f a72c 043e de63 63bf
00000330: 25c0 5b3f cd39 5dbf 87ee 36bf 7a9f 5d3f
00000340: 3d69 3d3f 596a 4f3d
0.0 0.0 0.0 0.0 0.0 0.0 0.0 0.0
0.0 0.0 -1.1037465 1.1013412 -0.51881176 -0.30851522 0.038361393 -1.091831
-0.6623297 0.14407621 -1.1576557 -0.870214 0.94932765 -0.5123892 0.34821627 0.06887989
0.9642163 0.2209769 -0.02969766 0.38277188 0.37362024 -0.9047092 1.3161378 -0.78194743
-0.4436727 -0.13312404 1.394281 0.18382946 0.3178501 -0.34310603 -0.19829507 -0.65035766
0.32992408 0.12197299 -0.24184489 -0.022178726 -0.18329915 0.38476697 0.0726625 -0.11543344
0.31675997 -0.4987144 0.027000085 -0.41961473 0.6999774 -0.43278998 0.055062898 -0.82259184
0.4331554 0.21736602 0.25385508 0.2609971 0.00025710752 -0.42874023 0.7387885 0.18363443
-0.13386597 0.309995 0.40778628 -1.3868494 0.43119842 0.9901139 0.28265062 0.9634077
-0.27861375 -0.29031673 0.52935946 -0.54797196 -0.6549724 -0.7746177 -1.0023952 -0.4164104
0.6718908 0.7480824 1.5712652 -0.49603134 0.19985019 -0.124240234 -0.20072687 -0.28421253
-0.007171759 0.22647187 -0.4644216 -0.560326 0.6450065 -0.69418234 0.31341285 -0.028331557
0.05853057 -0.37435472 0.46641085 -0.7615732 -0.8703957 -0.9044659 0.053904857 0.77515167
-0.26827034 0.7881078 0.7861903 1.3089901 0.8634125 1.0763276 0.89077413 -0.32274818
-0.8776897 0.3426344 -1.3899442 -0.09581585 0.57264733 -0.33293298 -0.7039424 1.6064371
-0.0057676183 -0.3190291 0.6132322 0.16288623 -0.38758227 -0.22517547 0.07243563 -0.21367748
0.68985814 0.38439476 -1.1501645 0.34940135 1.1673555 1.1308305 -0.64206326 0.1647227
1.056471 -0.16760047 -0.5422841 0.7761297 -0.7195111 -0.57060975 -0.46942607 -1.1620145
0.13615328 -0.56924057 0.24241497 0.5100637 0.91761726 -0.53022075 0.6790871 -0.5845169
-0.6963001 0.18932313 -0.8218699 -0.9818952 -0.41578245 1.522191 -0.19160089 -0.22038937
0.12686844 0.14733191 0.3903202 0.24811676 0.5899712 -0.4555373 1.7658225 -0.54990745
-0.24536781 -0.7135551 0.11903712 -0.06256339 -0.4368633 1.1663003 -0.24492007 1.8472643
-0.641497 0.07001909 0.79663664 0.33844677 0.33653235 0.8575938 -0.22353183 1.0486773
0.0476368 0.6804675 -0.0069187824 -0.09401677 0.5206257 -0.119309396 0.3281543 -0.71468186
-0.9809623 -0.08094419 -0.3530759 0.5115606 0.2458037 0.376576 0.13730256 -1.2892613
-1.5687213 0.9018783 0.12907659 -0.8882426 0.85840064 -0.8641632 -0.71457714 0.86571467
0.73988706 0.05063853

tcr_lstm.weight_ih_l0 f4 [120, 10]
00000000: 60dd a13e e172 dcbe 5c4d 5dbe 1056 5a3f
00000010: 2403 b3be 0e27 1abe 3279 80be f045 d7bd
00000020: c004 7bbc 630f c13e 0a57 f6be d649 643e
00000030: 5071 ae3c d069 b2bd 67bb 94bd 2e86 a83d
00000040: aeb5 d0bd f087 8ebe 7274 dabd 2cf0 9a3d
00000050: 53cd c3bf f7fb 103f 0a0c f7bd fa92 b1be
00000060: 1a6e 073e aaba 8d3e 131b f93e b821 09bd
00000070: 3d9e 353d 789b e5be eb42 dfbe 2a96 663c
00000080: 8bed 013e 45fd 22bf 3d22 f9bd 6db7 473d
00000090: 87c9 d0be c9ba 153e 94d7 7abe 713a cdbd
000000a0: 38fd b9be 1d0d f2be 0b79 a6bd 7dea c83e
000000b0: 7bda ffbd 05a5 8f3c 7fcd 053c a740 f33e
000000c0: 0309 11bd 387c 1abf 9504 00be 8472 5d3e
000000d0: b0cd 28bf ebf2 ca3e c1c9 f4be b27e 2e3e
000000e0: 8928 813e 233f 6bbe 83ef ca3b 5a58 cd3e
000000f0: 99ae 08be f999 b13e 8447 d6be 8300 3f3f
00000100: fe35 bd3e 2ad1 7d3a c207 f3bd d05e c5be
00000110: 386c d6bd 0573 1bbe 9f76 eabe 85a4 e73c
00000120: a0b3 00bf 4273 e8bb 8208 e9be b64e 003f
00000130: 5831 7ebe 2be6 88be 7ac8 bf3e ce1b c83e
00000140: abe0 e33d 1a90 d03e 8536 0dbf 1b3f d63e
00000150: 2bae e23d 7a1a 4cbe e60c aa3e 5fd2 953e
00000160: 5a7c 0f3e 846e 18bf cb07 af3c 5252 603e
00000170: abb0 ce3e e63c 6a3d 36e8 683e 7ceb 983e
00000180: aff3 9b3e 3ba3 e03e 7a56 9dbc 1e7b 2cbf
00000190: a71e 523d ac0e 02bf e542 cf3d 909d 083e
000001a0: e2e4 debe 47b8 6ebe 2ce4 2b3e 561c dfbe
000001b0: c4bb 2d3f 0e44 1d3f 5fe3 cf3b d1b8 2a3f
000001c0: 73e5 efbd 1ac5 b43e 0393 a53d a633 b63e
000001d0: 6717 923e 10c7 593e b3b4 24be c830 48bf
000001e0: 2d4a d63e 587f 4bbe 89b9 e73d 16da 4cbe
000001f0: c342 d63e 58f0 003e f92f c23c 6e1a 14bf
00000200: 5beb 8dbe 2aa4 e93c 9277 193f 1eea 9dbe
00000210: 4c3f fa3c 4cf4 92be 6afa 223f 21c3 83bd
00000220: 8769 09bf 0037 2d3d 7a15 edbd d93a c1bd
00000230: 5753 d7be c715 f6bd 9e2c 27be 0c38 323e
00000240: 61dd 923c 554b 8fbe dacc 72be 23ad 56bd
00000250: d58e bbbe 7d2f 95bd 5234 e0bd e8ee 063f
00000260: 3eb5 9abe 822c febd 4ad9 3b3e fabe 81be
00000270: 14ff 8a3e 4239 bd3e 7d69 0f3f 536d cfbe
00000280: de3d 5ebe e0ad abbe af52 9abd 249b 4d3f
00000290: dbb7 91be c9cb e7be 2a85 c13e 6c88 a23c
000002a0: 9920 b2be 3220 1dbd 4561 10bd f1ed a6bc
000002b0: 4dd2 433e 6a62 6ebe fc33 76be 9051 a23e
000002c0: f1e3 113e c8de 15be 0685 0a3f 680b 6bbb
000002d0: 9c3a f73d e65d cb3e f638 b43d 2a65 10bd
000002e0: 76bf 903e dbde 9abe c35b 9cbe 81a3 bd3c
000002f0: bd70 a1be 616a bdbd e828 583e 00bd 9dbe
00000300: a455 233f 548d 95bf c3f8 b13d 5055 313a
00000310: 2ebf 713d 9385 253f 0a7f bc3e 1a74 a4be
00000320: bb8a e9bd 2a0a 2b3f f70a a3be a8cc bb3d
00000330: 60bb 3c3d c970 a3bd bbe2 d7be f442 f3bd
00000340: b263 7e3d eb7b cd3e fd98 6d3e 20e2 093e
00000350: 6cee aebd c258 c9bd b599 88be 55d7 72be
00000360: 5af5 093c b5df 5d3d c0d6 1c3d da2a b6bd
00000370: 03c7 2abe 2f37 733e e88c 8b3e 2573 463e
00000380: d4a5 2f3d 0daf c7bd 5894 48be aace 223e
00000390: 3d3b 4c3e f2a0 a5be 33f0 bdbe 37ff ff3e
000003a0: 30fc d6be 872c fd3e 6641 943e 169c 4c3e
000003b0: 61f5 3f3e 334d 91be 2146 c2be acfb 633f
000003c0: 3758 f2bd 401b d5bd c0be bcbe e365 933d
000003d0: 382d 8fbe da1e 553d c340 8a3e 0376 ea3b
000003e0: 9380 1c3d 8b87 1dbf 7006 87bd 7177 e1be
000003f0: 0505 b13c 3f97 343d 1ef5 20be 0479 0dbd
0.31614208 -0.43056396 -0.21611542 0.8528757 -0.34963334 -0.1505396 -0.25092465 -0.105113864
-0.015320957 0.37707052 -0.4811328 0.22293791 0.021294266 -0.087115884 -0.07262307 0.08228718
-0.10190903 -0.27838087 -0.106667414 0.075653404 -1.5297035 0.5663447 -0.12062843 -0.34682447
0.13225594 0.27681476 0.48653468 -0.033479422 0.04434036 -0.44845176 -0.43605742 0.014073888
0.12688272 -0.6366771 -0.121647336 0.048758913 -0.40778753 0.14622034 -0.24496299 -0.100209124
-0.36326003 -0.4727563 -0.08128556 0.392414 -0.12492844 0.017534742 0.00816667 0.47510263
-0.035408985 -0.6034579 -0.12501748 0.21625715 -0.65938854 0.39638457 -0.47810176 0.17040518
0.25226238 -0.22973303 0.006193103 0.4010647 -0.13347854 0.34687784 -0.41851437 0.74610156
0.36955255 0.0009682352 -0.11866714 -0.385489 -0.1046986 -0.15180595 -0.45793626 0.028276691
-0.50274086 -0.007093818 -0.45514303 0.50120103 -0.2482351 -0.26738104 0.3745764 0.39083713
0.111268364 0.4073494 -0.55161315 0.4184502 0.11068376 -0.19931975 0.33212966 0.29262063
0.1401228 -0.59543633 0.02136602 0.21906403 0.40369162 0.057186984 0.22744831 0.2986716
0.30459353 0.43874535 -0.019206274 -0.6737536 0.051298764 -0.5080364 0.10120181 0.13341355
-0.43534 -0.23312484 0.1678626 -0.43576306 0.6786463 0.6143197 0.0063442434 0.6668826
-0.11713686 0.35306627 0.08084681 0.3558628 0.2853348 0.21267343 -0.16084556 -0.78199434
0.41853467 -0.19872797 0.11314685 -0.20005068 0.4184781 0.12591684 0.023704516 -0.5785283
-0.27718624 0.028520662 0.59948075 -0.3084268 0.03054776 -0.2870201 0.6366335 -0.06433702
-0.53676647 0.04228878 -0.11576362 -0.094350524 -0.4205577 -0.120158724 -0.16325614 0.17404193
0.017927827 -0.2798716 -0.23710957 -0.05241121 -0.3663241 -0.07284448 -0.10947479 0.5270829
-0.30216402 -0.12410833 0.18344608 -0.25341016 0.27147734 0.36957747 0.5602034 -0.40513095
-0.21703288 -0.33531094 -0.07535302 0.8031485 -0.28460583 -0.45272663 0.3779691 0.019840442
-0.34790495 -0.038360782 -0.035249013 -0.020377131 0.19123192 -0.2327973 -0.24043268 0.31702852
0.14247109 -0.14635766 0.5410923 -0.0035864953 0.12071726 0.39720076 0.08799927 -0.035252728
0.28271073 -0.3024815 -0.3053876 0.023149254 -0.31531325 -0.09248806 0.21109354 -0.30808258
0.6380255 -1.1683755 0.08690026 0.0006764727 0.059020214 0.64656943 0.36815673 -0.32119828
-0.11403414 0.66812384 -0.31844303 0.091698945 0.046077132 -0.079804964 -0.4216517 -0.11878005
0.062106796 0.40133604 0.23202892 0.13465166 -0.08541569 -0.09831382 -0.2667977 -0.23714955
0.008420313 0.05416842 0.03829074 -0.08894892 -0.1667748 0.2375152 0.2725594 0.19379862
0.042882755 -0.09750185 -0.19587839 0.15899149 0.19944473 -0.32349354 -0.3709732 0.499994
-0.4198928 0.49448034 0.28956145 0.19981417 0.18745948 -0.2837921 -0.3794413 0.89055896
-0.11833232 -0.10405588 -0.3686428 0.07197168 -0.27964187 0.052031375 0.27002534 0.0071551814
0.038208555 -0.6153495 -0.06593025 -0.4403644 0.021608839 0.044089552 -0.15718505 -0.034539238

tcr_lstm.weight_hh_l0 f4 [120, 30]
00000000: 0142 b23e ed84 67bf 1aef d53e 2be7 363e
00000010: b27c 4ebf e010 193e 9a55 c6be bbcf e7be
00000020: ad2c 86be cf6f 14be 89e2 eabe b1ce a9be
00000030: 44e2 ec3e 63b3 ec3e f4b3 093f 47fb 27bf
00000040: 8c11 dbbe a235 b5be 2e5c 72be b54d 55bf
00000050: e785 da3e b454 c1be 10df 38be 7467 0bbd
00000060: 9723 683b af11 7dbe 2244 cdbd c736 3a3f
00000070: 6a14 e9be 2c64 873d 219d babe baef 17be
00000080: 0e46 b4be 126d 2b3f 4e02 10bd 777c 4f3e
00000090: c643 babf ed0d e13e 0c08 f33e 9930 51bf
000000a0: 9fc6 c93d 9942 ff3e ed46 f8be 7b9a 893e
000000b0: 1060 d1be 547b cebe 1254 5e3f 8610 3c3e
000000c0: 008f 64bf 4d29 e13e 57b4 8abe 2823 563e
000000d0: 75c4 d13e 871a 503e 253f cbbd b5d5 b8be
000000e0: 317b 273f 8323 acbe 29be 36be dab4 dc3e
000000f0: 684f cfbe 3d17 ebbe 2666 20be 6618 1b3f
00000100: ada8 18be 4c65 2ebe 88e5 df3b 599d fa3c
00000110: 5dbe 17bf 96a2 febe 1b13 7fbe 7054 ac3e
00000120: 9bc5 2b3f 6898 db3e 1b9b 423f 8306 41bf
00000130: 8653 91be 3245 e5bd 3f2c 893e fc50 bf3e
00000140: 5bd1 0f3f d97a e93e 1ad8 f23d 18a1 bdbd
00000150: 5c9e 9b3e e0b8 c03d c282 b4bc 37bc 7cbe
00000160: 8e05 153e 07c0 643e 637a 76bf 4ad9 8dbf
00000170: 065e 03bf 3499 823f 8ce4 2ebe aab5 2abd
00000180: 21fc 91be 755e 933e f565 e13e 7c1d c0be
00000190: 5f81 3cbf 7472 5abe 17c3 bc3d 3f51 32bd
000001a0: 7183 79bf 77ee aa3e 83f5 61be e141 8e3f
000001b0: f24b 2bbf 4add 73be a32d f2be f98c 573e
000001c0: 1cf7 d13e cc57 283f 1801 d2bd 60dd 0abf
000001d0: 6371 4ebd f1bd 773f d66e cabe fe15 2abe
000001e0: 10b7 99be e32b 35bd de4d 783c 0ac4 2a3f
000001f0: 2ffb c33e b6f4 623e e66a 67bc ad68 c03e
00000200: c508 0abf 1a61 8bbe 984d 5cbe 7f62 8fbe
00000210: 42f2 153e e325 553f 9f53 4ebf b6f1 0f3f
00000220: 2898 5f3c e058 bdbd edea 51bf c452 1fbf
00000230: 908e 2abd d193 773d 38c2 e63e 0a67 213f
00000240: 7863 e23e 7250 bb3e 85aa 963e 57ce 843e
00000250: a192 6fbf 4baa 8a3d 363d 7f3e d3e6 793e
00000260: 2f3d c2be 356e 4e3c 0152 8a3e b262 a5bf
00000270: b56d 70bf 2242 8e3e 617e f63d aa73 0b3f
00000280: 825c 09bf faef 05be c590 2a3e 54ec d73e
00000290: 276b fc3c 0975 0fbf 262a a5be c4c2 7b3e
000002a0: 3bac 953e 540d 233e 4b32 153f a9b1 fabd
000002b0: 0ce0 b13e ab8f 3a3d 7473 0fbf f305 593e
000002c0: fb65 203e ed5c 583e aaa3 d63e 35ca c8be
000002d0: 19ee 1bbe 558d 45be d4ae 7abd 090f 473e
000002e0: 5f4a 683f efa9 48bf e284 983e 8670 8d3e
000002f0: e1c2 43bf fc62 43bf a376 ba3d 03fc 723e
00000300: face 363e 2521 e63e 6b5c 2e3f 4434 3c3e
00000310: 0b4b 94bc 90c5 873c f8e3 b4bd 0364 bb3c
00000320: fb9f dbbe 2bdb 403e d7ca 103f 825a 373f
00000330: 728c 2c3f 6cf1 3a3f cc53 41bf 0b18 6dbf
00000340: 0565 c5bd de70 07bf 5b9e b23d 487a 473f
00000350: 629c 2f3f 4a10 7b3f 8ef5 403f 489f c93c
00000360: cd95 1fbf d3a7 093f ae83 1cbf 56c9 00bc
00000370: 06b7 7fbe 3cb0 f63e adac 993d ebdd ef3d
00000380: 051e b73e 1c31 1dbf 4443 173f feac 8e3e
00000390: 7025 6dbe a3f9 1fbe 3c51 1e3f 3f5f 3fbe
000003a0: 674a 533f edab ec3e b4d9 cfbe fce0 923d
000003b0: 42e0 6abe 2e80 9dbe 23b3 f63e 8090 98be
000003c0: 4cab c73d 81f0 d03e f046 113e 9d6a 993e
000003d0: d57b 36bf 2d78 05bf ba36 703e 3e30 ed3d
000003e0: 4e68 81be 51a7 663e f66b a1be 42a6 2ebe
000003f0: 3c87 3bbe 4a9c 273e 50f6 39be 8ccd 093f
0.34815982 -0.90437204 0.41783983 0.17861621 -0.8065902 0.14947844 -0.38737184 -0.45275673
-0.2620596 -0.14495777 -0.45875958 -0.33165506 0.46266377 0.4623061 0.5379021 -0.65617794
-0.42786825 -0.3539248 -0.23667976 -0.83321697 0.42680284 -0.37759936 -0.18053842 -0.034034207
0.0035421604 -0.24713777 -0.10022761 0.72739834 -0.45523387 0.06610903 -0.36448005 -0.14837542
-0.35209697 0.66963303 -0.035158448 0.20262323 -1.4551933 0.43955937 0.47467077 -0.8171478
0.09852337 0.49855497 -0.48491612 0.26875672 -0.40893602 -0.40328467 0.8684703 0.18365678
-0.892807 0.43976822 -0.27090713 0.20911849 0.40970197 0.2032262 -0.09924153 -0.36100546
0.6542235 -0.33620843 -0.17845978 0.4310673 -0.4049027 -0.45916167 -0.15663967 0.60584104
-0.14908095 -0.17030829 0.006832782 0.030592607 -0.59274846 -0.49733418 -0.24909632 0.3365817
0.67098397 0.42889714 0.7601792 -0.7540056 -0.28384036 -0.111948386 0.2679157 0.37366474
0.56178826 0.45601538 0.11857624 -0.09259242 0.30394256 0.09410262 -0.022035006 -0.24681173
0.145529 0.22338878 -0.962805 -1.1081936 -0.51315343 1.0203004 -0.17079371 -0.041677155
-0.28512672 0.28783002 0.440231 -0.37522495 -0.73634905 -0.21332723 0.09216898 -0.043534514
-0.9746619 0.3338506 -0.22066312 1.1113855 -0.6691276 -0.23814884 -0.47300443 0.2104987
0.41008842 0.6575897 -0.10254115 -0.5424404 -0.050401103 0.967742 -0.39537686 -0.16609952
-0.30022478 -0.044231307 0.015155284 0.6670538 0.38277575 0.22163662 -0.014124608 0.3757986
-0.5391963 -0.2722252 -0.21513975 -0.28004834 0.14643195 0.83260936 -0.80596346 0.56228197
0.013647117 -0.09245467 -0.81999093 -0.62235665 -0.041639864 0.060443703 0.45070052 0.6304785
0.44216514 0.36584812 0.2942697 0.25938675 -0.9358311 0.06770762 0.24925694 0.24404459
-0.37937304 0.012599518 0.2701569 -1.2920744 -0.939174 0.2778483 0.120358236 0.54473364
-0.5365678 -0.13079825 0.16656788 0.42172492 0.030812813 -0.56037956 -0.3225872 0.24586016
0.29232964 0.15923053 0.58279866 -0.12240917 0.34741247 0.04554717 -0.5603554 0.21193676
0.15663902 0.21129198 0.4192174 -0.39216772 -0.15227546 -0.19292195 -0.061201885 0.19439329
0.9073848 -0.783843 0.29788882 0.2762491 -0.76469237 -0.76322913 0.091046594 0.23728947
0.17852393 0.44947162 0.6810977 0.18379313 -0.01810219 0.016573697 -0.08832544 0.022874838
-0.42895493 0.18833606 0.5655951 0.7162248 0.674018 0.7302463 -0.7551849 -0.9261481
-0.096384086 -0.52906597 0.0872161 0.7792096 0.68597996 0.9807173 0.75374687 0.024612084
-0.6233795 0.53771704 -0.6113843 -0.007860502 -0.24972162 0.4818133 0.075036384 0.11712249
0.3576509 -0.6140306 0.59087014 0.27866358 -0.23158813 -0.15622573 0.61842704 -0.18688677
0.82535404 0.4622492 -0.40595782 0.071718186 -0.2293711 -0.30761856 0.48183545 -0.29797745
0.09749469 0.4080849 0.14187217 0.29964152 -0.712827 -0.521365 0.23458377 0.11581467
-0.2527489 0.22524764 -0.3152768 -0.1705561 -0.18313307 0.16368213 -0.18160367 0.53829265

tcr_lstm.bias_ih_l0 f4 [120]
00000000: dfb0 863d 5c74 a83e 575f 4a3e 3a1c 993d
00000010: f275 ea3e 8596 e93e 6104 a13e 8acd 373f
00000020: f105 973e ed68 a63e 0178 d43d 6a39 033f
00000030: 6893 bf3d 3d00 2f3f f95e f13d eec3 013f
00000040: ce11 4f3e f7e3 a83e 45f1 e63d 89c9 c23e
00000050: 025e ed3e 302f 563e f858 493d cc77 8f3e
00000060: 049c 3e3f 2c0a bc3e 535e e63e 90d3 563e
00000070: 5fe9 013e aef8 173f 2869 103e 55ef a03e
00000080: de70 243d 0b48 153f f3b2 be3d 5635 c0bd
00000090: a47b 673d 35ca 8f3e 6728 8cbe 4fe2 9d3d
000000a0: d425 393d 739b 843e 117f 753e 17b4 9f3e
000000b0: 15b3 dbbc c4ef 4cbe e641 83bc 1ef1 253e
000000c0: 78e7 b73d bf66 0dbe 99de f73d 85f8 be3e
000000d0: ed7e 4d3e 59ef 9d3e 7921 f03e f7da 053e
000000e0: 7366 9e3e 75ab 56be 0d01 58bd 79ae 9d3e
000000f0: bc68 9d3d ca46 ca3d f204 b9bd d847 593e
00000100: 5542 113e 1414 3cbe 57a0 b93d 1b20 523d
00000110: 4d8a 1a3e f718 93bd d907 2abe 1098 013e
00000120: f83f f7bd 7f7c 91be 62b2 2e3e 40f5 d63d
00000130: a342 023e b9f6 fb3e 5bef b1be 7bca 90be
00000140: 6f8b 953e cb81 d2ba c6e5 b13e 25ff 203e
00000150: 325c 3e3e c632 8f3d 163d 6e3d 4a6d 35be
00000160: f7e0 f8bd 4b15 1abe 3f8c b33c 995a b73e
00000170: 6dfa 463e 3e3a 983e eaf8 103f ca15 f53e
00000180: f221 123f c02a 333f 23a2 9a3e be81 db3e
00000190: 1ed5 783e 302d f33e 2741 3ebd 22ae a43e
000001a0: 9f51 863e 2331 ed3e 2015 ec3e c8c0 57be
000001b0: 9964 8d3e c0a1 2c3f 531b bc3e d35b 863e
000001c0: a78f 9a3e 56fd ff3e f150 143f a53b 92bc
000001d0: 142a 893e d738 c13e cdd2 ff3e 8229 4f3e
0.06576704 0.32901275 0.19762932 0.07476087 0.4579311 0.4562265 0.31448653 0.71798
0.2949672 0.32501927 0.103744514 0.5125948 0.093542874 0.6835974 0.11785693 0.5068959
0.20221636 0.32986423 0.11276487 0.38044384 0.46360785 0.20916438 0.049157113 0.28021085
0.7445681 0.3672651 0.4499384 0.20979142 0.1268668 0.5936383 0.14102614 0.31432596
0.0401467 0.58313054 0.093114756 -0.09385173 0.056514397 0.2808396 -0.27374575 0.077091806
0.04520209 0.25899848 0.23974253 0.31192085 -0.026818791 -0.20013338 -0.016022634 0.1620526
0.08979696 -0.13808726 0.12103004 0.3729898 0.2006795 0.3084667 0.46900538 0.1307181
0.30937538 -0.20963843 -0.052735377 0.30797175 0.07685992 0.09876783 -0.09034146 0.21218812
0.1418546 -0.18367034 0.090637855 0.05130015 0.1509182 -0.07182496 -0.16604556 0.12655663
-0.12072748 -0.28415295 0.17060235 0.104959965 0.12720732 0.49211672 -0.34752926 -0.2827948
0.29207942 -0.001606041 0.34745616 0.1572233 0.18589857 0.06992106 0.058163725 -0.17717472
-0.12152284 -0.15047185 0.02191746 0.35811308 0.19431467 0.29731935 0.5662981 0.47868186
0.57083046 0.69987106 0.30201825 0.42872423 0.24300048 0.47495413 -0.046448853 0.32164103
0.26234147 0.4632655 0.46109867 -0.21069634 0.27615812 0.6743431 0.36739597 0.2624193
0.30187723 0.49997967 0.57936007 -0.017850706 0.26789916 0.37738678 0.49965516 0.20230678

tcr_lstm.bias_hh_l0 f4 [120]
00000000: c34f 243b eb5e a73e bfd0 b13e be77 8b3e
00000010: c689 ea3e 15dd eb3e 6b6f 433e 00d7 283f
00000020: b548 8a3e 0c7b cc3e e8be 4d3e 0c38 073f
00000030: 2431 9b3d e17e 073f a5aa cf3d 5920 f93e
00000040: cd82 1a3e 86f2 ee3d 4feb a73d 2395 373e
00000050: 2c84 103f e0d5 2b3e 2eb3 d43c ea71 bd3e
00000060: 5e6f 373f d65a d63e b652 0d3f e17c 953e
00000070: 56b4 8c3e f8b5 e23e eb7a ee3d 0921 843e
00000080: a77b d13d 00ec 123f b39e a13e e211 6fbe
00000090: dcf0 f03d 6aa3 053e 0cd8 60be f5f5 043c
000000a0: d722 5e3e 26c4 4c3e c3af ac3e 45b3 853e
000000b0: c006 493e bd49 16be eb2b 8cbc 0250 16bd
000000c0: a5d6 433e 317b 75be f56f 873d f98b 8f3e
000000d0: 478f db3e 6c1e b83e f43f da3e a911 873d
000000e0: 6d8f 083e 6b89 03be b3fe 63bd 067f 923e
000000f0: 6c25 adbd f1ef 493e 58f4 24be cfd8 913e
00000100: 9676 233e 1511 8ebe 4d81 51be 6dc9 a43d
00000110: 6a7f 373e ecbe 873e 4ada 1b3d e4d3 23bd
00000120: e828 f03d 72ef eebd 58a5 6bbc d3c5 793e
00000130: 9a46 3d3b a1d8 a53e 5a00 92be 6022 7abd
00000140: fd01 e73d bf61 2bbe 9de2 853e 546e 2f3e
00000150: 0189 3d3e 6cd2 223e 35f3 20bc ea13 66be
00000160: 9b2d 18bc 90f9 18be 6608 b43d a316 423e
00000170: d0ff d03d 1238 953e b3e5 003f fa06 e93e
00000180: e9b0 c03e 5ff7 153f 030b a43e 15c4 2b3f
00000190: e9b6 aa3e d4f1 1f3f 01d4 03be 8d91 de3e
000001a0: b49f bb3e 74d9 fb3e 549c 343f 709c 2fbe
000001b0: d5a2 573e 653c f23e 82c8 a63e c017 cb3e
000001c0: 5122 ab3e ab82 1a3f b1f6 263f 631c 973d
000001d0: 7ce5 d33e 088f 223f e156 023f a9fb 6a3e
0.0025071956 0.32689604 0.34729573 0.27239794 0.45808238 0.4606711 0.19085471 0.65953064
0.27008596 0.39937627 0.20092356 0.52819896 0.07577732 0.52927977 0.1013997 0.48657492
0.15088959 0.116673514 0.081991784 0.17927985 0.5645168 0.16780806 0.025964346 0.37000972
0.7165431 0.41866177 0.5520433 0.29196838 0.27481335 0.44279456 0.116445385 0.25806454
0.10228663 0.5739136 0.3156639 -0.23346666 0.1176469 0.13050619 -0.21957415 0.008115281
0.21692978 0.199967 0.33727846 0.26113334 0.19631481 -0.14676566 -0.017110785 -0.036697395
0.19124849 -0.23972775 0.06613151 0.28036478 0.4288275 0.3596071 0.42626917 0.06595165
0.13335963 -0.1284539 -0.055662822 0.28612536 -0.08454403 0.19720437 -0.16108835 0.28485724
0.15963206 -0.27747408 -0.2045948 0.080462314 0.17919698 0.2651285 0.038049974 -0.039996997
0.11726552 -0.11666764 -0.014382683 0.2439187 0.0028881193 0.32391837 -0.28515893 -0.06106794
0.11279676 -0.16736506 0.26149455 0.1713193 0.18509294 0.15900582 -0.00982361 -0.22468534
-0.009288217 -0.1493895 0.087906644 0.18953948 0.10205042 0.2914434 0.50350493 0.45513135
0.37634972 0.58580583 0.3203965 0.6709607 0.33342674 0.62478375 -0.12873842 0.4347042
0.3664528 0.4918934 0.7055104 -0.1714952 0.21058209 0.47311702 0.3257485 0.39666557
0.3342462 0.60355633 0.6522017 0.07378461 0.4138602 0.634995 0.50913817 0.22947563

tcr_lstm.weight_ih_l1 f4 [120, 30]
00000000: c0b1 4fbe 84c6 abbd 3fda babe 7af0 19bd
00000010: 53ed 013f efde 833e fedd bc3e 09b5 923e
00000020: d010 2fbe ae83 dabe 5619 aebe c449 703e
00000030: 6bfe 1b3d 92ab d1be 3187 1abe 9ba1 013f
00000040: 91c1 dfbe 8dc2 f93d e982 ecbe 0ce4 c6bb
00000050: 7268 0fbe 529d c33d 8b73 4bbc fac6 7abd
00000060: d123 1fba bfba 023f 850c 1cbf 0cb0 56bb
00000070: cead c0be dffe adbd e8cc c33e a0b2 3c3d
00000080: fc91 213f 62fd 633f d527 ed3d 349b 6bbe
00000090: aaf7 bdbe 9c24 b13d 3f9d e63d 26ba 6c3f
000000a0: 7d45 96be 78b8 99bb 80fe 933e dfd0 94be
000000b0: 1fc4 aabe 6f7c 863e 69ec b93e 9f19 ee3e
000000c0: fb74 e8bd 4e73 03bf 5e42 b9bd ae94 a83d
000000d0: cf61 ca3e e811 ec3e f649 153f e74c 363f
000000e0: f7c7 a7be f764 b53e 0646 e33e 9350 073e
000000f0: 34ed 84be 3f19 2b3f e063 943d e3de 9d3d
00000100: 29bc 9cbc 9f11 0cbf b67c eb3d ea81 dd3e
00000110: 7c68 9bbe 6e84 6c3e 160e c9be 5e77 76be
00000120: c52f 78be d54e 293f 1ebb c63e 853c 3cbe
00000130: 202a c93e c879 a63e bc8d 32bf a78d 2e3e
00000140: a1f1 893e 43ac 46bf 5a0a f23e 65e5 b63d
00000150: 2231 17bd cf37 1a3e ed89 6cbd 8bcb 663d
00000160: 5296 cabe a2e3 85bd a69a e23e d787 fa3e
00000170: 58a0 bf3e d201 a33e 8322 54be f3ec 42bf
00000180: bc7e f53e a7af fbbd dc81 34be 88b9 373d
00000190: cdbb 48bf e3c6 833f 1712 4fbe 7256 65be
000001a0: 81ab a33e a2a9 89bf 08c6 c03e 5076 3cbe
000001b0: fe16 153d d52d 933e b3ea 813e b852 a8be
000001c0: bb19 4b3e 1546 2abd 7d13 353e b770 5f3c
000001d0: c967 0ebf a5db d3be c809 d83e 1f4e f7be
000001e0: 286d 6d3e 9214 5cbb 8675 033d bd48 123f
000001f0: ebd1 8dbd a751 d43e c428 183e 8fdb 12bf
00000200: 68ae aa3e ed7a eabd 3114 943e 5f10 a23a
00000210: 13e5 f0bc 6558 2abf b952 073f d9f7 81be
00000220: d3d0 253f 0137 113e 9a2d 073f 230d 9a3e
00000230: da74 8abe 6bd2 a73d 25c8 b4be e93a b33e
00000240: 6164 3a3f d537 ad3f 133c abbe 34e1 50be
00000250: e909 833e c61f 81be 60d7 933e 7552 923d
00000260: f5be 9ebb 44d7 8abd a559 7a3e 1a1c 213e
00000270: ffe8 abbe 1585 a83e df15 e5bc 348a 003e
00000280: 8aef 9e3e f40b c23e 4c0e f93d 90c1 71bf
00000290: deca 93be 010d 803d b844 0c3f f58d 0bbf
000002a0: fa8c 60be a790 c1bb 2ca3 89be ad76 dbbe
000002b0: d99c 813e d65d 373e 8bae b73d f5ec 99be
000002c0: 5706 8d3d 0bc5 f13e a48c ed3d a066 20bf
000002d0: 8cba b8be 7351 e93e 7aaf 90be e398 8fbe
000002e0: 21b5 3b3f af96 b9bd a624 a2bd 6db5 e0be
000002f0: a418 ddbe e2b3 b5be ce41 1b3f 65ee 243e
00000300: f75e edbe 6e1f b3be 0c2f 943f 507d 8b3d
00000310: 9027 3d3f a0ae f63e 6702 96bd f95f ffbe
00000320: c8f4 a9be f9f9 f8be 6d7a a23e 3287 ee3c
00000330: b70f 0a3f bb2e 95bd cf38 99be b372 40bf
00000340: 6413 0d3f 6728 04be 4c5d 023e 67fe 803e
00000350: 3146 d4bd df67 4dbe 4613 a9bd 3f3a acbe
00000360: 417f d8be d0bc cdbe c84c 00bf 7cfe ad3d
00000370: cc02 1bbf a10a 603f 79c6 8a3e 65bd 89be
00000380: 3c21 2cbc 21a4 1fbe 01ff 1f3e 7c1e f33e
00000390: 5cc6 0cbd 1baa bdbd 3eb8 a0be 21e1 44be
000003a0: 83dd 833d ced0 8fbe 62c1 7dbe 5ce4 e43c
000003b0: 3771 303e 0ec4 99be 95ab 7abe cb95 17bf
000003c0: 90e3 58bd e7fd 09bf 4012 83be da52 d1be
000003d0: ad41 603e 5451 1abf bba1 153f 9675 2f3e
000003e0: 3196 f33d 0726 51bc 2676 b4be 38c5 ec3e
000003f0: 43cd 703d 60a6 e0be c00d a03e 3149 cbbd
-0.2028265 -0.08387473 -0.36494634 -0.037582852 0.50752753 0.25756022 0.36888117 0.28653744
-0.17096257 -0.4267859 -0.34003705 0.2346564 0.03808443 -0.4095121 -0.15090634 0.50637215
-0.43702367 0.12195311 -0.46193627 -0.006069666 -0.14004686 0.09551491 -0.012417684 -0.061224915
-0.0006070706 0.510662 -0.60956603 -0.003275874 -0.37632602 -0.084958784 0.3824227 0.046068788
0.6311338 0.89058506 0.11579863 -0.23008424 -0.37103015 0.08649561 0.11260461 0.9247154
-0.2934989 -0.00469118 0.28905106 -0.29065606 -0.33352754 0.2626681 0.3631318 0.46503922
-0.11350437 -0.51347816 -0.09045862 0.082314834 0.39527747 0.4610741 0.5831598 0.71211094
-0.3276975 0.35428593 0.4438936 0.1321433 -0.25962222 0.668354 0.07245612 0.07708528
-0.01913269 -0.5471439 0.11498396 0.4326318 -0.30353153 0.23097393 -0.3926856 -0.24068972
-0.24236973 0.66135913 0.38814634 -0.18382461 0.3928995 0.32514787 -0.6974752 0.17046224
0.2694216 -0.776066 0.47273523 0.08930472 -0.03691209 0.15060352 -0.057748724 0.056346457
-0.3956781 -0.06537558 0.44258612 0.48931763 0.3742702 0.31837326 -0.2071629 -0.76142806
0.47948253 -0.122893624 -0.17627662 0.04485467 -0.7841156 1.029507 -0.20221744 -0.22396258
0.31966785 -1.0754893 0.37651086 -0.18404508 0.03639888 0.28745905 0.25374374 -0.3287561
0.19834034 -0.04157074 0.17683215 0.013637713 -0.55627114 -0.41378513 0.42194963 -0.4830179
0.23186171 -0.0033581597 0.0320945 0.5714224 -0.06924804 0.41468546 0.14859301 -0.5736627
0.33336186 -0.114492275 0.28921655 0.0012364498 -0.029406106 -0.6654113 0.528606 -0.25384405
0.64771765 0.14181139 0.5280396 0.30088148 -0.27042276 0.08194431 -0.35308948 0.35005882
0.72809416 1.3532664 -0.3344427 -0.20398408 0.25593498 -0.25219554 0.28875256 0.07144634
-0.004844541 -0.0677934 0.24448259 0.15733376 -0.335762 0.32914034 -0.02796453 0.1255272
0.3104213 0.37899745 0.1216093 -0.9443598 -0.28865713 0.0625248 0.54792356 -0.54513484
-0.21928778 -0.0059071365 -0.26882303 -0.4286398 0.25314978 0.1790689 0.08968838 -0.30063596
0.06885975 0.47220644 0.11599091 -0.62656593 -0.36079824 0.45569953 -0.28258878 -0.2804633
0.73323256 -0.09061944 -0.079171464 -0.43888417 -0.43182862 -0.35488802 0.60647285 0.16106565
-0.46361515 -0.34984916 1.1576858 0.06811011 0.7388849 0.48180103 -0.07324677 -0.4987791
-0.33194566 -0.48628214 0.31734028 0.0291172 0.5393023 -0.07284304 -0.29926154 -0.7517502
0.5510771 -0.12906037 0.12730902 0.25194094 -0.103649504 -0.20059155 -0.08255629 -0.33638188
-0.42284587 -0.40183115 -0.5011716 0.08495805 -0.6055114 0.8751622 0.27104548 -0.2690231
-0.010505971 -0.15589954 0.1562462 0.47484195 -0.034368858 -0.09260961 -0.31390566 -0.19226505
0.064387344 -0.28088993 -0.24780801 0.027940921 0.17230688 -0.3003239 -0.24479516 -0.5921294
-0.052951396 -0.5390305 -0.2559986 -0.40883523 0.21900053 -0.60280347 0.58449906 0.17134699
0.11893881 -0.012765414 -0.3524639 0.46244216 0.058789503 -0.43876934 0.3126049 -0.099260695

tcr_lstm.weight_hh_l1 f4 [120, 30]
00000000: 65f6 80be 2bf9 b23d e4e8 813d a014 2dbe
00000010: 0ac7 103e 8e58 9ebe 2bb1 443d 5dc6 87bb
00000020: a2f7 573e 952d 1c3e d4c1 0dbe b1da 823f
00000030: d6fa 943d 6ef8 703f d81d 73be 74d5 a2be
00000040: 9be1 75bf 8a35 cabd 9123 29bf de5d 513e
00000050: 167d 95bd c09e bf3e 2f61 7b3e 5f1f c73e
00000060: e6c1 993e 67f8 5dbe 58bf 54bd 2178 00bf
00000070: 7300 b4be 9e3d fdbc a0ee c2bd 4e3a 0fbf
00000080: ef4c e93d 2cd4 34bf 9421 d33e 5c37 f63e
00000090: b7e5 a83e fe3a 41be d211 2e3e d1a4 80be
000000a0: 2fe6 7ebd 5e0b 273f d625 64be fe92 c4bd
000000b0: 173e 353e 45b5 80be 893a a3bd 34c3 71be
000000c0: 91e4 65bf 12e1 2e3e 91ef 2abe 2d31 453f
000000d0: 88cb 5a3d 35b0 ec3e b252 ae3e 7a85 25bc
000000e0: 4b2c cfbd 68ea 11be a56c 27bf f7a3 6bbe
000000f0: c19f 52be 552b 0ebf 4dcb c23e 4954 acbf
00000100: e117 06bf 4ece 4e3f 2687 bb3e fe71 35bf
00000110: f167 123d 46f8 9a3e b096 92be c786 5a3e
00000120: ba89 193f 0d88 423e 2b07 97bd 8921 25bd
00000130: f063 4e3f 0281 6ebe 26dd 363e 0e2f d3bc
00000140: 680d 533e 74a9 903f 7eaa e7bd 2b0e babc
00000150: 9837 d23e 830d 52bf a5b5 003f f623 87be
00000160: 2e1d 2a3e bf77 24be 7bf9 9b3f 894f 46bf
00000170: bf6a aabe 216d d6be 5eac 3f3e 925b b4bc
00000180: a059 033f cffc a03d 27f4 463e d1df bbbe
00000190: 8240 16bd b1c1 0f3f 4669 493f 46ed ff3e
000001a0: ee7d f2be 3099 ac3e 3638 053f aa69 883e
000001b0: cfaa ea3d 1425 7c3e 5493 54bf d767 413f
000001c0: 6d63 d0bd 83d8 883e ea02 5a3f 7cf6 f43e
000001d0: b9ac dfbe c8f4 9f3d 5352 8bbd 6789 e23e
000001e0: 1409 953e 9872 033d 224f f83e 9d52 bd3d
000001f0: 3238 08be 9496 babd e85f 213f 897a ecbb
00000200: 0b9a d93e 1b76 c13d 3479 1c3e 3f43 2e3f
00000210: 58ae 173e 16cd 113f 9ea0 833d cb2d 883f
00000220: 3d31 cabe a0e2 25be d7e2 10be 6bd8 c9be
00000230: 1e5f 703e ee43 c13e 335a 893e 1a55 4b3e
00000240: b5a5 803d bfd3 f7be b1d3 9cbe cc5c e7bd
00000250: eae9 32bf 4765 d83c 7efc 163d d9c8 e53e
00000260: bbab 5a3d 0208 3bbd f3eb eabd 40fd 573c
00000270: bad5 a23e 408f c3be 4362 37be f641 e43e
00000280: 97ce 8f3e 499e bd3c 72e6 41be 4161 e8bd
00000290: ab59 22be b7e9 59bd e5c1 14bd 70b1 9e3d
000002a0: 3390 373e 3128 d73e 37b6 25bf 42bc c93e
000002b0: fe37 2abe 4d39 b03e 8735 3dbe 1806 98be
000002c0: 47d0 613d 2066 a13e 52f9 cbbe 9261 673e
000002d0: 3726 a8be a680 113f c28d de3e 8451 14be
000002e0: 22b2 ffbe 09aa 083f 6c8d 12bf ba98 a23e
000002f0: 1009 153e f242 1b3f d557 69be 487a 283f
00000300: 8f0a bfbd 7c46 953e edff eebe e586 9c3e
00000310: e3cb 5a3d f4f1 dabe 3120 f3be d113 423e
00000320: 980d 853e 243a 283f 8782 b33d 3bf2 18bf
00000330: 1b88 bbbe a5b0 6ebf 5f5f 18bc c970 aa3e
00000340: ece4 50bc 893f 24bf 3a0c 6f3d 9438 5f3d
00000350: 2094 493f 7cf1 8bbe 3842 1f3e e789 7bbf
00000360: 0d71 acbe c059 9abc 596b 92be 6d12 ba3e
00000370: c90e 16be 9267 b1be b4f4 bebe a719 853d
00000380: 5eb8 dd3d e4f5 913e e768 14be 695b 153f
00000390: 45f8 793f 1106 88bd 40dc edbc 6077 903c
000003a0: 1b96 ca3d dc06 2ebf acee 4a3f df46 a1be
000003b0: 9e86 1f3e 34ab 87be ec7e b1be 4ba0 82be
000003c0: 6fca 11be ab9d 943e 9dfa 9b3e 83ab 3e3e
000003d0: d984 e1be 2cca e2be 9453 20be 2a14 57bf
000003e0: de91 bf3e 6e0b 993d 821c 933e bf7f 63bf
000003f0: bae4 13bf 570d 46bd 55f2 a23e 3068 203f
-0.25187984 0.08738931 0.063432485 -0.16902399 0.14138427 -0.30926937 0.048020523 -0.00414352
0.21090558 0.15251763 -0.13843471 1.0222989 0.07274406 0.94129074 -0.23741853 -0.31803477
-0.9604737 -0.09873493 -0.66069895 0.20445964 -0.07299249 0.37425804 0.24548791 0.38891122
0.30030745 -0.21676789 -0.051940292 -0.501833 -0.35156593 -0.03091317 -0.0951817 -0.5594834
0.11391627 -0.7063625 0.41236556 0.4808911 0.3298776 -0.1887016 0.16998985 -0.25125745
-0.06223124 0.6525172 -0.22280058 -0.09598349 0.17699467 -0.25138298 -0.07970149 -0.2360962
-0.8980189 0.17078045 -0.1669295 0.7702816 0.05341676 0.46228185 0.34047467 -0.010102624
-0.1011587 -0.14249575 -0.65400153 -0.23011766 -0.20568754 -0.5553487 0.3804573 -1.3463222
-0.52380186 0.80783546 0.36626548 -0.70877063 0.035743657 0.30267543 -0.2863059 0.21340476
0.5997578 0.18997212 -0.07374414 -0.040315185 0.8062124 -0.232914 0.17857799 -0.025779273
0.20610583 1.1301713 -0.11311816 -0.022711834 0.4105804 -0.8205187 0.5027717 -0.26394624
0.16612694 -0.16061305 1.218551 -0.7746511 -0.33284566 -0.41880134 0.18718097 -0.02201632
0.5130863 0.078607194 0.19429074 -0.36694196 -0.036682613 0.56154925 0.7867626 0.49985713
-0.47361702 0.33710623 0.52038896 0.26643115 0.114583604 0.24623519 -0.83037305 0.7554907
-0.10175214 0.26727685 0.85160697 0.47844303 -0.43686464 0.0781036 -0.068028115 0.44245455
0.2910849 0.032091707 0.48497874 0.09244273 -0.13302687 -0.09110752 0.63036966 -0.0072167558
0.42500338 0.09446355 0.1528061 0.6807136 0.148126 0.5695356 0.0642712 1.0638975
-0.3949069 -0.16199732 -0.14149033 -0.39422926 0.23473784 0.3774714 0.2682663 0.19856682
0.06281606 -0.48403737 -0.30630258 -0.112969965 -0.69888175 0.02641548 0.03686189 0.44879797
0.05338643 -0.045661934 -0.11470785 0.013182938 0.31803685 -0.3819523 -0.17908578 0.44581574
0.28087303 0.023146765 -0.18935564 -0.11346675 -0.15854518 -0.053201403 -0.036317725 0.07748687
0.17926101 0.4202285 -0.6473116 0.39401442 -0.16622922 0.34418717 -0.1847745 -0.2969215
0.05513027 0.31523228 -0.39838654 0.22595814 -0.32841656 0.56836927 0.43467528 -0.1448422
-0.49940592 0.53384453 -0.5724704 0.31757146 0.14554238 0.60649025 -0.22787412 0.65811586
-0.09328186 0.29155338 -0.4667963 0.30571666 0.053417098 -0.4276272 -0.47485498 0.18952872
0.25986934 0.65713716 0.087651305 -0.59744614 -0.36627278 -0.9323829 -0.009300082 0.33289173
-0.012749892 -0.64159447 0.05836127 0.054497316 0.78741646 -0.27332675 0.15552604 -0.982573
-0.3368 -0.018841624 -0.28597525 0.36342183 -0.14654078 -0.3464933 -0.3729607 0.064990334
0.10826181 0.28507912 -0.14493142 0.58342606 0.97644454 -0.06641782 -0.029035687 0.017635047
0.098919116 -0.67979217 0.79270434 -0.31499383 0.15578696 -0.26497805 -0.34667146 -0.2551292
-0.14237379 0.2902654 0.3046464 0.18620114 -0.44046667 -0.4429487 -0.15656883 -0.8401514
0.37415975 0.07472883 0.28732687 -0.888668 -0.57770884 -0.048352566 0.3182551 0.6265898

tcr_lstm.bias_ih_l1 f4 [120]
00000000: b144 523e c2e5 023e 352d 533e 9648 df3e
00000010: 7da1 4dbb 411a d73e ea2c e23d 3196 86bd
00000020: 27ad ba3d e2c1 d13e f535 543e 4237 043f
00000030: 62e7 80be 4ae2 993e 87b9 f23e d4ee 803e
00000040: 4161 963e b9a3 563e b69c 943e 77d8 533e
00000050: d04b 98bc 17eb 58be 56b7 423e bd7b abbd
00000060: 55ee c7be 728c 553d 0d5f 563d 24e8 e53e
00000070: 6973 c83d d9f2 923e f801 1b3f 5182 1bbe
00000080: c419 ec3d 39ca 383e f636 853e cc4c 5c3e
00000090: 39bd 283e d1fe bb3a bd98 c73d c00c c2bd
000000a0: 18bb 003e c0f6 c33d a270 6f3e 7bb7 873e
000000b0: 08ac 0bbe af3e 39be c96e 8b3e 0684 db3d
000000c0: eab9 403e 51ee 6e3e 5b39 683e f396 b03e
000000d0: 429f 83bd ee58 f13e 15ec 983d cf29 bf3d
000000e0: 51ad ee3d 4313 373e c9a8 b33e 0dd3 ca3d
000000f0: a870 063c 01fe 7ebd 8f3f d1ba b3ef 89be
00000100: 0dfc afbd 8869 043e d620 93bd 0576 363e
00000110: 228a 0e3e 5302 96bc 6dd1 283e 16c0 863e
00000120: 4718 51be 4db0 1bbe b773 163e adb3 36be
00000130: 5c50 debb 31ec 02be 4388 d3bd 05c0 7b3e
00000140: bab9 52bd 82eb 53bd 9c85 353e 1813 99bd
00000150: 79ee f83d 3b4f 81be 64cb 193e 894a 043d
00000160: ba76 febd d1ea 04be 5f40 a93e ea2c 9f3e
00000170: 5ae9 e03d 8407 0a3f 4647 473d e22a 103f
00000180: b499 d0bd d74f 8b3e 9ffa 5d3e 0d80 b03e
00000190: 4ace 923e 2f42 f83e 40b6 1bbc bb10 c53e
000001a0: 3290 353f 08aa 85bd 34a8 183f f282 683e
000001b0: c03e db3d 09bc ae3c e118 d23e 709b ce3e
000001c0: e4bd 953e 093f 993e ce16 c93d c6a7 563c
000001d0: b2bd c13b 4fe0 2d3f 4860 a13e fb27 8c3b
0.20534016 0.12782958 0.20622714 0.43610066 -0.0031376772 0.42012218 0.11043723 -0.065716155
0.091150574 0.40968233 0.20723708 0.51646817 -0.2517653 0.30055457 0.4740717 0.2518221
0.29371074 0.20960893 0.2902581 0.20688044 -0.018590838 -0.2118343 0.1901525 -0.083732106
-0.3904902 0.052135892 0.05233674 0.44903672 0.09787638 0.28700903 0.6054988 -0.1518643
0.11528352 0.18045892 0.26018494 0.2151367 0.16478433 0.0014342909 0.097459294 -0.09475088
0.1257137 0.09568548 0.2338281 0.26507172 -0.13639843 -0.18090318 0.2723296 0.10718541
0.1882092 0.23333098 0.2267813 0.34490165 -0.064268604 0.4713816 0.07466904 0.09334146
0.11654151 0.17878442 0.3508971 0.09903536 0.00820557 -0.062253956 -0.0015964377 -0.26940688
-0.08592997 0.12930882 -0.07183997 0.17818458 0.13919881 -0.018311655 0.1648614 0.26318425
-0.20419417 -0.15203972 0.14692579 -0.17841978 -0.006784482 -0.12785412 -0.10328724 0.24584968
-0.051446654 -0.05173827 0.17726749 -0.07474345 0.1215486 -0.2525576 0.15018994 0.032297645
-0.12424989 -0.129802 0.33056924 0.31088954 0.10982008 0.5391772 0.048651956 0.56315434
-0.101855665 0.2720935 0.21677636 0.34472695 0.2867301 0.48487994 -0.009503901 0.38489327
0.7092315 -0.065265715 0.5963166 0.22706202 0.10705328 0.021329897 0.41034606 0.40352964
0.29246438 0.29930905 0.09818803 0.013101524 0.005912506 0.6792039 0.3151877 0.004277227

tcr_lstm.bias_hh_l1 f4 [120]
00000000: ffc0 2b3e 4a09 903d a8af 3f3e 9ade ac3e
00000010: 59ff 0bbc f0d9 243f 35a5 ef3c f4c8 d8bb
00000020: c483 583e c6ed f73e adae 983d a7ec 923e
00000030: c799 f7bd 6856 8e3e e211 0b3f 280a 343e
00000040: 7e27 c83e 967f 5d3e 3d7a b23e 7b2a d63d
00000050: fc09 743e 7c92 933d 6d85 b93d 20a7 80be
00000060: 0f46 0ebe 9a28 26bd 9050 b8bd 6206 c03e
00000070: f392 b83e 9599 a63e a094 f83e b3a8 e7bd
00000080: e3f6 873b 8ca1 8c3d c383 603c e342 9bbb
00000090: 085f cb3d 4ee5 66bd 305d 383e 4d6d 1fbe
000000a0: 3217 553e bc27 31bc 5c98 ae3d 504e 893e
000000b0: f3dc 913d 2a4e 6cbe 0d08 1c3e 6dfc 653e
000000c0: 5472 a93d a180 a83e a2c6 943e 9ab7 cf3e
000000d0: 1d59 58bc 6481 013f a006 453e 1576 903d
000000e0: 29ef 7bbd 0d96 683e c24b 593e dc3e c83d
000000f0: 3e48 163d 3f82 093e a7e6 583e b943 0abd
00000100: 9b19 e2bc f341 0e3e 6260 16bd 0d0b 873c
00000110: db62 753e 2d63 9abd f7b8 e43d e75a 973e
00000120: 6b0d 73bd eaff a3bd f222 a33d 1b61 04be
00000130: 1a24 073e 2e2f 62bd 88cd 4e3c 00a1 753e
00000140: 6147 443e 2e81 39be 38f6 03bc 79a9 2abc
00000150: d635 bb3c 10c5 a5be 34bc 98bd 7ab1 c43d
00000160: 164c 8abc 11bc 22bd e994 d33e ee3b ac3e
00000170: 078b c93e 218f 113f 12e3 453d 66b3 203f
00000180: e210 853d 7eb3 5e3d 28d5 ef3d ae94 b13e
00000190: 16e0 423e c065 cc3e b8ec babd ef34 da3e
000001a0: 1439 463f 7fe4 da3b 24f9 213f 1ad1 b23e
000001b0: 83ad b2bd 5cfd a53d 1de5 b63e 4023 743e
000001c0: 515f 8b3e a3c1 343e 2c7b 6f3d 68a7 1d3d
000001d0: e808 803c 50fd 483f 9a02 cd3e f236 983e
0.16772841 0.07033022 0.18719351 0.33763582 -0.008544766 0.64395046 0.029253582 -0.0066157524
0.21144015 0.48423594 0.07455192 0.28696176 -0.120898776 0.27800298 0.5432416 0.17582
0.3909263 0.21630701 0.34858885 0.10457321 0.23831934 0.07205674 0.09058652 -0.25127506
-0.13893913 -0.040566064 -0.08999741 0.3750487 0.36049613 0.3253905 0.48550892 -0.11311474
0.0041493042 0.0686675 0.013703289 -0.004738198 0.09930235 -0.056371026 0.18004298 -0.15569039
0.2080963 -0.010812696 0.08525154 0.2681756 0.07122221 -0.23076692 0.15237446 0.22459574
0.082737595 0.32910636 0.29057795 0.40569764 -0.01320484 0.5058806 0.19240808 0.07053772
-0.061507378 0.2271349 0.21220306 0.097776145 0.03668999 0.13428591 0.21181737 -0.03375599
-0.0276001 0.13892345 -0.03671301 0.016484762 0.23963492 -0.075384475 0.11168092 0.2956154
-0.05933897 -0.08007796 0.0796565 -0.12927668 0.13197365 -0.055220775 0.012622245 0.23987198
0.19167854 -0.18115684 -0.008054309 -0.010416382 0.02285282 -0.3237691 -0.07457772 0.096041635
-0.016881984 -0.039730135 0.41324547 0.33639473 0.39363882 0.5685902 0.048312254 0.6277374
0.06497361 0.054370396 0.11710578 0.34683746 0.19030795 0.3992138 -0.09127182 0.4261851
0.77430844 0.006680071 0.63270783 0.34925157 -0.08724501 0.08104965 0.35721675 0.23841572
0.27221158 0.17651992 0.058467075 0.03848973 0.015629247 0.78511524 0.40041047 0.2972942
