mcpas_lstm_model.pt (torch_old, 112251 bytes, 21 tensors)

tcr_embedding.weight f4 [21, 10]
000000 00 00 00 00 00 00 00 00 00 00 00 00 00 00 00 00
       0.0 0.0 0.0 0.0
000010 00 00 00 00 00 00 00 00 00 00 00 00 00 00 00 00
       0.0 0.0 0.0 0.0
000020 00 00 00 00 00 00 00 00 d8 d6 75 3c f7 36 9f be
       0.0 0.0 0.015004836 -0.31096622
000030 75 94 20 be 5a 1f 0c bf 1e 0a 1d bf 2f 93 92 bf
       -0.15681632 -0.5473534 -0.6134356 -1.1451167
000040 71 04 0a 40 ca e9 2a 3f 29 1c 1a c0 56 23 0d 40
       2.156521 0.66762984 -2.4079688 2.2052817
000050 b3 71 44 c0 b1 74 34 3f 02 7f f4 3d 92 a8 f1 3d
       -3.0694396 0.70490557 0.11938287 0.1179973
000060 fc 4e 8c 3f 2c 69 22 3e 7d bf 90 3e b4 a4 37 be
       1.0961604 0.15860432 0.28271094 -0.17933923
000070 8d cc 65 be b6 de a0 bf f3 8a f1 bd a9 a0 23 bf
       -0.22441311 -1.2567966 -0.117940806 -0.6391702
000080 5b 45 90 3f 94 00 d6 3d 4a 08 89 bf 5e 87 ad 3f
       1.1271166 0.10449329 -1.0705655 1.3556936
000090 3c a7 8b 3e 7d d7 d5 bf 30 a7 af 3f 5d 54 30 40
       0.27276027 -1.6706387 1.3722897 2.7551491
0000a0 21 78 14 bc 1f 51 d5 bf 8a e2 07 bf 6f 69 ce bf
       -0.009061844 -1.6665381 -0.53080046 -1.6125926
0000b0 1e 4c c5 3e 1a 87 f0 3f 38 a7 f2 be bb 06 f7 be
       0.38534635 1.879123 -0.47393203 -0.48247322
0000c0 b1 92 34 bf fb 53 af 3e 84 39 34 bd 2a 50 94 be
       -0.70536333 0.3424376 -0.044000164 -0.2896741
0000d0 9a 75 f0 bf 2a de d6 be 95 cd 9e 3f 3d 77 81 3e
       -1.8785889 -0.41966373 1.2406489 0.25286284
0000e0 70 b1 87 3e 4f 49 7e 3f 22 8c 71 3f 5d 37 bd 3e
       0.26502562 0.9933061 0.9435445 0.369563
0000f0 e3 5d 7b bf 87 49 34 3f a0 60 78 bf f9 be 95 bf
       -0.98190135 0.70424694 -0.9702244 -1.1698905
000100 8e 22 0b c0 04 8b 80 3f e7 08 e1 bd 7b de be bf
       -2.173984 1.0042424 -0.10988026 -1.4911646
000110 03 f5 eb 3e 0d 39 96 bf f3 7c 99 bf d9 9f 26 be
       0.46085367 -1.173616 -1.1991256 -0.16271915
000120 c3 df 68 bf 2d c8 c9 bf 3b 9a 2d bf b4 2a a6 bf
       -0.90966433 -1.5764214 -0.6781346 -1.2981782
000130 8c 33 e8 3e 24 9e 61 bf c6 9b b0 3e 76 92 63 3f
       0.45351827 -0.8813193 0.34493846 0.88895357
000140 32 6a 30 3f 8d 95 31 be 55 0e 80 3f 3f e4 05 bd
       0.6891204 -0.17342205 1.0004374 -0.032688376
000150 7b 2f 85 bd 9c 64 54 3e 10 a5 92 3f 7c 38 11 c0
       -0.06503197 0.20741504 1.1456623 -2.2690725
000160 63 b7 54 bf 4c 5c 50 bf 2e c2 52 3f 59 f6 7e 3f
       -0.83092326 -0.81390834 0.82327545 0.99594647
000170 bb f5 5d 3f 54 75 bf 3f f2 46 05 bf 1a fa e1 bf
       0.8670308 1.4957681 -0.5206138 -1.765445
000180 90 7d cd 3e c6 51 04 c0 28 c9 c8 3e 9c 3e ef 3e
       0.4013486 -2.067491 0.3921597 0.46727455
000190 4e 32 b0 3d a3 42 de 3f 8e 33 21 40 43 05 96 3f
       0.08603345 1.7364086 2.5187716 1.1720356
0001a0 6d 59 b1 3e 27 c4 86 3e b3 d6 26 bf 9a 94 37 3f
       0.3463854 0.26321527 -0.65171355 0.71711123
0001b0 a7 43 de 3e 63 97 73 3f 1a 9e 03 40 3b 69 39 bf
       0.4341099 0.9515287 2.0565248 -0.72426194
0001c0 a2 f0 89 be a6 37 83 3e 8d 72 b3 3f 43 0f 42 bf
       -0.269414 0.25628394 1.4019333 -0.7580454
0001d0 17 81 84 bf 8a 7b a0 3e de 59 14 3e ba ca db bf
       -1.0351895 0.31344253 0.14487407 -1.7171242
0001e0 43 17 59 bf d4 5a 1f 40 66 bc 73 3f 0f b4 39 3f
       -0.8480112 2.4899187 0.9520935 0.7254037
0001f0 8c 57 4b 3f 83 e7 99 bf 72 e1 ab 3f 79 0e 11 bf
       0.7943046 -1.2023777 1.3428175 -0.5666271
000200 b3 26 aa 3f 2c e4 cc bb a7 33 ec 3f a7 37 8c 3f
       1.329306 -0.006252786 1.8453263 1.0954484
000210 be 01 ba 3d 61 fb 89 bc 55 cc 84 bf 3f 8f 8a bf
       0.090823635 -0.0168435 -1.0374857 -1.0824965
000220 85 9e 5f 3f 8c e8 8f 3f c8 02 22 40 2c 01 fc be
       0.87351257 1.1242843 2.5314198 -0.49219644
000230 e2 34 ae 3e 28 58 78 3f ac 40 e7 bf 36 e6 41 bf
       0.3402472 0.97009516 -1.8066611 -0.757419
000240 f0 3b 67 3f 3d 7e 69 bf 20 f0 94 be 6e 98 a1 3f
       0.9032583 -0.9120825 -0.2908945 1.2624643
000250 0a a3 04 3f 37 02 26 40 fa f3 cd be 37 4c 82 bf
       0.5181128 2.5938852 -0.40225202 -1.0179509
000260 13 4a 89 bc 6f b1 1a 40 8d c9 ca bf 76 8c ea 3e
       -0.016758954 2.4170797 -1.5842758 0.45810288
000270 5d d4 45 bf 95 99 98 be 3a 6a 9b 3e 87 f9 01 bf
       -0.77277166 -0.29804674 0.30354482 -0.50771374
000280 3b d2 66 be d2 45 9c 3f e6 29 86 bf 25 fc aa 3f
       -0.22541134 1.2208807 -1.0481536 1.3358198
000290 5d 54 8c bf f9 17 1f 3f 10 4c 22 3f 8d d6 18 bf
       -1.0963246 0.62145954 0.6339731 -0.5970238
0002a0 3e 97 20 bf 7a 0d 72 3f 19 4d 43 bd 7c 2f 80 bf
       -0.6273078 0.94551814 -0.047680948 -1.0014491
0002b0 a8 d3 70 3f e5 16 2c be 40 41 03 40 09 e1 0c 3f
       0.9407296 -0.16805609 2.0508575 0.55030876
0002c0 34 7a fe be f0 c2 09 be 5c 3d 02 bf b0 99 14 40
       -0.4970261 -0.13453269 -0.50874877 2.3218803
0002d0 24 0e eb 3f 53 7a fa be 2d d7 d2 bf 9d de 2b bd
       1.836369 -0.4892145 -1.6471916 -0.041960347
0002e0 03 2c f5 3f 11 f0 8b 3f a1 6c 3d bf 3c 31 a2 3e
       1.9154056 1.0932637 -0.7399388 0.31678188
0002f0 fe 8b 14 3e 6b 9c a5 bd 98 d0 fc 3f 22 55 7f 3f
       0.14506528 -0.08086475 1.9751158 0.9973928
000300 c5 61 34 bf 87 0a d9 be a0 24 a8 3e bc 35 84 be
       -0.70461684 -0.42390844 0.32840443 -0.25822246
000310 9b 11 31 bf 19 b2 01 40 8f 56 66 bf 6c bc 43 bf
       -0.6916749 2.0264952 -0.8997583 -0.76459384
000320 10 74 1e 3f 51 4b 8a 3e 81 b4 b5 be a6 79 df be
       0.6189585 0.27010587 -0.35489276 -0.43647498
000330 76 d4 f2 be 23 58 ab bf f2 7a f2 bf a5 b1 80 bf
       -0.4742772 -1.3386272 -1.894377 -1.0054213
000340 5d 07 9a bf 99 2c 9e bf
       -1.2033497 -1.235736

pep_embedding.weight f4 [21, 10]
000000 00 00 00 00 00 00 00 00 00 00 00 00 00 00 00 00
       0.0 0.0 0.0 0.0
000010 00 00 00 00 00 00 00 00 00 00 00 00 00 00 00 00
       0.0 0.0 0.0 0.0
000020 00 00 00 00 00 00 00 00 f7 77 b7 3f fa ce be bf
       0.0 0.0 1.4333485 -1.4906914
000030 6c 73 38 3e ff 0b bf bd 44 a1 3f 3e 44 71 03 3f
       0.1801278 -0.0932846 0.18713862 0.51344705
000040 3c 40 ae 3e 43 c3 98 3f 86 0e f2 bf 70 88 b6 bf
       0.34033382 1.1934589 -1.8910682 -1.4260387
000050 79 91 b4 3e 6c 43 45 3e 69 10 7d 3e 33 62 08 bf
       0.35267237 0.19264 0.24713291 -0.5327484
000060 83 65 ba be 91 6d ff 3f c1 48 1c bf f9 3c bf be
       -0.36405572 1.9955312 -0.61048514 -0.37351206
000070 88 b9 b4 3f d7 46 af be 5f ab bf bf 34 ec 39 be
       1.411912 -0.34233734 -1.4974173 -0.1815651
000080 b6 2a f0 3d c9 6a 5d 3f 89 58 25 bf 78 36 6d 3f
       0.117268965 0.86491066 -0.6458822 0.9266124
000090 c3 ba 8e be a2 4c a4 3d b2 7b 0d 3f 3f ac ab bb
       -0.27876863 0.08022429 0.5526687 -0.005239039
0000a0 2f 8b 2e 3e df eb 2d 3c aa ae 5b 3f a4 24 27 3e
       0.17045282 0.010615318 0.8581339 0.16322571
0000b0 28 d9 01 bf c2 65 16 bf e6 fb db 3e c0 2a 06 be
       -0.5072198 -0.5874902 0.4296562 -0.13102245
0000c0 6c 74 f1 3e 80 39 a2 bc 8e 77 cd be e4 43 26 3f
       0.47159135 -0.019802809 -0.40130275 0.6494734
0000d0 01 8e d1 3e 7b 55 0f be 30 8b 74 bf 62 3c a6 3d
       0.40928653 -0.13997452 -0.95524883 0.08116986
0000e0 99 5a 3a 3f a0 ee b7 bd a7 d6 03 bf 1f 73 5a bf
       0.7279449 -0.08981061 -0.5149941 -0.8533191
0000f0 b7 f6 ac 3e 1f 55 0d be 0c c6 d5 3e 8c 89 9a 3f
       0.33781978 -0.13802002 0.4175266 1.2073226
000100 6d 66 89 3f a2 37 2d 3e 6a 19 16 c0 b9 6d f8 be
       1.0734383 0.16915753 -2.3453012 -0.48521212
000110 e6 11 09 bf a5 3b 34 3f 1e 53 91 bf b4 05 34 3e
       -0.53542936 0.7040351 -1.135349 0.175803
000120 17 79 e7 be 70 a1 07 3f db fa 37 3f 9f 2d cf bb
       -0.45209572 0.5298071 0.7186715 -0.006322577
000130 3a 86 68 3f e9 6e 07 bf 16 05 98 bf f3 65 8f 3e
       0.90829813 -0.5290361 -1.1876552 0.2800747
000140 0c 62 b7 bf c4 d4 ab 3f c7 54 62 be a6 99 1c 3f
       -1.4326797 1.3424306 -0.22102652 0.6117195
000150 ec 31 bd 3f 79 77 34 bf b6 41 be be a5 4d ff be
       1.478086 -0.704948 -0.37159508 -0.49863926
000160 39 85 26 bf e1 9a c9 bf 58 f2 37 3f 4d c9 e4 3e
       -0.6504703 -1.575039 0.7185416 0.4468483
000170 a5 7f 85 be f7 32 7d 3f ad 0f 33 bf da fd 4a 3e
       -0.26073948 0.9890589 -0.69945794 0.19823399
000180 0a dc d4 3e a5 19 86 3f 9f dd f0 3e e0 ea 32 3f
       0.41574126 1.0476576 0.47044083 0.6988964
000190 f1 fb 8e be 9b da 75 3f 74 40 c8 bf 24 07 c0 3f
       -0.2792659 0.9603669 -1.564467 1.5002179
0001a0 41 aa 7f 3f e6 85 07 3f 4c 1a 54 3f 77 3d d2 bf
       0.9986916 0.5293869 0.82852626 -1.6425008
0001b0 36 ab ae 3e ba 2f 7e be ef 43 73 3c 4c 62 97 3f
       0.34115 -0.24822894 0.01484774 1.1826873
0001c0 72 31 54 bf d0 24 95 bf 85 7a c4 3f d4 a5 f6 bd
       -0.8288795 -1.1651859 1.534989 -0.12043348
0001d0 13 3f 28 be 73 41 9b 3f 88 49 64 3f ce 48 4f 3f
       -0.16430311 1.2129349 0.891747 0.80970466
0001e0 1b 04 a9 3f b9 b7 7a 3f 43 88 5a be a0 32 da 3e
       1.3204378 0.9793659 -0.21341042 0.4261675
0001f0 8e 79 72 bf 4c 4c 2b be 8c e0 04 be 04 5b 34 bd
       -0.9471673 -0.16728324 -0.12976283 -0.04403211
000200 9b 18 9f 3f 88 b3 ba 3f d7 39 a9 3e 61 87 dc be
       1.2429384 1.4586039 0.3305194 -0.43072036
000210 4c 1f d4 3e 73 40 ad bd 1a 92 49 3f 21 5d ed 3e
       0.41430128 -0.08459558 0.7873856 0.46360114
000220 a6 2f 2e 3f bc 57 1d 3f eb 3a bc 3e f1 7b 40 3f
       0.68041456 0.61462 0.367637 0.7518912
000230 bc 36 af 3e 1e ad d2 be 5b 94 da 3f 3d 80 47 bf
       0.34221447 -0.41147703 1.7076524 -0.7793005
000240 d2 4a b1 be 99 9a 8d bf 37 1f d5 bf 00 77 3e bd
       -0.34627396 -1.1062804 -1.6650151 -0.046500206
000250 d4 57 e9 3f cc 6b 82 bf a0 fb 97 bf 78 b7 1d 3f
       1.8229928 -1.0189147 -1.1873665 0.61608076
000260 46 a4 8d 3e 5c aa 54 bf 50 e3 55 bf dd 2e c5 bf
       0.27664393 -0.8307245 -0.83549976 -1.5404927
000270 3f bf 6d 3f c4 eb 37 3c ce e7 3d be 56 55 fb 3e
       0.92869943 0.0112256445 -0.18545458 0.49088544
000280 4a 6f 36 bf ff 3e f1 be 29 17 b5 3e d0 59 9d 3f
       -0.71263564 -0.47118375 0.35369232 1.2293034
000290 f9 2d 5c 3f 5f 6c be 3f f8 5f b7 3f 89 46 90 3f
       0.8600765 1.4876822 1.4326162 1.1271526
0002a0 a0 f6 51 bd d3 f9 95 3e da ce 07 bf 00 de 80 3f
       -0.05126059 0.29292163 -0.53050005 1.0067749
0002b0 b7 39 96 3f bd 1e bd 3f c1 52 2c be 3a 72 24 be
       1.1736363 1.4775006 -0.16828443 -0.16059199
0002c0 c2 7d c8 3c 03 ba b8 bf 8e 3d ed 3e a2 a8 d2 bd
       0.024474028 -1.4431766 0.46336025 -0.102860704
0002d0 ae a1 ec be a8 85 7a be 2d 27 9e 3e dc 3c a4 be
       -0.46217102 -0.24465048 0.30889264 -0.32077682
0002e0 1f 5c 66 3e 27 41 1a 3f 44 94 99 3e 63 81 43 bd
       0.22496079 0.60255665 0.2999593 -0.047730815
0002f0 4f a7 c8 bf c2 80 8d 3f b3 8b e7 be f7 33 af bf
       -1.5676059 1.1054919 -0.4522377 -1.3687733
000300 f2 f6 90 bc 8e 46 a8 3d ce 01 88 bf ed 9b 33 3f
       -0.017695878 0.08216582 -1.0625551 0.701598
000310 8d e3 d2 3e a7 fc 1d 3e f8 fe e7 bd 59 ca bd bb
       0.41189232 0.1542841 -0.11327928 -0.005791944
000320 40 83 80 3f fc d5 a3 be 07 95 8f be dd 50 23 3d
       1.0040054 -0.31999195 -0.28043386 0.03987204
000330 44 32 6b 3f 64 50 b1 be dc 66 a7 3f 9e 45 e3 3d
       0.91873574 -0.34631646 1.3078265 0.11097263
000340 5f ab 87 3d 2a 0b 87 bf
       0.06624483 -1.0550282

tcr_lstm.weight_ih_l0 f4 [120, 10]
000000 aa f9 81 be 73 e5 76 3d 7e 97 ba be 06 51 e9 3e
       -0.2538579 0.060277414 -0.36443704 0.45569628
000010 5f e1 84 3e 51 d1 96 3e 44 b0 3b bf fd 9c 94 bd
       0.25953194 0.2945657 -0.73315835 -0.07256506
000020 09 a8 f9 3c 03 4f d4 be 8a 3c b2 3e 66 aa 83 3e
       0.030475633 -0.4146653 0.34811813 0.2571594
000030 8e 3b 14 bf 18 9e 21 bf 38 14 15 3d f4 28 34 be
       -0.57903373 -0.63131857 0.036396235 -0.17593747
000040 98 4d e7 be ec bd 74 3e 29 0f 11 bf 8e 86 05 bf
       -0.45176387 0.23900574 -0.5666376 -0.5215844
000050 22 98 da 3d 8d d6 09 be 0e a8 db be 80 d2 18 3f
       0.10673548 -0.13460751 -0.42901653 0.596962
000060 bc 15 07 3c c0 79 1b 3e be 14 2f 3d 03 0a c1 3e
       0.008244928 0.15183163 0.04274439 0.3770295
000070 a0 0a fe 3d 46 94 fe 3e e8 cb 03 3f 97 84 4e 3f
       0.1240437 0.497225 0.5148301 0.80671066
000080 28 26 1c bf 9e f6 d2 3e dd ad ea be 36 a0 a5 be
       -0.6099572 0.4120378 -0.45835772 -0.32348794
000090 c9 f1 23 be 7c 71 ba 3b 6d 8b 55 bf 7f e3 82 be
       -0.16010202 0.005689798 -0.8341587 -0.2556419
0000a0 c4 ae af 3e 92 55 e0 3e c7 e3 b9 bc 92 60 21 3e
       0.34313023 0.43815285 -0.02269162 0.15759495
0000b0 c3 16 69 be c8 89 ed be e4 99 8f be af 72 a2 bd
       -0.22762589 -0.4639418 -0.28047097 -0.079320304
0000c0 f2 31 16 3f 68 76 d2 be 2c bb 30 3d 9a fa 07 3f
       0.5866996 -0.41105962 0.04314725 0.5311676
0000d0 cc 96 74 be a4 aa a4 be 73 fe 74 be 19 d4 8b bc
       -0.2388565 -0.32161438 -0.2392519 -0.01706891
0000e0 89 05 b8 bd 97 e5 87 be 25 7c ac 3e f8 8f f9 be
       -0.08985431 -0.2654235 0.33688465 -0.48742652
0000f0 2f 44 31 be fe 86 61 3f d6 38 cf be ee a2 39 be
       -0.17311166 0.88096607 -0.4047305 -0.18128559
000100 d2 38 97 3c 95 00 1b 3d 2e bb ef bd 9e 54 b2 3e
       0.018459711 0.037842352 -0.117056236 0.34830183
000110 81 ce 28 be 87 2b 8f 3e 09 23 03 3e 44 7f b3 3d
       -0.16485025 0.27962896 0.12806334 0.08764508
000120 be 07 ce be cb b3 f0 be ad ff 0f bd ac fb 0d be
       -0.40240282 -0.4701217 -0.03515594 -0.13865536
000130 83 15 9e be 18 4f 8e 3e a1 d9 74 be 39 da dc bd
       -0.30875787 0.2779472 -0.23911144 -0.1078381
000140 0b b9 ae bb f0 72 17 3f b6 a3 4b bf f3 d9 a5 be
       -0.0053321174 0.59159756 -0.7954668 -0.32392845
000150 96 9a b6 be 0b c8 48 3c 65 2b 66 bd 3a 53 76 3e
       -0.35664815 0.012254725 -0.056193728 0.24055186
000160 48 06 56 bf b9 b9 81 be 80 10 14 3e a3 45 3f be
       -0.83603334 -0.25337008 0.14459419 -0.18678908
000170 7e 75 31 bf 4e 80 33 bf c6 b9 e3 be 21 a1 e0 be
       -0.69319904 -0.7011765 -0.4447767 -0.43872932
000180 b3 89 07 3e 1a bf 8b bd 94 b7 26 bf 86 b2 b8 3e
       0.13236122 -0.06823559 -0.6512387 0.36073703
000190 69 a0 11 3f 2e dc d2 be 58 d7 45 3f 3e ea b6 be
       0.5688539 -0.4118361 0.77281713 -0.35725588
0001a0 d1 75 87 3e d0 bb d3 3e 97 81 2c bf a8 b4 9b be
       0.26457074 0.41354227 -0.6738524 -0.30411267
0001b0 ae 4f 0d 3f d9 ec ec be 42 1d 5f 3d 01 5c fb be
       0.55199707 -0.4627445 0.05447126 -0.4909363
0001c0 04 f4 34 bd c3 f9 4b be e7 51 8a be 8f 10 a9 bd
       -0.044178024 -0.19919495 -0.27015612 -0.082551114
0001d0 ed c1 e3 bb 4f 66 a8 be ef 7b db 3a d9 77 8e be
       -0.006950608 -0.32890555 0.0016745309 -0.27825812
0001e0 18 fe 8f be 2c aa bc 3d a6 77 4b be cb 27 12 be
       -0.28123546 0.09212145 -0.19869861 -0.14272992
0001f0 06 97 8d 3d 00 3d f3 bd 08 7b 91 bc 7d a7 d0 3d
       0.06913571 -0.11876869 -0.017758861 0.10188196
000200 b9 34 26 be 2d b1 c9 3e 5c c9 2c 3e 8f 09 15 bf
       -0.1623105 0.39392987 0.16873688 -0.5821771
000210 06 66 2b 3f 4c 78 fe 3e db f0 34 bd a8 79 62 3e
       0.6695255 0.49701154 -0.04417501 0.2211672
000220 38 0d e9 3c 2a 2e f8 3d a4 31 21 bf af 07 04 bf
       0.028448686 0.1211818 -0.6296637 -0.51574224
000230 68 2c f8 bc 27 bd 25 bf 3a 05 d5 bd de 83 db be
       -0.030294612 -0.6474175 -0.104013875 -0.42874044
000240 bb d2 98 be f1 b2 1d 3e b2 9d a9 be 24 34 e4 be
       -0.29848275 0.15400292 -0.33128124 -0.4457103
000250 d0 11 8e 3e 18 d0 91 be 41 7e 93 3e 7e f8 ba bd
       0.27747965 -0.28479075 0.28807262 -0.091294274
000260 22 21 4b 3c 90 84 d2 bd 7c 44 c2 be 70 ac 7d be
       0.012398036 -0.102791905 -0.37942874 -0.24772811
000270 19 6e 49 3e 51 9b cf 3c 7c 9f d0 3e 4b 23 d5 3d
       0.19670905 0.025342615 0.40746677 0.10407122
000280 ee de b2 3e cd 26 ba be 6f bb 05 3e 7d c2 7b be
       0.34935707 -0.36357728 0.13059781 -0.2458591
000290 2d f1 b9 bd 88 83 03 3f 0d 1c 11 bf 76 67 8d 3d
       -0.09079204 0.51372576 -0.5668343 0.06904499
0002a0 b1 07 51 bd 2f f9 82 3c 3a 4f b7 bd c8 03 2b be
       -0.051032726 0.01598796 -0.08950658 -0.16700661
0002b0 f4 20 80 bf 26 88 7b 3d b4 8d 2d bf 31 6c 11 bd
       -1.0010056 0.06140914 -0.67794347 -0.03550357
0002c0 51 86 81 be 25 cb 8c 3e 4d 66 b4 bd f2 79 54 bf
       -0.25297788 0.27498737 -0.08808575 -0.82998574
0002d0 58 66 a8 3e 02 a4 c0 3c b3 86 e0 be 23 84 c5 be
       0.32890582 0.023515705 -0.43852767 -0.38577375
0002e0 28 c2 52 3e 8d 87 e3 be 0b d8 5f be 86 3f 9f 3e
       0.20581877 -0.44439355 -0.21859758 0.31103152
0002f0 13 2e 88 be 92 bb 81 3e 70 e2 01 bc b3 68 1e bf
       -0.26597652 0.25338417 -0.007927522 -0.6187851
000300 de 9e 4b 3e b9 89 01 3f 52 ef a2 3e 7d d1 b5 3e
       0.19884822 0.50600773 0.31823212 0.3551139
000310 81 c7 00 bf f7 67 74 3d f1 8a 15 3e ae e8 e0 3d
       -0.5030442 0.05966946 0.14603783 0.1098188
000320 4a c2 d4 3e 72 a2 7c be 05 7b 5e 3e eb 7a 17 be
       0.4155448 -0.24671343 0.21726616 -0.14792983
000330 55 f1 a5 3d d7 21 60 be b2 e5 2e bf 3d 4d 08 3f
       0.08102671 -0.21887909 -0.6831924 0.53242856
000340 0c dd f5 bd e2 29 bb bd d3 5d 23 bf 94 a0 be 3e
       -0.12005052 -0.09138848 -0.6381504 0.37231886
000350 1c 62 99 3c 3c ce 6a be 98 ea 26 be de 27 62 be
       0.01872354 -0.22930235 -0.16300428 -0.2208552
000360 7b 28 35 3e 62 cf 8f be 3c 7f 07 bf 32 f6 50 be
       0.17691223 -0.28087908 -0.5292852 -0.20406416
000370 c3 f4 bd bd 85 03 24 3d 34 e7 e0 be 05 8e 08 3f
       -0.092752 0.04004242 -0.43926394 0.53341705
000380 f5 d2 b5 be 72 4f fc be 92 5a 3c be b5 4a 01 3e
       -0.3551251 -0.49279362 -0.18393925 0.12626155
000390 dc 66 7c 3d 25 dd a0 3f 43 7c d3 3c 16 30 fb bd
       0.06162153 1.2567488 0.025816089 -0.12265031
0003a0 b2 4f a3 bd ea 4b 9d be c6 97 bd be 0d 5a 42 be
       -0.07974185 -0.3072198 -0.37029856 -0.18979664
0003b0 6d a1 b9 be ed a7 15 bf 19 2f 36 3e ff 6d e7 3d
       -0.3625597 -0.5845936 0.17791404 0.11300277
0003c0 5f 7b 41 3d 2d 3a e4 3e 08 83 d1 be 16 64 47 3e
       0.047236796 0.44575635 -0.4092028 0.19471774
0003d0 9e 8a 61 be 76 ec aa 3d 1c a8 33 bf a7 85 88 3e
       -0.22025535 0.083458826 -0.7017839 0.2666447
0003e0 09 63 a2 3e 8e 49 61 be ed 8b bb 3d d5 86 89 3e
       0.31716183 -0.22000715 0.09157548 0.2686068
0003f0 70 06 61 be 57 34 80 3e e7 ec c2 bd 53 8a b0 3d
       -0.21975112 0.25039932 -0.09517842 0.08620133

tcr_lstm.weight_hh_l0 f4 [120, 30]
000000 c4 82 9f be 0c aa 09 bd 30 2a 3b bf 50 f9 c3 bd
       -0.31154454 -0.033609435 -0.7311125 -0.09569037
000010 98 f8 f0 be 08 e8 1e 3f 4d b6 ef bc 03 9e 13 3e
       -0.47064662 0.620728 -0.029261732 0.14415745
000020 d4 e5 15 3e 73 99 28 3e dc b7 83 bf 1d 98 f6 be
       0.14638454 0.16464786 -1.0290484 -0.48162928
000030 84 a2 31 bf 60 3d 9a bd 80 56 8c 3d 10 7a 65 bf
       -0.69388604 -0.075312376 0.06852436 -0.8963938
000040 77 de 90 be c0 66 3d 3e be 42 7e bf f9 58 21 3f
       -0.28294727 0.18496227 -0.9932059 0.63026386
000050 b9 af e0 3d 63 cf e4 3e da 15 52 be df a8 ae bf
       0.109710164 0.44689474 -0.20516148 -1.3645285
000060 3e ca 2d bf df 00 17 be 9d 08 cc 3e 24 f2 d9 3e
       -0.6788672 -0.14746426 0.3985032 0.4256755
000070 20 c0 1b 3f 74 1b 97 be e0 ce 79 bf 7f 93 ad 3f
       0.60840034 -0.29513133 -0.9758129 1.3560637
000080 1a 8b 2d 3f 83 44 5d 3f 79 57 9a 3f 56 64 ba 3e
       0.6779038 0.86432666 1.2057945 0.36404675
000090 f1 17 fa 3d 9b 1a 2b 3f b7 d6 86 be 9c c4 3b bf
       0.12211598 0.6683747 -0.2633569 -0.7334688
0000a0 59 f2 aa be ec 2b 75 3e e9 26 13 bf 5c d5 2e bf
       -0.33388022 0.23942536 -0.5748125 -0.6829431
0000b0 ad e4 00 3f 3f d3 87 bf 70 46 3a 3f 64 f0 3e 3e
       0.5034893 -1.0611342 0.7276373 0.18646389
0000c0 13 35 d0 be df d9 0e 3e 35 30 c4 be 30 74 02 bf
       -0.40665492 0.13950299 -0.3831803 -0.5095854
0000d0 c9 59 38 bf 4b d5 ab 3f e6 e5 e7 3e 11 5b b1 3e
       -0.72012 1.3424467 0.45292586 0.3463979
0000e0 1d bb bb be de a6 a8 3e 2b 6b 2c 3e 79 d2 29 3f
       -0.36666194 0.3293981 0.16837756 0.6633678
0000f0 e7 5c f7 bd ce a3 15 bf 54 6f 7b bf f7 47 0b bd
       -0.120782666 -0.5845307 -0.9821675 -0.034004178
000100 50 6d ba be 08 25 9d bd ad a9 e0 3e 19 9f e6 3e
       -0.36411524 -0.07673079 0.43879452 0.45043257
000110 72 45 0e bf 2e 1e 51 3e 08 52 93 3f 4f ac 53 be
       -0.55574715 0.20421669 1.1509409 -0.206712
000120 e2 7a 9b be a6 c8 69 bc a9 1e 60 bf d4 9c ad be
       -0.3036719 -0.01426903 -0.87546784 -0.33908713
000130 42 a7 d4 3e c6 f6 94 3e 04 29 5b 3f 3d 41 06 3f
       0.41533858 0.29094523 0.8560946 0.52443296
000140 dd bf ef 3e a4 a0 06 bf bf 20 21 3d 52 ea 17 be
       0.46826068 -0.5258887 0.03933787 -0.1483548
000150 64 93 89 3e ca 75 91 be 47 2f 8d 3f 8a 47 b3 3d
       0.26870263 -0.28410178 1.1030053 0.08753879
000160 ff 36 c1 3e 5f 2e ff bd f4 57 21 3e 9b 32 19 be
       0.3773727 -0.124600165 0.15756208 -0.1496071
000170 11 4a 92 3e aa 72 b8 3e 93 15 bf be b1 06 46 3f
       0.28572133 0.36024982 -0.37321147 0.7735396
000180 f2 4b e4 3e 99 ea 96 be 85 89 0f 3f 1e 04 81 bf
       0.44589192 -0.2947586 0.56069213 -1.0079381
000190 38 8c fe 3e 25 7f 3d be 06 53 f6 be 13 b9 c3 3e
       0.49716353 -0.18505533 -0.48110217 0.38227138
0001a0 72 03 49 bf e2 f7 2e bd bf ee c7 3e 27 d6 b0 be
       -0.7852088 -0.04271687 0.39049336 -0.34538385
0001b0 8d ac 84 bc c0 07 a8 3e 4d 27 a6 3f 3a 7f 42 3e
       -0.01619556 0.32818413 1.2980744 0.18993846
0001c0 0d ce 52 bf 04 53 1a 3f 37 2a a8 bf 62 28 79 3e
       -0.8234566 0.6028292 -1.3137883 0.24331811
0001d0 c9 6d a8 ba f4 05 6d 3d 04 ea 94 bb 94 e9 d3 be
       -0.0012850101 0.057867005 -0.0045444984 -0.41389143
0001e0 df 43 91 be 3c c0 93 3e 34 c4 80 be a1 c0 ec 3e
       -0.28372094 0.288576 -0.2514969 0.46240714
0001f0 0f 58 89 3e 92 d0 57 3f 0f d9 a3 3e a8 49 be 3e
       0.26824996 0.8430263 0.3200154 0.3716557
000200 91 b8 b8 3d 4d 06 87 be d0 32 b7 3f 54 66 2a 3f
       0.09019578 -0.26371995 1.4312382 0.6656239
000210 05 cf 31 bf c0 c7 71 bf 44 de 21 bd 6d 98 17 bc
       -0.6945651 -0.9444542 -0.03951861 -0.00925265
000220 15 79 18 3f 01 65 ae bf ce 81 02 be 08 7d 18 bf
       0.59559757 -1.3624574 -0.12744829 -0.5956578
000230 19 ce 95 bd 58 b3 ec 3e 5e 11 cb be bd 64 f6 be
       -0.07314701 0.46230578 -0.39661688 -0.48123732
000240 2f ee d6 be 4e 82 00 bf 11 25 34 3e 28 1c 84 3f
       -0.41978595 -0.5019883 0.17592265 1.0321093
000250 7d 19 85 3e ce 88 82 be 19 bb e1 3e ff 2b 87 be
       0.2599601 -0.25495 0.44088057 -0.26400754
000260 5a 13 44 bf 75 87 b6 3e e0 2d 4f bf de af 4f bf
       -0.7659203 0.3565022 -0.80929375 -0.8112773
000270 e5 7b 14 3e 34 57 17 be d6 15 db be 7d 8f 30 3f
       0.14500387 -0.14779359 -0.42790097 0.68968946
000280 3d 0e 9b 3f fb 1c 0f 3f 17 c9 67 be a1 bf bf 3f
       1.211372 0.55903596 -0.22635303 1.4980356
000290 12 93 ac bf b5 42 0b 3d 7c 03 3c be 82 37 06 be
       -1.3482382 0.033999164 -0.18360704 -0.13107112
0002a0 49 37 5b 3f ba 30 ed be ad 3b f3 3d 68 74 33 bf
       0.85631233 -0.46326238 0.118766166 -0.70099497
0002b0 7b 6a 32 bf 61 7e e7 3e 21 e9 99 be 62 6f 80 3e
       -0.69693726 0.45213607 -0.30060676 0.25084978
0002c0 c0 32 0a 3f d3 ae 76 3e d4 d5 38 bf c1 6d 35 3e
       0.5398369 0.24090128 -0.72201276 0.17717649
0002d0 10 2f 0e bf f7 a4 3b 3f 0b 7a 0c 3f 83 f1 71 3e
       -0.5554056 0.7329859 0.5487372 0.23627286
0002e0 1e 40 53 be e2 84 ad 3f 4b fe 9b 3e 6b 36 1d 3f
       -0.20629928 1.3556178 0.30467448 0.6141116
0002f0 06 48 cc 3d b4 9c 8c be 52 5e 04 3f fd e0 ca 3e
       0.09974675 -0.27463305 0.5170642 0.39624777
000300 38 44 0b bf 6b ca d3 be 4a c2 38 3f db 0d 62 3f
       -0.5440097 -0.4136537 0.7217146 0.8830239
000310 00 fd bb 3e df 5f 8d bf 86 13 46 bf 46 35 47 3f
       0.3671646 -1.1044883 -0.7737354 0.77815664
000320 e6 2c 24 be b9 30 bb 3e 13 55 80 3d db a5 88 be
       -0.16032752 0.3656061 0.062662266 -0.26689038
000330 95 87 20 3f 11 0c d9 3e a4 61 cb 3e 12 4e 34 3e
       0.6270688 0.42392018 0.3972293 0.17607906
000340 db d7 a8 be 84 00 69 3e a6 c7 dc 3e ae b0 33 3f
       -0.32977185 0.22754103 0.4312107 0.70191467
000350 00 23 a9 3d 59 c5 23 3e 83 12 b6 3f ba 5b a1 3e
       0.08258629 0.15993251 1.4224399 0.31515294
000360 da 60 c5 bd 5a 63 d7 3d 1f 48 fb bd 0a a1 1b bf
       -0.096376136 0.10516997 -0.122696154 -0.607926
000370 bf 8a 1b bf ec 2b 31 be 91 61 e0 3d b0 01 41 be
       -0.60758585 -0.17301911 0.10956109 -0.188483
000380 1a 50 51 3f 89 96 fc bf bb 79 65 3f 36 b3 60 3e
       0.8176285 -1.973344 0.8963887 0.21943364
000390 1d eb 5e bf 55 7a fe bd d5 12 24 bf 3f 6f ea bd
       -0.87077504 -0.12425677 -0.64091235 -0.11447
0003a0 aa c8 92 be 9e c2 3c 3f da 4a b1 3e dd b9 03 bf
       -0.2866872 0.7373446 0.3462742 -0.5145548
0003b0 35 3b 4e be 9b 91 49 be 8a 24 a5 3e 93 e6 a3 3f
       -0.20139773 -0.1968445 0.3225444 1.2804741
0003c0 bb 6e 86 bf 98 8b 7a 3f 30 e6 a6 3e 9b 96 59 3f
       -1.0502542 0.97869253 0.32597494 0.8499543
0003d0 7c 1a 97 3f e1 54 70 3b 53 25 9c 3d 65 a0 1f be
       1.1804957 0.0036671686 0.076243065 -0.1558853
0003e0 5c e2 84 3e 77 fc 20 bf 23 3f 9d be 25 01 1f 3e
       0.25953948 -0.6288523 -0.30712232 0.1552778
0003f0 30 0b 4e 3f 76 99 97 3f 26 2b 91 3f 4d cc ca bf
       0.8048582 1.1843708 1.1341293 -1.5843598

tcr_lstm.bias_ih_l0 f4 [120]
000000 6b 02 3a 3f d8 ee b2 3e 16 04 a8 3d e8 c5 0c 3f
       0.7265994 0.34947848 0.08203904 0.5498948
000010 7b 2e 18 3f 59 22 b3 3e 46 8a 55 3e 6d cf 84 be
       0.59445924 0.34987143 0.20853528 -0.25939503
000020 67 da 19 3d ad 4d 0a 3f 03 83 e1 3e 9b 70 70 3e
       0.0375618 0.54024774 0.44045267 0.23480456
000030 17 a3 db 3e cd d3 ef 3e 39 55 ae 3e b8 f2 f2 3d
       0.42897865 0.4684128 0.34049395 0.11862701
000040 75 a3 0d 3e 44 1d e7 3e 86 3c cb 3e d7 d8 08 3f
       0.13831885 0.45139515 0.39694613 0.5345587
000050 53 8a 53 3d 09 b6 b2 3e 97 b1 11 3f ad 7f d7 3e
       0.051645588 0.34904507 0.56911606 0.42089596
000060 31 12 b8 3d 75 bc 0c 3f 5d a9 bd 3e 75 fc 2e 3f
       0.08987845 0.5497506 0.37043276 0.6835397
000070 38 54 a7 3e 43 e2 d4 3e 54 3b 90 bd e0 fd c1 3d
       0.3268144 0.41578874 -0.07042566 0.09472251
000080 64 d7 1b 3d 2e 6a 17 3f f0 22 a4 bd a3 ff 06 be
       0.03804721 0.5914639 -0.08014476 -0.13183455
000090 2a 27 b9 3e f6 2a 8f 3e 54 25 83 3d 83 98 9c 3d
       0.36162692 0.27962464 0.06403604 0.07646277
0000a0 90 67 67 3e 78 bf 8c 3e c4 d0 b8 3e fb ba c3 39
       0.225981 0.2748983 0.36096776 0.0003733261
0000b0 46 35 b2 bd eb 19 8f be 0c 9b ab 3e 8d c7 c3 3e
       -0.08701567 -0.2794946 0.3351673 0.38238183
0000c0 58 f8 8d 3c e1 52 93 be cf 3f 83 bd e5 49 8b 3e
       0.017330334 -0.2877417 -0.06408655 0.27204815
0000d0 2e e5 2b 3c 3f fa 58 3d 86 b5 ab 3e 1d 10 92 3d
       0.010491652 0.05297303 0.3353693 0.071319796
0000e0 25 ad 6b bd 7c 8d 56 be 80 0e 00 bd a5 e5 2d bd
       -0.05753817 -0.2095241 -0.03126383 -0.042455334
0000f0 7f f9 30 3e a4 37 31 be cc d1 07 3d 87 35 ba 3e
       0.17282675 -0.17306381 0.033159062 0.36368963
000100 b8 b3 3f 3d f7 72 b1 bd 45 a5 8b 3e 35 ed 89 3d
       0.046802253 -0.08664506 0.27274528 0.06734697
000110 a0 05 0d be f0 c5 0b 3e 9a 19 2c be 6f 06 db bc
       -0.13771677 0.13649726 -0.16806641 -0.026736466
000120 7a 9f ef 3d 38 55 03 3d 18 17 31 b8 4b 0d fc bd
       0.117003396 0.032063693 -4.2221596e-05 -0.12307223
000130 3b d6 14 3d 73 2d d0 bd 9d ae 9c 3c 8e 23 84 3e
       0.03633712 -0.10164919 0.01912623 0.25808376
000140 33 ec ab 3e 31 4d 46 be 8e 00 3c 3e 27 85 84 3d
       0.33578643 -0.19365384 0.18359587 0.06470709
000150 34 d8 34 be 70 97 ad 3d 8d 8f a2 3d 7a eb 05 be
       -0.176606 0.0847615 0.079375364 -0.13078108
000160 af 74 fc bd 21 71 ed 3c 50 cf 03 3f 4f 47 d3 3e
       -0.12326943 0.028984608 0.5148821 0.41265342
000170 0e 83 20 3f 13 ac e8 3e 40 c6 aa 3e 43 c1 ca 3e
       0.62699974 0.45443782 0.33354378 0.39600572
000180 99 ab e6 3e f0 4c a8 3e c8 c8 69 3e 85 8d 96 bb
       0.45052794 0.328712 0.22830498 -0.004594507
000190 d0 02 dc 3e 47 10 41 3f 5e 1e fa 3e 66 e0 ef 3e
       0.42970896 0.7541546 0.48851293 0.4685089
0001a0 0f dc 5e 3f 65 ea 8c 3d 91 db bd 3e 38 89 3e 3f
       0.8705453 0.06880645 0.37081578 0.7442813
0001b0 8f cc 83 bd 32 6e 71 3e bf 63 27 3f ee ed 71 3e
       -0.06435501 0.23577192 0.65386575 0.23625919
0001c0 26 4a 13 3f 80 1f d1 3e 7c 9b a3 3e 25 46 3a 3f
       0.57535017 0.40844345 0.31954563 0.7276328
0001d0 0d cb e8 3e 40 78 4e 3f 12 83 4c 3f ec 3c 1a 3f
       0.45467415 0.80652237 0.798875 0.6024921

tcr_lstm.bias_hh_l0 f4 [120]
000000 11 68 35 3f b8 bf 20 3f 12 1d 7a 3e 7d 80 34 3f
       0.7086192 0.6279254 0.24425152 0.7050856
000010 9a 52 c4 3e f0 a8 77 3e 79 53 ac 3e 03 1a b7 be
       0.3834427 0.24185538 0.33657435 -0.35762033
000020 df 74 45 3d bc 2f 03 3f 2a d4 15 3f 20 a6 46 3e
       0.04820716 0.5124471 0.5852686 0.19399309
000030 cd e3 8b 3e db e1 eb 3e 12 12 eb 3e f6 ad 1d 3e
       0.27322236 0.46070752 0.45912224 0.15398392
000040 f1 49 60 3e 1a 32 e8 3e 92 ad c8 3e a8 c5 b6 3e
       0.21903206 0.45350724 0.39194924 0.35697675
000050 83 15 58 3e 2a 7c ab 3e 3d b3 08 3f 46 11 71 3e
       0.21101956 0.33493167 0.53398496 0.23541746
000060 a7 e5 fb 3d e5 1a f4 3e 09 b3 ab 3e 7d 81 53 3f
       0.12299662 0.4767677 0.3353503 0.8261946
000070 4a 56 96 3e 68 14 f1 3e ca 5e 32 bd 32 5f 32 3e
       0.29362708 0.4708588 -0.04354743 0.17419127
000080 d4 bf 8c 3c cc e6 0e 3f 57 0c 85 3d 5a 9e 4e bd
       0.017181315 0.5582092 0.06496494 -0.050443985
000090 36 7e 8f 3e 6b 06 23 3e b8 02 74 3d d7 ab 32 bd
       0.2802598 0.15920417 0.059572905 -0.04362091
0000a0 82 f3 40 3e e1 a8 9b 3e 6a 0b d0 3e 5b ea a8 bd
       0.18842891 0.30402282 0.40633708 -0.08247825
0000b0 08 80 cc 3c 23 de a6 be 80 b2 b0 3e 45 81 89 3e
       0.024963394 -0.32591352 0.34511185 0.26856437
0000c0 3d 83 03 3e 6e 6f b4 bd e3 38 a1 bd 3a fa 02 3f
       0.12843032 -0.08810316 -0.078721784 0.51163065
0000d0 38 a9 b7 3d 04 98 2e be 37 b7 60 3e 6c 11 3e 3c
       0.08967823 -0.17050177 0.21944891 0.011600833
0000e0 9a 50 c8 3d 17 54 90 be 08 27 4b 3e b0 e2 83 3d
       0.097809985 -0.28189155 0.19839108 0.064397216
0000f0 f9 aa 74 bc 1f cf 85 be ef 8a 1c 3e d4 ea 9a 3e
       -0.014933341 -0.26134583 0.15287374 0.30257285
000100 be 78 30 3d 5a 4b b6 bd d2 14 83 3e 46 3c 29 be
       0.0430839 -0.08901091 0.25601822 -0.16526899
000110 04 85 63 3d 4a ec 8f 3b 35 50 26 bc 3d 1e 2f 3e
       0.055546775 0.0043921815 -0.010150959 0.17101379
000120 80 f5 7f 3d 5e 21 2b 3e b4 c6 78 bd e5 91 91 bc
       0.062489986 0.16711947 -0.060736373 -0.017769763
000130 cf 17 17 be c2 76 42 3d b4 16 f0 3d 24 e8 00 3d
       -0.14755176 0.047476538 0.1172308 0.031471387
000140 ce 83 a5 3e 59 7b 44 bc 23 8a 61 3e 9e 7c 42 3e
       0.32327121 -0.011992299 0.22025351 0.1899285
000150 b8 40 35 be 4d 4b ac 3c 3b 8d 15 3e 9e 3c e2 bd
       -0.1770047 0.021032 0.14604656 -0.11046718
000160 6b 7a ce bd 2d d2 b6 3d 97 0c fc 3e b3 41 f7 3e
       -0.10081943 0.089268066 0.49228355 0.48292312
000170 99 95 d3 3e b7 4f b2 3e 0e 90 a1 3e e4 2c fe 3e
       0.4132507 0.34826443 0.31555218 0.49643624
000180 19 41 06 3f 4f c4 72 3e a8 0f f5 3e 1a 6d bf 3c
       0.5244308 0.23707698 0.47863507 0.023367453
000190 fd d7 d8 3e 6a b9 18 3f 40 6d f6 3e f2 66 12 3f
       0.42352286 0.5965792 0.48130226 0.5718833
0001a0 5d 47 37 3f 3e e7 41 bd 5f 72 82 3e 8c a1 67 3f
       0.71593267 -0.04733967 0.25477883 0.90480876
0001b0 5f 02 e0 3c 8f b5 aa 3e 5a 66 12 3f 3e a7 20 3e
       0.02734488 0.33341643 0.57187426 0.15688798
0001c0 17 65 d5 3e 67 c4 0b 3f 09 19 ae 3e 00 2a 4b 3f
       0.41678688 0.5459656 0.34003475 0.7936096
0001d0 cd 8d 01 3f 6c 3b 37 3f 9b 87 3a 3f 4f 05 0f 3f
       0.50606996 0.71575046 0.7286317 0.55867475

tcr_lstm.weight_ih_l1 f4 [120, 30]
000000 c0 d4 c3 bc 82 73 8f be 72 ac df be d5 f4 71 be
       -0.023905158 -0.28017813 -0.43686253 -0.23628552
000010 1e 98 6f 3e 61 61 14 3e 9b 1e e3 bc 7f 9d d7 bd
       0.23397872 0.14490272 -0.027724555 -0.10528087
000020 7e 80 f8 3e 9e 0e bb be 5f 24 68 3f 47 99 36 be
       0.48535532 -0.3653459 0.906805 -0.17831908
000030 29 4f 2f bf 91 f9 16 bf bf d1 0b bf ba 42 fc 3d
       -0.68480164 -0.5897456 -0.5461692 0.123174146
000040 cf a5 7a be 62 05 e3 3e 19 43 d1 3d c4 a4 91 3e
       -0.24477313 0.44340044 0.10217876 0.2844602
000050 7e b6 3d be a6 48 87 be 16 49 d8 be 1b 68 05 be
       -0.18526646 -0.26422614 -0.4224326 -0.13027994
000060 5c d4 97 3e 33 47 18 bf 37 ac 44 bf 53 51 b9 3e
       0.29654205 -0.5948364 -0.7682528 0.36194858
000070 3e 33 0f bf a9 3a 83 3e 17 aa c0 bc 71 3b b8 3e
       -0.55937564 0.25630692 -0.023518605 0.3598285
000080 b6 e3 ea 3d f8 1b 14 3e c3 67 bc be 1f 86 aa be
       0.11469214 0.14463794 -0.36797914 -0.3330545
000090 bd 4d bf bd 07 26 e6 3e b5 65 05 be 63 c0 b8 3e
       -0.09340999 0.44950888 -0.1302708 0.3608428
0000a0 22 8e b6 be a0 0c b0 3e 30 a1 3d be 4a e0 8c 3d
       -0.35655314 0.34384632 -0.1851852 0.06878717
0000b0 79 e6 3e be cf a6 53 3e de d8 c6 be c8 92 02 3e
       -0.18642606 0.20669101 -0.38837332 0.12751305
0000c0 52 b7 8f 3e 33 3b 16 be 95 e5 8e be 6c 49 a1 3e
       0.2806955 -0.1467102 -0.27909532 0.3150133
0000d0 03 89 35 3f 0a f9 c9 3e 51 2e 6c 3e 55 c9 a7 3d
       0.7091219 0.39447814 0.23064543 0.08192698
0000e0 b3 50 6e be 31 74 80 3d 9c b6 d7 3e d6 23 5b be
       -0.23272972 0.06272162 0.42131507 -0.21400389
0000f0 b2 ff 22 bd d7 eb 6a 3d 08 17 7b be c5 df 36 bf
       -0.03979463 0.05735382 -0.24520504 -0.71435195
000100 e6 51 14 be 2f c7 dc 3e a8 b9 25 be a7 78 6e 3e
       -0.14484367 0.43120715 -0.16184103 0.23288213
000110 2e 48 1d 3e b9 c4 b9 3d c9 71 e6 3e a1 15 30 bf
       0.15359566 0.09070725 0.45008686 -0.68783003
000120 02 f7 20 3f 25 15 05 3e 54 6b 44 3e d8 da 71 3e
       0.62876904 0.12996347 0.19181567 0.23618639
000130 fc 89 02 bf 83 14 0a bf ea 80 3d 3f 5a 7d d4 be
       -0.509918 -0.5393755 0.7402483 -0.41501886
000140 89 8d 30 3e 5c da 07 3e c3 09 ce be 0b bf 7f 3e
       0.17241491 0.13266891 -0.40241823 0.24975221
000150 1f 52 0a be 9a e6 e4 bd 44 1b 20 bf 21 e0 8c 3d
       -0.13507889 -0.11176796 -0.62541604 0.06878687
000160 bb 59 64 bf 82 71 04 be 01 79 92 3d 8b ab 93 3e
       -0.8919942 -0.12933925 0.07151986 0.28841814
000170 c2 03 b8 3e 3b 21 67 bf 9e 91 1a be 1e f7 17 bf
       0.35940367 -0.9028508 -0.15094611 -0.59361446
000180 06 c5 57 bd fc 5e ff bd a8 c3 48 3e 32 99 79 3e
       -0.05267813 -0.12469289 0.19605887 0.24374846
000190 8e dd 86 be 23 ea 24 bd d8 3c 53 3f 65 f9 f3 bd
       -0.26340908 -0.040262353 0.82514715 -0.119128026
0001a0 00 e3 3c 3f c8 7a c3 3e e9 3e 2c bf f8 38 c3 3e
       0.73783875 0.38179612 -0.67283493 0.381294
0001b0 33 dc f9 3c f3 42 d8 ba 5c 6e 88 3f 82 05 b2 be
       0.030500507 -0.0016499445 1.0658679 -0.34769827
0001c0 44 a8 0c 3f ce 01 b6 3e 2b 19 ba be 68 a1 4b bd
       0.5494425 0.35548252 -0.36347327 -0.049714476
0001d0 06 f9 ba be 26 1d b8 bc 61 fd 0a be e0 69 6f be
       -0.36518115 -0.022474837 -0.13573219 -0.23380232
0001e0 41 49 0f be a4 34 4d 3e f7 51 c8 be a0 ad ef 3e
       -0.13992788 0.20039612 -0.39125034 0.46812153
0001f0 fa 8f 3c 3e 34 66 17 3e db 06 20 be f0 ac c1 3e
       0.18414298 0.14785081 -0.15627615 0.37827253
000200 06 c3 f7 bd 12 7c 9e be b9 73 cd 3e de f0 30 3f
       -0.12097745 -0.30954033 0.40127352 0.69117534
000210 fd 81 25 3d 01 54 66 3e 1e 74 a5 be 62 55 fb be
       0.04040717 0.22492982 -0.32315153 -0.4908858
000220 b3 63 57 3e 14 df 12 be d9 7c 63 be d6 fe be 3e
       0.21034126 -0.1434291 -0.22215594 0.373038
000230 99 b7 a5 be 70 98 58 bf 6b 7e b5 3e de 83 30 3e
       -0.32366636 -0.846076 0.35448012 0.17237803
000240 ce 40 26 3e 2d 53 01 bf eb 71 35 3f b6 c0 0b bf
       0.16235659 -0.5051754 0.7087695 -0.5459093
000250 b8 6e 18 bf ca d5 a3 be 44 be f5 3e 4b 3e cc 3e
       -0.59543943 -0.31999046 0.47996724 0.39891276
000260 be 64 ac 3c 5b 7f 93 be 8f d6 c6 be 93 19 97 3e
       0.021044131 -0.28808102 -0.3883557 0.295117
000270 d1 c4 c4 3e e5 7e 24 bd 41 2f 9a be fa 5a 2d 3f
       0.3843141 -0.04016008 -0.30114177 0.67716944
000280 f5 b7 d2 3e e5 68 08 be dc 8c f5 3d 5b 5e ea 3e
       0.41155973 -0.13321264 0.119897574 0.45775113
000290 de 62 5c 3e 5f 19 8d 3e 7e b4 88 be fb a5 92 be
       0.2152209 0.2755842 -0.26700205 -0.28642258
0002a0 cd 52 60 3e 18 4e d2 be 0d f3 29 3f 77 a9 c4 3d
       0.21906586 -0.41075206 0.6638649 0.09602635
0002b0 44 7a 51 3e 14 d4 88 3e 19 b8 dc bd 7a 74 ab 3e
       0.20456797 0.26724303 -0.10777301 0.33487302
0002c0 dd 5f 5b bf ba 9a 71 be f1 f2 12 bf 2d 94 1b be
       -0.8569315 -0.2359418 -0.5740195 -0.15193243
0002d0 b9 84 bd bd 52 d3 bc 3d 5f 7c 7f be 71 40 b7 3d
       -0.092538305 0.09219994 -0.24949788 0.08947838
0002e0 8d 33 c4 bd c0 3d b0 3d 2b d3 02 3e 9c 00 01 3e
       -0.09580145 0.08605528 0.12775867 0.12597889
0002f0 7f 9f 14 be ee 56 5b 3e 5a 58 7b 3e ba 4e a8 3d
       -0.14513968 0.2141988 0.24545422 0.08218141
000300 11 bf 06 bf 75 b3 d0 3d 60 02 fc be 9f 23 89 3e
       -0.52635294 0.10190479 -0.49220562 0.2678499
000310 9a d9 b9 bd cc 35 9f 3e 3f 2a 28 3e 9f ce 1b bf
       -0.09074707 0.3109573 0.16422366 -0.60862154
000320 0c 9b c6 3e fc 91 cc be c9 91 bf bb 45 1a 11 3d
       0.38790166 -0.39955127 -0.0058462364 0.035425443
000330 8f 44 05 bf 36 ab 54 3e c0 63 bb be 8a e1 9a 3e
       -0.5205774 0.20768437 -0.3659954 0.30250198
000340 a2 27 26 bf dd 53 6f bd 38 12 93 be 4c b5 0b 3d
       -0.64904225 -0.058429588 -0.28724837 0.034108445
000350 72 66 22 3e 92 a5 83 be 7d b4 74 3d c3 36 06 3f
       0.15859392 -0.25712258 0.05974244 0.5242731
000360 7a 56 a2 bd 19 a7 39 be 72 cc 80 3e 36 f3 88 bc
       -0.0792665 -0.18130149 0.2515598 -0.016717535
000370 ac 8b 88 be e0 0f 1a bf 96 c3 23 be 53 34 25 be
       -0.2666906 -0.60180473 -0.15992579 -0.16133241
000380 a0 4f 95 be da 61 0f be 50 be c8 bc e8 3f 87 bd
       -0.29162312 -0.14002171 -0.02450481 -0.06603986
000390 e5 96 12 3e 60 fd 2e 3e 90 b8 f4 3d aa 8b 42 3e
       0.14315374 0.17088842 0.11949265 0.1899859
0003a0 f2 97 c1 3c 12 48 86 bc 47 3e 0b be 8f a7 07 3f
       0.023632023 -0.016391788 -0.13597976 0.5299005
0003b0 7e 3d 4d bf b9 d4 a8 3d 64 e2 91 be 16 ad b4 3d
       -0.80171955 0.082436986 -0.28493035 0.08822076
0003c0 7a bc d3 3e c3 46 41 3f e5 48 b1 3e 2c 33 0e 3e
       0.41354734 0.754986 0.34625927 0.13886708
0003d0 ae 19 2b 3e 6b 79 01 bc 12 8d 38 3e 4b 81 2c 3e
       0.16709015 -0.007902483 0.18022564 0.16846196
0003e0 1d 3b 49 be 0e 12 40 bd 6b fe ec be 28 22 90 3e
       -0.19651456 -0.04689222 -0.46287856 0.2815106
0003f0 e7 a9 1a 3f 7b 22 9d 3e c4 15 e3 3e d5 e1 23 be
       0.604155 0.3069037 0.44352543 -0.16004117

tcr_lstm.weight_hh_l1 f4 [120, 30]
000000 69 b7 bf be 9f ea 9c bc 05 61 60 3e d8 62 5e bf
       -0.37444618 -0.019154845 0.2191201 -0.86869574
000010 2b 56 d8 bd bc 62 0d 3f a9 c2 ae 3d 20 f0 64 be
       -0.1056331 0.5522878 0.08533222 -0.22357225
000020 43 a4 0d be 82 08 25 be fa 3a 9a bd dd 66 90 3f
       -0.13832192 -0.16116527 -0.0753078 1.1281391
000030 e3 59 88 3e 08 82 fc 3e 40 2d b3 be 94 89 b2 3e
       0.26631078 0.49317956 -0.3499546 0.3487059
000040 76 b7 40 bf c9 84 eb 3e 2f 45 a7 3c 42 b6 89 3f
       -0.7527994 0.45999745 0.020418731 1.0758746
000050 2c 4a 8b 3d 0b 00 5c bf ab a3 f1 3d 6e da e3 3e
       0.068012565 -0.85937566 0.11798795 0.44502586
000060 49 1d cf 3d 1e 04 e2 3c 23 46 76 be 61 8d 1c 3d
       0.101130076 0.027589854 -0.24050193 0.038220767
000070 82 1e 16 3f 0c 4a b2 3d 6f 04 87 3e 72 25 6d 3e
       0.586403 0.087055296 0.2637057 0.23158816
000080 85 f1 0a bf 63 14 e4 3e f3 e6 cf 3e a4 62 ab be
       -0.5427478 0.44546804 0.40605888 -0.33473694
000090 b4 50 21 3f 25 05 9a 3e 78 07 d8 3e 4c 6e 10 3e
       0.6301377 0.3008205 0.42193198 0.14104575
0000a0 4b d1 4f bc 80 f7 f3 be 7c f5 39 3e f8 3f 95 3c
       -0.012684177 -0.47649765 0.18160051 0.01821898
0000b0 67 81 ae 3e 39 cb 31 3f 83 96 38 3f eb 1c bd 3e
       0.340831 0.6945072 0.7210466 0.36936125
0000c0 60 ca 0c bf 54 4d f0 bd cb 5f f0 3e 2e c9 02 3f
       -0.549963 -0.11733499 0.46948084 0.51088226
0000d0 4f 44 d1 3e 3b 78 e7 be 65 33 af 3d 9e 47 61 3e
       0.40872428 -0.45208916 0.085547246 0.21999976
0000e0 e9 a4 8c 3e 74 ff 2b be 67 52 16 bf a4 bf 2b be
       0.27469566 -0.16796666 -0.58719486 -0.16772324
0000f0 79 64 d7 3e a1 b8 1a be fb 02 fa be b1 5d 89 3f
       0.42068842 -0.15109493 -0.488304 1.0731717
000100 88 27 7a bf f9 1d 02 3f fc dd 6f 3f 62 cf 1e 3e
       -0.9771657 0.50826985 0.93698096 0.15508798
000110 1a 89 db 3d bd 3e f8 be 00 60 93 3e e3 25 ba be
       0.107195094 -0.48485366 0.2878418 -0.3635703
000120 10 f0 48 be d6 b6 f4 3c a9 31 33 bf 46 ea 34 be
       -0.19622827 0.02987234 -0.6999765 -0.17667493
000130 3f f7 62 3e 33 c6 4c 3f 00 0f 1e be a7 38 66 bf
       0.2216463 0.7998993 -0.1543541 -0.89930195
000140 79 af 65 3f 7e f5 85 3e 86 83 28 bd a8 48 0a be
       0.89720875 0.26163858 -0.041141056 -0.13504279
000150 7f e2 93 3e c9 6c 53 be 91 07 89 bf 63 9e 14 3e
       0.2888374 -0.20646967 -1.0705434 0.14513545
000160 19 84 59 bc d6 38 1b 3e f1 81 46 be 75 ba 25 3f
       -0.013276123 0.151584 -0.19385506 0.64737636
000170 eb b1 81 bf 9d ff 9b be 58 e9 36 be c3 da 98 3e
       -1.0132421 -0.30468455 -0.17862451 0.29854402
000180 19 2b f4 3e df 5e d8 3e 87 fd 1e 3f 78 82 ab 3f
       0.4768913 0.4225988 0.621056 1.3399191
000190 01 af 77 be 6d 6b 19 bf c8 47 96 be 71 3c dc 3e
       -0.24187852 -0.59929544 -0.2935164 0.43014863
0001a0 2c 50 4d 3e 23 f7 bc bc 67 fd fa 3e 65 62 29 3f
       0.20050114 -0.023067063 0.49021456 0.66165763
0001b0 0b cd ee 3d 7b e5 d3 be 3c 36 84 3f c5 5b f0 3e
       0.116602026 -0.41386017 1.0329051 0.46945015
0001c0 77 36 1c 3f 11 e1 27 be 6b 47 fd 3e 9c b2 2c bf
       0.61020607 -0.1639445 0.4946855 -0.67460036
0001d0 49 16 fd bd a8 8d b4 3e 9c a6 69 bf 9f 3f 81 3f
       -0.12357766 0.35264325 -0.9126985 1.0097541
0001e0 05 f9 f8 be a4 0f 7e bd 75 ed 10 bf e3 b9 9d be
       -0.48627487 -0.062026635 -0.5661233 -0.30805883
0001f0 f5 9b c1 3d b1 99 9c be a8 76 d0 3e d1 a0 db be
       0.094535746 -0.30586007 0.40715528 -0.4289613
000200 1b cb 43 3e 8f c7 c7 3e ff ba e9 3e 30 5f f8 3d
       0.19120447 0.3901944 0.4565048 0.121275306
000210 5a 48 4d bc c8 e7 b5 3d 5b c9 0d 3f b1 24 c4 bd
       -0.012529457 0.088820994 0.5538537 -0.09577311
000220 c9 76 a5 3d e5 7e 6d 3f 5f 9f a1 bc 51 b1 a4 be
       0.08079297 0.9277175 -0.019729314 -0.32166532
000230 31 ff 97 3c 61 49 77 bd d0 06 38 be c1 aa 1f 3f
       0.018554302 -0.060372714 -0.17971349 0.62369925
000240 dd a6 94 3e 6c f3 4f bf d9 78 1a 3f ff c8 10 3f
       0.29033557 -0.8123081 0.6034065 0.56556696
000250 24 a5 1a be b2 54 4d 3e 57 0a 8d bc 02 d8 ad 3e
       -0.15102059 0.2005184 -0.017216844 0.33953863
000260 04 93 a0 bf 3c af 45 3e 79 b7 27 bf 04 6d c9 3e
       -1.2544866 0.19305128 -0.6551433 0.39340985
000270 12 c0 8f 3e 96 c7 05 bf 49 77 3d be 9e 82 69 be
       0.28076226 -0.5225767 -0.18502535 -0.22803733
000280 35 dd fa be f7 c5 8c 3f 55 b4 b2 3e ed d3 88 3d
       -0.48996893 1.0997914 0.34903207 0.06681047
000290 58 cc a3 be e4 f9 83 3f eb aa 80 be f3 9e 52 bd
       -0.3199184 1.0310636 -0.251304 -0.051421117
0002a0 cb 43 f1 be 21 f6 86 be 6e f3 1e 3e 56 6f f7 bd
       -0.47122034 -0.26359656 0.15522549 -0.120817825
0002b0 01 c9 aa 3e dd 88 b5 3e 9e a9 b3 3b d2 72 f9 be
       0.3335648 0.3545598 0.0054828664 -0.48720413
0002c0 b4 6c 71 be fa fe 00 be a0 08 bf 3e 4d f5 89 bf
       -0.23576623 -0.12597266 0.37311268 -1.0777985
0002d0 fc fe 5d 3e 3d 4c 6f 3e e2 4c a5 3e 08 a9 c2 3e
       0.216793 0.23368926 0.3228522 0.38019586
0002e0 3a ed 25 3d dd 2a 86 bf 53 ce 81 bd fe 27 1d bf
       0.04050944 -1.0481831 -0.06338181 -0.6138915
0002f0 a7 0c 8f 3f e9 58 1b be e0 fe 35 be c2 fb 80 be
       1.1175736 -0.15170635 -0.17773008 -0.25192076
000300 5a d4 e4 bd c5 cc 9d 3c 4b 4a 54 3e 68 ff ca 3e
       -0.11173315 0.01926268 0.20731466 0.39647985
000310 9c b3 45 3f d2 b4 6a 3e 77 8d ce 3c 20 93 f3 3a
       0.7722719 0.2292054 0.02521394 0.0018583275
000320 65 f3 c6 be 05 f1 fa 3e f5 a8 63 3f aa 82 81 be
       -0.3885757 0.49012008 0.8892968 -0.25295
000330 f2 c9 eb be 8e b6 89 3e b0 4a ac 3e 63 f4 46 3f
       -0.4605251 0.2689709 0.33650732 0.77716655
000340 01 b8 9d bf 4c 76 ba be ca 98 51 bf 2a 66 10 3f
       -1.2321779 -0.36418378 -0.8187376 0.5640589
000350 55 b0 ae 3e 6f 89 1d bf 4e 72 e4 be 60 80 39 bf
       0.34118906 -0.6153783 -0.44618458 -0.7246151
000360 02 c2 56 3e be e9 ab 3e 6f f5 0c bf 70 46 51 3f
       0.20972446 0.3357677 -0.55062 0.81748104
000370 3c ee 83 3b 6a 8f a8 bd 38 ce 54 bf 9b 25 0d 3d
       0.0040262025 -0.08230479 -0.83127165 0.03445969
000380 7d 80 a7 bf 08 d9 c2 be 1c 77 89 bf 0d aa 49 3f
       -1.3086087 -0.38056207 -1.0739474 0.787751
000390 41 9c 97 3d f2 37 30 bf 47 22 b6 3e 1d ed 19 be
       0.0740285 -0.68835366 0.35573027 -0.15031858
0003a0 2a e8 a9 be d5 50 fb 3e 79 5a e7 be 10 12 35 3f
       -0.3318494 0.49085107 -0.45186213 0.70730686
0003b0 ef bd c7 bd 3e ba d7 bd 8f cc f0 bc bf 7b 46 3e
       -0.09753024 -0.1053357 -0.029394416 0.19383143
0003c0 2b 61 95 be e3 9e d7 3e da 38 0c bf 2d d7 22 be
       -0.29175696 0.42113408 -0.5477425 -0.15902396
0003d0 7d 25 75 bf 29 50 e4 3e 55 93 9d 3c 1a 01 5f bf
       -0.9576033 0.44592407 0.019235292 -0.87111056
0003e0 69 4d 01 be c9 2a 0c 3f d2 bd 9a be bd c9 f8 bc
       -0.12627186 0.54752785 -0.30222946 -0.030369634
0003f0 a8 72 3f 3f 38 23 66 3e 25 f4 aa 3e dd a9 4b 3a
       0.74784327 0.22474372 0.33389392 0.0007769147

tcr_lstm.bias_ih_l1 f4 [120]
000000 a9 c2 db 3e 7a 3e 91 3e bb b5 78 3e 7a 7a 6c be
       0.4292195 0.28367978 0.24288075 -0.23093596
000010 f7 35 0f be 0e bf 07 bd c7 d6 63 3e 78 c7 6f 3e
       -0.1398543 -0.03314119 0.222499 0.23415935
000020 4e 52 64 3e c4 9c 90 3e 57 69 9f 3d 68 6a 81 be
       0.22297022 0.28244603 0.07783764 -0.25276494
000030 bd 2e e4 3e 8a ee 50 3e 6e 47 59 3e f6 d7 1c 3d
       0.44566908 0.20403495 0.21218655 0.038291894
000040 30 95 6c 3e 9b 64 13 3e 1d 9e 02 3f 3a f2 ba 3e
       0.23103786 0.14393847 0.5102251 0.3651293
000050 1d 64 74 3e e0 1d 7c 3d 61 a8 21 be 0e 19 ab bd
       0.23866315 0.06155193 -0.15786888 -0.08354388
000060 1d 47 41 bd 3e cb 89 3e 39 1b e5 3b 15 23 d5 3e
       -0.04718696 0.26912874 0.0069917706 0.41628328
000070 90 80 98 3e cd d1 ad 3e f0 ce 5e 3d 02 ae 78 3e
       0.29785585 0.33949128 0.05439657 0.24285129
000080 d9 5b 66 3e 83 07 3c 3e 2c 5f 0b 3c 97 3c cd 3e
       0.22495975 0.1836224 0.008506577 0.4008529
000090 9c 80 84 bc 63 44 5d be 4a 2d 91 3e 45 c7 03 3e
       -0.016174607 -0.21608119 0.28354865 0.12868984
0000a0 c0 a3 0a be 33 9a 70 3e de a7 c2 3e 7f eb 9f 3e
       -0.13539028 0.23496322 0.38018698 0.31234357
0000b0 c7 ef 2f 3d 6a 79 89 3d 65 fb a9 3e a7 7c 05 3d
       0.04295328 0.06712611 0.3319961 0.03258958
0000c0 f2 ee d0 3d a9 00 15 3f 78 76 2a 3e 23 37 79 be
       0.10201825 0.5820413 0.16646755 -0.24337439
0000d0 4a 62 ad 3e c3 95 55 3e 6e a5 3e 3e e8 c5 54 3d
       0.3386405 0.20857911 0.18617794 0.05194655
0000e0 6d 5b 86 3d f1 33 68 3e eb 4f 1c 3e 20 28 98 be
       0.06560407 0.22676064 0.15264861 -0.29718113
0000f0 f1 f2 e7 bb 48 98 90 3e e4 00 d7 bd 53 fc 1e 3e
       -0.0070785214 0.2824118 -0.10498217 0.15525942
000100 75 44 74 3e 68 c5 0a be f8 4f b8 3d 1a 2f 8f bd
       0.2385424 -0.13551867 0.08999628 -0.06991406
000110 f2 fe c4 be 76 b2 72 be 79 49 62 3e d4 9b 16 be
       -0.38475758 -0.2370089 0.2209834 -0.14707881
000120 d0 10 61 3e 52 88 54 3e 2c a9 9b be 11 2a b4 3e
       0.2197907 0.20755127 -0.30402505 0.35188344
000130 d3 57 7d be 2e 7c a6 3e 94 f8 33 3e dd dc 0a 3e
       -0.24740534 0.32516617 0.17575294 0.13560815
000140 32 c6 ca 3c 9e 64 4b be 9a 9c 96 be 3e 2f d0 bd
       0.02475271 -0.19862601 -0.29416353 -0.10165261
000150 c3 d3 f3 3d 45 19 9f 3e b8 ac f6 3c 35 a2 04 3d
       0.11905625 0.31073967 0.030111656 0.032381255
000160 6c 81 ea bd 55 0f 39 be ef 96 80 3f 56 6f 17 3f
       -0.114504665 -0.18072255 1.0046061 0.5915426
000170 2a 1a 85 3e 23 da 8a 3e 3e bf 59 3e 4d 4f d8 3e
       0.25996524 0.2711955 0.2126436 0.42248002
000180 10 4b 92 3d 51 18 8d 3e f1 57 30 3d f5 e9 44 3e
       0.07143223 0.27557614 0.043052617 0.19229873
000190 2a 13 a4 3e 84 c0 68 3e 27 d8 9d 3e f4 e5 ed 3e
       0.3204587 0.22729689 0.30828974 0.46464503
0001a0 14 58 24 3f 3a cf c9 3c db 23 bc 3e f4 af 83 3e
       0.64196897 0.024634946 0.36746106 0.2572018
0001b0 09 0d bf 3e ea 7a db 3e 68 eb f0 3e a6 ac 95 3e
       0.37314633 0.42867213 0.470546 0.29233283
0001c0 9c 00 d3 bc 6c 74 23 3e 73 63 c9 3e 66 69 57 3d
       -0.025757127 0.1596238 0.39333686 0.05259075
0001d0 e0 09 17 3f c3 47 86 3e 00 08 9e 3e e5 6f 85 3e
       0.58999443 0.26226625 0.3086548 0.2606193
