my_model2.json_param.pt (torch_old, 6935 bytes, 9 tensors)

word_embeddings.weight f4 [21, 10]
0	0x00000000	0.0
1	0x00000000	0.0
2	0x00000000	0.0
3	0x00000000	0.0
4	0x00000000	0.0
5	0x00000000	0.0
6	0x00000000	0.0
7	0x00000000	0.0
8	0x00000000	0.0
9	0x00000000	0.0
10	0xbe00706c	-0.12542886
11	0x3c96a47d	0.018388981
12	0xbd02f885	-0.031975288
13	0xbe0a47fd	-0.13504024
14	0x3cf52f8e	0.029929902
15	0x3d2fca3a	0.042917468
16	0xbd2fa41f	-0.042881127
17	0xbd945ac7	-0.07243877
18	0xbe22f233	-0.15912704
19	0x3d1b1d88	0.03786996
20	0x3ea197d0	0.31561136
21	0xbd071a2e	-0.03298395
22	0x3cd4ac7c	0.025961153
23	0x3e9f6ff1	0.31140092
24	0xbce24f88	-0.027625814
25	0xbcb151f9	-0.021645533
26	0x3d62a12f	0.055329498
27	0x3db5eb51	0.08882774
28	0x3e8c1fe8	0.27368093
29	0xbcfa54e9	-0.030558066
30	0xbeb84165	-0.35987392
31	0xbd3f07f5	-0.046638448
32	0x3d13f377	0.036120858
33	0xbea965f9	-0.3308561
34	0xbd25a152	-0.04043705
35	0xbd1c2e42	-0.038130052
36	0x3becd0da	0.0072270455
37	0xbd10840b	-0.035282176
38	0xbee9cf5c	-0.45666015
39	0xbde99116	-0.11404626
40	0x3e3c5c9e	0.18394706
41	0xbda7cca4	-0.08193329
42	0x3d93a846	0.0720983
43	0xbd66df57	-0.056365337
44	0xbd86ae48	-0.0657621
45	0xbd582462	-0.052769072
46	0xbf09c518	-0.53816366
47	0xbeb27508	-0.34854913
48	0xbed14076	-0.40869492
49	0xbdd4cf10	-0.103910565
50	0xbd82ab3d	-0.06380317
51	0x3ce583cf	0.028016953
52	0xbc40de56	-0.011771759
53	0x3dd33c63	0.10314252
54	0x3cb34330	0.021882623
55	0x3c556075	0.013023485
56	0x3ecbe01c	0.3981942
57	0x3e94f084	0.2908975
58	0x3e9e426d	0.30910054
59	0x3d818391	0.063239224
60	0xbdc60f3c	-0.096708745
61	0x3dca27b6	0.098708555
62	0xbd19f139	-0.037583563
63	0xbe177a4d	-0.14792748
64	0x3d3e1e1e	0.04641544
65	0x3c3d9d12	0.011573093
66	0xbb20cfd2	-0.0024537933
67	0xbda6c19f	-0.08142399
68	0xbe4ec966	-0.20194015
69	0x3dc67073	0.09689417
70	0xbebaa172	-0.36451298
71	0x3cc06650	0.023486286
72	0xbbf93def	-0.00760626
73	0xbe61f482	-0.22065929
74	0x3c323b74	0.010878433
75	0xbbe3505d	-0.0069370703
76	0x3e9fbc4b	0.31198344
77	0x3e48b190	0.19598985
78	0xbe1d2921	-0.1534772
79	0xbdacaf4b	-0.08431872
80	0x3e355233	0.17707138
81	0x3bb667c2	0.005566568
82	0xbbd6f44f	-0.0065598856
83	0x3eb73314	0.35781157
84	0xbb95bca3	-0.0045696064
85	0xbb0231b6	-0.0019866056
86	0x3eab188c	0.33417165
87	0x3ebac9ac	0.36481988
88	0x3f16291b	0.5865647
89	0xbbb80807	-0.0056161913
90	0x3e75604c	0.23962516
91	0xbd1d2822	-0.03836835
92	0x3d7bb55b	0.06145225
93	0x3e198b68	0.14994586
94	0xbd837a1b	-0.06419774
95	0xbd8cebdc	-0.06880924
96	0xbeadfb80	-0.33980942
97	0xbe519f45	-0.20470913
98	0xbdaddfeb	-0.084899746
99	0xbcc7ea41	-0.024403693
100	0xbe5739bd	-0.21018119
101	0xbd16862b	-0.036749046
102	0x3d0b9ab0	0.03408307
103	0xbe3b4a20	-0.18289995
104	0xbd17d6f9	-0.03707025
105	0xbd21c9b6	-0.039499007
106	0x3d6afaca	0.057368077
107	0x3cd88c2b	0.026434025
108	0xbe29c76f	-0.16579984
109	0xbdb5e300	-0.088811874
110	0xbedc1997	-0.42988274
111	0xbd2df6c0	-0.042471647
112	0x3c30a31e	0.010781078
113	0xbe9c6ea3	-0.3055316
114	0xbb36a4d6	-0.0027869246
115	0x3ca1a94f	0.019734053
116	0x3e79e8a2	0.24405149
117	0x3e143dc9	0.14476694
118	0x3c8058a4	0.015667267
119	0x3d60ed35	0.05491372
120	0xbbd1c9e4	-0.006402241
121	0xbdd120f4	-0.102113634
122	0x3d915665	0.070965566
123	0xbcab3e1f	-0.020903645
124	0xbdaa5276	-0.083165094
125	0xbd791b2a	-0.06081692
126	0x3c8a5719	0.016887235
127	0x3da3c905	0.07997326
128	0xbd725cc4	-0.0591705
129	0xbe0cec41	-0.13761999
130	0xbe8c4cef	-0.27402446
131	0xbc59944f	-0.013279988
132	0x3c563b84	0.013075713
133	0xbe9d0964	-0.30671227
134	0x3bc9d304	0.006159188
135	0x3c11c293	0.008896488
136	0x3d14989e	0.03627836
137	0x3c951eb8	0.018203124
138	0xbe1e1b30	-0.15440059
139	0x3d575911	0.052575175
140	0x3f046e53	0.5173084
141	0x3cfe9950	0.031078964
142	0xbc5db6db	-0.013532366
143	0x3f283a2c	0.65713763
144	0x3c522a51	0.012827472
145	0x3b4403c5	0.0029909473
146	0x3e3bb275	0.18329795
147	0x3e570ec3	0.21001725
148	0x3e3bd4c2	0.1834288
149	0x3cb31b1c	0.021863513
150	0x3f0708e1	0.52747923
151	0x3d8e65aa	0.06952985
152	0xbd85b419	-0.065284915
153	0x3ee53d8c	0.4477352
154	0x3da63ea5	0.08117417
155	0x3d9a3d86	0.07531266
156	0xbe2eba18	-0.17063177
157	0xbd8b1838	-0.06791729
158	0x3ecb53de	0.39712423
159	0x3e360dab	0.17778651
160	0x3ebc4039	0.36767748
161	0x3d7d65e7	0.06186476
162	0xbd258ee9	-0.040419493
163	0x3ed0fc70	0.40817595
164	0x3d18e3aa	0.037326492
165	0x3ce2df2d	0.02769431
166	0xbdbd7a1f	-0.092518084
167	0xbc4f5245	-0.012653892
168	0x3e5e619d	0.21716924
169	0x3d9b3c85	0.075799026
170	0xbdfe4a20	-0.12416482
171	0xbdcfa5db	-0.10139056
172	0x3d88a580	0.066721916
173	0xbe0c0489	-0.13673605
174	0xbd935d85	-0.07195572
175	0xbd2cdb35	-0.04220124
176	0x3ccad927	0.02476175
177	0x3bcdc8bd	0.0062800334
178	0xbd9c1ab1	-0.076222785
179	0xbdd8dfbe	-0.105895504
180	0x3f26d4a9	0.65168244
181	0x3bd413fb	0.0064721084
182	0xbc31c23f	-0.0108495345
183	0x3ec00802	0.3750611
184	0x3be3f354	0.006956497
185	0x3c4c52b4	0.01247089
186	0xbf273152	-0.6530963
187	0xbec1da98	-0.37862086
188	0x3d0e6aee	0.034769945
189	0x3d2e3376	0.042529546
190	0xbea2f573	-0.31827888
191	0xbdadeb7e	-0.08492182
192	0x3cc06efc	0.023490421
193	0xbe914555	-0.2837321
194	0xbc94d751	-0.018169077
195	0x3ce697b1	0.028148504
196	0x3d5c3e64	0.053770438
197	0xbc958c46	-0.018255364
198	0xbdb46348	-0.08807999
199	0xbce6ccf6	-0.028173905
200	0x3de290a1	0.11062742
201	0xbbab844d	-0.0052342773
202	0x3b5e8872	0.003395584
203	0x3dcb71f0	0.09933841
204	0xbc18f45e	-0.009335605
205	0xbbe340b5	-0.006935204
206	0x3b2fa3cb	0.002680051
207	0x3cc5b869	0.024135785
208	0x3e8926b3	0.26787338
209	0xbc52304c	-0.012828898

word_embeddings_2.weight f4 [13, 10]
0	0x00000000	0.0
1	0x00000000	0.0
2	0x00000000	0.0
3	0x00000000	0.0
4	0x00000000	0.0
5	0x00000000	0.0
6	0x00000000	0.0
7	0x00000000	0.0
8	0x00000000	0.0
9	0x00000000	0.0
10	0xbe0dca17	-0.13846622
11	0xbb30bad1	-0.002696682
12	0x3a99d15f	0.0011735371
13	0xbdd609f2	-0.10451116
14	0xbaa8f0dd	-0.0012889166
15	0xba021a05	-0.00049629837
16	0x3d8b7522	0.06809451
17	0x3cbaeba3	0.022817438
18	0xbda16bd4	-0.07881895
19	0xbb85a104	-0.0040780324
20	0x3de0757c	0.10959908
21	0x3c72196a	0.014776567
22	0xbba39033	-0.004991555
23	0x3dd2781c	0.10276815
24	0x3b779380	0.0037777126
25	0x3a0073d0	0.000490007
26	0xbc7726e0	-0.015084952
27	0x3bd89ea8	0.00661071
28	0x3db13cb3	0.086541556
29	0x3cb3c251	0.021943243
30	0xbe8147ac	-0.25249994
31	0x3bd26304	0.006420495
32	0xbb1e4f1e	-0.0024156044
33	0xbe322e4b	-0.17400472
34	0x3bda3558	0.006659191
35	0x3b326981	0.002722353
36	0x3e104643	0.14089303
37	0x3d625de2	0.055265315
38	0xbe064255	-0.13111241
39	0xb9d3a269	-0.0004036606
40	0xbd8bd986	-0.06828599
41	0xbb3ef3fc	-0.0029137125
42	0x3994bc49	0.00028369043
43	0xbd8fac4e	-0.070152864
44	0xb9d57012	-0.00040710025
45	0x3954da5d	0.00020299242
46	0xbd513617	-0.051076975
47	0xbd3fea61	-0.04685438
48	0xbd901c39	-0.07036633
49	0xbbd211f4	-0.0064108316
50	0x3e42fbf8	0.19041431
51	0x3d13188b	0.035912078
52	0xbca42f4a	-0.02004208
53	0x3e4b2032	0.198365
54	0x3cbf6c9c	0.023367219
55	0x3c4c46ec	0.012468081
56	0x3cc92ebe	0.024558421
57	0x3d4b2e51	0.049604718
58	0x3e4d1fbb	0.20031635
59	0x3d4b4829	0.049629364
60	0x3db0759c	0.08616182
61	0x3cd60e57	0.026129885
62	0xbc6c6a39	-0.014429622
63	0x3dcfbf0a	0.1014386
64	0x3c89a20d	0.016800905
65	0x3c1e54c3	0.009663763
66	0x3d4026c0	0.046911955
67	0x3d4ee283	0.050508987
68	0x3df81441	0.12113238
69	0x3d1b7c9e	0.03796064
70	0xbdd5bfdf	-0.10436987
71	0x3955afed	0.000203788
72	0x395f39ef	0.00021288519
73	0xbd99b6a0	-0.07505536
74	0x38fc76ea	0.00012038446
75	0xb9840683	-0.00025181854
76	0x3daa77de	0.08323644
77	0x3d320a70	0.043466985
78	0xbd40dce8	-0.047085673
79	0x37a0bf16	1.9162468e-05
80	0x3e0a1dc7	0.13487922
81	0x3c897251	0.016778143
82	0xbbacd14f	-0.005273975
83	0x3d91b49d	0.071145274
84	0x3ba36e69	0.004987527
85	0xbbc352d5	-0.005960802
86	0xbe09c822	-0.13455251
87	0xbd92893b	-0.07155081
88	0xbd26f0f2	-0.040757127
89	0x3c91040a	0.017702121
90	0x3ebd252d	0.36942425
91	0x3c0ef029	0.008724251
92	0x3c343ca4	0.011000786
93	0x3e8e15cb	0.27751002
94	0xbc1ad97e	-0.009451268
95	0xbc80e2f1	-0.015733214
96	0xbdb45e05	-0.08806995
97	0xbc719c9e	-0.014746813
98	0x3de04af2	0.10951795
99	0xbc3b4156	-0.0114291515
100	0xbdaef957	-0.085436516
101	0x380078bd	3.0630024e-05
102	0xb7a9e713	-2.0253972e-05
103	0xbda3d897	-0.080002956
104	0x390a725f	0.00013203312
105	0x380156f0	3.0836964e-05
106	0x3ca11add	0.01966613
107	0xbb83f93a	-0.004027513
108	0xbd91823f	-0.071049206
109	0x374a9871	1.2075631e-05
110	0xbde3aabd	-0.1111655
111	0xbb5c5784	-0.00336215
112	0x3add7939	0.0016897089
113	0xbdbb98bd	-0.09159992
114	0xbaee61bc	-0.0018187086
115	0xba23c5e8	-0.0006247447
116	0x3cdff3eb	0.027337989
117	0x3b2ca41f	0.002634294
118	0xbd825b67	-0.0636509
119	0xbba998c1	-0.0051756804
120	0xbdbf7619	-0.09348697
121	0xbaf2aba6	-0.001851429
122	0x39e46ff8	0.00043570972
123	0xbd8fa153	-0.07013192
124	0xb9ee3723	-0.00045435978
125	0x392208c6	0.00015452792
126	0x3d90d5db	0.0707204
127	0x3d180bfb	0.0371208
128	0xbd6c294a	-0.057656564
129	0xbaede427	-0.001814966

lstm.weight_ih_l0 f4 [40, 10]
0	0xba0bf0fa	-0.00053383375
1	0x39958408	0.00028517866
2	0xb92e5e8b	-0.00016629153
3	0xba7b0eae	-0.00095770776
4	0x3904fe30	0.00012683193
5	0x389ddf3b	7.527923e-05
6	0x38adc8e3	8.286701e-05
7	0xb84c8aff	-4.876684e-05
8	0xb8ee51f7	-0.000113639915
9	0x39b784f0	0.00035003526
10	0x3e872ca2	0.2640124
11	0xbd5f657e	-0.05454015
12	0x3d1dd54e	0.0385335
13	0x3e3e2741	0.18569662
14	0xbd101846	-0.0351794
15	0xbcae2eff	-0.021262644
16	0xbe552da2	-0.20818189
17	0xbd987bf8	-0.0744552
18	0x3d82a3fb	0.06378933
19	0xbaca0c11	-0.0015414973
20	0x37501fe2	1.2405189e-05
21	0x38e95892	0.00011126803
22	0xb75062eb	-1.2420797e-05
23	0xb8a7aa79	-7.9949335e-05
24	0x3761d0aa	1.34596285e-05
25	0xb7ba7f10	-2.2232096e-05
26	0xb8f1e596	-0.00011534539
27	0x369dfb4d	4.70822e-06
28	0x394576b1	0.000188316
29	0x38bb9dbe	8.9462366e-05
30	0x3e16e7e5	0.14736898
31	0x3d08d6ee	0.033408098
32	0xbc3831e1	-0.011242361
33	0x3e276bca	0.16349712
34	0x3c8e92ef	0.017404048
35	0xbb11d34d	-0.002225119
36	0x3ce0ecc4	0.027456649
37	0x3d2042cf	0.039126214
38	0xbd698b86	-0.057017826
39	0xbc8759b5	-0.016522268
40	0x39942cff	0.00028262284
41	0x37e54041	2.7328848e-05
42	0xb86a51bf	-5.586608e-05
43	0x39a75dee	0.00031922705
44	0xb818df9b	-3.6447873e-05
45	0x373d6df3	1.1290877e-05
46	0x3838fc3e	4.4103937e-05
47	0x38b6a01e	8.7082604e-05
48	0x39592123	0.00020707077
49	0xb914f7ee	-0.00014206741
50	0x3dd69c7d	0.104790665
51	0x3cf9e805	0.030506143
52	0xbc506947	-0.012720413
53	0x3dea3b79	0.11437125
54	0x3c8dbd1f	0.017302094
55	0x3ac0d7c9	0.0014712746
56	0x3bd3e933	0.0064670085
57	0x3c8bf972	0.017086718
58	0xbd52621a	-0.05136309
59	0xbb969483	-0.0045953407
60	0xb5cea131	-1.5395109e-06
61	0x38ecbcb7	0.00011288508
62	0xb7851f73	-1.586948e-05
63	0xb8c132a1	-9.2123875e-05
64	0x376c8fc4	1.4100169e-05
65	0xb79ee3b4	-1.89411e-05
66	0xb8f64e4d	-0.00011744779
67	0x357cdcad	9.419844e-07
68	0x3939bfbe	0.00017714404
69	0x38c24f95	9.265464e-05
70	0xb9814f88	-0.00024664053
71	0x3a422de6	0.0007407352
72	0xb9cb358b	-0.0003875907
73	0xb9cd4616	-0.00039152865
74	0x39ced433	0.00039449483
75	0x38e9b050	0.000111431465
76	0x39972173	0.00028825886
77	0x3a176580	0.00057753175
78	0x3a5f14c1	0.00085098675
79	0x399562d8	0.0002849314
80	0xb9c5927c	-0.00037683907
81	0xb749fff2	-1.20401255e-05
82	0xb6aa73ff	-5.0798985e-06
83	0xb99a5827	-0.00029438848
84	0x378e8b3a	1.6992552e-05
85	0x377df231	1.5136365e-05
86	0x385418e0	5.0567905e-05
87	0xb8b1f186	-8.485005e-05
88	0xb8f3c602	-0.00011624025
89	0xb7a90c7f	-2.0152189e-05
90	0x3a19a76b	0.0005861434
91	0xb8cee7e5	-9.866039e-05
92	0xb716518b	-8.959682e-06
93	0x3a1f4fc1	0.0006077253
94	0xb9281470	-0.00016029342
95	0xb8169893	-3.5904883e-05
96	0x39535759	0.00020155068
97	0x399f1640	0.0003034342
98	0x39ceb3c8	0.0003942533
99	0xb94f9d4c	-0.00019799656
100	0x38348872	4.304242e-05
101	0x37780ebe	1.4785384e-05
102	0x37421de7	1.1570263e-05
103	0xb90af9b8	-0.00013253733
104	0xb83d06b9	-4.5067372e-05
105	0xb83760cc	-4.372075e-05
106	0x37e016c4	2.6713482e-05
107	0x388c6024	6.693628e-05
108	0x396046fe	0.00021388751
109	0x389c0ac2	7.4406635e-05
110	0xbda94672	-0.082653895
111	0xbd7aa59e	-0.0611931
112	0x3d2e3636	0.04253217
113	0xbdf7f194	-0.12106624
114	0xbd04b6b7	-0.032400813
115	0xbcc1ab45	-0.023641238
116	0xbd49e6e0	-0.049292445
117	0xbcf9e8ba	-0.03050648
118	0xbe1bbbc6	-0.15208349
119	0xbd694d87	-0.0569587
120	0x3925c020	0.00015807198
121	0x384d1c5b	4.8902217e-05
122	0xb6623b61	-3.3711187e-06
123	0xb8c073b7	-9.176827e-05
124	0xb63484e6	-2.6899447e-06
125	0xb7bddc8d	-2.2633258e-05
126	0xb89f6337	-7.600191e-05
127	0x373e6760	1.1348951e-05
128	0x3943d2b6	0.00018675145
129	0x36837062	3.9171873e-06
130	0xbc7e77e5	-0.015531515
131	0x3d904034	0.07043496
132	0xbbff9e20	-0.0078008324
133	0x3d52ca1c	0.051462278
134	0xbb117d1d	-0.0022199817
135	0xbd377a97	-0.044794645
136	0x3e0d0519	0.13771476
137	0x3e086974	0.13321477
138	0xbe5d61fc	-0.2161941
139	0xbd8ad0bf	-0.067780964
140	0xb78119f8	-1.5390091e-05
141	0xb8e05dc0	-0.00010698615
142	0x3678cbf9	3.7073607e-06
143	0x386dc615	5.668968e-05
144	0xb8d56357	-0.00010175135
145	0xb55d77c2	-8.2503186e-07
146	0x390c5a99	0.0001338519
147	0x38d5c9f3	0.000101942474
148	0x391d9cb8	0.00015031069
149	0x379cfa5c	1.8713232e-05
150	0x3b5eaf11	0.003397886
151	0x3d3bba68	0.045832068
152	0xbc0cd6ee	-0.008596165
153	0x3d53b497	0.051685896
154	0x3bcfb208	0.0063383617
155	0xbca5590a	-0.020184059
156	0x3dc34f74	0.09536639
157	0x3dbcfbab	0.09227689
158	0xbdde5e4d	-0.1085783
159	0xbd3c3b0c	-0.04595475
160	0x392e5b5c	0.00016627967
161	0x38575293	5.1336898e-05
162	0xb6b14763	-5.2833216e-06
163	0xb8c945f8	-9.5974596e-05
164	0xb62fa94f	-2.6175583e-06
165	0xb7ad81c6	-2.0683638e-05
166	0xb8a32ce4	-7.780807e-05
167	0x36dd02b3	6.5866275e-06
168	0x393d1ba9	0.00018034749
169	0x37135485	8.7815615e-06
170	0x3a54cbcb	0.0008117526
171	0x3a671b26	0.0008815996
172	0xb9e9fe71	-0.00044630797
173	0x3a2c4381	0.0006571338
174	0x39e0c76b	0.00042873187
175	0x391ae862	0.00014773154
176	0x39c7ceea	0.000381104
177	0x3a07dc60	0.000518268
178	0x3aa8f9ed	0.0012891866
179	0x39ee1844	0.00045412977
180	0xb9cc8ddd	-0.00039015608
181	0x3630c664	2.6341522e-06
182	0xb6f6960a	-7.348838e-06
183	0xb9b77510	-0.00034991698
184	0x373d7e3e	1.1294671e-05
185	0x36f7a15d	7.379959e-06
186	0xb89db205	-7.519502e-05
187	0xb93decdb	-0.0001811268
188	0xb989ffaa	-0.0002632116
189	0x37b6209a	2.1711272e-05
190	0x38242e12	3.9143553e-05
191	0xb94426d4	-0.00018706481
192	0x38b526e3	8.637996e-05
193	0x394b8326	0.00019408445
194	0xb9194384	-0.00014616369
195	0xb8810e9b	-6.15392e-05
196	0x39001acc	0.00012217014
197	0x385730ee	5.1305564e-05
198	0x3941a5b9	0.00018467651
199	0x37fee930	3.0387746e-05
200	0x3c19d3e9	0.009388902
201	0xbaf7fda5	-0.0018920196
202	0xb91b2adf	-0.00014797923
203	0x3c0a8bee	0.008456213
204	0x3ac17667	0.0014760018
205	0x3adbb7f3	0.0016763195
206	0xbc0aaefa	-0.008464569
207	0xbaa427d6	-0.0012524079
208	0xbc1dc9fe	-0.009630678
209	0xbbbbc871	-0.0057306816
210	0x3e5db298	0.2165016
211	0xbd21f263	-0.0395378
212	0x3c6b8628	0.014375247
213	0xbdf34cff	-0.1187992
214	0xbc9e237a	-0.019304026
215	0xbc51f2b2	-0.012814211
216	0xbf51383b	-0.81726426
217	0xbf011213	-0.50418204
218	0xbf03de98	-0.51511526
219	0xbdae2db7	-0.08504813
220	0xbb9b76fb	-0.004744408
221	0x3c264639	0.010148578
222	0xbb9daefc	-0.0048121195
223	0xbb55179b	-0.003251529
224	0x3ba59b5a	0.0050539197
225	0x3b526228	0.0032101963
226	0xba8b09af	-0.0010607744
227	0xbba8111e	-0.0051289937
228	0x3b9e7ccb	0.004836654
229	0x3c995b60	0.018720329
230	0xbf7e5d0f	-0.99360746
231	0xbcf68eb8	-0.03009735
232	0x3c86debc	0.01646363
233	0xbf5b1223	-0.8557455
234	0xbbf5928c	-0.0074942764
235	0xbb2584f1	-0.0025256241
236	0x3e7a80a9	0.24463142
237	0x3c14e6a3	0.009088191
238	0xbf355b6c	-0.70842624
239	0xbd3c9c30	-0.04604739
240	0xbc140980	-0.009035468
241	0x3ac6b7ea	0.0015161012
242	0xbaaf9eef	-0.0013398806
243	0xbb67a1fc	-0.0035344353
244	0x3af1342e	0.0018402392
245	0x3a8a940f	0.0010572689
246	0x3c2ce896	0.0105535
247	0x3ba6ab12	0.005086311
248	0x3b7c987f	0.0038543043
249	0x3bb6242a	0.0055585103
250	0xbf3ec437	-0.7451815
251	0x3b4e2c33	0.003145945
252	0xbbbe87f3	-0.0058145463
253	0xbf24a521	-0.64314467
254	0x3b9504c8	0.004547689
255	0x3b37629a	0.0027982355

lstm.weight_hh_l0 f4 [40, 10]
0	0x38339543	4.2815936e-05
1	0x3b8d0a95	0.00430424
2	0xb7ccefcb	-2.4430357e-05
3	0xbaf7967b	-0.0018889451
4	0xb7d1c214	-2.5005116e-05
5	0xba76e55b	-0.0009418332
6	0x37d438be	2.5298792e-05
7	0x378fbd14	1.7134975e-05
8	0x36de26be	6.6206258e-06
9	0x38179882	3.614324e-05
10	0x3bbc4ebd	0.005746691
11	0xbafc30f4	-0.0019240663
12	0x3acaadc1	0.001546316
13	0x3e4da844	0.2008372
14	0xbbce2b50	-0.0062917843
15	0x3dc0c3c0	0.09412336
16	0xbabdf50d	-0.0014492586
17	0xbb6cb766	-0.0036120056
18	0x3a3840d0	0.0007028701
19	0x3c142b1c	0.009043481
20	0x3740e50a	1.1497419e-05
21	0x3abcf557	0.0014416379
22	0x37a51983	1.9681413e-05
23	0xbab294d1	-0.0013624673
24	0xb717ee7f	-9.055831e-06
25	0xba222fd7	-0.0006186938
26	0xb7a5711a	-1.97222e-05
27	0xb64b7cd5	-3.032202e-06
28	0xb7794252	-1.4856998e-05
29	0x3729799f	1.0101502e-05
30	0xbb00b251	-0.0019637535
31	0xba2e0121	-0.00066377415
32	0x3a848a5f	0.0010112039
33	0x3e2f122e	0.17096779
34	0x3a53cfdc	0.00080799847
35	0x3dbd8efc	0.09255788
36	0xba8bb87e	-0.0010659841
37	0xbb8d9edf	-0.0043219174
38	0x3a6ea142	0.0009103009
39	0xb9ad912f	-0.00033105302
40	0x370674df	8.014234e-06
41	0xba3b6829	-0.0007149005
42	0x3794cef2	1.7739341e-05
43	0xb9ac13b7	-0.00032821085
44	0x36c947b9	5.9986164e-06
45	0xb9695e89	-0.00022255829
46	0xb7999cd8	-1.8312057e-05
47	0xb7ac0205	-2.0504938e-05
48	0x3587c5b4	1.0115823e-06
49	0x36c7dfa2	5.9566964e-06
50	0xbb8d4a3e	-0.004311829
51	0xbb12593d	-0.0022331022
52	0x3b58607f	0.00330165
53	0x3e0277eb	0.12741058
54	0xba840824	-0.0010073227
55	0x3d961674	0.07328501
56	0xbb5ba30c	-0.0033513932
57	0xbbaf23bc	-0.005344836
58	0xbab649cc	-0.0013907491
59	0x3b06014b	0.0020447548
60	0x372f6e17	1.0456445e-05
61	0x3abd6adc	0.0014451402
62	0x37ae2abb	2.0762314e-05
63	0xbaaf6bf7	-0.0013383616
64	0xb70291c2	-7.782541e-06
65	0xba1c3805	-0.00059592753
66	0xb7ac4be8	-2.0539344e-05
67	0xb66ee982	-3.5600683e-06
68	0xb77b9cea	-1.49973e-05
69	0x3772a322	1.4462306e-05
70	0x36860c6a	3.9949564e-06
71	0x3b061fff	0.0020465849
72	0x3764941d	1.3624344e-05
73	0xbb08cfa3	-0.0020875714
74	0xb7871749	-1.6104097e-05
75	0xba888dd1	-0.0010418241
76	0xb75fbb56	-1.3335453e-05
77	0xb838111d	-4.3884957e-05
78	0xb73155e1	-1.0570017e-05
79	0x37afe4c8	2.096816e-05
80	0xb6f18085	-7.1973213e-06
81	0x3815381a	3.5576617e-05
82	0x37226abf	9.680806e-06
83	0xb9a1517a	-0.00030769018
84	0xb71a88e9	-9.210992e-06
85	0x3828322d	4.010105e-05
86	0xb73df60e	-1.1322567e-05
87	0xb806c804	-3.213437e-05
88	0xb6bff955	-5.7212696e-06
89	0xb5a24a5b	-1.2091581e-06
90	0x365ada7d	3.2611708e-06
91	0xbaa05df2	-0.0012235029
92	0x36da8f5f	6.513597e-06
93	0xba1a946f	-0.0005896752
94	0xb727c25e	-9.99923e-06
95	0xb9b59044	-0.00034630497
96	0xb716d7fa	-8.990983e-06
97	0xb86a4391	-5.5852874e-05
98	0x36284ae8	2.5077552e-06
99	0x37f793f8	2.9513598e-05
100	0x376a8af2	1.3979838e-05
101	0x3b69984b	0.0035643752
102	0xb72957bb	-1.0093611e-05
103	0xbb041c6b	-0.002015854
104	0xb755bc5b	-1.2739644e-05
105	0xba3b9e26	-0.000715705
106	0x371b3aa1	9.252371e-06
107	0x374e5454	1.2298191e-05
108	0x37d4f882	2.538809e-05
109	0x37fd6ea8	3.0211479e-05
110	0x3baa1fe3	0.0051917895
111	0x3dacfb78	0.08446401
112	0xbb43debb	-0.0029887396
113	0x3e8d2469	0.2756684
114	0xbb474004	-0.0030403147
115	0x3e37ce18	0.17949712
116	0x3b44d811	0.0030036012
117	0x3afefd4d	0.0019454152
118	0x3b1102c2	0.0022126888
119	0x3ba49e20	0.005023733
120	0x37827e29	1.5555956e-05
121	0x3aae2a46	0.0013287745
122	0x37b27c91	2.127726e-05
123	0xbab3b145	-0.0013709447
124	0xb7a84638	-2.0059859e-05
125	0xba08887b	-0.00052083255
126	0xb7b2b996	-2.1305674e-05
127	0xb7162df6	-8.951398e-06
128	0xb75ba9db	-1.3092965e-05
129	0x370f8149	8.553566e-06
130	0xbc2014f1	-0.009770618
131	0x3ea8c80d	0.32965127
132	0xbb30096b	-0.0026861082
133	0x3eaadb4c	0.33370435
134	0x3c146305	0.009056811
135	0x3e845f63	0.25854024
136	0x3b266521	0.0025389867
137	0xbb52ccaa	-0.0032165446
138	0x39ad2142	0.0003302191
139	0xbc201345	-0.009770219
140	0x36b84f1e	5.4928378e-06
141	0xb9d0002e	-0.00039672985
142	0x378f2c1c	1.7067468e-05
143	0xba0c5ec1	-0.00053546956
144	0x3622579d	2.4190879e-06
145	0xb9d4213a	-0.00040460547
146	0xb7536ee0	-1.2602395e-05
147	0xb7fbacf1	-3.0002064e-05
148	0x36d9f9b6	6.496174e-06
149	0x3713b9ed	8.805172e-06
150	0xbbee57a4	-0.007273631
151	0x3e51ad61	0.20476295
152	0x38a2d65e	7.764691e-05
153	0x3e751568	0.23933947
154	0x3b6480f3	0.0034866899
155	0x3e2f8a86	0.17142686
156	0xb8e822b4	-0.00011069086
157	0xbc1cd8aa	-0.009573141
158	0x38ae50e7	8.312036e-05
159	0xbb5d56ce	-0.0033773663
160	0x37875320	1.6131962e-05
161	0x3aacca7f	0.0013182907
162	0x37b78ac9	2.1879927e-05
163	0xbab05b67	-0.0013454974
164	0xb7a42c08	-1.9570827e-05
165	0xba035660	-0.00050101243
166	0xb7b764f5	-2.1862312e-05
167	0xb71cf801	-9.3560675e-06
168	0xb7533831	-1.2589663e-05
169	0x37634148	1.3545454e-05
170	0xb731a5c9	-1.0588622e-05
171	0x3af9acbe	0.0019048674
172	0x37bf804f	2.2828723e-05
173	0xbb048e51	-0.0020226429
174	0xb738d991	-1.1017911e-05
175	0xba8c08be	-0.0010683758
176	0xb7be284c	-2.266853e-05
177	0xb86e782d	-5.6855544e-05
178	0xb7481654	-1.1926128e-05
179	0x37c980b7	2.4021005e-05
180	0xb76b167d	-1.40123275e-05
181	0x378dc4d4	1.6900165e-05
182	0x374274b2	1.1590471e-05
183	0xb987b3f9	-0.00025883297
184	0xb679a75f	-3.7201314e-06
185	0x385b632b	5.2306026e-05
186	0xb755b48f	-1.2737829e-05
187	0xb7e9a764	-2.7853712e-05
188	0xb6cdfbf2	-6.1388064e-06
189	0xb6c68c9a	-5.917228e-06
190	0x37fa04d8	2.9804578e-05
191	0xba41074c	-0.0007363453
192	0xb6807c79	-3.829188e-06
193	0xba79df8a	-0.0009531906
194	0xb79187e3	-1.7348624e-05
195	0xba2d0912	-0.0006600778
196	0x35eb2998	1.752097e-06
197	0xb8138d41	-3.5179084e-05
198	0x36a32c18	4.8629117e-06
199	0x380954c0	3.2742275e-05
200	0xbc547d44	-0.012969319
201	0xbcd9d011	-0.026588472
202	0x3c3200b8	0.010864429
203	0x389286c3	6.986924e-05
204	0x3a888f2a	0.0010418643
205	0x3c054d49	0.008136102
206	0xbc325c86	-0.010886317
207	0xbbe89e67	-0.007098961
208	0xbbffc8a9	-0.007805903
209	0xbaf38b36	-0.0018580917
210	0xba9cf517	-0.0011974898
211	0x3f3ae295	0.73001987
212	0x3b244b3a	0.0025069253
213	0xbecaed52	-0.39634186
214	0xbb94ebdd	-0.0045447187
215	0xbea27b27	-0.31734583
216	0xbb217487	-0.0024636106
217	0xbb469c1d	-0.0030305453
218	0xbac29fe7	-0.001484868
219	0x3bd5b2ed	0.0065215738
220	0x3c380dd6	0.0112337675
221	0x3c3b68d3	0.011438566
222	0xbc300b07	-0.010744817
223	0xbaa0573e	-0.0012233031
224	0xb8f8dd4d	-0.00011866782
225	0xbbe07c74	-0.0068507735
226	0x3c2f915a	0.010715807
227	0x3b8e5b1b	0.0043443567
228	0x3bff80a9	0.00779732
229	0x3a258369	0.0006313832
230	0x3c1ae9ee	0.009455187
231	0x3ec42f6f	0.3831744
232	0xbb205c91	-0.0024469236
233	0x3efa31a4	0.48865998
234	0xba4afec1	-0.000774365
235	0x3e9e4c02	0.30917364
236	0x3b2965a4	0.0025847936
237	0x3c856181	0.016281845
238	0x3a717b85	0.0009211826
239	0xba05ebc6	-0.00051086803
240	0x3ab0e970	0.0013497304
241	0x3bd441d8	0.0064775757
242	0x3a343aec	0.0006875235
243	0xbab560a2	-0.0013838003
244	0xbb1da027	-0.0024051757
245	0xbb7b06a7	-0.0038303526
246	0xba3b0ba8	-0.0007135221
247	0xb9ab3904	-0.00032658142
248	0xb7cc5357	-2.4357503e-05
249	0x3b5a5501	0.0033314826
250	0xb9a7a5be	-0.0003197621
251	0x3eac7888	0.33685708
252	0xb9924aea	-0.00027903105
253	0x3ee15737	0.44011852
254	0x3be48101	0.0069733863
255	0x3e85717f	0.26063153

lstm.bias_ih_l0 f4 [40]
0	0xbc57fb34	-0.01318245
1	0x3e959b7f	0.29220197
2	0xbc3c1fe3	-0.011482212
3	0x3f25dc68	0.6478944
4	0xbb290bfa	-0.0025794492
5	0x3eca7f51	0.3955026
6	0xbc3a6f87	-0.011379129
7	0xbc41b738	-0.011823468
8	0xbbcbab0f	-0.00621546
9	0xbba7dce8	-0.0051227696
10	0xbc54abc4	-0.012980405
11	0x3efd2919	0.49445418
12	0xbc316853	-0.0108280955
13	0x3eae9340	0.34096718
14	0xbb20b1cc	-0.0024520038
15	0x3e21c23e	0.15796754
16	0xbc2fd246	-0.010731285
17	0xbc1c85ce	-0.009553386
18	0xbbbe5afe	-0.005809187
19	0xbba08b0c	-0.004899388
20	0x395f57f4	0.00021299702
21	0x3e203c86	0.15648088
22	0x3a90becb	0.0011043189
23	0x3cf930d1	0.030418785
24	0xbb170c3b	-0.0023048061
25	0xbcfdfe21	-0.031004967
26	0xba8e6b11	-0.0010865649
27	0x3bd5cbbd	0.0065245316
28	0xba4ef626	-0.00078949553
29	0x3b4f62c3	0.003164456
30	0xbc58498f	-0.0132011315
31	0x3ea68d24	0.32529557
32	0xbc3c5270	-0.011494264
33	0x3f1c44f7	0.6104273
34	0xbb28cb94	-0.0025756108
35	0x3eb64b9a	0.35604554
36	0xbc3aa1d7	-0.011391125
37	0xbc4220bb	-0.011848624
38	0xbbcbd949	-0.006220971
39	0xbba7b5d5	-0.0051181116

lstm.bias_hh_l0 f4 [40]
0	0xbc57fb34	-0.01318245
1	0x3e9702fe	0.2949447
2	0xbc3c1fe3	-0.011482212
3	0x3f25efbf	0.6481895
4	0xbb290bfa	-0.0025794492
5	0x3eca8362	0.39553362
6	0xbc3a6f87	-0.011379129
7	0xbc41b738	-0.011823468
8	0xbbcbab0f	-0.00621546
9	0xbba7dce8	-0.0051227696
10	0xbc54abc4	-0.012980405
11	0x3f034c95	0.5128873
12	0xbc316853	-0.0108280955
13	0x3eaf1cdf	0.34201714
14	0xbb20b1cc	-0.0024520038
15	0x3e2197ba	0.15780535
16	0xbc2fd246	-0.010731285
17	0xbc1c85ce	-0.009553386
18	0xbbbe5afe	-0.005809187
19	0xbba08b0c	-0.004899388
20	0x394328ea	0.00018611891
21	0xbd5b44e0	-0.05353248
22	0x3a90bedb	0.0011043207
23	0xbbac2136	-0.0052529825
24	0xbb170c3b	-0.0023048061
25	0x3d53d98c	0.05172114
26	0xba8e642d	-0.0010863595
27	0x3bd5cbbd	0.0065245316
28	0xba4ef666	-0.00078949926
29	0x3b4f68f5	0.0031648253
30	0xbc58498f	-0.0132011315
31	0x3ea3463d	0.31889525
32	0xbc3c5270	-0.011494264
33	0x3f1d1ddb	0.6137368
34	0xbb28cb94	-0.0025756108
35	0x3eb665cb	0.35624537
36	0xbc3aa1d7	-0.011391125
37	0xbc4220bb	-0.011848624
38	0xbbcbd949	-0.006220971
39	0xbba7b5d5	-0.0051181116

hidden1.weight f4 [5, 20]
0	0x3c19d44a	0.009388993
1	0xbe3fe877	-0.18741022
2	0xbb2f4795	-0.0026745547
3	0xbf3646af	-0.71201605
4	0xbb9b637b	-0.0047420836
5	0xbef50191	-0.47852758
6	0x3b363377	0.0027801672
7	0x3c37a9a1	0.011209876
8	0xbb2d7ee5	-0.002647334
9	0x3bb0a7df	0.0053911055
10	0x3b3e9908	0.0029082913
11	0x3e658de7	0.22417413
12	0x3a2823ab	0.00064140063
13	0xbeca00f1	-0.39453843
14	0xbb682104	-0.003542007
15	0xbe87770f	-0.26458022
16	0xba1f2a59	-0.0006071679
17	0x39d22241	0.00040079842
18	0x3a7dcd9d	0.0009681823
19	0x3b9dfa42	0.004821093
20	0xbd05cc7a	-0.032665707
21	0x3da3881b	0.079849444
22	0x3b4cbc35	0.003124011
23	0x3f212954	0.62953687
24	0x3be7b082	0.007070602
25	0x3ee0c706	0.43901843
26	0xbb5a7421	-0.0033333378
27	0xbd551673	-0.052023362
28	0xbb19c9f2	-0.0023466316
29	0xbbe0b88e	-0.006857938
30	0xbc386fba	-0.011257106
31	0xbebb9945	-0.36640373
32	0x3cadd76b	0.021220883
33	0x3ef4b13e	0.47791475
34	0x3accf01f	0.0015635527
35	0x3ec03a8b	0.37544665
36	0xbcabc0e8	-0.020966008
37	0xbcc35196	-0.023842614
38	0xbc4a756d	-0.012357098
39	0xbae7fb63	-0.001769882
40	0x3c051074	0.0081215985
41	0xbe656255	-0.22400792
42	0xbb352ea9	-0.002764622
43	0xbf52f0c8	-0.82398653
44	0xbb56f9f1	-0.0032802785
45	0xbf111f78	-0.5668864
46	0x3b37e747	0.0028061436
47	0x3c0bdb05	0.008536105
48	0xbb2b6ae4	-0.002615624
49	0x3b839461	0.004015491
50	0x3aee7f29	0.0018195856
51	0x3e8fd5d6	0.2809283
52	0x3ad9acd8	0.0016607298
53	0xbee615ad	-0.44938412
54	0xbb993aec	-0.0046762135
55	0xbe9cd99d	-0.30634776
56	0xbadc2c5a	-0.0016797886
57	0xbb05a828	-0.0020394418
58	0x39f335fe	0.000463888
59	0x3bbaaf23	0.0056971475
60	0xbbe49928	-0.0069762655
61	0xbe769e0c	-0.24083728
62	0x3b7ba61e	0.0038398574
63	0xbecbfaa8	-0.39839673
64	0x3b73bea2	0.0037192483
65	0xbe859083	-0.26086816
66	0xbb7b0adb	-0.003830603
67	0xbc7b7365	-0.015347336
68	0xbb5195ef	-0.0031980237
69	0xbbc29eba	-0.005939332
70	0x39bc340b	0.0003589693
71	0xbdffd431	-0.12491644
72	0xbc001ff5	-0.007820119
73	0x3e673975	0.22580512
74	0x3b6a6a99	0.0035769104
75	0x3e1c08f0	0.15237784
76	0x3bf6a9a7	0.0075275484
77	0xbb466842	-0.0030274545
78	0xba5c5670	-0.0008405214
79	0xbb8ddf45	-0.0043295943
80	0xbb652d88	-0.0034969766
81	0xbe931833	-0.287294
82	0xb8ddba11	-0.00010572759
83	0xbef52908	-0.47882867
84	0x3ac1fe69	0.0014800552
85	0xbeaa0705	-0.3320848
86	0x390e4704	0.0001356863
87	0xbc88ab72	-0.016683314
88	0x38c1b0f0	9.235914e-05
89	0xbb222380	-0.0024740398
90	0xb9c54583	-0.00037626558
91	0xbe0f2ddc	-0.13982338
92	0xbc1e9d24	-0.00968102
93	0x3e8d59bb	0.2760752
94	0x3ba97086	0.0051708845
95	0x3e3d3e84	0.18480879
96	0x3c17fb5f	0.00927624
97	0xbbcb009a	-0.00619514
98	0xba093b53	-0.0005234975
99	0xbbbbf7e4	-0.005736338

hidden1.bias f4 [5]
0	0xbe307404	-0.17231756
1	0x3dbb0a90	0.09132874
2	0xbe508743	-0.20364098
3	0xbde64620	-0.11243844
4	0xbe0db573	-0.13838749

hidden2tag.weight f4 [1, 5]
0	0x3f6d14f1	0.9261008
1	0x3f655d7d	0.89595777
2	0x3f8ab1ff	1.083557
3	0xbf0adc50	-0.5424242
4	0xbf2e0300	-0.6797333
