my_model2.json_param.pt (torch_old, 34192 bytes, 9 tensors)

word_embeddings.weight f4 [21, 10]
0.0 0.0 0.0 0.0 0.0 0.0 0.0 0.0
0.0 0.0 0.047807526 -0.2945785 0.033309035 0.40036738 -0.26925227 0.22903073
0.042553443 -0.051395655 -0.054254882 -0.059054703 0.16253112 -0.16342463 0.36714888 0.24287847
-0.15915494 0.15582493 0.04958928 0.13943365 -0.01590856 -0.23204593 0.3321215 0.20940852
0.029920112 -0.32973823 -0.18114196 0.2433269 0.54335845 -0.078660466 0.41544294 0.31427467
-0.11062356 0.07959928 -0.62135047 -0.119700976 -0.09826884 0.109623484 0.23702362 -0.3646758
0.21862747 0.49713174 0.0039151874 0.034254346 0.23904343 -0.056019966 0.17421798 -0.16139865
-0.13351928 0.17869185 -0.089669764 -0.18852413 -0.09723926 0.013708043 -0.2793481 -0.017295301
0.029355716 -0.06520783 -0.06073683 -0.06864939 -0.044983555 0.019405307 0.29108903 0.22215585
0.4007876 -0.3314431 0.024499604 -0.0038788891 0.2613655 0.18192866 0.19745925 -0.037402436
0.21145739 0.07696124 0.56369436 -0.12828158 0.17126054 -0.1373925 -0.06654516 0.412421
-0.04900517 -0.3724347 -0.088804334 -0.36219296 -0.33710673 0.53309685 -0.5038424 0.41697744
0.06873298 -0.35924703 -0.021942107 0.22796506 0.26081806 0.10945281 0.20770313 -0.15598425
-0.13907634 0.16950041 0.31593332 0.040923547 0.2354331 0.070240766 0.102018125 -0.101782516
0.12640812 0.18761183 -0.16102247 0.14982316 0.04033496 0.007964552 0.00958072 -0.08998846
0.32769516 0.15720798 0.31809652 -0.23990072 -0.13880599 0.1758767 0.29214635 0.055644583
0.22126971 0.015580607 0.045061853 0.08438149 -0.06402331 -0.13253132 0.042146657 0.023506623
0.12727486 0.013587839 0.10961665 0.086183324 -0.14786148 0.27850863 0.1495626 -0.4576422
0.65648997 -0.5751089 -0.30274457 0.26149344 -0.12747921 -0.12203725 -0.10708091 0.02754605
0.034287278 -0.018363776 0.17826748 -0.18523024 -0.2203682 0.11434838 -0.15896031 -0.1612531
-0.17210308 -0.086013325 0.017716767 0.12615873 0.14514749 -0.14224051 -0.24315004 0.11301742
-0.20336781 -0.2011952 0.097017646 0.030039845 0.06371608 -0.06691518 -0.06428736 0.09026972
0.11563801 0.045083486 0.061332993 -0.015764548 -0.328657 0.062225588 -0.29675588 -0.06903695
0.29191446 -0.30248788 -0.30520773 -0.024791505 -0.16294207 0.0090462975 0.20871083 -0.19032682
0.14092322 0.2639834 -0.4339712 0.40445185 0.26876444 -0.084558524 0.1189811 0.0229607
0.25087792 -0.23933573 0.30724093 0.36240143 -0.36223316 0.3296923 0.17321053 0.042504985
0.04375289 -0.15265426
00000000: 0000 0000 0000 0000 0000 0000 0000 0000
00000010: 0000 0000 0000 0000 0000 0000 0000 0000
00000020: 0000 0000 0000 0000 d3d1 433d fed2 96be
00000030: 0e6f 083d f4fc cc3e 6fdb 89be 0887 6a3e
00000040: 854c 2e3d 4084 52bd 5e3a 5ebd 58e3 71bd
00000050: 8f6e 263e c958 27be f0fa bb3e 22b5 783e
00000060: 83f9 22be 9290 1f3e 211e 4b3d b2c7 0e3e
00000070: ab52 82bc 739d 6dbe d40b aa3e 306f 563e
00000080: 061b f53c 73d3 a8be 477d 39be b02a 793e
00000090: 8a19 0b3f bd18 a1bd f0b4 d43e 9ce8 a03e
000000a0: 9b8e e2bd f304 a33d d310 1fbf c925 f5bd
000000b0: 2c41 c9bd 4782 e03d 52b6 723e c9b6 babe
000000c0: e1df 5f3e 0d88 fe3e f94a 803b 494e 0c3d
000000d0: cdc7 743e 3175 65bd 3366 323e b045 25be
000000e0: 47b9 08be fffa 363e c8a4 b7bd 780c 41be
000000f0: 6125 c7bd b397 603c b706 8fbe e0ae 8dbc
00000100: 667b f03c af8b 85bd 2fc7 78bd 0d98 8cbd
00000110: ad40 38bd e1f7 9e3c 9f09 953e d37c 633e
00000120: 0834 cd3e e9b2 a9be 65b3 c83c f634 7ebb
00000130: b3d1 853e 824b 3a3e c232 4a3e 4c33 19bd
00000140: 4988 583e db9d 9d3d 464e 103f 3f5c 03be
00000150: ec5e 2f3e 9fb0 0cbe d448 88bd d828 d33e
00000160: a5b9 48bd c3af bebe 0cdf b5bd 5b71 b9be
00000170: 4199 acbe 0979 083f d1fb 00bf 117e d53e
00000180: e0c3 8c3d 3aef b7be efbf b3bc ac6f 693e
00000190: f289 853e cb28 e03d 21b0 543e 56ba 1fbe
000001a0: 076a 0ebe 8491 2d3e 03c2 a13e 739f 273d
000001b0: 6015 713e 64da 8f3d e1ee d03d 5a73 d0bd
000001c0: 2171 013e 511d 403e 13e3 24be 3e6b 193e
000001d0: 4536 253d c17d 023c 74f8 1c3c df4b b8bd
000001e0: a9c7 a73e 21fb 203e 8cdd a23e 89a8 75be
000001f0: 2823 0ebe 0619 343e 3594 953e 93eb 633d
00000200: 8794 623e cd45 7f3c c792 383d 34d0 ac3d
00000210: a71e 83bd 4ab6 07be f9a1 2c3d f690 c03c
00000220: 5754 023e 879f 5e3c b27e e03d e280 b03d
00000230: 0069 17be af98 8e3e f026 193e 1450 eabe
00000240: ba0f 283f 563a 13bf 5601 9bbe 78e2 853e
00000250: e989 02be aaee f9bd 3c4d dbbd 41a8 e13c
00000260: d170 0c3d a16f 96bc c08b 363e ffac 3dbe
00000270: 34a8 61be 7c2f ea3d 7ec6 22be 881f 25be
00000280: ca3b 30be c127 b0bd c122 913c c12f 013e
00000290: 8ba1 143e 7fa7 11be 53fc 78be ad75 e73d
000002a0: a73f 50be 1d06 4ebe 30b1 c63d 1f16 f63c
000002b0: 937d 823d d30a 89bd 17a9 83bd 55df b83d
000002c0: 9fd3 ec3d 76a9 383d 4e38 7b3d a724 81bc
000002d0: bb45 a8be 42e0 7e3d 63f0 97be 3f63 8dbd
000002e0: d075 953e b1df 9abe 3044 9cbe 8e17 cbbc
000002f0: 49da 26be ec36 143c 4bb8 553e 09e5 42be
00000300: 2d4e 103e d528 873e 7931 debe 5014 cf3e
00000310: 7e9b 893e 052d adbd 5dac f33d 1418 bc3c
00000320: 1273 803e 6d14 75be af4e 9d3e ae8c b93e
00000330: a076 b9be 6ecd a83e 1a5e 313e b519 2e3d
00000340: 3b36 333d 6651 1cbe

word_embeddings_2.weight f4 [13, 10]
0.0 0.0 0.0 0.0 0.0 0.0 0.0 0.0
0.0 0.0 0.016855976 -0.0065659313 0.14700793 0.002192126 0.030879034 -0.020131422
0.01159839 0.078066036 0.0111176865 -0.08174652 -0.040412594 -0.00051585026 -0.119361274 0.00090746133
0.0024302092 -0.007028145 -0.0051991795 -0.064438544 0.008577178 0.07504453 -0.03857342 0.029771587
0.11957853 -0.071527876 0.23255493 -0.21535991 -0.13570377 0.10828315 -0.08636095 -0.0916544
0.034845263 0.00019229321 0.075306185 -0.00059321336 0.0036757614 0.0016713244 0.009078126 0.042035274
0.0005377017 -0.045940246 -0.09209691 -0.017947357 -0.28597084 0.025115628 -0.00803925 -0.0036118566
-0.011860923 -0.15348122 0.0023728586 0.16846609 -0.082269624 -0.020254802 -0.21835463 0.02845876
-0.009510986 -0.006431736 -0.021279104 -0.115327045 -0.007989374 0.12132133 0.03587869 -0.08425018
0.07082731 0.09055481 -0.047525097 0.051661983 0.04940597 0.0041947323 0.040425632 -0.01160002
0.0706685 -0.03308745 0.1132869 0.01650244 -0.016866192 0.017240943 0.02119933 0.040695745
0.016212476 -0.036464956 -0.020806083 0.059258338 -0.1044957 -0.08967868 0.02884218 -0.018730197
0.024779435 -0.050672036 0.0532625 0.08740996 0.014260002 -0.015146487 0.032514207 0.030449903
-0.07598054 0.076490484 0.05984658 -0.017050078 0.036620263 0.01428952 0.015326156 -0.0562123
0.14519991 0.06274266 -0.009024389 0.017713362 0.025107218 0.071688145 0.017044635 -0.08791814
0.012125722 0.02094299 0.07426922 -0.03530171 0.050745793 -0.041891534 -0.014033807 0.055221677
-0.0019090257 -0.053340513
00000000: 0000 0000 0000 0000 0000 0000 0000 0000
00000010: 0000 0000 0000 0000 0000 0000 0000 0000
00000020: 0000 0000 0000 0000 8b15 8a3c 0627 d7bb
00000030: 3f89 163e c5a9 0f3b 07f6 fc3c a7ea a4bc
00000040: 2c07 3e3c 16e1 9f3d f526 363c b86a a7bd
00000050: ad87 25bd 203a 07ba af73 f4bd b3e2 6d3a
00000060: 2544 1f3b 5a4c e6bb e15d aabb 5bf8 83bd
00000070: 4b87 0c3c f2b0 993d 2aff 1dbd 8be3 f33c
00000080: 97e5 f43d 357d 92bd e122 6e3e 4f87 5cbe
00000090: eef5 0abe 8ec3 dd3d 02de b0bd 4db5 bbbd
000000a0: e8b9 0e3d 51a2 4939 213a 9a3d e081 1bba
000000b0: 0be5 703b 5710 db3a 6cbc 143c 2e2d 2c3d
000000c0: 8df4 0c3a d72b 3cbd 4e9d bcbd 5606 93bc
000000d0: c56a 92be 4abf cd3c 0fb7 03bc e6b4 6cbb
000000e0: 5154 42bc 2e2a 1dbe f681 1b3b 6082 2c3e
000000f0: fa7c a8bd 66ed a5bc 5b98 5fbe 5822 e93c
00000100: f7d3 1bbc 50c1 d2bb 8451 aebc 9630 ecbd
00000110: dde5 02bc 5177 f83d 89f5 123d 5c8b acbd
00000120: e90d 913d cd74 b93d ada9 42bd 849b 533d
00000130: ea5d 4a3d f773 893b 5995 253d 030e 3ebc
00000140: a6ba 903d b586 07bd f602 e83d 2030 873c
00000150: f82a 8abc e13c 8d3c 38aa ad3c 95b0 263d
00000160: 07d0 843c 475c 15bd 8571 aabc dfb8 723d
00000170: d701 d6bd 75a9 b7bd 6f46 ec3c 1270 99bc
00000180: 3efe ca3c 7b8d 4fbd c729 5a3d fe03 b33d
00000190: c9a2 693c f928 78bc 9e2d 053d 1372 f93c
000001a0: af9b 9bbd 0ba7 9c3d b021 753d 9bac 8bbc
000001b0: 21ff 153d 971e 6a3c 8f1a 7b3c de3e 66bd
000001c0: 49af 143e 397f 803d 08db 13bc 9d1b 913c
000001d0: a7ad cd3c 3cd1 923d 31a1 8b3c 6d0e b4bd
000001e0: f7aa 463c a290 ab3c 761a 983d 8798 10bd
000001f0: d2da 4f3d 7596 2bbd 0eee 65bc 2030 623d
00000200: 4638 faba 957b 5abd

lstm.weight_ih_l0 f4 [140, 10]
-0.0003975197 -0.00033050092 -0.0003616099 0.0003490227 4.701963e-05 -0.00013868419 -0.00037436263 -0.00033310443
-0.00049906346 0.00021882533 -0.0003150418 -0.00018991863 -0.00018315538 0.00017028973 0.00015628556 -0.00022205112
-0.00035917995 -0.00014818375 -0.0004421774 8.083681e-05 -0.00037266823 -0.00021021412 -0.00039203733 0.0003122574
9.601481e-05 -0.00016210138 -0.00034969868 -0.00028676432 -0.00034928988 0.00023296781 -0.0018155421 -0.0009241946
-0.0012728707 0.00089039514 -0.00026218302 6.275601e-05 -0.0010347433 -0.0008627083 -0.0017308611 0.0005582802
-0.0012881747 -0.00048783995 -0.000789956 0.000505537 -3.6630758e-05 -0.00010593891 -0.0008707438 -0.0004978607
-0.0011966778 0.00030667326 -0.00039063793 -0.00035134918 -0.00034362017 0.00033731395 0.00013254455 -0.00021901324
-0.00038612954 -0.00036001654 -0.0004764934 0.0002579233 -0.002740738 -0.0013498728 -0.0017294562 0.0012831325
-0.0005261958 0.00024371804 -0.0014622214 -0.0011959433 -0.0025394957 0.0007301066 -0.000252512 0.0002661856
0.0013223176 -0.0006156615 0.0013360088 -0.0013129145 -0.001154097 0.0013021721 -0.0011457494 -0.0012698388
-0.00047654947 -0.00035769143 -0.00036880234 0.00032571165 0.00020633805 -0.00029626882 -0.00048641025 -0.0003242726
-0.00056023285 0.00021424671 -0.0010151122 -0.0004500974 -0.00055105146 0.00044997863 -0.00017534663 6.263961e-05
-0.00062750146 -0.00037784618 -0.001150835 0.00021747392 -0.00023094294 -0.0001858404 -0.00021839129 0.00021788482
0.000100682286 -0.00014775558 -0.00023365134 -0.00021383009 -0.00026944373 0.00016396781 -0.00069426873 -0.00038981583
-0.0004950925 0.0003362263 0.00022768468 -0.00032240592 -0.00062972755 -0.00031426977 -0.0006626259 0.00019171962
-0.0008525542 -0.00035434726 -0.0004650129 0.00035123603 -8.037909e-05 -2.3679737e-05 -0.00059876085 -0.00028626167
-0.0009789951 0.00016270015 -0.00020128487 -0.00021054453 5.501082e-05 0.0001618337 0.00026064226 -0.00028340996
-0.0003041038 -7.6142416e-05 -0.00032657877 2.387842e-05 -0.00060426525 -0.00029290697 -0.00028454536 0.0002649648
-9.7555814e-05 3.1774453e-05 -0.00037206305 -0.00023574087 -0.00074198254 0.00013774294 -0.00047854314 -0.00030290562
-0.000279725 0.0002852633 2.4373176e-06 -0.00010716757 -0.00047190793 -0.00022118016 -0.0006843338 0.00012250533
-0.020704258 0.1303718 -0.08898759 -0.20081045 0.13246474 -0.09867118 0.029327486 -0.01584729
0.07186128 0.14070255 -0.0010508058 -0.0007648715 -0.00081797293 0.0006932327 -0.0006577005 0.00051874697
-0.00020570355 -0.00063234667 -0.0010213007 0.00044471317 -0.00015741611 -0.00017135355 -8.974651e-05 0.0001553453
9.003438e-05 -0.00013253218 -0.00018408576 -0.000139779 -0.00024619093 9.2226066e-05 -0.000120397366 -0.0001245317
-1.8553832e-05 0.000120807264 9.487316e-05 -0.00011330792 -0.00014927355 -9.6163625e-05 -0.00016387369 7.329398e-05
-0.00013185994 -0.00011464737 4.6861747e-05 0.00016652884 6.425987e-05 -7.5115575e-05 -0.00018190694 -3.803375e-05
-0.00018168816 1.9347897e-05 -0.0007824708 -0.0002940553 -0.00041912435 0.00028590392 5.64645e-06 -0.00010312636
-0.00060385955 -0.00023874336 -0.0008861637 0.00013464884 -7.056833e-05 -6.305101e-05 8.196868e-05 3.8104903e-05
0.00013289154 -0.00013859205 -0.00012299811 -2.1246673e-05 -0.00013324659 2.3580293e-05 -0.00072882796 -0.00034133362
-0.00045573883 0.0003394022 7.065071e-05 -0.00017890324 -0.00061788154 -0.00031738597 -0.0007823462 0.00018953384
-0.0006757448 -0.00013171924 -0.0001901939 0.00010228844 0.00023610418 -0.00031230308 -0.0006782327 -3.3011012e-05
-0.00081139355 -2.6332285e-05 -0.0005467096 -0.00024272618 -0.0004184968 0.0002688106 6.307059e-05 -0.00015212623
00000000: 316a d0b9 1547 adb9 7696 bdb9 09fd b639
00000010: f136 4538 c16b 11b9 1a46 c4b9 85a4 aeb9
00000020: 95d3 02ba 7a74 6539 322c a5b9 e524 47b9
00000030: 660d 40b9 cd8f 3239 96e0 2339 65d6 68b9
00000040: 5150 bcb9 c661 1bb9 0cd4 e7b9 ef86 a938
00000050: af62 c3b9 ec6c 5cb9 5c8a cdb9 7bb6 a339
00000060: 8f5b c938 c2f9 29b9 c357 b7b9 db58 96b9
00000070: e520 b7b9 d248 7439 7cf7 edba a645 72ba
00000080: 74d6 a6ba 6869 693a 9c75 89b9 e09b 8338
00000090: 39a0 87ba 6027 62ba 10de e2ba 8d59 123a
000000a0: f8d7 a8ba c5c4 ffb9 0d15 4fba 0486 043a
000000b0: faa3 19b8 852b deb8 a142 64ba de82 02ba
000000c0: d8d9 9cba fdc8 a039 89ce ccb9 4a35 b8b9
000000d0: eb27 b4b9 83d9 b039 a8fb 0a39 eba6 65b9
000000e0: 6e71 cab9 9ac0 bcb9 ddd1 f9b9 e139 8739
000000f0: f49d 33bb 37ee b0ba ecae e2ba c82e a83a
00000100: 67f0 09ba 908e 7f39 02a8 bfba 33c1 9cba
00000110: ab6d 26bb a064 3f3a 9663 84b9 d48e 8b39
00000120: 9e51 ad3a 5864 21ba 041d af3a 1a16 acba
00000130: 1245 97ba a5ad aa3a f82c 96ba b870 a6ba
00000140: 63d9 f9b9 8888 bbb9 d05b c1b9 47c4 aa39
00000150: 735c 5839 8754 9bb9 e104 ffb9 2203 aab9
00000160: 97dc 12ba 6aa7 6039 830d 85ba 0dfb ebb9
00000170: 7074 10ba 1ceb eb39 41dd 37b9 625d 8338
00000180: e97e 24ba a819 c6b9 9dd7 96ba b609 6439
00000190: 4629 72b9 27de 42b9 f7ff 64b9 0378 6439
000001a0: 6425 d338 d6ee 1ab9 4e00 75b9 9437 60b9
000001b0: 2044 8db9 c6ee 2b39 96ff 35ba 3260 ccb9
000001c0: 18c9 01ba 8847 b039 a4be 6e39 9708 a9b9
000001d0: 4d14 25ba 93c4 a4b9 12b4 2dba 5808 4939
000001e0: f27d 5fba afc7 b9b9 facc f3b9 1a26 b839
000001f0: 3291 a8b8 d9a3 c6b7 29f6 1cba 6415 96b9
00000200: a051 80ba 7d9a 2a39 ff0f 53b9 9ec5 5cb9
00000210: 6bbb 6638 e7b1 2939 d0a6 8839 a496 94b9
00000220: 1f70 9fb9 a6ae 9fb8 a938 abb9 844e c837
00000230: 8e67 1eba 4f91 99b9 082f 95b9 f9ea 8a39
00000240: e196 ccb8 8f45 0538 7511 c3b9 3531 77b9
00000250: 9b81 42ba 176f 1039 f9e4 fab9 4ecf 9eb9
00000260: 0ea8 92b9 648f 9539 cc90 2336 27bf e0b8
00000270: 696a f7b9 99ec 67b9 dd64 33ba c674 0039
00000280: fa9b a9bc 2f80 053e 203f b6bd 41a1 4dbe
00000290: d6a4 073e 1e14 cabd 3240 f03c 2dd2 81bc
000002a0: 022c 933d 5414 103e 31bb 89ba a881 48ba
000002b0: 3c6d 56ba 0fba 353a 8969 2cba 85fc 073a
000002c0: 20b2 57b9 11c4 25ba 2add 85ba 6428 e939
000002d0: 1110 25b9 5ead 33b9 4a36 bcb8 30e4 2239
000002e0: d7d0 bc38 56f8 0ab9 2507 41b9 a491 12b9
000002f0: 3013 81b9 7e69 c138 d87d fcb8 b994 02b9
00000300: 0da4 9bb7 e859 fd38 a4f6 c638 ba9f edb8
00000310: 5086 1cb9 74ab c9b8 82d5 2bb9 68b5 9938
00000320: e243 0ab9 d76e f0b8 6b8d 4438 3f9e 2e39
00000330: 41c3 8638 5e87 9db8 46be 3eb9 6e86 1fb8
00000340: 8b83 3eb9 4b4d a237 ba1e 4dba 6f2b 9ab9
00000350: ebbd dbb9 60e5 9539 a376 bd36 8b45 d8b8
00000360: 544c 1eba 2f57 7ab9 704d 68ba 8630 0d39
00000370: 15fe 93b8 413a 84b8 9ae6 ab38 d4d2 1f38
00000380: cd58 0b39 0553 11b9 0ef9 00b9 e23a b2b7
00000390: 1cb8 0bb9 4bce c537 d10e 3fba 06f5 b2b9
000003a0: 3bf0 eeb9 cbf1 b139 502a 9438 f997 3bb9
000003b0: 54f9 21ba d366 a6b9 5d16 4dba 9abd 4639
000003c0: 7724 31ba 1d1e 0ab9 c96e 47b9 b083 d638
000003d0: bc92 7739 9cbc a3b9 6dcb 31ba 4e75 0ab8
000003e0: b3b3 54ba 27e4 dcb7 0f51 0fba 5084 7eb9
000003f0: b169 dbb9 26ef 8c39 c444 8438 1384 1fb9

lstm.weight_hh_l0 f4 [140, 35]
7.280437e-05 6.639767e-05 -5.3707947e-05 0.00016733288 -0.00011705786 -6.946824e-05 -0.00020804943 0.00011161405
-7.164077e-05 0.00013441997 -5.331211e-05 -6.890119e-05 0.00011189593 -5.6513516e-05 0.000112216796 -8.629183e-05
0.00076952705 0.00021555078 -5.6536603e-05 -4.6354984e-05 4.559817e-05 -9.672093e-05 -4.735161e-05 -8.685335e-05
-8.6115724e-05 7.6557175e-05 -7.082103e-05 -6.278755e-05 -0.00010596175 6.9864145e-05 5.1957937e-05 -0.00041436643
6.052103e-05 0.00017629043 -7.983665e-05 6.322878e-05 5.530166e-05 -5.036178e-05 0.00015689828 -9.942085e-05
-6.6193075e-05 -0.00019290746 0.00010812804 -6.9758185e-05 0.00011363572 -4.772403e-05 -6.779363e-05 9.16697e-05
-5.3938747e-05 9.7501106e-05 -7.149539e-05 0.0006476729 0.00023268253 -4.898432e-05 -4.191595e-05 4.188035e-05
-7.84375e-05 -4.2068692e-05 -7.2908086e-05 -6.857286e-05 6.353716e-05 -6.636083e-05 -5.2763447e-05 -8.6399916e-05
5.7728037e-05 4.7663718e-05 -0.0005516475 5.318911e-05 0.00017203386 -6.4052874e-05 4.9428516e-05 4.761306e-05
-3.2986914e-05 0.000113400434 -9.241467e-05 -4.259222e-05 -0.00014480448 7.0433714e-05 -4.391391e-05 0.000115133735
-3.375158e-05 -4.452572e-05 9.405441e-05 -3.387476e-05 9.586451e-05 -6.3292835e-05 0.0009157557 0.0001585787
-3.715879e-05 -2.8855366e-05 2.78847e-05 -7.977742e-05 -3.0148069e-05 -6.650047e-05 -7.3812356e-05 5.71281e-05
-4.4112694e-05 -4.3152228e-05 -8.555889e-05 4.950148e-05 3.1980773e-05 -0.00065994286 3.8361894e-05 0.000115674025
-6.316714e-05 0.00026266268 0.00026153238 -0.00019752485 0.00039047474 -0.00031681056 -0.00022945474 -0.0004774124
0.00030095445 -0.00022066844 0.0003479318 -0.00021918207 -0.00017270906 0.00031977287 -0.00025100514 0.00027028448
-0.0003053886 0.0015103912 0.00040407162 -0.00024783966 -0.00022950268 0.00025571592 -0.0002932426 -0.00024286406
-0.00026207528 -0.00028258917 0.00025304192 -0.00022981052 -0.00036433045 -0.00032657085 0.00039976888 0.00022121733
-0.0007408931 0.00027967198 0.0004069573 -0.00028047542 0.00013971965 0.0001268408 -0.00012128741 0.00024687743
-0.00014280283 -0.00015269477 -0.0002951616 0.00019689795 -0.00015061241 0.00017107505 -0.0001274758 -0.0001085763
0.00015525485 -0.00016736814 0.00013531622 -0.0001511 0.0009897785 0.00025784626 -0.00012986195 -0.0001334783
0.00016331827 -0.00014129243 -0.00013526018 -0.0001346006 -0.00012907134 0.00012680973 -0.00014853475 -0.00017053392
-0.00015785817 0.00017763676 0.00013279676 -0.00054382003 0.00015682304 0.0002533167 -0.00013106507 7.53126e-05
7.2844436e-05 -5.032264e-05 0.00016097244 -0.00013483371 -6.234827e-05 -0.00020667026 0.00010212448 -6.3196916e-05
0.00016965278 -5.1271185e-05 -6.369634e-05 0.0001400761 -5.164416e-05 0.00014028401 -9.6120544e-05 0.0010258518
0.00020902268 -5.7402267e-05 -4.488382e-05 4.360782e-05 -0.000119584394 -4.684074e-05 -9.9044744e-05 -0.000110990906
8.626454e-05 -6.4728396e-05 -6.704372e-05 -0.00012852738 7.66147e-05 4.9277372e-05 -0.00084759487 5.9800055e-05
0.00016624782 -9.576014e-05 0.00036758932 0.0003662844 -0.00028526605 0.0005421279 -0.00042888842 -0.00034034453
-0.0006332149 0.0004521726 -0.00032867817 0.00045632 -0.00032544477 -0.00024037439 0.0004258684 -0.00037902818
0.00035527156 -0.0004199757 0.0019765315 0.000534481 -0.00035606406 -0.0003422517 0.0003955079 -0.00039483127
-0.00036036817 -0.0003598222 -0.0003861219 0.00034895295 -0.00033941463 -0.0005511649 -0.00043870963 0.00059717504
0.00032374702 -0.0011156193 0.00041150342 0.0005446127 -0.00038441562 0.00018105892 0.00018116827 -0.000115723946
0.0002943251 -0.0002473518 -0.00014795356 -0.0003977192 0.000109301975 -0.0001354735 0.0003616199 -0.00014494256
00000000: 8cae 9838 fa3e 8b38 7844 61b8 1476 2f39
00000010: f67c f5b8 7aaf 91b8 d827 5ab9 5612 ea38
00000020: d83d 96b8 16f3 0c39 719b 5fb8 0b7f 90b8
00000030: aca9 ea38 ed08 6db8 ef55 eb38 93f7 b4b8
00000040: 16ba 493a 7905 6239 b721 6db8 496d 42b8
00000050: aa40 3f38 a7d6 cab8 679b 46b8 0a25 b6b8
00000060: 0799 b4b8 528d a038 c085 94b8 cfac 83b8
00000070: c837 deb8 0784 9238 69ed 5938 523f d9b9
00000080: f6d7 7d38 9ada 3839 fa6d a7b8 b199 8438
00000090: b5f3 6738 8d3b 53b8 1085 2439 2a80 d0b8
000000a0: 23d1 8ab8 3447 4ab9 cdc2 e238 244b 92b8
000000b0: b64f ee38 492b 48b8 6e2c 8eb8 cc3e c038
000000c0: 4a3c 62b8 8279 cc38 ccef 95b8 98c8 293a
000000d0: 3efc 7339 8374 4db8 e9ce 2fb8 afa8 2f38
000000e0: d07e a4b8 ea72 30b8 3be6 98b8 c6ce 8fb8
000000f0: 413f 8538 332b 8bb8 524e 5db8 9a31 b5b8
00000100: 0221 7238 87ea 4738 709c 10ba 5f17 5f38
00000110: fd63 3439 2054 86b8 7751 4f38 22b4 4738
00000120: 6e5b 0ab8 65d1 ed38 c0ce c1b8 0ca5 32b8
00000130: a8d6 17b9 d0b5 9338 3430 38b8 f473 f138
00000140: 7c90 0db8 21c1 3ab8 143f c538 bf14 0eb8
00000150: de0a c938 15bc 84b8 530f 703a 2548 2639
00000160: f2da 1bb8 6d0e f2b7 f0e9 e937 2d4e a7b8
00000170: 7ce6 fcb7 2b76 8bb8 b5cb 9ab8 d59c 6f38
00000180: a505 39b8 5afe 34b8 146e b3b8 cf9f 4f38
00000190: 1823 0638 0400 2dba c5e6 2038 0596 f238
000001a0: 9a78 84b8 fdb5 8939 481e 8939 ac1e 4fb9
000001b0: a2b8 cc39 9819 a6b9 ca99 70b9 354d fab9
000001c0: 6cc9 9d39 3c63 67b9 9e6a b639 3dd4 65b9
000001d0: 3c19 35b9 30a7 a739 5799 83b9 f8b4 8d39
000001e0: 901c a0b9 52f8 c53a 93d9 d339 7af0 81b9
000001f0: a8a6 70b9 9c11 8639 5bbe 99b9 53a9 7eb9
00000200: 2667 89b9 7a28 94b9 b6aa 8439 4bf9 70b9
00000210: 9b03 bfb9 9937 abb9 1298 d139 93f6 6739
00000220: 7f38 42ba f0a0 9239 e25c d539 c60c 93b9
00000230: b581 1239 9100 0539 af5b feb8 546f 8139
00000240: 58bd 15b9 b11c 20b9 ebbf 9ab9 6476 4e39
00000250: b6ed 1db9 9c62 3339 06ab 05b9 75b3 e3b8
00000260: e8cb 2239 8b7f 2fb9 ace3 0d39 9970 1eb9
00000270: 75bb 813a 8a2f 8739 8d2b 08b9 4ff6 0bb9
00000280: 6a40 2b39 e627 14b9 a1d4 0db9 9323 0db9
00000290: 5357 07b9 3af8 0439 febf 1bb9 5ad1 32b9
000002a0: bb86 25b9 0144 3a39 5c3f 0b39 258f 0eba
000002b0: dd70 2439 98cf 8439 836e 09b9 25f1 9d38
000002c0: 0fc4 9838 8611 53b8 b6ca 2839 2662 0db9
000002d0: f9c0 82b8 a0b5 58b9 aa2b d638 9688 84b8
000002e0: d2e4 3139 040c 57b8 b694 85b8 64e1 1239
000002f0: 7f9c 58b8 3419 1339 5394 c9b8 e075 863a
00000300: 192d 5b39 37c3 70b8 a241 3cb8 8ae7 3638
00000310: 62c9 fab8 dd76 44b8 3eb6 cfb8 cac3 e8b8
00000320: ece8 b438 cbbe 87b8 d399 8cb8 4ec5 06b9
00000330: 34ac a038 2daf 4e38 2131 5eba d2d1 7a38
00000340: cf52 2e39 d5d2 c8b8 01b9 c039 dc09 c039
00000350: c38f 95b9 961d 0e3a 6edc e0b9 4570 b2b9
00000360: 55fe 25ba 9411 ed39 7052 acb9 3c3e ef39
00000370: 75a0 aab9 020d 7cb9 1747 df39 4db8 c6b9
00000380: be43 ba39 2f30 dcb9 b288 013b 6a1c 0c3a
00000390: 1cae bab9 3f70 b3b9 2c5c cf39 5b01 cfb9
000003a0: ccef bcb9 85a6 bcb9 6770 cab9 acf3 b639
000003b0: 76f3 b1b9 0d7c 10ba 9c02 e6b9 bd8b 1c3a
000003c0: 97bc a939 f939 92ba 0ebf d739 57c4 0e3a
000003d0: 648b c9b9 a2da 3d39 fdf7 3d39 d2b0 f2b8
000003e0: a54f 9a39 ffae 81b9 fb23 1bb9 f884 d0b9
000003f0: 0d39 e538 e40d 0eb9 cd97 bd39 b9fb 17b9

lstm.bias_ih_l0 f4 [140]
-0.0043307594 -0.005957408 -0.0056817783 -0.0051292307 -0.0039419206 -0.0064333775 -0.0067115617 -0.017249528
-0.0077296984 -0.0036932754 -0.005386554 -0.0072668362 -0.0037409891 -0.010633642 -0.0035361974 -0.0042928294
0.7536493 -0.0064478004 -0.0056998343 -0.0074815527 -0.010344245 -0.0041340594 -0.007913877 -0.0043465486
-0.0076589803 -0.004386585 -0.0051372917 -0.013365015 -0.0038704954 -0.015545372 -0.0060422854 0.4393301
-0.003682064 -0.0055943006 -0.005356077 -0.002940677 -0.0039321585 -0.0041601886 -0.003798995 -0.0027444996
-0.0045700544 -0.0051027113 -0.013011484 -0.005425734 -0.002669552 -0.0039003934 -0.0051460215 -0.0025521591
-0.0079200305 -0.0023892256 -0.0028599265 0.45552474 -0.005051361 -0.003993904 -0.005640411 -0.0077460823
-0.0026980478 -0.0061158706 -0.0028279717 -0.004819316 -0.0028420088 -0.0036599182 -0.010875643 -0.002627867
-0.012412377 -0.0044546276 0.5628292 -0.0027554242 -0.0041945223 -0.0034286417 -0.0038290003 -0.002901899
0.0031449494 -0.0072373217 0.0049506137 0.0039514345 0.008471426 -0.0053769513 0.004051805 -0.0044411747
0.0026809818 0.0046376726 -0.00389889 0.0030086068 -0.0036369765 0.0035641994 -0.12259569 -0.008463685
0.0026087465 0.0020669773 -0.0013962466 0.0036240972 0.0018426076 0.0040388284 0.00277486 -0.0032378158
0.00394289 -0.008810265 0.0036564588 9.321774e-05 -0.002967881 -0.06951874 -0.00096501596 -0.007867259
0.0028327142 -0.0043562925 -0.006004634 -0.005733695 -0.0051402245 -0.0039533842 -0.0064813592 -0.0067293574
-0.017298512 -0.0077767833 -0.003705152 -0.0054605813 -0.007290489 -0.0037561627 -0.010762863 -0.00355386
-0.004314352 0.6159955 -0.006462542 -0.0057755806 -0.007670659 -0.010643744 -0.0041537173 -0.008119014
-0.0043625585 -0.007710016 -0.0044118157 -0.0051714205 -0.013580461 -0.0038876776 -0.01573256 -0.006141947
0.46980524 -0.0037321579 -0.00560612 -0.005392768
00000000: 0be9 8dbb 5c36 c3bb 362e babb 1b13 a8bb
00000010: 3a2b 81bb 15cf d2bb a9ec dbbb e24e 8dbc
00000020: 6949 fdbb e10a 72bb b181 b0bb a41e eebb
00000030: 622b 75bb ba38 2ebc 8cbf 67bb ddaa 8cbb
00000040: 29ef 403f 1248 d3bb adc5 babb d027 f5bb
00000050: e87a 29bc 0177 87bb 35a9 01bc 7e6d 8ebb
00000060: 2ff8 fabb 58bd 8fbb ba56 a8bb f0f8 5abc
00000070: 23a8 7dbb 04b2 7ebc 5dfe c5bb e0ef e03e
00000080: c84e 71bb 6550 b7bb 0882 afbb 60b8 40bb
00000090: 56d9 80bb 3152 88bb 8ff8 78bb 10dd 33bb
000000a0: 65c0 95bb a534 a7bb 1f2e 55bc 5bca b1bb
000000b0: a7f3 2ebb be9d 7fbb f59f a8bb 2042 27bb
000000c0: 04c3 01bc 8e94 1cbb 9b6d 3bbb 8a3a e93e
000000d0: e385 a5bb 4cdf 82bb 32d3 b8bb d9d2 fdbb
000000e0: bbd1 30bb a467 c8bb 7e55 39bb 5aeb 9dbb
000000f0: ff40 3abb 3ddb 6fbb c12f 32bc 4b38 2cbb
00000100: 485d 4bbc 20f8 91bb 9315 103f 5994 34bb
00000110: 3472 89bb 10b3 60bb f7ef 7abb c92d 3ebb
00000120: 7f1b 4e3b 0e27 edbb c238 a23b 097b 813b
00000130: bccb 0a3c 2331 b0bb 01c5 843b 4687 91bb
00000140: 69b3 2f3b 9ef7 973b 8584 7fbb 0c2c 453b
00000150: 575a 6ebb 5895 693b 7313 fbbd 45ab 0abc
00000160: 81f7 2a3b 2076 073b 4302 b7ba 4382 6d3b
00000170: a783 f13a 2658 843b 6dda 353b 8931 54bb
00000180: 5c33 813b ee58 10bc 33a1 6f3b e57d c338
00000190: c880 42bb d75f 8ebd 20f9 7cba ade5 00bc
000001a0: 0fa5 393b 3bbf 8ebb 85c2 c4bb b8e1 bbbb
000001b0: 546f a8bb 648b 81bb 9561 d4bb f181 dcbb
000001c0: 9cb5 8dbc 63d4 febb 23d2 72bb adee b2bb
000001d0: 0ee5 eebb f429 76bb b856 30bc e0e7 68bb
000001e0: 685f 8dbb e2b1 1d3f bbc3 d3bb 1541 bdbb
000001f0: 275a fbbb 1963 2ebc e81b 88bb 9d05 05bc
00000200: cbf3 8ebb 4da4 fcbb fe90 90bb 0575 a9bb
00000210: 9580 5ebc 68c8 7ebb 92e1 80bc 6342 c9bb
00000220: 508a f03e 3897 74bb 8bb3 b7bb d1b5 b0bb

lstm.bias_hh_l0 f4 [140]
-0.0043307594 -0.005957408 -0.0056817783 -0.0051292307 -0.0039419206 -0.0064333775 -0.0067115617 -0.017249528
-0.0077296984 -0.0036932754 -0.005386554 -0.0072668362 -0.0037409891 -0.010633642 -0.0035361974 -0.0042928294
0.7538142 -0.0064478004 -0.0056998343 -0.0074815527 -0.010344245 -0.0041340594 -0.007913877 -0.0043465486
-0.0076589803 -0.004386585 -0.0051372917 -0.013365015 -0.0038704954 -0.015545372 -0.0060422854 0.43832794
-0.003682064 -0.0055943006 -0.005356077 -0.002940677 -0.0039321585 -0.0041601886 -0.003798995 -0.0027444996
-0.0045700544 -0.0051027113 -0.013011484 -0.005425734 -0.002669552 -0.0039003934 -0.0051460215 -0.0025521591
-0.0079200305 -0.0023892256 -0.0028599265 0.45105565 -0.005051361 -0.003993904 -0.005640411 -0.0077460823
-0.0026980478 -0.0061158706 -0.0028279717 -0.004819316 -0.0028420088 -0.0036599182 -0.010875643 -0.002627867
-0.012412377 -0.0044546276 0.5633824 -0.0027554242 -0.0041945223 -0.0034286417 -0.003827719 -0.0029009182
0.0031446037 -0.0072365664 0.0049507893 0.0039492026 0.008470447 -0.0053781965 0.0040523824 -0.0044419975
0.002680965 0.0046371976 -0.0039183926 0.0030085957 -0.003636984 0.0035647475 -0.013958796 -0.008480094
0.0026058718 0.0020663189 -0.0013961344 0.0036223652 0.0018419629 0.004039594 0.0027743017 -0.0032382058
0.0039425255 0.008943966 0.0036568146 8.4643376e-05 -0.0029674058 0.11764473 -0.0009657302 -0.007867133
0.0028329114 -0.0043562925 -0.006004634 -0.005733695 -0.0051402245 -0.0039533842 -0.0064813592 -0.0067293574
-0.017298512 -0.0077767833 -0.003705152 -0.0054605813 -0.007290489 -0.0037561627 -0.010762863 -0.00355386
-0.004314352 0.61458695 -0.006462542 -0.0057755806 -0.007670659 -0.010643744 -0.0041537173 -0.008119014
-0.0043625585 -0.007710016 -0.0044118157 -0.0051714205 -0.013580461 -0.0038876776 -0.01573256 -0.006141947
0.4677312 -0.0037321579 -0.00560612 -0.005392768
00000000: 0be9 8dbb 5c36 c3bb 362e babb 1b13 a8bb
00000010: 3a2b 81bb 15cf d2bb a9ec dbbb e24e 8dbc
00000020: 6949 fdbb e10a 72bb b181 b0bb a41e eebb
00000030: 622b 75bb ba38 2ebc 8cbf 67bb ddaa 8cbb
00000040: f8f9 403f 1248 d3bb adc5 babb d027 f5bb
00000050: e87a 29bc 0177 87bb 35a9 01bc 7e6d 8ebb
00000060: 2ff8 fabb 58bd 8fbb ba56 a8bb f0f8 5abc
00000070: 23a8 7dbb 04b2 7ebc 5dfe c5bb 856c e03e
00000080: c84e 71bb 6550 b7bb 0882 afbb 60b8 40bb
00000090: 56d9 80bb 3152 88bb 8ff8 78bb 10dd 33bb
000000a0: 65c0 95bb a534 a7bb 1f2e 55bc 5bca b1bb
000000b0: a7f3 2ebb be9d 7fbb f59f a8bb 2042 27bb
000000c0: 04c3 01bc 8e94 1cbb 9b6d 3bbb c4f0 e63e
000000d0: e385 a5bb 4cdf 82bb 32d3 b8bb d9d2 fdbb
000000e0: bbd1 30bb a467 c8bb 7e55 39bb 5aeb 9dbb
000000f0: ff40 3abb 3ddb 6fbb c12f 32bc 4b38 2cbb
00000100: 485d 4bbc 20f8 91bb d439 103f 5994 34bb
00000110: 3472 89bb 10b3 60bb 78da 7abb 551d 3ebb
00000120: b215 4e3b b820 edbb 3b3a a23b 5068 813b
00000130: a1c7 0a3c 953b b0bb d9c9 843b 2d8e 91bb
00000140: 21b3 2f3b a2f3 973b dc65 80bb dc2b 453b
00000150: 775a 6ebb 8a9e 693b 6fb3 64bc 18f0 0abc
00000160: 46c7 2a3b 146b 073b 7ffe b6ba 3465 6d3b
00000170: 056e f13a 925e 843b 0fd1 353b 1438 54bb
00000180: 4d30 813b b689 123c 2ba7 6f3b 9182 b138
00000190: cf78 42bb b8ef f03d 0f29 7dba 26e5 00bc
000001a0: 5ea8 393b 3bbf 8ebb 85c2 c4bb b8e1 bbbb
000001b0: 546f a8bb 648b 81bb 9561 d4bb f181 dcbb
000001c0: 9cb5 8dbc 63d4 febb 23d2 72bb adee b2bb
000001d0: 0ee5 eebb f429 76bb b856 30bc e0e7 68bb
000001e0: 685f 8dbb 9255 1d3f bbc3 d3bb 1541 bdbb
000001f0: 275a fbbb 1963 2ebc e81b 88bb 9d05 05bc
00000200: cbf3 8ebb 4da4 fcbb fe90 90bb 0575 a9bb
00000210: 9580 5ebc 68c8 7ebb 92e1 80bc 6342 c9bb
00000220: 777a ef3e 3897 74bb 8bb3 b7bb d1b5 b0bb

hidden1.weight f4 [17, 70]
2.0073327e-14 -4.0606738e-16 4.5231756e-14 2.1472903e-13 -2.3526501e-14 -5.3510795e-14 8.350602e-14 2.016296e-13
-1.6875889e-13 3.6265405e-13 -7.134716e-14 4.1840134e-14 3.0520515e-14 -1.8841493e-13 2.6929786e-14 1.582863e-14
-3.3916281e-12 1.5415718e-13 -1.5961982e-14 -7.37531e-14 -6.6868426e-14 -3.1152398e-14 -1.2067792e-13 -1.1220581e-13
-7.589896e-14 1.3883718e-13 3.5318138e-15 -1.4842248e-13 -1.8826673e-13 6.768562e-14 6.193904e-14 7.335772e-12
-2.25529e-14 2.2862354e-13 -9.8818455e-14 -1.372137e-13 -1.8245506e-13 -1.3577728e-13 -1.06721035e-13 -1.3166696e-13
-1.1695668e-13 -1.924241e-13 1.6546858e-13 -9.6449175e-14 1.0496349e-13 -3.0667813e-13 1.5986932e-13 7.163805e-14
4.6062964e-13 4.1097175e-14 -1.6391799e-13 -2.3522345e-12 1.4049016e-13 1.8580259e-13 -2.3240494e-13 2.8761954e-13
-1.0859091e-13 -1.9313212e-13 -1.4716994e-13 2.7247505e-13 1.5670123e-13 -4.2437486e-15 7.4613904e-13 8.266441e-15
3.61631e-14 -1.2843627e-13 -8.587378e-12 1.9625386e-14 -9.048754e-14 -3.592825e-14 0.0042867176 0.0035286455
-0.004650682 0.0053465734 -0.004368598 -0.005157799 -0.005173988 0.017841669 -0.0059360415 0.0031232922
-0.003769018 -0.007328342 0.0035280169 -0.0037779927 0.0028412382 -0.003847184 0.37714395 0.0030695838
-0.0027849043 -0.0022973106 0.0011949965 -0.003794402 -0.0018873003 -0.0045821667 -0.0036194753 0.0039380016
-0.005138427 0.00066894304 -0.0034519425 -0.0005024227 0.0037003558 0.11759152 0.0006217274 0.00524637
-0.003400597 -0.0014931828 -0.0020928432 0.0023843946 -0.00017863249 0.0011072535 0.0009950593 -0.00040017863
0.0023015966 0.0005425654 -0.00018274321 0.0022746082 0.000546643 -0.0004726385 0.0022020629 -0.00043179793
0.0005138471 0.2081191 -0.00028102577 0.002027458 0.003050949 -0.003960164 0.00092563743 0.0030651996
0.0013209828 0.0023891772 -0.0017657077 0.0013147375 0.0073244106 0.00025097295 -0.0075568757 -0.0020352658
0.2256853 -0.0011389995 0.0001998982 0.0013505633 2.833348e-35 6.324913e-35 -8.0522723e-35 1.6402467e-34
-7.016016e-35 -2.1033349e-35 -1.5624669e-34 2.7761937e-34 -9.0348634e-35 -2.0745527e-36 -3.4458802e-35 -1.388358e-35
9.515674e-36 -1.545434e-34 2.4841823e-34 -1.11386915e-35 8.948831e-34 3.5653772e-34 -6.3346753e-35 -8.118478e-35
1.2201075e-34 -8.1937845e-35 -1.597871e-34 -1.1609872e-34 -3.4478168e-35 1.8378805e-34 -3.0077735e-35 -3.052319e-35
-1.6043968e-35 1.6489465e-34 5.857941e-35 -1.1999558e-33 1.850645e-34 3.7856297e-34 -6.8647165e-35 -5.2844813e-35
2.1977282e-36 -4.7938904e-35 5.9626917e-35 1.8843423e-35 -3.3846687e-35 -7.855962e-35 3.7790855e-35 6.234e-35
-3.2614978e-35 -2.1346e-35 -5.427298e-35 -3.7904518e-35 -4.4702882e-35 3.8629588e-35 3.199974e-35 4.5807063e-34
9.0054886e-35 -3.5924852e-35 1.10284566e-35 -8.643375e-35 -3.8823155e-36 -8.141286e-36 -1.5305498e-35 5.4721874e-35
4.875588e-35 4.902957e-35 1.4741143e-34 -1.3200786e-38 -1.1886957e-34 -4.4572602e-35 5.734005e-34 4.9531974e-35
6.469665e-35 -3.0811598e-35 -0.0009578428 -0.0015220289 0.00031979792 -0.0012349453 0.0012602991 0.0009302194
0.0017143845 -0.00091269554 0.0011568888 -0.0015574645 0.00065601175 0.00071111135 -0.0012360043 0.0029212947
-0.0016339074 0.0012308268 -0.94267094 -0.0015692962 0.0010188709 0.0014444694 -0.0022636615 0.0011628768
0.0023950257 0.0014613788 0.002121827 -0.00065497286 0.0005349466 0.0054033436 0.001265223 -0.007250481
-0.0010474354 -0.122341305 0.0013748399 -0.0011881165 0.0013314326 0.0011800602 0.0018904724 -0.002388016
0.0014122874 0.00014492955 -0.0030099314 -0.0014806633 0.012938457 -0.0035546948 -0.0015743455 -0.0025959662
00000000: f1cd b428 f814 eaa5 aab4 4b29 6ec3 712a
00000010: 6be8 d3a8 bffd 70a9 f109 bc29 c703 632a
00000020: 7001 3eaa f527 cc2a d6a8 a0a9 646e 3c29
00000030: c273 0929 e822 54aa dc8f f228 5692 8e28
00000040: 24aa 6eac c890 2d2a d3c5 8fa8 c413 a6a9
00000050: 0693 96a9 454c 0ca9 0bdf 07aa 3faa fca9
00000060: c6e8 aaa9 1851 1c2a 777e 7e27 de1b 27aa
00000070: 31f8 53aa 1a6a 9829 6d79 8b29 610d 012d
00000080: 7223 cba8 20b4 802a f684 dea9 287d 1aaa
00000090: 176d 4daa 23df 18aa 7d50 f0a9 6b3e 14aa
000000a0: 78ae 03aa 79a6 58aa 124d 3a2a 2a2f d9a9
000000b0: 555b ec29 faa4 acaa 32ff 332a 8650 a129
000000c0: dda7 012b d115 3929 258e 38aa 1786 25ac
000000d0: 882d 1e2a f331 512a 15d5 82aa 58ea a12a
000000e0: 6686 f4a9 8b72 59aa d9b2 25aa cb63 992a
000000f0: 0e6e 302a ace5 98a7 fc04 522b 3bea 1428
00000100: 37dd 2229 3c9b 10aa 1d12 17ad 0fc5 b028
00000110: 84c2 cba9 74ce 21a9 9877 8c3b d940 673b
00000120: c064 98bb 4f32 af3b 7526 8fbb c102 a9bb
00000130: 8f8a a9bb b128 923c 2083 c2bb 26b0 4c3b
00000140: a101 77bb 9722 f0bb 4d36 673b 3398 77bb
00000150: 1134 3a3b 0921 7cbb 0319 c13e 122b 493b
00000160: f182 36bb 7a8e 16bb 6ea1 9c3a 80ab 78bb
00000170: 4a5f f7ba 0026 96bb b834 6dbb 5a0a 813b
00000180: 4060 a8bb 025c 2f3a fc39 62bb 04b5 03ba
00000190: ab81 723b d3d3 f03d 6bfb 223a bee9 ab3b
000001a0: 8ddc 5ebb e7b6 c3ba 1528 09bb 8143 1c3b
000001b0: 4b4f 3bb9 4321 913a a66c 823a 11cf d1b9
000001c0: 62d6 163b f33a 0e3a c29e 3fb9 9811 153b
000001d0: 974c 0f3a 77cc f7b9 7c50 103b f062 e2b9
000001e0: b2b3 063a 2c1d 553e a456 93b9 1adf 043b
000001f0: 6ef2 473b 43c4 81bb 7aa6 723a 84e1 483b
00000200: d424 ad3a be93 1c3b 526f e7ba 4553 ac3a
00000210: 9c01 f03b 0595 8339 ab9f f7bb 1862 05bb
00000220: 0c1a 673e 7b4a 95ba c49b 5139 6205 b13a
00000230: 89a5 1606 2125 a806 ed10 d686 b406 5a07
00000240: 8884 ba86 39aa df85 feaf 4f87 7d82 b807
00000250: 1830 f086 c27b 3084 e436 3786 b3a2 9385
00000260: 4260 4a05 656c 4d87 2c1a a507 cee4 6c85
00000270: 1eb0 9408 c0f5 ec07 9167 a886 80d3 d786
00000280: 1b2e 2207 02d4 d986 bc64 5487 5952 1a87
00000290: 4051 3786 d54b 7407 b1eb 1f86 034a 2286
000002a0: d69b aa85 be2e 5b07 15bb 9b06 7a60 c788
000002b0: 30fe 7507 2799 fb07 d77e b686 517c 8c86
000002c0: 48f6 3a04 0ee3 7e86 fa83 9e06 ad60 c805
000002d0: b9f5 3386 e8d8 d086 3fee 4806 68ba a506
000002e0: 3569 2d86 57fd e285 4748 9086 f588 4986
000002f0: 69ae 6d86 df63 4d06 ca23 2a06 5738 1808
00000300: 2e68 ef06 6002 3f86 a18c 6a05 c3c7 e586
00000310: ac22 a584 6125 2d85 87c1 a285 c779 9106
00000320: 889d 8106 cc57 8206 83f1 4307 6cbe 8f80
00000330: 3801 1e87 15fd 6c86 858b 3e08 b7ad 8306
00000340: 42fe ab06 93d2 2386 be17 7bba d17e c7ba
00000350: 8daa a739 e3dd a1ba 9f30 a53a f8d9 733a
00000360: 33b5 e03a f641 6fba bfa2 973a d623 ccba
00000370: 34f8 2b3a e069 3a3a 6c01 a2ba 3173 3f3b
00000380: d628 d6ba b253 a13a e252 71bf d8b0 cdba
00000390: a28b 853a 5a54 bd3a f059 14bb ac6b 983a
000003a0: ddf5 1c3b bc8b bf3a 5a0e 0b3b 7cb2 2bba
000003b0: a93b 0c3a 880e b13b d7d5 a53a 7195 edbb
000003c0: 1a4a 89ba 148e fabd f933 b43a 93ba 9bba
000003d0: 7783 ae3a 40ac 9a3a bac9 f73a 4380 1cbb
000003e0: 801c b93a 3bf8 1739 4542 45bb d112 c2ba
000003f0: d2fb 533c e2f5 68bb 455a ceba 1621 2abb

hidden1.bias f4 [17]
-3.1104574e-11 -0.03631634 -2.9182995e-33 -0.081867106 -0.03522655 0.00034378152 0.014941346 -0.08477707
0.008982174 -0.02648572 -0.016329056 -0.019124778 -0.03211143 0.02028355 -0.050265353 -0.037774667
-0.025901888
00000000: a3cc 08ae 71c0 14bd 5e71 7289 f1a9 a7bd
00000010: b749 10bd 933d b439 8ccc 743c 9a9f adbd
00000020: f829 133c 95f8 d8bc 83c4 85bc 91ab 9cbc
00000030: 4687 03bd b029 a63c 0be3 4dbd 9cb9 1abd
00000040: 3230 d4bc

hidden2tag.weight f4 [1, 17]
4.0867496e-12 -0.4281926 2.5996583e-33 -1.0079821 -0.39880973 0.43588704 0.88978744 -1.1772383
0.37550294 -0.26956937 0.50554377 0.03746681 -0.35134605 0.2771858 -0.61644095 -0.45198804
0.11969901
00000000: 2bca 8f2c 0f3c dbbe 9ef8 5709 8f05 81bf
00000010: ca30 ccbe 962c df3e 1cc9 633f bfaf 96bf
00000020: ec41 c03e ff04 8abe 516b 013f cc76 193d
00000030: a1e3 b3be 4ceb 8d3e 13cf 1dbf fa6a e7be
00000040: c124 f53d
