my_model2.json_param.pt (torch_old, 51594 bytes, 9 tensors)

word_embeddings.weight f4 [21, 35]
000000 00 00 00 00 00 00 00 00 00 00 00 00 00 00 00 00
       0.0 0.0 0.0 0.0
000010 00 00 00 00 00 00 00 00 00 00 00 00 00 00 00 00
       0.0 0.0 0.0 0.0
000020 00 00 00 00 00 00 00 00 00 00 00 00 00 00 00 00
       0.0 0.0 0.0 0.0
000030 00 00 00 00 00 00 00 00 00 00 00 00 00 00 00 00
       0.0 0.0 0.0 0.0
000040 00 00 00 00 00 00 00 00 00 00 00 00 00 00 00 00
       0.0 0.0 0.0 0.0
000050 00 00 00 00 00 00 00 00 00 00 00 00 00 00 00 00
       0.0 0.0 0.0 0.0
000060 00 00 00 00 00 00 00 00 00 00 00 00 00 00 00 00
       0.0 0.0 0.0 0.0
000070 00 00 00 00 00 00 00 00 00 00 00 00 00 00 00 00
       0.0 0.0 0.0 0.0
000080 00 00 00 00 00 00 00 00 00 00 00 00 3d 78 35 bc
       0.0 0.0 0.0 -0.01107603
000090 97 8f 63 bc 49 55 b4 3b c6 96 24 bd e9 8b c0 bc
       -0.013889215 0.005503331 -0.04018285 -0.023504214
0000a0 be f1 8d bc 95 b6 37 3c 12 9c 46 3c 5a f7 56 bc
       -0.017327186 0.011212965 0.012122171 -0.013120497
0000b0 ff f7 51 3c 02 05 1a bd 9d cc f3 bc 15 82 10 3d
       0.0128154745 -0.037602432 -0.029760653 0.035280306
0000c0 86 43 ce bd a1 7b 57 bc 24 5d 33 bc dd 1c 69 3d
       -0.10071473 -0.013152034 -0.010947499 0.05691229
0000d0 8f df 47 bc 8d cd b9 bb bd 0e e7 bc 7b 60 42 bc
       -0.012199297 -0.0056702555 -0.02820527 -0.011863823
0000e0 d2 e0 51 3c 34 a9 92 bc 2e a2 47 3c b2 64 62 3a
       0.012809949 -0.017902948 0.012184663 0.00086362206
0000f0 c5 4c 40 3c 76 d5 86 bc 10 23 e3 3d f5 b2 12 bd
       0.011737053 -0.016459208 0.11090672 -0.035815198
000100 c5 4b 1e bd e2 d1 c3 bd 00 c3 2f bd 58 90 24 bb
       -0.03864648 -0.09561516 -0.042910576 -0.002511045
000110 8d 27 5f 3c 2d 67 e5 bd 64 a2 7d 3b 12 cd b7 b9
       0.0136202695 -0.1120132 0.0038701529 -0.0003505727
000120 cf cc 91 bc 84 5c a2 3b df 0a 27 3c 3a 17 32 3a
       -0.017797856 0.0049548764 0.010195463 0.0006793622
000130 1b 74 81 bb 73 a7 03 bb 65 33 90 bb ce da aa ba
       -0.0039506084 -0.0020088821 -0.004400658 -0.001303518
000140 d9 0d 5c bc f6 d3 15 bc d6 03 da bb ba a9 02 bd
       -0.013431036 -0.009144774 -0.0066532893 -0.031900145
000150 3f 7a 80 3a e8 e8 3b bb 29 f2 1e bc 74 7e 72 3b
       0.0009802057 -0.0028672758 -0.00970129 0.0037001641
000160 e2 d4 93 3e 4c a8 ad bb ed 59 8a 3b 6b 53 93 ba
       0.28873354 -0.0052996036 0.004222146 -0.001124007
000170 8b f2 ef 3e b6 c1 ff 3a 49 9d aa bc 59 6d 8b bb
       0.46864733 0.0019512686 -0.020826953 -0.0042549786
000180 00 07 24 bb 8d 0c 11 3d 62 71 3f bc 2c 20 bb 3b
       -0.0025028586 0.03541236 -0.011684747 0.0057106223
000190 39 15 f7 bc 05 10 86 3c 27 ec aa 3c d0 5d 4a be
       -0.030161487 0.01636506 0.02086456 -0.19762349
0001a0 54 9c 12 bd a6 da c7 ba 7a c8 ff bb 79 98 b3 bb
       -0.035793617 -0.0015247657 -0.007805881 -0.0054808226
0001b0 cd 50 0c 3d 0f b3 23 bc 05 2c b1 bb d2 79 e3 3a
       0.034256745 -0.009991421 -0.005406859 0.0017355031
0001c0 75 e5 aa 3a 14 98 35 3c e8 04 dc 3b 51 39 dd bd
       0.0013038354 0.0110836215 0.006714452 -0.10801948
0001d0 6a 65 11 bd 0d 13 fc bc fc 6e d5 be 6d 00 e1 bb
       -0.035497107 -0.030770803 -0.41686237 -0.006866506
0001e0 ff 42 d9 3b cf 08 14 be 13 ee 85 bb 4f d6 50 3d
       0.006630301 -0.14456485 -0.0040872185 0.05098563
0001f0 f7 35 97 3b 6a c1 69 bb 31 89 e4 3b 36 7c 49 be
       0.0046145874 -0.0035668262 0.0069743623 -0.19676289
000200 8d 8e 0b bc 2b e7 1c bb ec 41 4e 3b d8 f8 b8 bb
       -0.0085178735 -0.0023941498 0.0031472398 -0.005644899
000210 10 32 e5 3e b0 09 40 bd fa 59 09 3d 15 f1 cc be
       0.44764757 -0.04688424 0.033533074 -0.4002768
000220 ca fe 87 3d af 6b 65 3a 77 7b 07 be 12 d0 e6 be
       0.06640394 0.0008751703 -0.13230692 -0.4508062
000230 f3 0a 5c bb fe 39 e1 3c fa 45 8a bc 77 72 6f 3a
       -0.0033575862 0.027493473 -0.01687907 0.0009134183
000240 87 a8 dc 3c 1f 5b 92 3c d3 9d 5a 3b 77 c0 2c 3b
       0.026935829 0.017865716 0.003335823 0.0026359835
000250 f0 16 4c bc 99 1f ac bc 1f 34 f8 bd 99 59 a0 bd
       -0.012456641 -0.02101116 -0.12119316 -0.078295894
000260 e4 e1 96 ba 05 12 69 be 1f b9 4c 3c b3 4a 6b bc
       -0.0011511412 -0.2276078 0.012495308 -0.014361071
000270 39 ef 19 bd 26 b8 09 3a 5a 92 b3 be 3f 50 28 bd
       -0.037581656 0.00052535755 -0.35072595 -0.041092154
000280 41 27 95 ba 17 03 93 bc 82 8a 28 bf 5d c9 0b 3c
       -0.0011379496 -0.01794581 -0.65836346 0.0085318955
000290 25 2e 67 bc 33 e0 ff 3a 14 ab a2 3a 10 1a 72 3e
       -0.014110123 0.0019521773 0.0012410604 0.23642755
0002a0 78 64 b8 bd 29 f4 98 3a d3 15 64 be cf 18 6f 3c
       -0.09003538 0.0011669445 -0.2227395 0.014593317
0002b0 87 d5 5a 3c aa 03 53 3e 14 03 73 be dd 5e ae ba
       0.013356573 0.20606866 -0.23731643 -0.0013303418
0002c0 d3 e7 02 bb c9 74 76 bb be f1 e3 3a d5 47 b6 ba
       -0.0019974604 -0.003760623 0.001739077 -0.0013906906
0002d0 57 11 8e ba 82 ad b2 3a 66 9e fa 3a 08 65 2e bb
       -0.0010838908 0.0013632032 0.0019120693 -0.0026610512
0002e0 c1 aa 89 3a fe b0 95 3d bc dc 4d 3d 8b 96 12 bb
       0.0010503159 0.07309149 0.050259337 -0.0022367563
0002f0 3d b8 2f 3e 0b 28 b3 ba 23 da 0b bb 46 72 eb bb
       0.17160125 -0.001366855 -0.0021339736 -0.0071852533
000300 27 75 a7 ba 25 8b f2 3d 8b 71 1f 3d 38 e4 a3 ba
       -0.0012776003 0.11842946 0.038926642 -0.0012503928
000310 28 7d 8f 3a 1a cb 86 3e 3a 6d 0b 3b fd a4 bb bb
       0.0010947334 0.2632683 0.002127482 -0.0057264552
000320 e7 cd ac 3a f5 ce 42 bb e3 6c 3a be 39 29 6d 3d
       0.0013183922 -0.0029725407 -0.182056 0.05790064
000330 19 8b 07 3b 59 05 2a 3e f5 a0 34 3c e7 16 b6 3b
       0.0020682274 0.16603602 0.011024703 0.0055569294
000340 6e da 89 bd 7e 89 3b 3e 23 da bb bc 3e d8 89 bc
       -0.06731115 0.18314168 -0.022931164 -0.016826745
000350 2e bc e3 3c 47 a9 a2 bc 6b 77 95 bc 93 22 88 bc
       0.027799692 -0.019856108 -0.01824542 -0.016618049
000360 32 6a bb 3c 84 0e b1 3c ed a1 b6 bc 19 ef 89 3c
       0.022877786 0.021613367 -0.02229401 0.016837643
000370 14 53 49 3c 65 5d d5 3b 7b 0d ae 3c 12 33 2f 3d
       0.012287874 0.0065113776 0.021246662 0.042773314
000380 a1 a0 87 bc 4c d4 a4 bc 52 71 c4 3c be 93 a9 bc
       -0.016556086 -0.020120762 0.023979817 -0.020700332
000390 31 fd 1d be b8 99 d3 3a ce ab b1 bc 57 34 87 3c
       -0.15428616 0.0016143834 -0.021688368 0.01650445
0003a0 f5 5b 50 be 2c 2d d8 3c 57 8c eb 3c a0 f4 b4 3c
       -0.20347579 0.026388727 0.028753443 0.022089303
0003b0 da 03 8d bc ef 5a 3f bd 41 d5 03 3c c1 e8 a7 bc
       -0.01721375 -0.04671758 0.008046449 -0.020496728
0003c0 26 ba 26 3d 6f 22 90 bc d3 01 ea bc 79 1b fa 3d
       0.04070487 -0.017594544 -0.028565323 0.12212271
0003d0 70 0e 41 3d e7 48 09 3d 9c 13 f6 3b a3 a9 69 bd
       0.04713291 0.03351679 0.007509662 -0.057046544
0003e0 ba 95 5a 3d 86 92 f3 3c dc 8a bf 3c 81 d5 07 bd
       0.053365447 0.029732954 0.023381643 -0.033162598
0003f0 09 18 f5 bc fe 7c fc 3c f4 d8 73 bc 10 5b 85 bd
       -0.029918687 0.03082132 -0.014883269 -0.065115094

word_embeddings_2.weight f4 [13, 35]
000000 00 00 00 00 00 00 00 00 00 00 00 00 00 00 00 00
       0.0 0.0 0.0 0.0
000010 00 00 00 00 00 00 00 00 00 00 00 00 00 00 00 00
       0.0 0.0 0.0 0.0
000020 00 00 00 00 00 00 00 00 00 00 00 00 00 00 00 00
       0.0 0.0 0.0 0.0
000030 00 00 00 00 00 00 00 00 00 00 00 00 00 00 00 00
       0.0 0.0 0.0 0.0
000040 00 00 00 00 00 00 00 00 00 00 00 00 00 00 00 00
       0.0 0.0 0.0 0.0
000050 00 00 00 00 00 00 00 00 00 00 00 00 00 00 00 00
       0.0 0.0 0.0 0.0
000060 00 00 00 00 00 00 00 00 00 00 00 00 00 00 00 00
       0.0 0.0 0.0 0.0
000070 00 00 00 00 00 00 00 00 00 00 00 00 00 00 00 00
       0.0 0.0 0.0 0.0
000080 00 00 00 00 00 00 00 00 00 00 00 00 2e e0 f7 bb
       0.0 0.0 0.0 -0.007564566
000090 b2 58 d1 bb 59 41 20 ba 8a c7 1a bc 01 ce d5 bb
       -0.006388747 -0.0006113253 -0.009446988 -0.0065248017
0000a0 ce bd 03 bc ce ac f5 3b 41 a8 05 3c 2a 1b 3d bc
       -0.008040858 0.0074974066 0.008157791 -0.011542121
0000b0 ae 6b cb 3b c3 b8 cb 3b 55 80 91 3b 18 6b 0c 3c
       0.006207905 0.0062170937 0.004440347 0.008570455
0000c0 01 4d 70 3c b4 7e df bb 7c f5 26 bc f9 6d a3 39
       0.014666797 -0.006820524 -0.010190364 0.0003117172
0000d0 d8 95 ed bb 54 56 b9 bd 8b de 67 3b 17 35 ed bb
       -0.007250529 -0.09049669 0.0035380449 -0.007238995
0000e0 0c 94 d3 3b 00 6a 1c be 94 29 4d 3c 38 9b a0 ba
       0.0064568575 -0.15274811 0.01252212 -0.001225329
0000f0 44 bb ed 3b 89 ba 29 bc b4 fe 86 bc 1a d1 9c 3b
       0.00725499 -0.010359415 -0.016478874 0.004785669
000100 a6 14 15 bc 7c 11 62 3c f7 4d da ba 4b 7a 47 3a
       -0.009099161 0.013798114 -0.0016655315 0.00076094706
000110 59 43 7b 3d 87 a4 88 3c 7e bc 4d 39 5e 13 d3 b9
       0.061343525 0.016680015 0.00019620542 -0.00040259486
000120 cf e4 d2 3b 1d b7 38 3b 91 63 eb ba 1c 20 bd 39
       0.0064359675 0.0028185316 -0.001795875 0.00036072813
000130 5d 47 0d b9 85 d9 21 ba 85 66 ce 39 18 83 1a 3a
       -0.00013473393 -0.00061740755 0.00039367765 0.0005894168
000140 17 d8 df bc 53 c8 97 bc 70 a2 d5 ba fd 0b 34 bd
       -0.02732472 -0.01852814 -0.001629902 -0.043956745
000150 9a ed a0 b9 83 af 05 b9 2e fd 07 3b 8d 92 bd b9
       -0.00030694605 -0.00012749252 0.0020750272 -0.00036158078
000160 95 e8 3c 3d 76 b1 60 bc 78 fa b4 b9 f4 90 ec 39
       0.046120245 -0.013714185 -0.0003451889 0.00045121426
000170 e2 62 9b 3d d9 e5 f7 b8 69 07 03 3c 71 84 89 39
       0.0758722 -0.0001182069 0.007997372 0.00026229353
000180 61 fa ff 39 ed bc 3a 3d b2 47 af bc 29 ad 13 3b
       0.00048823937 0.04559033 -0.021396492 0.0022533631
000190 5a 78 30 bd 63 d8 25 bb 92 12 fb bb 5b 32 f5 bc
       -0.043083526 -0.0025305978 -0.007662126 -0.029931238
0001a0 e0 6c 3b bd 39 3a ea bc 52 b9 98 bc 67 e2 49 3c
       -0.04575813 -0.028592216 -0.018643055 0.012322045
0001b0 e3 a2 8a bc ab 16 9a bc 21 ba c3 bc 26 14 ea 3c
       -0.016923374 -0.018809637 -0.023892464 0.02857406
0001c0 21 1c e8 3c 05 61 cf bc 76 a8 b1 3c bc 30 ab bb
       0.028333725 -0.025314817 0.021686774 -0.0052243154
0001d0 07 e7 3f ba 9d ba 90 3c 3c 94 67 bc 3b 3d c2 bc
       -0.00073204975 0.01766711 -0.014134463 -0.023710838
0001e0 41 80 c3 bc 72 a7 65 b9 eb a2 e1 bc 77 fe 83 be
       -0.023864867 -0.0002190152 -0.027543506 -0.2578008
0001f0 a2 e4 18 3b 01 43 e5 bc c1 36 b7 3c 97 06 d1 be
       0.0023329635 -0.027986052 0.022364976 -0.4082534
000200 87 64 e6 3c 90 74 14 3c 0e d3 e6 3c 8f 24 cf bc
       0.028124107 0.009060994 0.02817681 -0.025285987
000210 b2 19 4a 3c 8a c4 29 bb 72 8b 8c bc 6d 47 73 bc
       0.012335228 -0.00259045 -0.017156336 -0.014848572
000220 a6 bf 19 bc eb 21 35 bc 2a 0b 3c 3e 9c 78 46 bc
       -0.009384071 -0.01105545 0.18363634 -0.012113716
000230 bf 70 1d bc 61 2e e0 ba d6 37 34 ba 94 10 6d bc
       -0.0096094 -0.0017103666 -0.0006874775 -0.014469285
000240 95 cb 9a 3a 7d 20 53 bb 04 44 1c 3c 40 f9 25 3c
       0.001180994 -0.003221541 0.009537701 0.010130227
000250 db 29 8b bc fb e6 66 3b 55 e2 bc 3c 67 c6 93 3c
       -0.016987732 0.003523289 0.023057142 0.018038942
000260 8f 3a 5a 3c e8 48 46 3d dc c5 b7 bb 26 1f 7b bc
       0.0133196255 0.048409373 -0.0056083035 -0.015327251
000270 26 20 9e 3b 51 a2 09 bc 3a 87 03 be 1d c8 87 3c
       0.0048256097 -0.008400516 -0.12844554 0.016574914
000280 5e 65 0f bc 7c f8 8c 3b be dc 46 be 7a fa 90 3c
       -0.008752195 0.0043020826 -0.19420144 0.017697562
000290 ed f5 f6 ba 59 e9 12 3c e7 02 3e bc 5e 4b 56 bd
       -0.0018841602 0.008966767 -0.011597372 -0.05231797
0002a0 be 1c 9a 3c f1 f9 67 bc c7 17 3e 3d 10 77 5c bb
       0.018812533 -0.014158712 0.046409395 -0.0033640303
0002b0 18 15 79 3a 0d 24 c9 3d 06 fe 57 3d 80 a6 92 39
       0.00095017394 0.09821329 0.05273249 0.00027971342
0002c0 a0 7f a5 bb 6f 8e 55 3a 1e ed 82 bb 52 e6 d0 bb
       -0.0050506145 0.00081465294 -0.0039955517 -0.0063751126
0002d0 a4 d0 2e ba 3e 0e 5a b9 56 4b 33 ba d8 90 62 3a
       -0.0006668663 -0.00020795406 -0.0006839534 0.0008642799
0002e0 df 86 86 3b 5b bc 40 bd 3f 9b 16 bd c0 e2 96 3b
       0.0041054334 -0.04705463 -0.036769148 0.0046046674
0002f0 46 c2 af bd 39 87 58 bb 1e c5 29 39 06 81 c6 3b
       -0.085819766 -0.0033039583 0.00016190528 0.0060578613
000300 e9 f7 cc ba 57 63 08 3e 12 46 00 bd a0 99 9b ba
       -0.0015637848 0.13319145 -0.031316824 -0.0011871345
000310 9c eb 7d 3b 25 98 43 3e 32 28 f9 b9 66 03 0b 3b
       0.003874517 0.19101007 -0.0004752293 0.0021211742
000320 bb 09 56 3a c8 8f 86 bb c0 c3 bb 3d 0c 66 24 bd
       0.0008164902 -0.0041064955 0.09168196 -0.040136382
000330 e0 ff 92 bb 15 b0 a9 bd 18 ee 23 bc 0a 9f 0f bb
       -0.004486069 -0.08285538 -0.010005496 -0.0021914863
000340 91 d6 cc bd 4b 0d bd bd 43 5c 27 3a 7e 63 cf ba
       -0.10001863 -0.09231051 0.00063842925 -0.0015822498
000350 4e 42 92 3b 7d d2 f0 ba fe fd 71 bb f4 46 c9 39
       0.0044634705 -0.0018373277 -0.0036925073 0.00038390572
000360 19 1b 2c ba bd 02 7b ba b9 1d 8d ba ad f3 c2 3a
       -0.0006565317 -0.0009575298 -0.0010766304 0.0014873646
000370 96 aa 05 bd 03 4b ce bc d5 82 15 3b be a2 6c bd
       -0.032633387 -0.025182253 0.0022813578 -0.05777239
000380 cc 25 87 ba da eb a4 ba 34 d9 ec 3b 16 f0 42 b9
       -0.0010310947 -0.0012582496 0.007228041 -0.0001859072
000390 d6 27 ac 3d 5b 25 af bc 75 33 a4 37 8a cf b7 3a
       0.084060356 -0.021380117 1.9574285e-05 0.0014023643
0003a0 34 c5 00 3e 2c c2 9a 3a 27 af b8 3b d8 9f 74 b9
       0.12575227 0.0011807135 0.005636114 -0.000233292
0003b0 c0 84 b2 ba b8 78 7c 3d c7 8c e2 bc 36 6c 0c bb
       -0.0013619885 0.061638564 -0.027655018 -0.0021426803
0003c0 2a bd 64 bd 89 0c ed bb 3f f0 b8 bb 1b 08 71 bd
       -0.055844463 -0.0072341603 -0.005643874 -0.05884562
0003d0 a2 30 7e bd 02 a6 c9 b9 a7 dd 28 bc 90 53 69 3a
       -0.0620581 -0.00038461393 -0.010306752 0.00089006964
0003e0 38 47 10 bb 73 91 8a bc ed 99 1e bc 55 09 d1 39
       -0.0022015106 -0.016915059 -0.009680253 0.0003987054
0003f0 55 76 5c 3a a8 b7 60 3a a0 57 d5 3b 79 cb 0e 3c
       0.0008409967 0.0008572289 0.00651069 0.008715504

lstm.weight_ih_l0 f4 [140, 35]
000000 5a c2 1c 3c 78 cf 97 3b ed af 9f bc 71 25 dc 3b
       0.009567821 0.0046328865 -0.019493068 0.0067183306
000010 52 87 29 3c 3a a2 90 3b 8e 19 1d bc bd 27 13 bc
       0.010347204 0.00441387 -0.009588612 -0.008981642
000020 ed 2d d6 3b 7d be a1 bb ea f0 49 bc b7 2b 16 bc
       0.0065362365 -0.004936038 -0.012325505 -0.009165696
000030 cc 40 15 bc 36 db cf bc 6c e6 ae 3b fb 18 d2 3b
       -0.009109687 -0.025373083 0.005337527 0.0064116693
000040 48 29 1b bd 7c 0c 14 3c c6 ee dd 3d 3a 20 bd bb
       -0.037881166 0.00903618 0.10836558 -0.005771664
000050 e9 18 1b 3c ac 02 9f bb b6 f9 0d 3e 18 f2 d5 bb
       0.009466388 -0.0048526134 0.13864788 -0.006529104
000060 3a d5 9b bc ef c9 1c bc a4 ec 9a 3b 97 81 d9 3c
       -0.019022573 -0.009569629 0.004727917 0.026551051
000070 33 a5 1a bc ca 75 00 3c de 2f ca bc 67 5b 92 3c
       -0.009438801 0.007840583 -0.024681028 0.01786585
000080 3f 1e 98 3c 42 2a c1 bd 9e 68 da bc 29 6e 41 b9
       0.01856911 -0.09431888 -0.026661213 -0.00018446952
000090 37 10 9e b9 18 ba 91 39 6f 31 c3 3a d6 85 94 b9
       -0.0003014819 0.00027795206 0.0014892052 -0.00028328475
0000a0 6e 60 35 b9 90 72 44 39 d3 ac 34 39 54 66 2a 39
       -0.00017297428 0.00018734694 0.0001723052 0.00016250584
0000b0 ca 64 8c 39 51 75 98 3a fe fe 98 3a cc 67 86 ba
       0.00026777975 0.0011631643 0.0011672673 -0.0010254323
0000c0 e2 3a 71 3a 72 87 7b b9 3c 24 ae 38 50 ce 34 ba
       0.00092021946 -0.00023987683 8.303716e-05 -0.0006897198
0000d0 a7 ed 5e b9 9a 4d a0 ba 43 9b 98 3a c2 ce 5a b9
       -0.00021260102 -0.0012230158 0.0011642951 -0.00020867123
0000e0 ba c8 85 39 b7 1e be ba 6a 9f 1d 35 c1 2b b4 39
       0.0002551729 -0.0014505003 5.8719036e-07 0.00034364875
0000f0 0e 09 58 39 31 40 10 b9 84 64 6e ba 1d df 9b 3a
       0.00020602738 -0.00013756823 -0.00090939575 0.0011892054
000100 bf 94 ac 3a 2a 0b 73 3a 5a 29 9b 3a 9f d1 b2 b9
       0.0013166888 0.0009271378 0.0011837885 -0.00034106986
000110 eb ee 89 3a e2 1e 6e 3a e2 1e 0d b9 5c b5 93 b9
       0.0010523474 0.00090835814 -0.00013458313 -0.00028173148
000120 65 02 8d 39 cc 0d b5 3a 58 ec 8c b9 ca 5e 21 b9
       0.000268954 0.0013813316 -0.0002687897 -0.00015389468
000130 d4 fb 0f 39 4e 82 02 39 fd 32 4d 39 b8 e5 81 39
       0.00013731356 0.00012446308 0.00019569318 0.0002477595
000140 5c 7b ae 3a 07 8d a6 3a 34 ec 7b ba c0 f3 93 3a
       0.001331191 0.0012706824 -0.0009610087 0.0011287853
000150 43 8d 60 b9 10 cb f9 38 85 9b 16 ba a1 a2 32 b9
       -0.00021414929 0.000119110686 -0.000574522 -0.00017035987
000160 f9 3b 9d ba 32 72 a4 3a f7 c0 2a b9 cc 28 75 39
       -0.0011996023 0.001254624 -0.00016284348 0.00023380219
000170 7a 52 b8 ba 01 54 6d b8 50 71 ae 39 ae e7 25 39
       -0.0014062666 -5.6583438e-05 0.0003327229 0.00015821934
000180 1c 20 c9 b8 da af 90 ba 20 a1 ad 3a 94 65 a0 3a
       -9.590408e-05 -0.0011038736 0.0013246872 0.0012237304
000190 6c e1 95 3a 6b 3d 91 3a 5f 2e ab b9 e1 e3 85 3a
       0.0011434979 0.0011080926 -0.0003265021 0.0010215008
0001a0 6e 5f 90 3a 85 73 04 36 48 11 d1 b1 cb 60 ef 37
       0.0011014768 1.9736774e-06 -6.084665e-09 2.8536093e-05
0001b0 83 5b e0 b7 18 7f 3f 36 88 4b 3d 37 66 cf af b5
       -2.6745494e-05 2.8535196e-06 1.1282864e-05 -1.3098877e-06
0001c0 66 ca 82 b6 a5 69 a4 34 c6 6e 98 35 d8 82 b5 b7
       -3.897864e-06 3.0624247e-07 1.1357122e-06 -2.163781e-05
0001d0 ec 8c c9 b7 fe cb c5 37 b5 1e 46 b9 27 7b 0a 35
       -2.4026689e-05 2.3579221e-05 -0.0001889419 5.1588216e-07
0001e0 97 b4 76 33 ca 7b b9 38 f8 89 95 b5 c0 e5 86 b9
       5.7440584e-08 8.844545e-05 -1.1141519e-06 -0.0002572965
0001f0 c4 cb 0b b8 a2 7d b6 b5 fc 99 01 35 ac 6f e4 b9
       -3.3329954e-05 -1.3596621e-06 4.828032e-07 -0.0004357075
000200 33 dd 75 36 05 0f f3 37 25 dd 84 35 f6 59 2e 36
       3.66366e-06 2.8974851e-05 9.899128e-07 2.5980385e-06
000210 21 ac 64 39 dc 81 f0 b7 e9 82 d5 b7 e3 99 36 b9
       0.00021807897 -2.86707e-05 -2.5452538e-05 -0.000174142
000220 1d f6 31 b8 8d 8a ed b7 a5 0f 66 39 85 f4 67 b9
       -4.24293e-05 -2.831712e-05 0.00021940337 -0.00022120967
000230 ee ee 6f 37 fa 6b 85 37 b0 11 62 37 58 f8 06 b8
       1.430114e-05 1.5905116e-05 1.3474768e-05 -3.2179378e-05
000240 0e 5a af 37 1d 43 f0 37 d2 30 63 b7 43 2a 80 b7
       2.090356e-05 2.8641482e-05 -1.3541621e-05 -1.5278469e-05
000250 de be 71 36 c4 dc 72 b7 d1 0c 0d b8 59 fc 23 b8
       3.6022898e-06 -1.4475725e-05 -3.3628956e-05 -3.9097245e-05
000260 f0 81 d0 37 77 81 40 b9 66 ba 5f 37 7e 9b 8f 36
       2.4856039e-05 -0.00018358776 1.3335235e-05 4.279834e-06
000270 89 6e ad 38 2e 48 36 37 16 b2 64 b9 78 f7 4a b8
       8.2698716e-05 1.0864851e-05 -0.00021810117 -4.8391026e-05
000280 b1 1d 33 37 b6 eb 6a b7 98 6c d1 b9 ed ef c5 b5
       1.06761445e-05 -1.4002368e-05 -0.00039944495 -1.4747471e-06
000290 a5 13 61 37 a5 74 39 b7 4a a0 2e 37 42 17 5c 39
       1.3415619e-05 -1.1054018e-05 1.0408528e-05 0.00020989499
0002a0 d8 ba 2c b8 65 aa f2 b7 33 57 32 b9 2f 65 29 b8
       -4.1182007e-05 -2.8927994e-05 -0.00017007887 -4.0386974e-05
0002b0 d1 eb 4d b7 59 9d 46 39 42 07 5f b9 be 37 71 bb
       -1.22738575e-05 0.00018941368 -0.00021269641 -0.0036806907
0002c0 37 10 0d bb c0 f7 c0 bb 3e 93 d5 3c 2b e8 01 bb
       -0.0021524557 -0.005888909 0.026071187 -0.001982222
0002d0 55 23 91 ba 92 04 78 3b 1e 84 7d 3b a0 e3 06 bb
       -0.0011073152 0.003784452 0.0038683484 -0.0020582452
0002e0 97 35 e4 3a ee c1 51 3c 92 4c b3 3c bf f3 bb bc
       0.001741099 0.012802584 0.021887098 -0.022943376
0002f0 19 23 22 bb 96 6b 70 bb bb ee 9e bb 66 79 27 bd
       -0.0024740158 -0.003668522 -0.0048502362 -0.04088726
000300 97 4c 85 bb 85 74 c8 bd ee 65 f3 3c e3 01 87 bb
       -0.004067968 -0.09787849 0.02971169 -0.004120098
000310 ce 54 24 3b 11 bd 21 be 13 60 38 3b b7 47 35 bb
       0.0025074962 -0.1579478 0.0028133437 -0.0027661154
000320 0f ee 87 3b 89 6f c5 bb 83 d6 af 3a c3 e1 c1 3c
       0.004148252 -0.006025259 0.001341537 0.023667222
000330 17 32 cf 3c 9f 4b 35 bb b8 fb 20 3d 56 d2 28 3b
       0.02529244 -0.0027663482 0.039302558 0.0025760136
000340 0c 9f 2b 3d 04 42 9a ba d7 f5 41 b8 02 84 85 b9
       0.041899726 -0.0011768942 -4.6243742e-05 -0.0002546609
000350 d7 f8 6d 39 db 6e a3 39 6a 09 7d b9 c6 63 13 b9
       0.00022694781 0.00031172376 -0.00024131467 -0.00014056181
000360 4a ec 43 38 c2 ed 27 38 8e 2f ad 38 24 30 65 39
       4.6711684e-05 4.0037332e-05 8.2581406e-05 0.00021857076
000370 bd 79 ba 39 ed 37 9a 39 8c ea 8e b9 3a e8 fc 39
       0.00035567387 0.00029414837 -0.00027259102 0.00048238208
000380 fb 03 20 b9 e8 9b 6f 38 b5 f9 33 b9 6a 16 9f b8
       -0.00015260272 5.712724e-05 -0.00017163793 -7.585886e-05
000390 f6 7c 6d b9 6c 70 87 39 9c 3e 89 b8 a8 c6 4b 39
       -0.00022648633 0.00025832967 -6.544331e-05 0.00019433594
0003a0 c1 2c 45 b9 61 6b 8e b8 29 da 7b 39 0b 70 7b 38
       -0.00018804056 -6.7910885e-05 0.00024018496 5.994741e-05
0003b0 a3 23 0c b8 86 98 fc b9 03 5e a8 39 a4 2d 9d 39
       -3.341179e-05 -0.00048178824 0.000321135 0.00029979378
0003c0 d9 9a fc 39 c0 02 94 39 55 03 81 b9 86 d4 3d 39
       0.00048180556 0.0002823081 -0.0002460728 0.00018103616
0003d0 e5 80 fc 39 fd 0a 02 b9 76 8c 42 ba 5e 89 32 3a
       0.0004816122 -0.0001240186 -0.0007421443 0.00068106304
0003e0 23 dd ec 39 f7 86 24 ba c4 69 c1 b9 10 9a 06 39
       0.00045178187 -0.0006276215 -0.0003689063 0.00012836629
0003f0 4c a2 ee 38 13 c8 e6 38 36 5d 28 3a 89 8b 0f 3a
       0.000113789545 0.000110045214 0.0006422581 0.00054758094

lstm.weight_hh_l0 f4 [140, 35]
000000 07 cc 11 be 82 25 a3 bb 33 ca bb bb a0 09 8c ba
       -0.14237987 -0.0049788365 -0.005730891 -0.0010684021
000010 38 f8 9b 3a f3 85 1a 3e 58 db b2 bb cf c5 02 3c
       0.0011899536 0.1509016 -0.0054582767 0.007981732
000020 a3 e0 13 bc 2e 18 10 bc 7e 7c 6a bb 71 b4 f5 bd
       -0.009025726 -0.008794827 -0.003577977 -0.11997307
000030 dc 30 c0 3b 0b bf 5d 3b 93 80 5c bb 7a de 82 3b
       0.0058651995 0.0033835794 -0.0033645972 0.0039938064
000040 3d 84 b6 3b 53 63 11 bc f1 4c b2 3b f0 12 10 bc
       0.0055699633 -0.008873778 0.005441301 -0.008793578
000050 29 31 7f bd 4c 36 a3 bb 5b a9 05 bd 5e 78 4b bb
       -0.062302742 -0.004980838 -0.032632213 -0.0031047086
000060 3d 50 b1 3b 77 f3 13 3c 03 c8 e4 bb 92 a4 88 bb
       0.0054111765 0.0090302145 -0.006981851 -0.004170009
000070 1b 6f 95 bb dd 7a e8 bb 0e de e8 bb 8c 29 a5 bb
       -0.004560364 -0.0070947246 -0.007106549 -0.005040353
000080 a8 22 a8 3b d5 fa a9 3b 92 ac 12 bc 5c d8 18 bc
       0.0051310845 0.005187372 -0.008952277 -0.009328928
000090 27 0d d3 39 35 83 cd 39 fc 74 a6 b9 2c 48 85 39
       0.00040254855 0.00039198404 -0.00031749147 0.0002542151
0000a0 87 cf 67 bb 16 e9 a6 39 45 84 e8 b9 cb 92 07 3a
       -0.0035371499 0.0003183565 -0.00044349037 0.0005171715
0000b0 da f7 e5 39 74 89 cd 39 92 3d 12 bc 45 05 d6 b9
       0.00043862947 0.00039203058 -0.008925812 -0.00040821187
0000c0 7d a8 d3 b9 3b 0f d3 38 c0 ee ae b9 9c 21 11 b9
       -0.0004037059 0.00010064101 -0.0003336575 -0.00013840798
0000d0 a5 16 fd 39 b3 d7 d9 b9 09 e9 05 3a 0a 65 b1 bb
       0.00048272792 -0.00041550174 0.00051082723 -0.005413656
0000e0 7f 94 84 39 59 b9 ea 38 d9 c0 f9 38 ef fc b9 b9
       0.0002528764 0.00011192513 0.00011909166 -0.000354744
0000f0 8b dc ef b9 f8 87 de 39 c3 90 bd 39 43 c5 bc 39
       -0.0004574995 0.00042444444 0.00036156745 0.00036005126
000100 8d e5 df 39 c4 ca c5 39 cb e8 27 39 a3 15 ab b9
       0.00042704903 0.0003772584 0.00016013083 -0.00032631782
000110 37 69 85 b9 f9 d9 06 3a 86 e4 12 bc d4 bc be 39
       -0.00025446128 0.0005144175 -0.008965617 0.00036380312
000120 bb 64 b8 39 f7 0a b1 b9 9c 66 8e 39 90 22 47 bb
       0.00035170265 -0.0003376824 0.000271608 -0.003038559
000130 ad 06 95 39 22 c3 c6 b9 4e 2e ed 39 bf c0 c8 39
       0.00028424468 -0.00037910888 0.00045238662 0.0003829058
000140 17 bd b9 39 27 13 0d bc 24 33 c0 b9 48 9f bf b9
       0.00035426833 -0.008610523 -0.00036659196 -0.00036549033
000150 40 01 b5 38 18 a3 9d b9 76 d2 fc b8 37 54 dc 39
       8.6309854e-05 -0.00030066888 -0.00012055498 0.00042024415
000160 ce be c3 b9 3b 51 ea 39 a7 6b aa bb 2f b4 6f 39
       -0.0003733546 0.0004469248 -0.0052008214 0.0002285994
000170 38 f7 a8 38 e0 28 db 38 a1 19 a7 b9 ac a6 d1 b9
       8.056912e-05 0.00010450347 -0.00031871817 -0.00039987767
000180 41 71 c5 39 f0 79 aa 39 e1 db a9 39 12 00 c3 39
       0.0003765915 0.00032515777 0.00032398014 0.0003719335
000190 92 f4 ae 39 ee 51 15 39 77 6e 93 b9 76 13 71 b9
       0.00033370085 0.00014240269 -0.00028120328 -0.00022990801
0001a0 18 ce eb 39 82 a1 ad ba 74 5f 10 38 ac 8e cd 37
       0.00044976245 -0.0013246986 3.4421173e-05 2.4504341e-05
0001b0 ed 7a 3d b7 4d b3 2a 37 03 c1 ee b9 01 6d 6d 37
       -1.1293899e-05 1.0174536e-05 -0.00045538702 1.415168e-05
0001c0 0b b9 59 b7 0e 15 3f 37 dc 61 a9 37 91 45 fd 37
       -1.2977292e-05 1.1389389e-05 2.019194e-05 3.0192345e-05
0001d0 b6 a9 95 ba d7 da 80 b7 3c 34 06 b8 0b 3b 53 36
       -0.0011418376 -1.5360694e-05 -3.1996737e-05 3.1475818e-06
0001e0 05 55 8d b6 39 e8 8b b5 a8 fc 00 37 c4 f8 8c b7
       -4.212025e-06 -1.0423893e-06 7.688221e-06 -1.6805141e-05
0001f0 34 43 21 37 2a 8a 17 ba a4 9f 65 37 b6 23 87 b8
       9.611995e-06 -0.0005780781 1.3686633e-05 -6.443953e-05
000200 5e e9 f2 35 7e 5b 88 b7 9f a3 b6 b7 ad dc 15 38
       1.8098324e-06 -1.6255068e-05 -2.1772283e-05 3.572989e-05
000210 9b ac 8b 37 82 53 dc 37 6e a4 0f 36 66 ce fc 37
       1.6650467e-05 2.626493e-05 2.1404371e-06 3.0136853e-05
000220 f6 2f a2 36 15 3d 38 b6 d5 37 62 b7 21 90 1b 37
       4.8335596e-06 -2.745369e-06 -1.3483649e-05 9.272278e-06
000230 d5 37 9f ba 53 80 6e 37 00 cd 11 b7 74 bd 0d b7
       -0.0012147377 1.4215783e-05 -8.690404e-06 -8.448365e-06
000240 94 c5 03 37 c4 02 e3 b9 53 84 b9 36 24 c6 b7 36
       7.854211e-06 -0.00043298875 5.528834e-06 5.4768916e-06
000250 1c 64 77 b7 9f c1 6c 36 7a af 4e 37 f6 65 87 ba
       -1.4745656e-05 3.5279443e-06 1.2319413e-05 -0.0010330069
000260 a2 cc e6 37 bb ae 0c b7 e5 84 94 b5 a2 a6 00 38
       2.7513426e-05 -8.385333e-06 -1.1065537e-06 3.0672767e-05
000270 9b 1d d1 36 f4 e1 77 b7 5c 1c dc 37 46 2f 83 b7
       6.232132e-06 -1.4774956e-05 2.623925e-05 -1.563843e-05
000280 72 95 fb b9 cd 92 c7 36 80 a4 83 b8 a7 f0 78 b5
       -0.00047985796 5.947752e-06 -6.277207e-05 -9.2737395e-07
000290 08 6e f2 36 55 67 70 b6 6d 71 04 37 b2 92 79 b7
       7.2249713e-06 -3.5822934e-06 7.894222e-06 -1.4875712e-05
0002a0 84 b1 f5 36 a5 54 82 b7 b0 5e c5 36 5e ee 11 35
       7.3222345e-06 -1.5536623e-05 5.8820806e-06 5.436358e-07
0002b0 80 3d a9 37 4b cb c6 b6 25 e6 8e b7 42 8a c3 3d
       2.0175008e-05 -5.9245262e-06 -1.7034889e-05 0.09547855
0002c0 4a c3 47 bc 24 b8 4e bc 49 f5 12 bb 6c 49 32 3a
       -0.012192557 -0.012617145 -0.0022424033 0.0006801102
0002d0 b0 b4 ba 3d 0b 6a bf bb 89 48 5e 3c a1 3a 76 bc
       0.09116495 -0.0058414987 0.013567098 -0.015028627
0002e0 1f bc 98 bc b1 a7 19 bb 35 55 ba 3d f7 1e 71 3c
       -0.01864439 -0.00234459 0.09098283 0.014716855
0002f0 00 24 be 3b f6 72 74 bc 5a 1c ab 3b 88 ec 13 3c
       0.0058026314 -0.014919987 0.0052218856 0.009028561
000300 2e e6 72 bc cb 64 6c 3c 7c 17 70 bc 0c bd 68 3d
       -0.014825387 0.014428328 -0.014654037 0.056820914
000310 ec b4 81 bb a9 ce f2 bd a7 50 a7 bb cf dc e3 3b
       -0.003958335 -0.118558235 -0.00510605 0.0069538127
000320 b3 be 95 3c ea 41 f9 bc c0 2d 07 bc 45 f8 f0 ba
       0.018279409 -0.030426938 -0.008250654 -0.0018384537
000330 2a dc 36 bc bd de e2 bc 0a 1f df bb 0a f7 24 3b
       -0.01116089 -0.0276941 -0.00680912 0.002517166
000340 f5 b6 86 3b ee a2 74 bc e6 ab 27 bb 9e 57 56 39
       0.0041111656 -0.014931424 -0.0025584637 0.0002044127
000350 5d c1 68 39 b5 15 79 b8 7a 91 4e 38 63 fc d3 ba
       0.00022197278 -5.9386442e-05 4.9249713e-05 -0.001617324
000360 5a fe 3e 38 05 dd 69 b8 b4 8d a6 38 a5 d2 76 38
       4.5536413e-05 -5.575737e-05 7.941891e-05 5.884715e-05
000370 ae e6 a5 39 22 5f 15 bb d1 df 8b b9 66 0b ba b9
       0.00031643122 -0.00227923 -0.00026678902 -0.00035485177
000380 dd 99 6e 38 e8 8d 2f b9 b1 3f 7a b8 ee 95 8a 38
       5.6886918e-05 -0.00016742165 -5.9663962e-05 6.608279e-05
000390 08 ef 89 b9 1c 3d 9f 38 a9 a3 a3 ba 25 16 86 38
       -0.00026308768 7.593093e-05 -0.0012484688 6.393743e-05
0003a0 3a 06 97 b7 a6 12 60 38 f2 83 99 b8 d1 7d 85 b8
       -1.8003502e-05 5.342313e-05 -7.320185e-05 -6.365369e-05
0003b0 73 56 83 39 df d0 57 39 71 bc 97 39 24 0e 4f 38
       0.00025050677 0.00020581808 0.00028941364 4.9365815e-05
0003c0 73 07 75 39 e1 b8 86 38 65 f9 95 b8 75 c8 74 b8
       0.00023367796 6.424054e-05 -7.151327e-05 -5.8360823e-05
0003d0 43 18 a4 38 77 fa 94 bb f8 93 cc 39 0f e1 d3 39
       7.8246485e-05 -0.0045464593 0.00039020157 0.00040412738
0003e0 d6 e1 1c b9 54 dc 01 39 ba a3 48 bb 47 28 d2 38
       -0.0001496145 0.00012384477 -0.0030615167 0.000100210826
0003f0 07 0d f6 b8 f7 ff 2d 39 79 fb 00 39 a1 49 55 3a
       -0.000117326206 0.0001659392 0.00012300712 0.0008136277

lstm.bias_ih_l0 f4 [140]
000000 04 9a a3 3e 11 d4 97 bc 71 3f 92 bc b2 b2 a3 bb
       0.31953442 -0.018533738 -0.017852517 -0.0049956674
000010 5a ad 9e bb 95 82 29 3f e1 68 ca bb 59 b7 29 bc
       -0.0048424425 0.6621488 -0.0061770533 -0.010358655
000020 1f 1c 75 bc b5 8a 36 bc 84 3b 5d bc a1 b8 91 3e
       -0.014960318 -0.011141469 -0.013502959 0.28461173
000030 d9 54 97 bc 21 e2 8f bc 84 a3 61 bc 4e 57 81 bc
       -0.018473076 -0.017563881 -0.013771895 -0.0157887
000040 6a dd 28 bc d8 4a 52 bc 9d f2 99 bc 2b b9 67 bc
       -0.0103066955 -0.012835227 -0.018792445 -0.014143269
000050 11 ad 15 3e 45 cf 3f bc 03 e4 b9 3d 88 bb 14 bc
       0.14616801 -0.011707132 0.09076693 -0.009077914
000060 8a cb 27 bc 1f ea 3b bc 2b 60 ad bc 45 19 8e bc
       -0.010241399 -0.011469393 -0.02116402 -0.017346034
000070 d7 d1 39 bc 0f d7 0a bc 49 0b a5 bc 40 f2 32 bc
       -0.011341534 -0.0084741255 -0.020146983 -0.010922015
000080 0a a9 e4 bb c2 47 30 bc bf 33 71 bc 3c 79 cd 3e
       -0.006978159 -0.010759296 -0.01472181 0.40131557
000090 67 6b 80 bc c3 78 75 bc 4f b3 55 bb 2c ae 53 bb
       -0.015676213 -0.014982405 -0.0032608097 -0.003229986
0000a0 14 44 fc 3e f7 70 a9 bb e8 c1 12 bc 0e 9f 54 bc
       0.4927069 -0.005170937 -0.008957364 -0.012977375
0000b0 79 d6 20 bc 8d fa 2d bc 9a be b0 3e a1 2c 78 bc
       -0.009816759 -0.010618818 0.34520417 -0.015147359
0000c0 e2 fb 3f bc 1d 5c 0e bc e6 db 5e bc 04 1c 05 bc
       -0.011717768 -0.008688954 -0.013602233 -0.008124355
0000d0 54 7e 33 bc ce 17 7f bc b1 ae 47 bc 87 ec 11 3e
       -0.010955412 -0.01556964 -0.012187646 0.14250384
0000e0 e9 56 1f bc f4 bb 00 3e 51 6b c7 bb 26 3b 0c bc
       -0.009725311 0.12571698 -0.006085791 -0.008559024
0000f0 b3 1d 28 bc c4 a0 82 bc c6 ee 74 bc 05 23 1c bc
       -0.010260987 -0.0159458 -0.014949506 -0.009529834
000100 8e 9a e0 bb e0 f3 74 bc e3 89 0d bc 04 fa c2 bb
       -0.006854362 -0.014950722 -0.008638832 -0.0059502143
000110 a3 fa 12 bc b1 ee 50 bc c2 ba 48 3d 58 34 2b 3b
       -0.008970889 -0.012752221 0.04900623 0.0026123729
000120 a3 90 b1 3a 85 00 7d bb 70 a6 8c 3b 3a fb a8 3d
       0.0013547133 -0.0038605046 0.004292302 0.08251043
000130 4b 23 d0 3a 26 8f 8e bb f2 d9 d0 3b 8a 91 b1 3b
       0.0015879659 -0.0043505607 0.0063736374 0.005418961
000140 ea 10 01 3b f6 be 2a 3d 4c 1e 01 bb 8e 64 e1 ba
       0.001969392 0.04168602 -0.0019701896 -0.0017196105
000150 e8 b9 ae 3a b3 f4 93 ba 67 72 89 39 4c df a5 3b
       0.0013330551 -0.0011288136 0.00026215913 0.0050620195
000160 ec 3a c6 ba fc 4f d8 3b 83 50 94 3c aa f0 32 3a
       -0.0015123761 0.0066013318 0.018104797 0.0006826023
000170 4b 51 01 3c 25 ba 38 ba 3c 85 8c bb ac 88 a7 bb
       0.007892917 -0.00070467807 -0.0042883437 -0.005112728
000180 c5 de 37 3b fb 4f b1 3a cb 1e e0 3a a9 fa 65 3b
       0.0028056365 0.0013527864 0.0017099021 0.0035092032
000190 11 0d 30 3b 62 fd 1a ba b7 99 d8 ba 50 e9 51 ba
       0.0026863257 -0.0005912391 -0.0016525303 -0.00080074836
0001a0 d4 03 cd 3b c4 eb c8 3e 17 81 99 bc 47 00 94 bc
       0.00625656 0.39242375 -0.018738313 -0.018066538
0001b0 d2 df a3 bb a4 14 9f bb d8 9f 0d 3f cb 54 cc bb
       -0.0050010467 -0.0048547555 0.5532203 -0.006235694
0001c0 46 83 2c bc c8 43 79 bc bc 32 37 bc 0a 3b 5e bc
       -0.010529345 -0.015213914 -0.01118153 -0.013563881
0001d0 7f ca a8 3e 1f 28 99 bc 89 ba 90 bc dd 81 64 bc
       0.32966992 -0.018695889 -0.017667072 -0.013946977
0001e0 f9 8d 82 bc 54 99 2a bc 01 e6 55 bc 60 dc 9b bc
       -0.015936838 -0.010412533 -0.0130553255 -0.019025981
0001f0 d7 68 6b bc c7 ce 19 3e 3f f0 40 bc d3 99 c3 3d
       -0.0143682575 0.15020286 -0.011776029 0.09550824
000200 b2 ae 15 bc 0b 68 28 bc d4 21 3d bc d6 77 b0 bc
       -0.009135889 -0.010278712 -0.01154371 -0.021541517
000210 91 b0 8f bc 2a b7 3a bc be ee 0c bc 9a be a7 bc
       -0.017540248 -0.011396209 -0.008601842 -0.020476628
000220 c4 67 34 bc 24 50 e5 bb 4c 45 31 bc 20 65 75 bc
       -0.011011068 -0.006998079 -0.010819744 -0.014977723

lstm.bias_hh_l0 f4 [140]
000000 0d 99 a3 3e 11 d4 97 bc 71 3f 92 bc b2 b2 a3 bb
       0.31952706 -0.018533738 -0.017852517 -0.0049956674
000010 5a ad 9e bb 95 82 29 3f e1 68 ca bb 59 b7 29 bc
       -0.0048424425 0.6621488 -0.0061770533 -0.010358655
000020 1f 1c 75 bc b5 8a 36 bc 84 3b 5d bc 09 b8 91 3e
       -0.014960318 -0.011141469 -0.013502959 0.2846072
000030 d9 54 97 bc 21 e2 8f bc 84 a3 61 bc 4e 57 81 bc
       -0.018473076 -0.017563881 -0.013771895 -0.0157887
000040 6a dd 28 bc d8 4a 52 bc 9d f2 99 bc 2b b9 67 bc
       -0.0103066955 -0.012835227 -0.018792445 -0.014143269
000050 b7 ad 15 3e 45 cf 3f bc 03 e4 b9 3d 88 bb 14 bc
       0.14617048 -0.011707132 0.09076693 -0.009077914
000060 8a cb 27 bc 1f ea 3b bc 2b 60 ad bc 45 19 8e bc
       -0.010241399 -0.011469393 -0.02116402 -0.017346034
000070 d7 d1 39 bc 0f d7 0a bc 49 0b a5 bc 40 f2 32 bc
       -0.011341534 -0.0084741255 -0.020146983 -0.010922015
000080 0a a9 e4 bb c2 47 30 bc bf 33 71 bc 43 79 cd 3e
       -0.006978159 -0.010759296 -0.01472181 0.40131578
000090 67 6b 80 bc c3 78 75 bc 4f b3 55 bb 2c ae 53 bb
       -0.015676213 -0.014982405 -0.0032608097 -0.003229986
0000a0 1e 44 fc 3e f7 70 a9 bb e8 c1 12 bc 0e 9f 54 bc
       0.4927072 -0.005170937 -0.008957364 -0.012977375
0000b0 79 d6 20 bc 8d fa 2d bc ab be b0 3e a1 2c 78 bc
       -0.009816759 -0.010618818 0.34520468 -0.015147359
0000c0 e2 fb 3f bc 1d 5c 0e bc e6 db 5e bc 04 1c 05 bc
       -0.011717768 -0.008688954 -0.013602233 -0.008124355
0000d0 54 7e 33 bc ce 17 7f bc b1 ae 47 bc 87 ec 11 3e
       -0.010955412 -0.01556964 -0.012187646 0.14250384
0000e0 e9 56 1f bc f4 bb 00 3e 51 6b c7 bb 26 3b 0c bc
       -0.009725311 0.12571698 -0.006085791 -0.008559024
0000f0 b3 1d 28 bc c4 a0 82 bc c6 ee 74 bc 05 23 1c bc
       -0.010260987 -0.0159458 -0.014949506 -0.009529834
000100 8e 9a e0 bb e0 f3 74 bc e3 89 0d bc 04 fa c2 bb
       -0.006854362 -0.014950722 -0.008638832 -0.0059502143
000110 a3 fa 12 bc b1 ee 50 bc ee aa 08 3d 8e 33 2b 3b
       -0.008970889 -0.012752221 0.033366136 0.0026123258
000120 09 96 b1 3a 85 00 7d bb e6 a6 8c 3b 4e 86 b2 3d
       0.0013548742 -0.0038605046 0.004292357 0.08717023
000130 e7 04 d0 3a fd 86 8e bb df e0 d0 3b 7f 90 b1 3b
       0.0015870602 -0.004349588 0.006374463 0.0054188366
000140 9d 11 01 3b 56 28 07 3d 02 e6 70 ba ae 64 e1 ba
       0.0019694336 0.03299745 -0.0009189547 -0.0017196143
000150 53 93 ae 3a cb 82 94 ba 3d 7f 89 39 62 df a5 3b
       0.0013319053 -0.0011330483 0.00026225476 0.0050620297
000160 05 49 c6 ba 7d 4e d8 3b aa 0c 04 3d 3e f4 32 3a
       -0.0015127963 0.0066011534 0.03223864 0.0006826556
000170 d7 67 2a 3c 4b ec 34 ba 3c 85 8c bb 68 90 a7 bb
       0.010400734 -0.00069016655 -0.0042883437 -0.00511365
000180 c5 de 37 3b bc ba a8 3a be 55 e0 3a 92 fa 65 3b
       0.0028056365 0.0012873034 0.0017115397 0.0035091978
000190 9d 0d 30 3b 04 f2 1a ba 14 cd d8 ba 50 e9 51 ba
       0.0026863583 -0.0005910697 -0.001654061 -0.00080074836
0001a0 da fa cc 3b e0 ed c8 3e 17 81 99 bc 47 00 94 bc
       0.00625549 0.39243984 -0.018738313 -0.018066538
0001b0 d2 df a3 bb a4 14 9f bb d8 9f 0d 3f cb 54 cc bb
       -0.0050010467 -0.0048547555 0.5532203 -0.006235694
0001c0 46 83 2c bc c8 43 79 bc bc 32 37 bc 0a 3b 5e bc
       -0.010529345 -0.015213914 -0.01118153 -0.013563881
0001d0 80 bf a8 3e 1f 28 99 bc 89 ba 90 bc dd 81 64 bc
       0.32958603 -0.018695889 -0.017667072 -0.013946977
0001e0 f9 8d 82 bc 54 99 2a bc 01 e6 55 bc 60 dc 9b bc
       -0.015936838 -0.010412533 -0.0130553255 -0.019025981
0001f0 d7 68 6b bc be d3 19 3e 3f f0 40 bc d3 99 c3 3d
       -0.0143682575 0.1502218 -0.011776029 0.09550824
000200 b2 ae 15 bc 0b 68 28 bc d4 21 3d bc d6 77 b0 bc
       -0.009135889 -0.010278712 -0.01154371 -0.021541517
000210 91 b0 8f bc 2a b7 3a bc be ee 0c bc 9a be a7 bc
       -0.017540248 -0.011396209 -0.008601842 -0.020476628
000220 c4 67 34 bc 24 50 e5 bb 4c 45 31 bc 20 65 75 bc
       -0.011011068 -0.006998079 -0.010819744 -0.014977723

hidden1.weight f4 [17, 70]
000000 a2 d7 9c 3d 9e ff 86 39 66 c5 8c bb fc 95 b5 bc
       0.07658316 0.0002574892 -0.0042959927 -0.022166245
000010 b3 6f a7 3c e0 00 d1 be 97 0a b4 bb 29 39 d9 3b
       0.020439005 -0.4082098 -0.0054944265 0.0066291285
000020 33 a1 83 bb 8e 41 15 bc eb 75 d1 3b 1d 22 93 3d
       -0.004017019 -0.009109868 0.0063922307 0.07184241
000030 68 81 52 3b eb d0 c2 bc ec 54 25 bd 0c 46 94 3b
       0.003212059 -0.02378126 -0.04036419 0.004524952
000040 49 c8 bc 3c 47 3b d0 bb 77 87 56 3b 82 35 61 bb
       0.023044722 -0.0063547227 0.0032734552 -0.0034364169
000050 b3 78 2f 3d d6 7f 07 bc 42 0e 75 bd 03 97 f1 bc
       0.042839717 -0.008270225 -0.05982805 -0.029490953
000060 f4 60 77 3a 54 cd 0e 3c 4f 0d cc bc 20 af be bb
       0.00094367494 0.008715946 -0.02490869 -0.0058192164
000070 83 e5 01 3b e4 a0 d0 bb 3c d9 df bc da d4 ab bc
       0.0019820638 -0.006366836 -0.027325265 -0.020975519
000080 de cd 24 3b 01 ca 01 3c 0e 90 8b bb 33 22 4a be
       0.002514712 0.007921697 -0.004259116 -0.19739608
000090 d5 45 4d 3b 1a 7c d8 3b 82 4d 0b 3c 1a e9 0b bc
       0.003132214 0.006606591 0.008502366 -0.008539462
0000a0 57 b1 45 3e c6 7c 2c 3b 00 92 9b b9 b4 71 25 3b
       0.19305931 0.0026319488 -0.00029672682 0.0025244774
0000b0 be ad 7d ba ef b7 e5 3b eb c1 3a be 37 1c c5 bb
       -0.00096770737 0.007010452 -0.18238036 -0.0060153264
0000c0 9c 07 00 3c 6c 89 8c 3c 17 58 ea bb 67 06 2d bc
       0.007814314 0.017155372 -0.0071516144 -0.0105606085
0000d0 36 63 d5 3a 10 27 df bb 13 e3 19 3b 64 cc fd bd
       0.0016280178 -0.0068100765 0.0023481294 -0.123925
0000e0 0f c1 c0 3b 11 d2 54 3d 77 42 57 3c 90 9e 8c 3a
       0.0058823894 0.051958147 0.013138405 0.0010728408
0000f0 07 f8 e1 39 62 66 a0 3c 6c b8 0b 3c 6e 68 10 3c
       0.0004310014 0.01958007 0.008527856 0.0088139605
000100 9d 63 8d 3a ed c4 96 3c a9 9c 34 3c f0 96 fb bb
       0.0010787133 0.018404448 0.011023679 -0.0076779053
000110 f2 08 aa bb cc 1c 17 3b 7a 18 1c be 8c a7 66 bc
       -0.0051890546 0.0023057936 -0.15243712 -0.014078032
000120 a5 49 47 bc c1 09 d0 b9 d1 1b 1a 3a 40 3c 6f 3f
       -0.012163554 -0.0003968012 0.0005878779 0.9345131
000130 de b2 79 bb 48 ec b0 3a 0d ee 54 ba af e9 6d 39
       -0.0038100998 0.0013498152 -0.00081226305 0.00022689135
000140 8a a9 06 bc aa 64 1d be dc 74 55 3c 6a 88 34 3c
       -0.008219132 -0.15370432 0.01302835 0.011018852
000150 e8 3e ae b7 ab 4c 38 3c da 36 66 3b 43 c8 9d b9
       -2.077171e-05 0.011248748 0.003512791 -0.0003009458
000160 3d 88 52 3c 8a 83 bd b9 71 e4 fd bd e1 76 07 bc
       0.012849865 -0.00036146893 -0.12397087 -0.008268089
000170 d0 c1 8f 3e c0 13 6f bb ee b8 0f 3c d8 08 bd 39
       0.28077555 -0.0036480278 0.008772118 0.00036055478
000180 48 1a 8c bb 36 b4 37 bc f8 c2 23 bc c3 5b e8 39
       -0.004275594 -0.011212399 -0.009995215 0.00044318856
000190 01 6f 94 bb 6e f1 a9 bb 73 da ba 3b bd 6e 01 3c
       -0.0045298343 -0.0051862514 0.0057023107 0.007899937
0001a0 bb 37 7d ba d1 dc d1 3e ce 88 58 bb 27 37 08 bb
       -0.00096594886 0.40988782 -0.0033040526 -0.0020784826
0001b0 e4 33 96 3a c1 f8 cc b8 b9 72 95 be 8c ed 6b ba
       0.0011459556 -9.773812e-05 -0.2918909 -0.0008999936
0001c0 49 5b 93 ba 10 2e b4 ba 7d bc ae 3a 39 51 5f b9
       -0.0011242415 -0.0013746638 0.001333132 -0.00021297195
0001d0 55 ef ce 3e 92 4f e5 3a 14 73 62 3b 64 71 aa 3a
       0.4041697 0.0017495027 0.0034553455 0.0013003764
0001e0 f8 4c 85 3b 5e 6c 6b ba f6 45 93 3a 1c c3 0d 3b
       0.0040680133 -0.00089806865 0.001123606 0.0021631187
0001f0 d0 26 d1 ba 94 95 bb 3e ff 61 a0 bb 36 b3 72 be
       -0.0015957002 0.36637557 -0.0048944945 -0.23701176
000200 36 a3 2e ba 7e 0a 8b 3b 9c 11 e7 ba 90 8a 5f 3b
       -0.00066618936 0.004243194 -0.0017629149 0.003410969
000210 81 03 71 bb 3d 2e 1c 3a f9 ba b4 3a a4 26 40 3b
       -0.003677577 0.0005957818 0.0013788632 0.0029319907
000220 e8 90 8e b9 b5 cd 93 3b 7f dd 90 3b b5 9c 87 ba
       -0.00027192314 0.004510606 0.0044209356 -0.0010346385
000230 0f fa 77 3d 69 1e cf bb 4e e7 21 bc 7f 3f 9b bc
       0.06054121 -0.006320764 -0.0098818075 -0.018951176
000240 56 67 90 3c 52 9b b5 be 60 af 02 bc 9a 26 15 3c
       0.0176274 -0.35470062 -0.007976383 0.009103442
000250 fd 9c ed bb 3e 66 36 bc fc 46 75 ba 75 21 67 3d
       -0.0072513805 -0.011132775 -0.0009356586 0.05642839
000260 ac 73 18 3c 0e 9d 83 bc 6d 8e 20 bd 5d fe 1b 3c
       0.009304922 -0.0160661 -0.039198328 0.009521094
000270 e4 7f bd 3c 0f 80 12 bc 5c 2f 18 3c cb bd dd bb
       0.023132272 -0.008941664 0.009288635 -0.00676701
000280 95 b8 f8 3c 41 c9 3c bc 4f a9 46 bd 3c 0d eb bc
       0.030361453 -0.011522592 -0.04850131 -0.028692834
000290 d1 a9 c6 3b fe fb 33 3c 38 52 db bc 3b d4 2e bc
       0.006062724 0.010985373 -0.026772603 -0.010670717
0002a0 cf 1d 8f bb a8 d4 06 bc cb cd ec bc af 89 b0 bc
       -0.004367567 -0.008229412 -0.028906723 -0.021550028
0002b0 79 45 dd 3b ee c9 36 3c 92 88 f3 bb f3 a8 31 be
       0.0067526666 0.011156542 -0.007432052 -0.17349605
0002c0 17 79 3b bb 06 e7 bf 39 9a 5d 14 3c 5c ef 0a bc
       -0.002860611 0.00036602485 0.0090555195 -0.008479919
0002d0 83 d4 2e 3e af f0 b0 ba e4 94 23 3b 3a cb 4b 3a
       0.17073254 -0.0013499464 0.0024960572 0.00077741186
0002e0 2d 8e 20 bb 56 94 47 ba b4 57 23 be cf 73 75 39
       -0.0024498806 -0.00076133513 -0.15951425 0.00023408163
0002f0 09 8e 49 3c c1 bb 63 3c 5b b4 8d ba f3 65 cc bb
       0.01230193 0.0138997445 -0.0010811196 -0.006237739
000300 45 23 6f ba 0b 6a 1e ba 52 bd 14 3a 30 2c d9 bd
       -0.0009122382 -0.00060430233 0.0005673963 -0.10604131
000310 f2 3e f2 38 83 36 36 3d ef 41 15 3c 56 95 be 3b
       0.00011551184 0.04448558 0.009109958 0.005816142
000320 2b 89 20 3b fe 52 68 3c 4a 8d 20 3b 66 da 68 3a
       0.002449582 0.014179943 0.0024498277 0.00088826416
000330 f6 1a ab ba d0 11 55 3c d0 9c ca 3b b0 e3 4e ba
       -0.00130543 0.013004735 0.0061832443 -0.00078922044
000340 3a c3 fc 39 63 3f 16 3a ba 9c 90 3d 3b 30 39 3c
       0.0004821064 0.0005731491 0.07061143 0.011303003
000350 86 9b 31 3c 1f 3c 93 bb 87 75 83 3b e6 ac ed be
       0.010840302 -0.004493251 0.004011813 -0.46420974
000360 04 c5 93 3a f6 e1 3d 3a 03 85 00 3b 3b 0b 02 3b
       0.0011273925 0.00072434486 0.001961053 0.001984312
000370 ea 07 5d 3b ee fa 8e 3d 99 e5 3d bc a2 ac 45 bc
       0.003372664 0.06981455 -0.011590385 -0.012065085
000380 12 3d f2 b9 1c fe d8 bb 83 c4 83 3a 23 72 6f 39
       -0.00046203338 -0.006622089 0.0010053072 0.00022835335
000390 4d 07 3f bc a9 ed cc 3a af dc 57 3d 1c 8f 34 3b
       -0.0116594555 0.0015634793 0.052700695 0.002755112
0003a0 77 9b e0 bd 9f 75 ee ba 29 a7 a6 bb 02 47 06 bb
       -0.109671526 -0.0018193013 -0.005085845 -0.0020489101
0003b0 2e 14 26 3c 12 a7 08 3c 90 cf 39 3b 06 d5 e0 ba
       0.010136647 0.008340614 0.0028352477 -0.001715333
0003c0 41 6f 17 3c a2 0e 0e b9 e8 3c b6 b9 bc d6 45 bb
       0.009242834 -0.00013547626 -0.00034759124 -0.0030187806
0003d0 40 ae fc 3a 35 78 5c 3e d5 6a c7 3a bd 6f e0 b9
       0.0019278005 0.2153023 0.0015214334 -0.0004280786
0003e0 40 4a 03 bc cb 53 07 3c e0 5e 36 be 72 10 a6 ba
       -0.008013308 0.008259724 -0.1780963 -0.0012669696
0003f0 a0 03 ac 3a 69 c2 03 bb 07 27 c3 ba 15 14 6c ba
       0.0013123639 -0.002010489 -0.001488895 -0.0009005678

hidden1.bias f4 [17]
000000 ec 29 a1 bd 98 f6 67 3e 8b 86 87 bd 68 2d 45 bb
       -0.07869324 0.22652662 -0.06617459 -0.0030086879
000010 cd 61 5e bb 0b 81 d9 bc b1 ce 8b bb f5 b4 19 ba
       -0.0033932806 -0.02655079 -0.004266583 -0.00058634515
000020 9e 8d 9e b9 98 4a 32 b6 ad ce bc bd 43 20 d7 bd
       -0.0003024162 -2.6567486e-06 -0.09219108 -0.105042
000030 6e c2 b3 bd 47 8a 72 bd c0 54 5d bb 0e db be 3d
       -0.08777319 -0.059213903 -0.0033772439 0.09319125
000040 77 84 ed 36
       7.0785713e-06

hidden2tag.weight f4 [1, 17]
000000 ce c7 de be 12 2a 98 bf 3e 14 bd be e2 76 e9 3e
       -0.43511814 -1.1887839 -0.36929506 0.45598513
000010 0b c7 97 bc 6a d8 3d 3f 9e a1 f2 3e e1 3d 9a 39
       -0.018527528 0.74158347 0.4738893 0.00029419272
000020 15 3d c4 3a 68 bb 8d b7 fc 74 f7 be 40 22 0c bf
       0.0014971817 -1.6895778e-05 -0.4833144 -0.5473976
000030 40 8c f5 be eb 8b bb be e8 82 c4 3a a7 39 6f bf
       -0.47958565 -0.36630186 0.0014992626 -0.93447345
000040 e3 42 37 b8
       -4.3692893e-05
