pair_sampling/models/d_model.pt (torch_old, 11958 bytes, 13 tensors)

tcr_embedding.weight f4 [21, 10]
000000 00 00 00 00 00 00 00 00 00 00 00 00 00 00 00 00
       0.0 0.0 0.0 0.0
000010 00 00 00 00 00 00 00 00 00 00 00 00 00 00 00 00
       0.0 0.0 0.0 0.0
000020 00 00 00 00 00 00 00 00 80 8a 9f bf 13 2a 03 40
       0.0 0.0 -1.2464142 2.049443
000030 ec f8 2e 3f b0 91 3d c0 d0 04 aa bf 3e 14 bb bf
       0.68348575 -2.962017 -1.3282719 -1.4615552
000040 f2 70 0b 40 6a 7a ec 3f 6c ad c7 3c 7e d5 c3 3e
       2.1787686 1.8474858 0.024374686 0.3824882
000050 8b a7 7f bd 35 89 86 bf 80 b3 06 40 c3 e4 c3 bf
       -0.06241564 -1.0510622 2.1047058 -1.5304188
000060 e6 a1 fd 3e 1f 71 59 3e 20 5f 4e 3f 79 08 43 c0
       0.4953758 0.21234559 0.806139 -3.0473921
000070 e2 a5 df 3e b9 dd 54 40 af aa b0 be 38 16 bf 3f
       0.43681246 3.3260329 -0.3450522 1.4928656
000080 f1 6f 50 bf 60 e7 e0 3b 74 35 42 3f 11 dc c7 3d
       -0.8142081 0.0068635195 0.75862813 0.09758771
000090 f2 7e 97 3e e5 7e 82 bf 74 ef 23 c0 25 83 61 3f
       0.2958904 -1.0194975 -2.56149 0.88090736
0000a0 3f fc 10 40 b9 7a 22 3f aa f7 91 be 31 fc d2 bf
       2.2653959 0.6346851 -0.28509265 -1.6483213
0000b0 16 0f 43 be 84 43 c2 bf 11 b2 23 3f 25 b1 94 3e
       -0.19048724 -1.5176854 0.6394358 0.290414
0000c0 95 2d 67 bf 1a b6 43 bf ea 03 26 40 f1 0c 2d 3f
       -0.9030393 -0.7644974 2.593989 0.6759787
0000d0 0c e7 8a bf 1c 33 c5 bf c0 6c d9 bf fa 35 8a be
       -1.085176 -1.5406222 -1.6986313 -0.26994306
0000e0 1a 7c 21 bf b5 1a fb 3f c3 fa f2 be bb 57 ae 3f
       -0.6307999 1.9617525 -0.4745694 1.3620523
0000f0 de e4 40 bf 2c 91 a6 be 3d eb d7 3e 4f 30 18 c0
       -0.75349224 -0.32532632 0.4217166 -2.3779485
000100 e2 39 90 be 5a 0f 02 bf af cf cb bf cf 35 0d 40
       -0.2816916 -0.50804675 -1.5922755 2.2064092
000110 8a a7 11 bf 3f 31 fb bf ac 64 69 3f e9 a4 84 be
       -0.5689627 -1.9624404 0.9116924 -0.25907066
000120 12 d0 96 3b 3c ef d2 3d 47 ff a9 bf 16 9c 02 3f
       0.0046024406 0.102995366 -1.328103 0.5101942
000130 77 f8 88 bd 25 60 f0 3e 80 10 e1 bf 61 fb 3e bf
       -0.06688016 0.46948352 -1.758316 -0.74602324
000140 b0 e5 58 3f 4c 99 e0 3e 25 cb 8b bf 5a ec ad bf
       0.84725475 0.43866956 -1.092137 -1.3587754
000150 41 08 9c bf f4 ac 42 3f 77 a9 46 3e 10 48 94 3f
       -1.2190019 0.76045156 0.19400583 1.1584492
000160 fc ba d4 3f ff 58 75 3f 18 e2 7d bf fa 9f fa 3e
       1.6619563 0.9583892 -0.99173117 0.48950177
000170 5b 95 f3 bf 2b b1 85 bf 2a ac 84 bf ec 08 d9 3d
       -1.9029955 -1.0444692 -1.036504 0.10597405
000180 82 d7 c2 3f de da 4a bf cb 83 96 3e e3 4e 5b bf
       1.5222018 -0.79240215 0.29397425 -0.85667247
000190 bd f4 b8 bf 62 50 ab 3f b0 e7 0d 3f 3f c3 db 3e
       -1.4449688 1.3383906 0.5543165 0.42922398
0001a0 4c 81 c1 bf d9 3e 48 40 fb 3a 91 3e 06 03 dd bf
       -1.5117583 3.128836 0.2836531 -1.7266548
0001b0 70 58 60 3c 0d cc 00 40 97 b0 28 3f 5e 2a 1c 40
       0.01369296 2.0124543 0.65894455 2.440086
0001c0 d8 fc a0 3e f2 16 f0 3e 81 5f 9d 3f 27 22 a1 bf
       0.31442904 0.46892506 1.229477 -1.2588547
0001d0 43 f7 c2 3d b5 bd da be 46 87 01 3f 65 46 9d bf
       0.09519818 -0.4272286 0.50597036 -1.2287108
0001e0 d5 0e 25 be 9e 74 cb bd e1 bf 6a bf 97 f7 5b 3f
       -0.16118939 -0.09934352 -0.91699034 0.8592467
0001f0 dc 14 09 3f 16 ee cb bf 1a e0 ca bf 7c ca 1f c0
       0.53547454 -1.5932033 -1.584964 -2.4967337
000200 fb 65 41 be 29 95 ce bf 3e 91 1c 3f 44 1c 8f 3f
       -0.18886559 -1.613927 0.6115912 1.1180501
000210 1c a5 85 bf ad 76 99 3b f6 a8 5e c0 66 29 da bf
       -1.0441012 0.0046833367 -3.4790626 -1.7043884
000220 0a a9 88 be 06 10 25 c0 12 f3 0b 3f 26 0d a8 bf
       -0.26691467 -2.579103 0.5466777 -1.3129013
000230 36 95 70 bf 9c 1c f6 bf 53 ea 22 3f 0a aa a2 3f
       -0.9397768 -1.9227481 0.636388 1.2708142
000240 d2 7f 34 c0 f5 9d e3 bc b2 ad 1f 3f 3d 1f 98 3f
       -2.8203015 -0.02778528 0.62374413 1.1884533
000250 d3 77 8d bf 02 42 a1 be 93 46 2d 3f 9f 8c cb be
       -1.1052192 -0.31495672 0.6768581 -0.39755723
000260 ce 16 81 3f 0a 43 9b 3f f9 96 ef 3f a0 bb a3 3e
       1.0085084 1.2129834 1.8717948 0.31979084
000270 2d 64 93 3f c6 3e 42 3f 1d 6e 3c 3c 99 88 74 3f
       1.1514946 0.75877035 0.011500862 0.9552093
000280 ef 63 b5 bf 16 eb d2 3d 53 2d 27 bf 08 b5 05 3e
       -1.4171122 0.10298745 -0.65303534 0.13057339
000290 60 95 92 be 70 15 de bf b0 7d 16 3f 0d e0 8e bf
       -0.2862959 -1.7350292 0.58785534 -1.1162125
0002a0 ae 7b 84 bf 67 e1 bb 3f 03 ab 98 3f d9 ac 9f bd
       -1.0350244 1.4678162 1.1927189 -0.0779664
0002b0 93 02 10 40 4f 81 4c bd 9d f2 1b bf 28 f1 83 bf
       2.250157 -0.049928006 -0.60917073 -1.030797
0002c0 9b e9 df 3e 15 d3 8d 3f 98 e4 94 3f 51 ab 5a 3f
       0.43732914 1.1080042 1.1632261 0.8541766
0002d0 ea db 86 3f 14 f6 b6 3f eb 5d d9 3e 6b e5 80 40
       1.0535862 1.4293847 0.42454466 4.028005
0002e0 98 a3 37 3f 01 1c af bf 8b 5a 3c 3f d6 42 b6 3e
       0.71734 -1.3680421 0.7357566 0.35597867
0002f0 aa 46 85 3f 4e db 53 3f 11 17 01 3f ff a7 bb bf
       1.041219 0.8275651 0.5042582 -1.4660643
000300 48 60 8c 3e b7 33 d3 3d 2d 1e 89 3f a1 c3 a5 bd
       0.27417207 0.10312598 1.0712334 -0.08093954
000310 ae d1 40 40 6a cf bf bf c0 9d 80 bd 51 77 ab bf
       3.0127978 -1.4985173 -0.062800884 -1.3395787
000320 2f a8 29 c0 28 4e 8b 3f 47 29 9c 3f d2 7e d0 be
       -2.65089 1.0883226 1.2200097 -0.40721756
000330 f3 65 be bf 54 cf 97 3f b7 f6 79 3f 78 0f 94 bf
       -1.4874862 1.1860147 0.9764208 -1.1567221
000340 50 d8 11 c0 a5 24 b7 bf
       -2.2788277 -1.4308058

pep_embedding.weight f4 [21, 10]
000000 00 00 00 00 00 00 00 00 00 00 00 00 00 00 00 00
       0.0 0.0 0.0 0.0
000010 00 00 00 00 00 00 00 00 00 00 00 00 00 00 00 00
       0.0 0.0 0.0 0.0
000020 00 00 00 00 00 00 00 00 39 1e 1e 40 9c cf da bf
       0.0 0.0 2.4705946 -1.7094607
000030 67 6c 17 bf d3 c5 a2 be eb 1d 54 3f 7f fc 96 be
       -0.59149784 -0.31791553 0.8285815 -0.29489514
000040 89 0a 7b 3f 17 b3 fa be 57 8e fb 3e 4a 07 0d 40
       0.9806295 -0.4896476 0.49132034 2.20357
000050 13 b9 f1 bf 63 16 24 40 32 c1 ca 3d 1c c4 75 3f
       -1.8884605 2.5638664 0.0990013 0.96002364
000060 fb dc 96 bf d1 89 13 40 94 62 0f be b8 64 31 c0
       -1.1786188 2.3052866 -0.14002448 -2.7717724
000070 03 6b 04 c0 04 cb a9 3f 2e ec e6 bf 97 ae 96 bf
       -2.0690315 1.326508 -1.8040826 -1.177203
000080 65 1c 2b 3c a7 9a 75 bf d3 06 71 3f 99 98 4c bf
       0.0104437815 -0.95939106 0.9415104 -0.79920346
000090 a9 e8 99 3e e5 41 b7 3e 8d a1 8a 3f 1a b8 02 c0
       0.30060318 0.3579246 1.0830551 -2.0424867
0000a0 07 47 8c be be ee 62 3f 80 c3 7a be 4b 08 0c bf
       -0.2739794 0.8864554 -0.2448864 -0.54700154
0000b0 b2 38 bc be cc 67 31 3e e8 a1 37 c0 07 19 ad be
       -0.36762005 0.17324752 -2.869257 -0.33808157
0000c0 b7 a6 26 bf 05 8d b3 bf 86 bc db 3e 08 28 2e bd
       -0.65098137 -1.4027411 0.4291727 -0.042518646
0000d0 ca 18 58 bd 3d e2 58 bf a6 10 41 bf 50 e9 2d bf
       -0.052758016 -0.8472021 -0.7541603 -0.6793413
0000e0 3b 0e 43 3f 35 f9 dd 3f 35 40 a7 bf bc 38 1d c0
       0.7619359 1.7341677 -1.306647 -2.4565878
0000f0 05 79 1d 3f d0 a6 96 3f ac 98 a8 3f 2c a8 91 3e
       0.61512786 1.1769657 1.3171592 0.28448617
000100 b7 69 17 c0 21 a2 b7 bf 7d 3e d7 bf 45 50 68 3f
       -2.3658273 -1.4346353 -1.6815945 0.9074748
000110 85 af da 3f 95 0b 57 bf 94 e0 0f 3f 6d f8 b3 bf
       1.7084814 -0.8400205 0.56202054 -1.4060189
000120 40 5b 03 40 24 50 0c bf 6d b8 9f 3f 46 05 66 bf
       2.0524445 -0.54809785 1.2478157 -0.89851797
000130 e3 b2 8d bf 55 53 de 3d aa f4 4e bf 15 21 4a bf
       -1.1070217 0.10855738 -0.8084208 -0.7895673
000140 c2 cb be bf 5c e2 d7 3f 5e 31 9d bb 95 b2 2b be
       -1.4905932 1.6865954 -0.004797145 -0.16767342
000150 4c 00 eb 3e 4c ee 2d 3f f4 e1 49 3f 12 a5 fc 3f
       0.45898664 0.6794174 0.788604 1.9737875
000160 c1 c9 57 3f e9 e4 f5 3e 02 ce 72 3f 7e 85 a6 be
       0.8429223 0.48026207 0.9484559 -0.3252372
000170 5a 84 c4 3f 2c 72 f2 bd 3d 0d 80 3f 27 f3 24 c0
       1.535289 -0.11838183 1.000404 -2.5773408
000180 c5 3e 55 bf 24 3c 97 bf 43 49 82 be 41 b0 4f 3f
       -0.83298904 -1.1815228 -0.2544652 0.8112832
000190 4a 20 05 3f 5d 78 db bd b7 54 a7 3f bc 53 9f 3f
       0.52002394 -0.10716317 1.3072728 1.2447429
0001a0 4f 04 1b c0 f3 b0 2d c0 51 6e 4c 3f 48 fe 03 40
       -2.422138 -2.7139251 0.7985583 2.062395
0001b0 bf 66 f0 be 8f d5 26 3f 88 39 90 3f 8f 4e f2 bc
       -0.4695339 0.65169615 1.1267557 -0.029578475
0001c0 55 38 c5 be de 7a 95 bf 30 9e d3 3e 6f 9b 00 40
       -0.3851954 -1.1678121 0.41331625 2.009487
0001d0 d3 5d c5 3f 57 50 da 3f 1d 83 52 40 35 79 8a be
       1.5419258 1.7055768 3.2892525 -0.270456
0001e0 3c 7c a9 bf 06 65 b6 3f d7 8e 92 bf f2 df c9 3f
       -1.3241038 1.424958 -1.1449841 1.5771468
0001f0 4c 64 c6 bf 66 63 15 40 a7 8c 85 bf 0c 3b 21 c0
       -1.5499358 2.3341918 -1.0433549 -2.519229
000200 d9 45 af bf ef 87 9b 3f 8a c4 c3 bc d3 e6 cb 3b
       -1.3693191 1.2150859 -0.023897428 0.0062225848
000210 e5 27 ed bf 9a 2d 26 3d 3a 25 c4 3f eb 1e df bf
       -1.85278 0.040570833 1.5323861 -1.743131
000220 5b 89 bb 3e 6c df 63 bf 75 82 90 3d a8 79 b9 bf
       0.3662823 -0.8901279 0.07056133 -1.4490252
000230 c7 46 82 bf cb 21 53 bf dd f8 37 3f 37 52 f7 3f
       -1.017785 -0.8247344 0.7186411 1.9321965
000240 de 3d ae be c1 7c ab 3e 41 cb de 3f 2b ab e0 bf
       -0.34031576 0.33493617 1.7405778 -1.7552236
000250 9d d6 7e 3f 2c ab 6d bf bc 26 6a bf cb 09 b7 3e
       0.99546224 -0.9283931 -0.91465354 0.3574966
000260 18 64 e4 3f e7 6e 4a 3f 8a 27 89 3f 2f 97 fd 3f
       1.7843046 0.79075474 1.0715191 1.9811763
000270 10 ec 37 be 75 7d 64 bf 5d 56 15 3f ae 82 82 bf
       -0.17961144 -0.8925393 0.58334905 -1.019613
000280 85 af a4 bf 4d ac 93 3f 19 66 78 bf 0c 8d a6 bf
       -1.2866064 1.1536957 -0.9703079 -1.3011794
000290 fb 58 8a 3e ec dd dc bd 3e 88 ce bf f0 b2 28 bf
       0.27021012 -0.10784516 -1.6135328 -0.65898037
0002a0 eb 35 c9 be f2 05 61 bf d3 88 08 3e e5 6d 66 be
       -0.3929895 -0.87899697 0.13333444 -0.22502859
0002b0 c0 25 2b 3e 32 b8 c0 3f 58 3e c0 3f 21 aa 0c 3f
       0.16713619 1.5056212 1.5019026 0.54947096
0002c0 31 4f d5 bf d7 50 07 3f 1b 69 b5 be f8 a7 50 be
       -1.6664792 0.52857727 -0.35431752 -0.20376575
0002d0 50 09 87 3f 85 e7 b7 3f 49 d1 17 bf d3 fd 97 3f
       1.0549717 1.4367529 -0.5930372 1.1874336
0002e0 02 58 18 3d a0 83 b4 3f e0 49 11 bf f8 8f 1f bf
       0.037193306 1.4102669 -0.5675335 -0.62329054
0002f0 9f c9 59 3f 4f 77 a2 3f b4 6b 9d 3d b2 e8 1a bf
       0.85073274 1.269266 0.07686558 -0.60511315
000300 a1 b2 f2 3f 76 99 63 be 38 2a 43 be b8 dc 21 40
       1.8960763 -0.2222651 -0.19059074 2.5290966
000310 55 26 01 bf c6 0e c8 3d 3d c6 16 3f f4 ae 14 bf
       -0.50449115 0.09768443 0.5889624 -0.5807946
000320 25 dc 71 3e e4 b0 ae 3e 31 dd 76 bf 18 e0 30 40
       0.23619135 0.34119332 -0.9643126 2.7636776
000330 40 49 2c c0 48 ae f0 bf 02 bd 59 3f 95 0d b4 be
       -2.6919708 -1.8803186 0.8505403 -0.35166612
000340 4d 73 b7 3f 37 7e ed be
       1.4332062 -0.46385357

tcr_lstm.weight_ih_l0 f4 [40, 10]
000000 7f 4d b7 bc cc ef 3a 3e 27 65 90 be 66 91 94 bc
       -0.02237582 0.18255538 -0.28202173 -0.018135738
000010 75 94 5a bf b8 6a 98 bc 10 95 2a 3f 2e 89 69 bf
       -0.8538278 -0.018605575 0.666337 -0.91224945
000020 ed 5b b1 bc b9 cd 21 3e dd 53 aa bd 7b 13 81 3f
       -0.021650279 0.15801133 -0.08316777 1.008407
000030 41 21 3e bf 31 3d 3d 3d de 48 aa be 67 a1 9d 3f
       -0.7426949 0.046200935 -0.33258718 1.2314881
000040 16 b7 96 3e 0a 7e c4 be c1 a2 8a be 18 73 c9 be
       0.29436558 -0.3837741 -0.27077296 -0.39345622
000050 e4 06 5e 3f 92 d5 0c bf b8 85 1e bd 4b 56 67 bf
       0.86729264 -0.5501338 -0.038701743 -0.9036605
000060 ec 7d 0f bf be e6 7d 3f c3 2e fe 3c 57 99 25 3f
       -0.56051517 0.9918021 0.031028157 0.64687103
000070 33 28 13 bf c9 80 5b 3e 38 0d 05 bf 6e 1f c3 3e
       -0.57483214 0.21435846 -0.51973295 0.38109916
000080 4c e6 3e bd a0 26 d3 be cb 48 b1 3d 48 8c a9 3e
       -0.046606347 -0.41240406 0.08656462 0.3311484
000090 6f 18 41 3f 9c 13 6a be 60 04 78 3e 89 d7 98 bd
       0.7542791 -0.22859043 0.24220419 -0.07462985
0000a0 d4 0e 39 3e 45 13 73 3e cb 6c 05 3f 84 30 72 bf
       0.18072063 0.2373782 0.5211913 -0.9460528
0000b0 51 a5 9d 3e c5 db 96 bf dc f4 ee 3f ce a8 90 3d
       0.3079019 -1.1785818 1.8668475 0.07063447
0000c0 23 7f 36 be 12 e8 b3 be 85 31 34 3f 34 e2 16 3f
       -0.17821936 -0.35137993 0.7038806 0.5893891
0000d0 0a ed 47 3e 79 74 46 3e 58 de d9 3e 73 1d 1b be
       0.19524017 0.19380368 0.42552447 -0.15147953
0000e0 03 e7 4f 3f 09 f5 58 be b9 17 01 3f 5c cb 25 3d
       0.8121187 -0.21187223 0.5042682 0.04047714
0000f0 eb be 75 bf dc 0a 58 be 6a 99 1a bf 4d 7f 66 be
       -0.9599444 -0.21097893 -0.6039034 -0.22509499
000100 7c 84 22 bf 7b 35 ce 3e 80 d1 3a 3f 09 15 06 bf
       -0.63483405 0.40275177 0.7297592 -0.5237585
000110 18 d6 79 bf f7 72 f2 be 83 95 af 3e 50 eb 9c 3d
       -0.97592306 -0.47353336 0.34293756 0.0766207
000120 29 5d 84 bf e6 94 4f be 03 e1 64 3c 8b e5 1a bf
       -1.034093 -0.20271644 0.013969663 -0.60506505
000130 2e 7f 05 3f 67 39 d1 3b b4 87 bc be 80 14 e5 3c
       0.52147186 0.0063850167 -0.36822283 0.027963877
000140 fd 4b 8c bc 18 3f 36 3c a5 ac 3b bc e1 9c c9 3c
       -0.017126078 0.011123441 -0.011454736 0.024610939
000150 7e 8d 8a 3e ec 75 52 3f 52 50 da 3e 43 d6 8c be
       0.27061075 0.82211185 0.42639405 -0.2750722
000160 16 26 c0 bf 69 92 2c 3f 4a 2b 39 bf 16 4c 77 bf
       -1.5011623 0.67410904 -0.7233168 -0.9660047
000170 98 c3 5d 3a 3c 98 a5 bd 6c 05 74 be 89 0b 45 3f
       0.00084596267 -0.08085677 -0.23830193 0.76970726
000180 cf 35 4e 3f 4a 5d 19 3f 3c 2e 03 bf 09 70 39 bf
       0.80550855 0.5990797 -0.51242423 -0.7243658
000190 0b 4b ca 3d df 9b 36 3f 96 11 9a 3d 32 60 41 3d
       0.098775946 0.7133159 0.075228855 0.04721088
0001a0 46 50 61 3f bb ca 03 bf 0e e1 61 be f6 a3 1b 3f
       0.8801311 -0.5148122 -0.22058508 0.6079706
0001b0 11 3b c5 3d 2b 49 19 bd f0 31 85 be 3f e4 4e bd
       0.09630407 -0.037423294 -0.26014662 -0.05051064
0001c0 80 06 17 bd 06 b0 d5 3e 6d 6a 1f bf a7 e9 65 bf
       -0.036871433 0.41735858 -0.6227177 -0.8980965
0001d0 0b 73 3f 3f 5b d7 27 bf 1f f6 a4 3e 12 87 7a 3f
       0.74784917 -0.6556298 0.32219025 0.9786235
0001e0 0c 53 2d be f5 e6 c8 be f0 78 8d 3e 29 6f 8c be
       -0.16926211 -0.39238706 0.2763133 -0.27428558
0001f0 ee 69 f8 3e 37 07 48 bf e3 d9 54 3f 18 51 92 be
       0.48518318 -0.7813601 0.8314497 -0.28577495
000200 69 d2 1e 3f 03 c1 5b be 31 a5 86 bf 3c a2 2a bf
       0.6203981 -0.21460347 -1.0519162 -0.666538
000210 48 0a f5 3e a6 94 d0 3f a6 33 14 3f 10 fe 6b be
       0.47859406 1.6295364 0.5789131 -0.23046136
000220 74 84 3c 3e 81 8c f8 be e8 fe 6b bd fa 61 f3 be
       0.18409902 -0.48544696 -0.057616144 -0.47535688
000230 3d a3 c9 3e 16 16 bd bf 5f 45 56 3f b6 48 9e 3f
       0.39382353 -1.4772365 0.836996 1.236594
000240 1f f9 be 3e dd a9 ca be 9c 18 db 3c 7c 05 57 bc
       0.3729944 -0.3958272 0.026745133 -0.013123866
000250 25 6a 64 3d 59 77 4e 3e 7c 33 23 bf b1 12 40 bf
       0.05576529 0.20162715 -0.63750434 -0.7502852
000260 68 ad d4 3e 27 78 99 3e 0a a0 49 bf d4 7d b9 3d
       0.41538548 0.2997448 -0.78759825 0.09057203
000270 75 21 87 3e 59 21 aa be e3 d3 58 3d 89 ba dc bd
       0.26392713 -0.33228567 0.052936446 -0.10777766
000280 1a dc fd be f3 fa f4 bf 95 27 88 3e 90 26 8f 3f
       -0.49581987 -1.9139084 0.265927 1.1183643
000290 c1 21 a8 3e d2 aa e4 3e 1b 67 98 3c d4 f4 86 3e
       0.32838252 0.44661576 0.018603852 0.26358664
0002a0 9f bb e7 be 72 ef 95 3e da 0e 7c be f6 f2 88 bf
       -0.4526033 0.29284245 -0.2461504 -1.0699146
0002b0 b1 1c 54 bd 9c a4 81 3e eb 2e 11 bf 12 0e 60 be
       -0.051785175 0.253209 -0.56712216 -0.21880367
0002c0 39 5e b3 be 01 3d 3a be 09 89 f5 be 80 f5 11 3e
       -0.35032824 -0.18187334 -0.47956112 0.14253807
0002d0 e5 65 75 3e 11 14 21 bf be f2 43 3f b6 7f 29 3f
       0.23964651 -0.62921244 0.7654227 0.66210496
0002e0 3c 4b ae be 10 46 c7 3e 56 33 14 3f f6 57 ce 3e
       -0.34041774 0.3892064 0.5789083 0.40301484
0002f0 9f 6e 8e bd 45 cb 0b bf 2e be 3b be 46 82 84 bf
       -0.06954693 -0.5460704 -0.18334267 -1.0352256
000300 78 03 bf 3e a0 e6 f3 3e fd a5 2e bd 45 a9 0d 3f
       0.37307334 0.4763689 -0.042638768 0.5533641
000310 cb a8 2e bf f9 1f 32 be d5 32 87 be de 38 fd 3e
       -0.6822631 -0.17395009 -0.2640597 0.4945745
000320 df 95 da bc 24 e7 31 be 0a a5 2f 3f 8b 74 77 3e
       -0.026682792 -0.1737333 0.68611205 0.24165551
000330 3c 3c 01 be 17 f8 e7 be 3a 95 43 3f b3 f2 16 3d
       -0.12620634 -0.45306465 0.76399577 0.03685255
000340 63 29 3c bd 58 6c f7 3e 1d 4b 9c be 39 9d 83 bd
       -0.045937907 0.48324847 -0.30526057 -0.06426472
000350 25 a7 21 3e 02 83 84 be 25 7b 1e be 2a 7d b9 bd
       0.15786417 -0.258812 -0.15476663 -0.09057076
000360 07 6e 3e 3e b7 df 52 3e a1 93 08 3f a0 19 8d 3f
       0.1859666 0.20593153 0.53350264 1.1023445
000370 6f e6 cc bd d4 65 d7 3d 5f b6 53 3f 8b 62 03 3e
       -0.10004889 0.10517469 0.8270015 0.1283056
000380 6f 35 e1 bc 30 b2 00 3f 17 61 07 3f a3 f3 38 be
       -0.0274913 0.5027189 0.5288252 -0.1806169
000390 88 f0 82 3f 21 ce 43 3e d1 ae 18 bd 00 18 76 bd
       1.0229654 0.191216 -0.037276093 -0.060081482
0003a0 fb 76 75 bf df 20 1e 3f 50 93 7d be cd 68 05 bc
       -0.95884675 0.6176891 -0.24763227 -0.008142662
0003b0 f3 3c c3 3e c9 b3 22 bf da 7f a7 be be b3 0a 3e
       0.38132438 -0.6355558 -0.3271473 0.13545129
0003c0 3c b9 38 3e b5 51 4c 3e 69 99 a6 be 3d 23 ce bd
       0.18039411 0.19953044 -0.32538918 -0.10065315
0003d0 0b c6 52 3f c6 e2 a6 3d 37 f8 65 3e 35 0d 82 bf
       0.8233344 0.08148722 0.22457968 -1.016028
0003e0 7f 76 fd be 84 87 19 bf e5 8d 56 bf f5 1b cc ba
       -0.49504468 -0.59972405 -0.83810264 -0.0015572297
0003f0 1b 51 fc 3e 8e 6b 45 3e 46 92 ad be 9a 0c b8 be
       0.4928063 0.1927931 -0.3390066 -0.35947114

tcr_lstm.weight_hh_l0 f4 [40, 10]
000000 c4 f9 30 3f 43 cd 72 bf b1 87 40 3e c2 42 9b 3e
       0.6913111 -0.94844455 0.18801762 0.3032437
000010 6b 8f ac 3d 78 a5 b9 3e 33 7a 84 3e 37 03 e5 3f
       0.08425792 0.36259055 0.2587448 1.7891606
000020 bb be 24 40 cd 6d ab 3f fd 7b 24 3f c2 d8 ed 3f
       2.5741413 1.3392884 0.6425169 1.8581774
000030 4d 77 4c c0 18 80 13 3e 2b c7 e1 be ae 7a 42 3f
       -3.1947815 0.14404333 -0.44097266 0.75968444
000040 32 15 52 3f ec 68 8f be f2 32 dc 3e d1 ca 22 3d
       0.8206359 -0.28009737 0.43007618 0.039744202
000050 7b 75 72 bd 35 37 42 bf 36 4c 53 bf 0a 09 af 3f
       -0.05919407 -0.7586549 -0.82538164 1.3674634
000060 e8 df 8d be d3 98 3f bf cc 3c 3a 3f 4d fc 99 bf
       -0.2770989 -0.74842566 0.7274902 -1.2030121
000070 8b e2 a4 be 29 9c 9d 3f ec 81 cc ba 72 7c 38 bd
       -0.3220409 1.2313281 -0.0015602685 -0.045040555
000080 3b 04 37 be 0a 31 d9 3f 66 71 d4 bf 28 fc 0e 3f
       -0.17872708 1.696809 -1.6597106 0.5585351
000090 9d 13 25 bf 85 49 54 bf bc 5e 99 bf e5 86 31 3f
       -0.6448305 -0.8292468 -1.1982036 0.6934646
0000a0 ca f3 8f 3e 59 24 e7 be 4b 2a db be 1a 49 1e bf
       0.28115684 -0.4514492 -0.42805704 -0.61830294
0000b0 e8 03 a1 bd e6 c3 92 3f 7c 77 bc bf db 5c 60 3f
       -0.07862073 1.1466033 -1.4723964 0.87641686
0000c0 97 66 9a be e7 95 9a 3f 71 7e d2 bf 4c 8d a4 be
       -0.30156395 1.2076997 -1.6444837 -0.3213905
0000d0 a1 40 50 bf 91 e5 8a 3e 8c 45 50 bf 4a b5 d9 3d
       -0.81348616 0.2712827 -0.8135612 0.10630281
0000e0 06 99 2c 3f c8 91 b0 be 5c 56 95 3f b3 21 13 3f
       0.67420995 -0.34486222 1.166698 0.57473296
0000f0 33 9e c7 3f dc b7 05 40 c7 44 7f 3e 2d 29 9b 3f
       1.5595154 2.089347 0.2492858 1.2121941
000100 6f 41 05 c0 0a 66 9c 3f ad aa a7 3f 9a ff 7d be
       -2.0821187 1.221864 1.3098961 -0.24804536
000110 d9 76 bf 3e 57 06 c6 3e 81 20 8c 3f 6a 94 92 3e
       0.3739536 0.38676712 1.094742 0.28628856
000120 d5 7c 97 3f 6e e7 bf 3f 5d f0 4b bf 97 19 45 40
       1.1834971 1.4992502 -0.7966364 3.0796869
000130 34 7e ff 3f 12 e9 27 c0 82 67 7a bf 70 b4 ff 3e
       1.9960389 -2.6236005 -0.9781419 0.4994235
000140 01 f4 6f 3f 6b a3 10 3f 9b 58 51 bf 69 b5 e6 3a
       0.93731695 0.56499356 -0.81775826 0.0017601672
000150 4d 09 e3 be 62 53 b7 3e ab 6f 1d bf 96 d5 a2 3f
       -0.44343033 0.35805804 -0.61498517 1.2721431
000160 9a b9 8c bf af bc b8 3e 60 ff 39 3f 34 39 b2 3e
       -1.0994141 0.36081454 0.72655296 0.34809268
000170 54 0b 1b 3f 5e 0b 56 3f 4c 35 03 c0 81 ea 6f 3f
       0.6056416 0.83611095 -2.050128 0.937172
000180 d4 22 73 bf fe e4 a9 bf ca d3 66 3f 08 8e 31 3f
       -0.9497502 -1.3273008 0.90166914 0.6935735
000190 28 51 2e bf a2 c0 c2 bf 16 d5 5f be 01 2a b5 bd
       -0.68092585 -1.5215037 -0.2185863 -0.08845902
0001a0 e5 2d 34 3e ad 83 2a 40 07 c6 22 be 9e f6 ea 3a
       0.17595632 2.6642869 -0.15895854 0.0017926281
0001b0 9e ef 20 3f f9 dc 4a 3d 86 7f e3 be 66 11 4f be
       0.62865627 0.049527142 -0.4443323 -0.2022148
0001c0 e8 24 61 3f d6 fa ba 3f 7f 5f ff 3e 40 f0 eb 3f
       0.8794694 1.4607799 0.49877545 1.8432693
0001d0 a7 a9 d2 bf c4 2f 11 bf 92 b8 cd be ac 11 94 bf
       -1.6458024 -0.5671351 -0.40179878 -1.1567893
0001e0 a0 26 65 b9 f5 5e 12 be cf 9a fc 3e 1d 81 1c 3f
       -0.00021853531 -0.14294036 0.4933686 0.6113451
0001f0 bc 46 0c 3e 49 a6 23 3f 31 45 00 3f d8 f0 22 3e
       0.13698858 0.63925606 0.5010558 0.15912187
000200 5f 58 ac bf d7 85 35 3f 15 60 be 3f f4 2f 99 3e
       -1.3464469 0.7090735 1.4873072 0.29919398
000210 07 45 b0 bf 42 95 8e bf 24 35 d5 be 64 2a 16 3e
       -1.3771065 -1.11393 -0.41642106 0.14664608
000220 94 64 ad 3f 5a 2e 28 bf 15 0d 68 3f 5e 43 a7 3e
       1.3546319 -0.65695727 0.9064496 0.32668585
000230 2a 3b 4b 3e 18 2f 8b 3f b7 7d d0 bc c4 0b 9e bf
       0.19846788 1.0873747 -0.02545057 -1.234734
000240 e3 47 40 3f 58 82 8a bf b3 3a 8e 3f ce a6 97 bf
       0.7510969 -1.0821028 1.1111664 -1.184778
000250 e3 ea a7 bf 4d fc 2f 3f 1f 4a c4 3f 65 c3 b6 3f
       -1.3118557 0.68744355 1.533512 1.427838
000260 1d 87 38 3f 44 ef 93 3f 84 32 69 3e 36 0e d0 3e
       0.72081167 1.1557393 0.22773176 0.40635842
000270 2a 7e 31 bf b0 3a 38 be 92 ed b6 bf 99 38 47 3e
       -0.69333136 -0.17991138 -1.4291251 0.19455184
000280 6c 5f 28 40 49 c1 c1 3f b0 22 2f bf b3 0d 8a be
       2.630824 1.5137111 -0.68412304 -0.26963577
000290 c3 41 88 bf e6 93 2b 3e 46 70 be 3e 50 d5 1c be
       -1.0645069 0.16755638 0.37195033 -0.15315747
0002a0 3c 98 90 be 91 12 a3 be 4a c5 b0 3e dc f8 76 bf
       -0.28241146 -0.31850103 0.3452552 -0.9647348
0002b0 86 0a f0 3e 53 fe b7 bd d5 3e 78 bf 86 5f 6c bd
       0.4688303 -0.08984055 -0.96970874 -0.057708286
0002c0 6a 56 d5 be 7c 69 cb 3d 9e ea 24 bf dc 5b 1f 3d
       -0.4166749 0.09932229 -0.644205 0.038905963
0002d0 5e 1c 67 3f 3e 73 cb 3e 5e 21 fb bd c3 6f 8d bf
       0.9027766 0.3973636 -0.12262224 -1.1049732
0002e0 8a 8f ef be 1b 02 58 3f ef 81 b7 3f 92 75 35 3d
       -0.467892 0.8437821 1.4336528 0.044301577
0002f0 3a e8 cd 3d 2a c4 0d 40 96 bd 8b 3f f8 6b 01 3f
       0.10054059 2.215098 1.0917232 0.5055537
000300 70 52 00 3f ce 8b 10 3f 28 05 02 bd 91 ed 09 bf
       0.5012579 0.56463325 -0.0317432 -0.5387812
000310 f7 6e 0e 3f 03 7f db 3f 9f 17 b7 3e 72 da 9f 3f
       0.5563807 1.7148136 0.3576021 1.2488539
000320 4f 43 31 bf 92 c6 93 bf 1a 84 a7 3d 82 c9 a9 3f
       -0.6924333 -1.1544974 0.08179493 1.326462
000330 0a 60 2a bf d9 61 23 bf 45 19 2d bf ea 9a 62 bf
       -0.66552794 -0.6382118 -0.67616683 -0.8851763
000340 56 d4 7b bf dd c2 d3 be 06 aa 06 c0 06 e2 b2 be
       -0.98370874 -0.41359606 -2.1041274 -0.34938067
000350 08 91 ea bd c0 12 68 bf c3 98 a1 3e aa 10 1d bc
       -0.11453444 -0.9065361 0.3156186 -0.009586493
000360 1d 12 4c bf ab 88 15 bf cb 01 33 3f 24 67 69 be
       -0.7971514 -0.58411664 0.6992461 -0.22793251
000370 54 ef 2d 3f 62 3c e2 be 08 39 9a 3e 71 fb 3c 3e
       0.6794331 -0.44186693 0.30121636 0.18455292
000380 c8 4b 28 3f 54 e9 c3 3e 54 7b 5e bf ba d7 c3 3e
       0.65740633 0.38263953 -0.86906934 0.38250524
000390 4d 67 4c 3e 2c dc 1c 3e 38 50 d6 be 2b 2d 54 3f
       0.19961281 0.15318364 -0.41858077 0.8288142
0003a0 84 c0 9f 3e 0e fb 05 3d cd 3f 87 3f 8f 34 c5 3e
       0.31201565 0.032710128 1.0566345 0.38516662
0003b0 0d f3 85 3f 6c 7b a5 bf 1f 76 9d 3e 4a e5 ab bd
       1.0464798 -1.292829 0.30754182 -0.08393343
0003c0 a3 26 a1 3f f5 ea a6 3e 4a 4e c4 bf f0 a7 ef 3d
       1.2589916 0.32601133 -1.5336392 0.117019534
0003d0 25 93 01 bf 3c f7 a6 bf a0 ac 88 bf cf 70 a7 3f
       -0.5061515 -1.30442 -1.0677681 1.3081301
0003e0 91 0c eb 3e 70 95 10 3f 4b 89 2f bf d2 15 88 bf
       0.45908025 0.56478024 -0.6856887 -1.0631659
0003f0 14 ff 11 3e 99 7a 3b bf 9f d5 c6 3c f1 1d e3 be
       0.14257461 -0.73233944 0.024271784 -0.4435878

tcr_lstm.bias_ih_l0 f4 [40]
000000 d2 49 81 3f c2 29 ac 3f 8f 3f 2f 3e 1e e4 3f 3f
       1.0100653 1.3450243 0.1711409 0.74957454
000010 9f 87 cc 3e e9 b6 c5 bd 08 a2 84 be a1 90 05 3f
       0.3994722 -0.09654028 -0.2590487 0.5217381
000020 ba a3 0d 3f 82 12 12 bd 11 6d d4 be 8c 09 0b 3e
       0.5532795 -0.03566218 -0.4148946 0.1357786
000030 d7 5c 09 3f 18 88 a8 3d 53 24 9e be e4 57 5f 3e
       0.5365729 0.08229083 -0.30887088 0.21810871
000040 08 53 17 3e 34 ce 79 3d 1b b1 86 bd 33 1b e2 3e
       0.14777768 0.060987666 -0.06576749 0.44161376
000050 30 5b df bc 1a fc 8a 3e 50 6a 8b 3d dd f0 a4 3e
       -0.027265161 0.27145463 0.06807387 0.32215014
000060 20 58 05 bf ae e1 19 3d f9 0e 9a bd 31 09 96 3a
       -0.52087593 0.03756874 -0.07522387 0.0011446831
000070 35 bf 21 3f e5 a9 c8 3e c7 a2 2b 3f 28 2f a9 3f
       0.63182384 0.3919212 0.67045254 1.3217516
000080 78 77 c2 3e 84 26 8d 3f ec ed 85 3f 1b ee ca 3f
       0.37981772 1.1027379 1.0463233 1.5853914
000090 54 b6 1c 3e 0b b3 88 3f 40 ce 81 bd 82 4b 47 3e
       0.15303928 1.067964 -0.06338167 0.19462398

tcr_lstm.bias_hh_l0 f4 [40]
000000 16 7c 36 3f aa b6 b8 3f e1 13 16 be 2b 3a 44 3f
       0.7128309 1.4430745 -0.1465602 0.7665126
000010 6f 29 43 3f 3d 1d 26 be 57 09 91 bb c0 72 15 3f
       0.762351 -0.16222091 -0.004426162 0.5837822
000020 a3 2e a7 3e a8 86 dc bd c4 77 92 be 17 be ea bd
       0.32652768 -0.10767871 -0.28607 -0.11462038
000030 ca e5 53 3e e6 a4 c4 be 65 b7 25 be 4f 69 80 3e
       0.20693126 -0.38407058 -0.1618324 0.25080344
000040 1a c6 ba 3e 69 90 8d 3e 00 37 31 3e b4 62 98 bc
       0.36479264 0.2764924 0.17306137 -0.018601753
000050 e4 6f ad 3d 47 16 7c 3e b7 ec 82 3e af 2c f4 bd
       0.08468607 0.24617873 0.25571224 -0.11922585
000060 9a b4 e5 be 16 5a a5 bd 46 48 b8 3c af cb bc 3e
       -0.4486435 -0.08073823 0.0224954 0.36874148
000070 a1 e2 26 3f 26 4c 61 be 2f 63 82 3f 93 a2 a9 3f
       0.6518956 -0.22001705 1.0186518 1.3252739
000080 ff 58 f7 3e 49 b7 59 3f 50 ab 7a 3f 35 71 76 3f
       0.48310086 0.85045296 0.9791765 0.9626649
000090 07 51 01 3f 57 e5 7e 3f e2 a5 4b 3d 6b 6d d3 3e
       0.5051426 0.99568695 0.049718745 0.41294417

pep_lstm.weight_ih_l0 f4 [40, 10]
000000 0b 9d b7 3e cd 7d 3a be a6 c9 51 3e bc 3a d6 be
       0.35862002 -0.18212052 0.20487079 -0.41841686
000010 0f 95 b2 3d 90 71 93 3e 7a 91 65 3e e8 54 cc be
       0.08719837 0.2879758 0.22418776 -0.39908528
000020 cc 79 0c 3f e8 66 a2 be 65 3e 41 3e f8 ac 08 be
       0.5487335 -0.31719136 0.18871458 -0.13347232
000030 37 18 e1 3e d4 32 d4 be 19 d9 24 3f b1 f9 c6 bd
       0.43963787 -0.4144503 0.64393765 -0.097155936
000040 79 ad c7 3e f7 af 0c 3f e9 d5 51 bd 81 1d 8e 3e
       0.38999537 0.54956 -0.05122939 0.27756885
000050 08 aa 9e 3e 10 14 27 3e 1c bf d5 3e 2c 7d 7d 3e
       0.309891 0.16316247 0.41747367 0.2475478
000060 61 93 1a bf 2b 5d 19 be 5f 20 ef 3e f5 b6 62 be
       -0.6038113 -0.14976947 0.46704385 -0.22140105
000070 c9 5d 9a 3e 86 fa 00 bf 69 67 50 bc 36 86 b8 bd
       0.30149677 -0.5038227 -0.012719967 -0.09009974
000080 a2 d2 97 bd 87 d3 27 3d d8 d5 c5 bd 2a d3 81 be
       -0.07413222 0.040973213 -0.09659928 -0.25356418
000090 36 58 a8 be 41 ca e9 bd cc b4 81 3d 7f fc 8d bf
       -0.328798 -0.1141553 0.063333124 -1.1092681
0000a0 5d 8b 8a bc 47 35 5f 3e 3c 9e b4 3d 12 e1 49 3e
       -0.016912157 0.21797667 0.08819243 0.19714764
0000b0 c2 01 65 3e d8 a5 0f bf 18 64 19 bf 7c 53 c0 3e
       0.22363952 -0.5611243 -0.59918356 0.37563694
0000c0 ad d9 84 be 91 13 57 3f 82 f8 73 be ed 00 ee 3e
       -0.25947323 0.8401423 -0.23825267 0.4648508
0000d0 1f f4 bd be 36 68 63 be 4a 9b cf bd 98 79 2f 3f
       -0.37100312 -0.22207722 -0.10137041 0.6854491
0000e0 8e 03 28 be 32 ae 8f be e3 a5 bf 3e 98 d3 e1 be
       -0.16407606 -0.28062588 0.3743125 -0.44106746
0000f0 89 cd a9 be 06 e5 2a bd ce aa e2 3e bc 11 e0 3e
       -0.33164623 -0.04172232 0.4427094 0.4376353
000100 a6 c6 7c be 0c 65 19 be d2 cb 10 be 42 21 db 3e
       -0.24685153 -0.14979953 -0.14140251 0.4279881
000110 00 c1 09 3f f8 28 53 bf 5f 0e 4c 3e 81 31 cb be
       0.5381012 -0.8248439 0.19927357 -0.39686206
000120 56 dd 75 3e c1 2f 17 be 24 08 d5 3d f9 9f 02 3e
       0.24010214 -0.1476431 0.10401943 0.12756337
000130 d7 42 59 3f 8b ad c2 bd f5 ee 93 3e b9 7d 92 be
       0.84867615 -0.09505757 0.28893247 -0.28611544
000140 76 a3 66 3c 3d b5 03 3f 58 93 27 bf 55 eb 33 3f
       0.014077058 0.5144842 -0.65459204 0.70280963
000150 bc 99 d4 be 5c fe 12 bf 87 38 83 3e d2 8f 7e be
       -0.4152354 -0.5741937 0.25629064 -0.2485955
000160 e3 75 42 3e ea 03 4c 3f 3f f7 4b bf 71 a6 06 3f
       0.18990283 0.7969347 -0.7967414 0.5259772
000170 42 a4 ab 3d f0 01 db 3f b6 7a 1b bf 11 0e 18 bd
       0.08380939 1.7109966 -0.6073412 -0.03712279
000180 24 03 64 be 30 ee 8a be 52 cd 82 bd 5e 5b 05 bf
       -0.22266823 -0.27134848 -0.06386818 -0.5209254
000190 d3 6b eb be db 94 a1 bd 01 56 97 bf 2e ab 64 3f
       -0.459807 -0.0788972 -1.1823121 0.893237
0001a0 73 fc c5 3e c4 0f 70 3d 9b 7a 12 3f 3b 48 dc be
       0.38669166 0.058608785 0.5721833 -0.43023857
0001b0 68 af a1 bc 77 43 7b 3e b8 cc bf 3e ae b5 a8 be
       -0.01973696 0.24537455 0.37460876 -0.3295111
0001c0 39 0f fa bd b0 55 c4 3e 8d 78 02 bf 64 e3 fd 3d
       -0.12209935 0.38346624 -0.50965196 0.12396887
0001d0 3e 99 09 3f c1 d6 bf be d2 17 f1 be 7f e4 13 3f
       0.53749454 -0.37468532 -0.47088486 0.5777053
0001e0 cf 45 da be ee 6f 31 3d ae 5c 97 3f fb 89 ae 3e
       -0.42631385 0.043319635 1.1825159 0.34089646
0001f0 93 51 ce 3c 98 6b 10 bf 7a e8 a3 be 4c 61 43 be
       0.025185382 -0.56414175 -0.32013303 -0.19080085
000200 90 44 2e bf fa 49 09 bf bb 75 1a 3e b1 58 70 be
       -0.6807337 -0.53628504 0.15083973 -0.23471333
000210 4e 65 03 be ce e7 28 3f dd 74 a4 3e 24 40 0c 3f
       -0.12831613 0.65978706 0.3212041 0.5478537
000220 b8 b2 70 3c e6 15 70 bf ac 04 7f 3f 7c 8f 9f bd
       0.014691047 -0.93783414 0.99616504 -0.07791039
000230 2c 22 10 be 26 11 3e 3f b7 2b eb be 66 72 a5 bd
       -0.14075536 0.74244916 -0.4593179 -0.080784604
000240 23 cb 33 3f 28 7b 4b bf f8 de 9d 3d 52 22 47 be
       0.7023184 -0.79484797 0.077085435 -0.19446686
000250 27 98 14 bf f1 19 00 3e 29 af 9e be d6 f6 b6 bd
       -0.58044666 0.12509896 -0.30993012 -0.08933799
000260 f9 15 91 3e ac aa df 3e 3e 80 46 bf 0f e5 c7 3e
       0.28337076 0.436849 -0.7753943 0.39041945
000270 01 4d 98 3f 4f 31 02 3f 5c 67 5f 3f 13 27 43 be
       1.18985 0.5085649 0.8726709 -0.19057874
000280 61 ca 3c be 71 fc 22 3f 54 c5 15 3f 0b 5e 21 3f
       -0.18436576 0.63666445 0.58504224 0.63034123
000290 4a db 65 be 0b 44 1f 3e ec 35 b7 3e 23 be 6d be
       -0.22446933 0.155533 0.35783327 -0.23217063
0002a0 5a 6a f3 3e 03 71 47 3f 75 18 b0 3e af cc d3 3e
       0.47542077 0.7790682 0.3439366 0.413671
0002b0 67 f8 e1 3d 9c b9 33 be 7a cd a8 3e cf 7b 0a 3f
       0.11033707 -0.17551273 0.32969266 0.54095167
0002c0 8a 33 ef be e5 0b b5 bc 92 2a 32 3e a2 2a c1 bd
       -0.4671901 -0.022100398 0.17399052 -0.0943196
0002d0 8d 05 9b be 46 a0 0b be e0 fa e2 3e bf 01 0a 3d
       -0.30277672 -0.13635358 0.44332027 0.03369307
0002e0 6c c3 d8 be 00 50 22 be 78 ea 68 be df b2 16 3f
       -0.42336595 -0.1585083 -0.22745693 0.58866686
0002f0 c9 43 62 3f 88 80 33 bf 04 37 19 3b 22 66 d4 3e
       0.8838468 -0.70118 0.002337874 0.4148417
000300 f1 7d 14 bf 35 4c 62 3f 05 6b d5 bd 95 9e 02 be
       -0.5800467 0.8839753 -0.10420803 -0.12755807
000310 4e 8c 22 be b6 54 7e be 19 44 26 bb ed 10 f4 be
       -0.15873834 -0.24837002 -0.002537018 -0.47669163
000320 f9 bf f6 3e 3a 03 04 bf 2f 1d 95 be d7 aa 8e 3d
       0.4819334 -0.51567423 -0.29123828 0.06966179
000330 20 bd 53 3f 76 3b 26 3e 92 43 a2 3e 83 cc ad be
       0.82710457 0.1623362 0.31692177 -0.33945093
000340 a9 a8 58 bd 19 78 d8 be 1c 75 08 3d c1 c9 8f 3f
       -0.05289522 -0.42279127 0.03331481 1.1233445
000350 81 d0 78 be f7 1e e5 bd b7 55 10 bf c6 f8 14 3e
       -0.24298288 -0.11187547 -0.5638079 0.14548025
000360 65 13 9e 3e db e2 f4 3e 2e be 8f 3e 32 bf 0a be
       0.30874172 0.47829327 0.28074783 -0.13549498
000370 58 da 12 3f 1d 0d 24 be f3 fa cb 3d 68 9c 7e bf
       0.57364416 -0.16020627 0.09959974 -0.99457407
000380 db 41 21 3f a2 64 ea 3e 21 52 45 bd 53 19 ab 3d
       0.6299111 0.45779902 -0.048174027 0.083544396
000390 66 d9 8f 3e d4 fb f6 3c 41 3c ba 3c 77 6e 0b bf
       0.2809555 0.030149378 0.02273381 -0.5446543
0003a0 82 58 03 3e ed 82 34 bf a0 f9 2d bd 37 ae 29 bf
       0.12826732 -0.70512277 -0.04247439 -0.66281456
0003b0 53 d6 2f be b2 7a 25 3f 95 83 49 bf d3 51 b1 3d
       -0.17171602 0.64640343 -0.78716403 0.08658185
0003c0 10 72 28 3f 4f 2f db be b3 0c 1b 3f 38 a3 0f be
       0.65799046 -0.4280953 0.6056625 -0.14027107
0003d0 2f 49 b3 3e c9 bb b8 3e 6f db 0e 3e 79 ac bc bd
       0.35016772 0.3608077 0.13950895 -0.09212584
0003e0 56 21 5f 3f ad 0b 00 bc 2e 5c 9d be ad b2 37 3d
       0.8716024 -0.007815284 -0.3073439 0.044848133
0003f0 10 0f 3e be 67 65 06 3e 5e 38 e3 3d ca 70 3d be
       -0.18560433 0.1312462 0.110947356 -0.18500057

pep_lstm.weight_hh_l0 f4 [40, 10]
000000 2e 00 55 3f ca 5d 33 3f ae a2 89 bd 2d d0 ac bf
       0.832034 0.70064986 -0.06720482 -1.350103
000010 f0 24 7b 3f 88 24 50 be df 24 d5 3f 1b 58 82 3f
       0.9810324 -0.20326436 1.6651877 1.0183138
000020 0e ba 17 3f 57 6d ce bf a1 ae 34 3f 78 26 81 3e
       0.5926827 -1.6127118 0.7057896 0.25224662
000030 e5 b5 62 bf 5c 82 ae bf fa 8a 69 3e e4 7e b8 bd
       -0.885588 -1.3633533 0.22806922 -0.090085775
000040 23 c3 9e 3f ce 5a 46 3f 32 e7 aa be eb 33 96 bf
       1.2403301 0.77482307 -0.33379513 -1.1734594
000050 e1 09 9c 3e 30 80 23 3f 94 05 2a 3e e8 cf 9c be
       0.30476287 0.63867474 0.1660369 -0.3062737
000060 3a d5 35 3f 2c 92 b5 3e be 36 02 40 4f 60 aa be
       0.7102848 0.35463083 2.0345912 -0.33276603
000070 93 17 51 bf 23 c3 8e bf 73 ff 31 bd 9c 36 a3 3f
       -0.81676596 -1.1153301 -0.043456506 1.275104
000080 03 e7 e5 3a 82 49 0e bf db 23 40 3e b6 5d 14 3e
       0.001754016 -0.55580914 0.18763678 0.14488873
000090 5c 76 76 3e 44 b4 3e 3f 1a b0 1b 3f dc 02 c8 bf
       0.24068588 0.74493814 0.60815585 -1.5625873
0000a0 ae b5 ad 3b 3e 9c 1c 3f 37 f5 2e bf 63 c0 83 bf
       0.005301199 0.61175907 -0.6834292 -1.0293087
0000b0 17 ae 91 bf 06 5b 1e 3f fe 1a 1a 3f 0a 92 c8 be
       -1.1381253 0.6185764 0.60197437 -0.3917392
0000c0 9f f0 43 3d 02 22 15 c0 e2 96 30 bf b1 a6 24 bf
       0.047836896 -2.3302007 -0.6898023 -0.6431685
0000d0 99 39 0b bd f7 b0 c1 bd 36 0e 9a 3e 9e 6e 13 3f
       -0.033990476 -0.094575815 0.30088967 0.57590663
0000e0 49 a3 3a 3f 77 f9 34 bf b1 de 84 bd c0 06 02 bf
       0.72905403 -0.70693153 -0.064877875 -0.5079155
0000f0 f3 0b c5 3e f4 f1 79 be ec 05 db bd 1d f8 b4 bf
       0.3848568 -0.24408704 -0.10694489 -1.4138218
000100 ce 96 dc 3d af 48 46 3f c3 a6 00 3f 32 c9 89 3e
       0.10770951 0.77454656 0.5025446 0.26911312
000110 6a 3f f2 bd 74 18 b3 be b8 5c fe be 27 86 0a bf
       -0.118285015 -0.34979594 -0.49680114 -0.5411095
000120 37 f3 62 bf 5d e2 a5 be 52 50 b3 3f 2d b9 72 3f
       -0.88652366 -0.32399264 1.4008887 0.94813806
000130 d2 61 72 3f 25 e9 d6 3d 32 e1 55 bf 68 86 e3 be
       0.9468051 0.104936875 -0.83546746 -0.4443848
000140 e0 79 a8 3e 07 77 48 bf 6b 10 1b bf 4f f9 8f be
       0.32905483 -0.7830662 -0.60571927 -0.28119895
000150 49 fe 4e 3f 84 92 a2 3f 89 b3 61 3d 5b e2 66 be
       0.8085676 1.2700963 0.05510286 -0.22547285
000160 4b 98 f7 be 3c 81 cd bf 9e 37 81 3d 38 16 93 3e
       -0.48358378 -1.6055064 0.06309436 0.2872789
000170 ab 48 97 3f 48 13 3f bf 29 c4 b1 be 91 68 a0 be
       1.1819052 -0.74638796 -0.3471997 -0.31329778
000180 39 a5 b0 bd c7 c2 ac 3c 0c a8 2a be f9 f4 15 bf
       -0.08625264 0.02108897 -0.16665667 -0.58576924
000190 79 82 37 3f b2 c6 c1 be 4b f6 55 3e 37 00 4d bf
       0.7168346 -0.37846905 0.20894735 -0.8007845
0001a0 11 02 f0 3e ba ca 35 bf b8 52 d7 3e 3a 14 a1 bc
       0.46876577 -0.7101246 0.42055297 -0.019662965
0001b0 22 03 9a be e1 92 99 bd 22 b9 87 3e 90 4a 2c 3e
       -0.30080515 -0.07498718 0.26508433 0.16825318
0001c0 74 aa 63 be 80 18 0b 3e 73 75 d3 3c 27 0a 64 3e
       -0.22232991 0.13583565 0.02581284 0.22269498
0001d0 f8 34 dc 3e bb d2 37 bb af 47 73 be 99 ab 23 3e
       0.43009162 -0.002804919 -0.23757814 0.15983428
0001e0 84 b3 9e 3e c7 7c 72 be e6 39 04 bf fe c5 59 bf
       0.30996335 -0.23680411 -0.51650846 -0.8506774
0001f0 25 20 5f bd f1 0a 8f 3e 82 75 73 be 8f 89 e8 be
       -0.054474015 0.27938035 -0.23775294 -0.4541745
000200 e6 2a 8e 3e aa a7 25 bf 54 1a aa 3d 6c 43 b5 bd
       0.27767104 -0.6470896 0.08305803 -0.0885075
000210 ac 04 9c be e9 2e 22 bd 2a c6 81 3f 81 27 07 be
       -0.30472314 -0.03959552 1.01386 -0.13198663
000220 1f 0e ae 3e 90 86 82 3f ba cf c6 be ba 53 df be
       0.3399515 1.0197315 -0.38830358 -0.43618566
000230 ab 13 99 3f 45 32 86 bf 21 19 a7 3e 19 ea 92 bf
       1.1959127 -1.0484091 0.3263636 -1.1477691
000240 41 fa 14 3f 4a 54 14 be 76 9c 3b 3f 87 2e 34 bf
       0.5819436 -0.14485279 0.73285615 -0.70383495
000250 3f 84 fb 3d c4 94 47 bf c6 12 5e 3f 97 e1 0c bf
       0.12281083 -0.77961373 0.86747396 -0.5503172
000260 93 3c e9 be 1b e4 90 bf d6 47 65 3f 26 46 23 bb
       -0.45554027 -1.1319612 0.8956274 -0.0024913638
000270 03 36 1c 3f bd a7 30 3f 27 24 c5 3d 03 88 a1 be
       0.61019915 0.6900595 0.09626036 -0.3154908
000280 79 5a 75 bf d1 2a 85 be 5b b7 84 bf ed 13 af be
       -0.95841175 -0.2600923 -1.0368456 -0.3419489
000290 45 74 e4 be 28 19 b7 bd 8e e3 63 3f 79 74 31 3f
       -0.44619957 -0.08940345 0.89019096 0.6931835
0002a0 34 1c 74 3e bf 81 ae be 2f 8f 95 bf d3 73 10 3e
       0.23838884 -0.34083363 -1.1684321 0.14106683
0002b0 da 81 6b bf bb 9a 13 3f 33 51 b4 be 81 61 06 3f
       -0.9199501 0.57657975 -0.352182 0.5249253
0002c0 8f 79 f3 3e 7b 26 dd 3d f8 ae d3 be 6a 3a 34 bf
       0.4755368 0.10798355 -0.41344428 -0.7040163
0002d0 62 0c 1c 3d 4c 97 07 3e 39 6b d0 be b9 67 f7 be
       0.038097747 0.13241309 -0.40706804 -0.48321322
0002e0 b8 7b 97 3d 87 8e af be 52 be 06 3f 52 8d 81 bf
       0.07396644 -0.34288427 0.52634156 -1.0121253
0002f0 43 11 59 bd 83 9a 20 bf c3 40 20 bf a1 a8 ce 3e
       -0.052994978 -0.62735766 -0.6259882 0.4036303
000300 cd 73 79 bf 7b b4 34 be bc b9 da bf f4 31 d5 be
       -0.9744232 -0.17646973 -1.7087932 -0.41639674
000310 71 e4 4b 3e e8 40 e5 3e 27 68 71 3f d2 c3 74 3e
       0.19911362 0.44776082 0.9429955 0.23902825
000320 59 8b 5f 3f 6d 9d 14 3f fd e4 fb 3e 71 f2 b1 3d
       0.87322 0.5805271 0.49198142 0.0868882
000330 31 73 41 bf 94 5b 69 be d5 48 2b bf b1 b9 2b bf
       -0.75566393 -0.2278884 -0.6690801 -0.6708022
000340 05 d8 c9 3e 52 63 1e bf be ce 7f 3f d2 64 a0 3e
       0.39422622 -0.618703 0.9992484 0.3132692
000350 19 f3 80 3e 40 b9 e5 3e 80 9b c7 3c 02 8d 1a 3f
       0.2518547 0.44867897 0.02436614 0.6037141
000360 be 54 5c bf 42 62 ad 3f 70 d2 b6 3e 00 85 7f 3e
       -0.86066806 1.3545611 0.35707426 0.24953079
000370 14 95 58 3f be 37 95 3d 55 63 7e 3f 61 dc da be
       0.84602475 0.072860226 0.9937032 -0.4274626
000380 62 33 de 3c 68 08 3f 3e 37 1b 06 bd 9e 5c 42 3e
       0.02712411 0.1865555 -0.032740798 0.18980643
000390 1a 12 2b bd a2 aa 52 3f 8c 6d d4 be ab d6 94 be
       -0.04176531 0.82291615 -0.41489828 -0.2907003
0003a0 75 55 56 bf 89 ec c5 3d 7b 91 55 3f e5 bb 2a 3f
       -0.8372415 0.09664256 0.8342511 0.66692954
0003b0 fd 3c fa 3d 0f 12 c1 3e 51 25 fe be 84 e5 b9 bd
       0.12218664 0.3770909 -0.49637845 -0.0907698
0003c0 0a e9 b1 3e 61 56 00 bf e2 7d cc be ec ec ae be
       0.34748107 -0.50131804 -0.3993979 -0.34165132
0003d0 07 04 2f bd 8b 32 64 bf be ab 9b 3d 67 de cf bf
       -0.04272845 -0.8913962 0.076011166 -1.6239747
0003e0 b7 f1 79 be 17 eb 2d bf 3c 99 69 be 4b 9f e8 be
       -0.24408613 -0.67936844 -0.2281236 -0.4543403
0003f0 1a 33 21 bf 99 53 34 3e 1c 74 95 be 8c 75 a4 3f
       -0.629686 0.17610015 -0.29190147 1.2848372

pep_lstm.bias_ih_l0 f4 [40]
000000 af fc db 3e e6 a6 ca 3e 74 81 3a 3f 47 3c b5 3e
       0.4296622 0.39580458 0.7285378 0.3539755
000010 79 57 90 bb 2a b7 12 3d 1b e0 8f 3e fe e2 fd 3e
       -0.004404959 0.03581921 0.28100666 0.49587244
000020 b6 62 26 3f d1 80 c2 3e e0 41 4b 3e 4d 3a 8f 3c
       0.6499437 0.37988904 0.19849348 0.017483855
000030 6d 14 82 be 29 3d 72 3e e2 54 55 be af 94 1b 3e
       -0.2540621 0.23656143 -0.20833161 0.15193437
000040 65 3f 0d 3f 0c 0c 0d 3f 21 d4 48 3e 8f 26 a9 3d
       0.5517486 0.5509651 0.19612171 0.082593076
000050 77 7e 27 3e 12 f3 85 be 8b f3 12 bd 1f 2e ad be
       0.16356836 -0.2616201 -0.035876792 -0.3382425
000060 03 3b cc bd aa 9d 93 3e 31 dc 60 bd 58 a2 77 bd
       -0.09972193 0.28831226 -0.05489749 -0.060457557
000070 74 02 81 be f0 5c 17 bf 59 03 47 3e 1c 07 61 3f
       -0.25197184 -0.59126186 0.19434871 0.87901473
000080 f4 93 27 3f 1f 4c 0d be 33 c0 2c 3f f9 31 37 3e
       0.65460134 -0.13798569 0.6748077 0.17890157
000090 88 7a 08 3f 7c 14 8a 3e 78 b0 f3 3e 2d 17 1e 3f
       0.5331197 0.26968753 0.47595572 0.61754113

pep_lstm.bias_hh_l0 f4 [40]
000000 41 8e 0a 3f a8 6a 8b 3e 6b cb 67 3f 79 f9 0b 3e
       0.5412331 0.2722981 0.90544766 0.13669385
000010 a5 4b bd 3e 47 26 1c 3e 9f 7e 29 3f e2 16 50 3f
       0.36971775 0.15248977 0.66208833 0.81284916
000020 b3 79 42 3f ae b6 c4 3e 9c 13 83 3d 3b ff c0 3d
       0.7596695 0.38420624 0.064002246 0.09423681
000030 dc 4b 82 be 63 02 87 3e b8 8c b3 3d 03 b7 50 3d
       -0.254485 0.26369008 0.08767074 0.050955784
000040 24 a3 ae 3e 1a 2a 69 3d 6d 15 b9 bc a6 aa df 3d
       0.3410884 0.056924917 -0.022593224 0.109212205
000050 cb 83 ef bd e2 e2 b4 be 6a 0b c4 3d 32 27 a7 bd
       -0.116950594 -0.35329348 0.095724896 -0.08161773
000060 5c 9e 2c 3d 5d f1 bd 3e 80 c1 85 3e 3f 31 29 3e
       0.04214321 0.37098208 0.2612419 0.16522692
000070 d0 d7 9c be 5b b9 2d bf f7 3d 10 3f 2b bf 35 3f
       -0.30633402 -0.67860955 0.5634455 0.70994824
000080 39 66 d0 3e 98 e1 65 bb c5 25 a1 3e 05 ea 21 be
       0.4070299 -0.0035077091 0.31474128 -0.15811928
000090 aa 91 1c 3f 1f cc 22 3f 3c fb 15 3f 6d 66 9c 3e
       0.61159766 0.63592714 0.5858648 0.30546895

hidden_layer.weight f4 [10, 20]
000000 96 c8 38 bf 3e 16 0b 3f 4b 1c 98 3e e3 af c3 bd
       -0.7218107 0.54330814 0.29709086 -0.09555032
000010 44 38 78 3e 7f 1f c2 be e4 f2 04 3e 06 5a c8 be
       0.24240214 -0.37914655 0.1298328 -0.39131182
000020 32 99 99 3e f3 28 25 be b8 e4 ea 3e 5e 35 11 bf
       0.2999969 -0.16128902 0.45877624 -0.56722057
000030 ea 6e 78 bb 20 96 66 3e c5 9f 7f 3e 37 1c c5 be
       -0.0037907907 0.22518206 0.24963291 -0.3849809
000040 fc b8 80 3e 01 5e 2c bf 06 63 5b bf 5e a4 14 3f
       0.25141132 -0.6733094 -0.8569797 0.58063304
000050 07 5e d7 3e aa d4 54 3f fb 36 ef bd d6 1e 99 bd
       0.42063925 0.83137 -0.116804086 -0.074765846
000060 e7 d5 aa be 17 71 da 3e 0b 1f 8b be 2f 47 5b 3d
       -0.3336632 0.42664406 -0.2717212 0.053534683
000070 a0 04 1a be 87 7e 7b be db eb a6 3d 6a da a3 be
       -0.15040827 -0.24559985 0.081504546 -0.32002574
000080 a6 52 88 3d 18 86 39 be bd a5 08 3f 9d d9 a4 be
       0.06656389 -0.18117559 0.53377897 -0.32197276
000090 c6 14 b5 3e 03 a3 4f be 6d 5b 63 bf 90 40 25 3f
       0.3536741 -0.20277028 -0.8881138 0.6455164
0000a0 53 50 4e bd fa a7 7b bf e9 68 14 bf 45 ab 0b 3f
       -0.050369572 -0.98303187 -0.5797258 0.5455821
0000b0 83 d5 82 bf 56 f6 a1 3e a8 04 c5 bf 7c 9a a0 be
       -1.0221409 0.31633252 -1.5392046 -0.31367862
0000c0 8c 97 ab bf c6 20 07 bf 1c cc ac be f2 60 3d be
       -1.3405623 -0.52784383 -0.33749473 -0.18494013
0000d0 49 3c a3 bf 02 36 12 3f 2d 26 b3 be a9 cb aa 3e
       -1.2752773 0.5711366 -0.34990063 0.33358505
0000e0 f3 39 bd 3d 9a 7f 31 3f 0f 97 86 3f 50 99 d7 3e
       0.092395686 0.6933533 1.051485 0.42109156
0000f0 be f6 74 bb b7 15 36 3f 2d 4b 87 3f 88 36 d0 3e
       -0.0037378515 0.71126884 1.0569817 0.40666604
000100 20 a8 d2 be 1a 66 12 bf 5d 8f c1 bf 57 5d 2a 3f
       -0.41143894 -0.57187045 -1.5121876 0.66548675
000110 29 d0 22 bf 1e a6 95 be 1d e4 24 bf 47 f4 91 3f
       -0.6359888 -0.292283 -0.64410573 1.1402673
000120 5c 9b e2 3b 53 d4 3d 3f c8 cd 89 3e 3e c4 25 3f
       0.006915493 0.74152106 0.2691481 0.64752567
000130 23 12 65 3e 45 df b1 bc 52 a8 5b 3f 76 80 88 3e
       0.223702 -0.021712909 0.8580371 0.26660508
000140 b6 63 88 3f e4 9e 26 be b7 08 40 be 37 e7 6f 3f
       1.0655429 -0.1627155 -0.18753324 0.9371218
000150 e7 d8 3d bb 9d 2c 30 3f 38 03 04 bf da c1 4d 3f
       -0.0028968395 0.68818074 -0.5156741 0.8037392
000160 1c c1 89 bf 8e d0 26 3f 34 58 5a bb 8a 1c 44 3f
       -1.0762057 0.6516198 -0.0033316733 0.7660605
000170 88 23 73 bf 8e ee a4 3e c6 9f 27 bf 36 1a 3a 3f
       -0.9497609 0.32213253 -0.6547817 0.72696245
000180 fd a8 8d bd e8 c4 bf 3e 86 fe cb 3e fd 12 c5 bc
       -0.069169976 0.37454915 0.39842623 -0.024056906
000190 20 41 55 bd f8 b5 9e 3f ac 4c 55 3f 6d 9b 1c bf
       -0.05206406 1.2399282 0.83320117 -0.6117466
0001a0 57 cf 2a 3e 7e 94 5d be c7 ce 2e be 66 db d2 bd
       0.16680656 -0.21638677 -0.17071067 -0.10295753
0001b0 98 af 0c bf 9e 9f 87 be 08 3a a3 be c8 53 d8 be
       -0.54955435 -0.26488966 -0.31880212 -0.4225142
0001c0 c2 59 34 3e 5d 4a 6b 3e 11 ea e9 3e 25 d1 ee be
       0.17612365 0.22977586 0.4568639 -0.4664394
0001d0 88 94 fa 3f 66 ac 6a bc ca c3 e1 be 80 98 fc be
       1.9576578 -0.01432333 -0.44094688 -0.49335098
0001e0 87 16 c7 3e d7 91 e5 3e 05 fe 19 3e a9 80 6d bf
       0.38884374 0.4483783 0.15038307 -0.92774445
0001f0 56 ad cd 3d 93 4d 73 3a 36 60 17 3f d5 8b 5f bf
       0.10042827 0.0009281274 0.5913118 -0.8732274
000200 45 01 c4 3e 6e 30 6a bf 22 79 81 3d 91 27 99 3c
       0.3828222 -0.9148015 0.063219324 0.018695625
000210 aa 8c f3 3e 38 71 d1 be b0 5a 37 3f 13 d2 23 bd
       0.47568256 -0.40906692 0.71622753 -0.039995264
000220 35 f5 85 3d dd b9 0a bd 32 89 fc be 41 77 73 3e
       0.0654091 -0.03386866 -0.49323422 0.2377596
000230 b1 db 61 3e 99 5c 3e 3f d2 e2 33 bf c9 4c ba 3c
       0.22056462 0.7436004 -0.70267975 0.022741692
000240 d4 06 ef 3e c5 58 0b 3f cc 2d 97 bd 18 74 a7 3e
       0.46684897 0.54432327 -0.07381782 0.3270576
000250 df 8c 6c 3e 85 13 1d bf 55 ab 86 3e 6d b9 cb be
       0.23100613 -0.6135791 0.2630259 -0.39789906
000260 8a 17 de 3e 7e 4e c6 bd 38 2e c6 bd cf 57 1b bf
       0.43377334 -0.0968294 -0.09676784 -0.6068086
000270 48 f9 05 3e 5b 39 19 3e 8e 5d 67 bf e4 0d d9 3e
       0.13083375 0.14963286 -0.9037713 0.4239341
000280 ec 58 e8 bd e8 cb 52 bf d2 f6 c5 be 4f e7 77 3e
       -0.113450855 -0.82342386 -0.3866487 0.24209331
000290 6c ca 3b be 27 68 1b be 08 98 5b 3f 49 f7 2e 3e
       -0.18338937 -0.1517645 0.85778856 0.1708652
0002a0 13 01 e4 bb 33 39 17 3d 70 31 71 bf 73 7c 67 3f
       -0.006958136 0.036919784 -0.9421606 0.9042427
0002b0 db 9c b6 be c6 86 9d 3f b0 92 ca bf 27 96 22 3f
       -0.35666546 1.2306755 -1.5826015 0.63510364
0002c0 65 5d 83 be c2 a8 19 3f 1c b6 ff 3f 0c 48 8d be
       -0.25657192 0.6002313 1.997745 -0.2759403
0002d0 7c 77 21 bf c2 81 a3 3f 08 4d 8d 3e d1 04 3c bf
       -0.63072944 1.2773974 0.27597833 -0.7344485
0002e0 76 a6 26 3f 0e 91 d0 3e c3 e6 9e be e6 bb 9e be
       0.6509775 0.40735668 -0.31035432 -0.3100273
0002f0 c0 cf 26 3f 09 a8 c4 bf da b9 89 3f 35 91 b3 be
       0.6516075 -1.536378 1.0759842 -0.35071722
000300 fc dd ba 3d 7e 6f 57 3e 65 4d 08 3f e4 e3 76 bf
       0.091243714 0.21038625 0.53243095 -0.96441483
000310 15 cc 00 bd 82 7f 6c bf 1a c2 1b bf 20 d2 87 3e
       -0.031444628 -0.9238206 -0.6084305 0.265275

hidden_layer.bias f4 [10]
000000 93 4e 8b bd e0 99 98 3e d4 63 35 bc 96 c8 b5 3e
       -0.06802096 0.29804897 -0.011071164 0.35504597
000010 7c 38 c8 be c6 42 2d 3f 8c c3 e0 bd cb 44 e1 3e
       -0.39105594 0.67680013 -0.109747976 0.43997797
000020 19 e5 cd be bc a7 80 bd
       -0.4021385 -0.06281993

output_layer.weight f4 [1, 10]
000000 5d 0f 16 3f df a9 fc 3e af 35 5d c0 b7 98 8f c0
       0.5861719 0.4934835 -3.4564016 -4.487392
000010 e4 2b 03 c0 25 a0 b6 3f 20 1b e4 bf 2a 10 3c 3f
       -2.0495539 1.4267622 -1.7820778 0.73462164
000020 ce 9a cd 3f 7e da 30 c0
       1.6062868 -2.7633357
