pair_sampling/models/model.pt (torch_old, 6962 bytes, 8 tensors)

embedding.weight f4 [21, 10]
0.0 0.0 0.0 0.0 0.0 0.0 0.0 0.0
0.0 0.0 -0.23737305 -0.8080343 -0.65516794 1.8680068 -1.1816055 -0.60754836
-0.53099644 0.2493677 2.8568835 0.020400615 0.8831058 -1.8525221 0.48111778 -0.42271346
-1.1930444 0.40654594 -0.27112633 0.52240235 -0.3006347 -1.9625212 -0.65277505 -0.34160665
0.42556345 -1.0662663 1.3519952 -1.2817006 -0.24927776 -0.8192886 1.2946838 0.642126
-0.33737344 -0.08153636 0.9079903 -0.13722266 -2.7100015 0.5246743 -0.5242124 -0.18886077
-0.10459089 0.6353796 -0.24087462 -0.077744804 0.08848223 0.70119363 -1.7486997 1.4318084
1.2368511 0.21796726 -0.8160318 -0.5628534 -1.5378793 -1.3268206 -1.5614955 -0.18071364
2.249015 0.84982854 -0.64657485 0.8982543 -1.3678752 -0.13639586 3.0273998 -0.30276665
-1.3680979 -0.81989896 -0.548741 1.2336437 1.2128989 1.486427 0.2690067 -0.005662163
-0.78518796 -0.22534488 1.0403291 -0.058335844 -1.0990822 1.5993471 -0.6142514 0.64990085
-1.6535338 -0.769185 1.856008 0.0032096284 0.24633436 -1.31607 -0.69338083 -0.47400832
-0.30573532 1.457588 0.5455783 1.917743 0.09840507 0.4858735 -0.36106536 0.4995228
-0.27833852 2.6913245 -2.009086 1.908799 -2.5854454 0.4998636 1.5056001 0.8137608
-0.44436163 0.33139092 0.3926865 -1.1984357 0.8076077 -0.14375088 0.20215233 1.5601048
-0.17139418 0.026678776 0.2680652 -1.2419286 -0.62175125 0.5438281 0.033528153 0.24907354
-0.42462936 -1.4983923 -2.1038487 0.6277795 2.018302 1.3469665 1.3210261 1.1024067
-1.4814073 -1.3320402 -0.8992607 -1.5064863 0.25424463 1.420229 -0.2855789 -0.26489487
1.4818851 0.7522971 1.1572347 0.7210342 0.1000264 -0.24911748 1.7111305 -0.25588822
-0.9602256 0.06534115 0.6933934 0.112693794 -1.3474373 0.8087652 -0.12403016 1.5079515
0.48642328 -1.0107102 -0.28791267 -0.8491376 1.0643996 1.180941 -1.043722 -0.21741532
0.8471286 1.0659413 -0.057604566 -0.63263506 -1.3626357 0.7271962 0.045432128 -0.96131456
-0.28404748 1.4108983 1.1824651 -0.15243927 0.5454512 -0.1809771 2.0335448 0.39711824
0.4657241 0.89932853 -0.7460356 0.31601182 -1.381435 -0.5177149 0.10641823 -1.6961588
0.59906316 -0.050819308 1.6788559 1.6064708 1.4764056 -1.5999382 2.4192946 -1.0001091
1.3346672 -0.8575933 -1.4228877 -0.9907506 -0.18220782 -2.06126 -2.0473516 -0.16394436
0.76641184 -1.2652544
00000000: 0000 0000 0000 0000 0000 0000 0000 0000
00000010: 0000 0000 0000 0000 0000 0000 0000 0000
00000020: 0000 0000 0000 0000 ec11 73be 56db 4ebf
00000030: 16b9 27bf d91a ef3f d93e 97bf 4a88 1bbf
00000040: 62ef 07bf 3f5a 7f3e 2ed7 3640 311f a73c
00000050: 3913 623f 721f edbf 1255 f63e e66d d8be
00000060: aeb5 98bf ca26 d03e 12d1 8abe 29bc 053f
00000070: cbec 99be e533 fbbf 441c 27bf 11e7 aebe
00000080: 74e3 d93e 6a7b 88bf 2e0e ad3f c40e a4bf
00000090: ab42 7fbe e6bc 51bf 33b8 a53f 5f62 243f
000000a0: 36bc acbe 89fc a6bd 0d72 683f 1984 0cbe
000000b0: aa70 2dc0 0e51 063f c932 06bf b864 41be
000000c0: c033 d6bd 3da8 223f d6a7 76be ab38 9fbd
000000d0: 2c36 b53d 6d81 333f 64d5 dfbf 7f45 b73f
000000e0: 2351 9e3f cf32 5f3e 76e7 50bf 2917 10bf
000000f0: 3bd9 c4bf 42d5 a9bf 16df c7bf ff0c 39be
00000100: ddef 0f40 5d8e 593f ee85 25bf fef3 653f
00000110: 8916 afbf 5bab 0bbe ebc0 4140 3b04 9bbe
00000120: d51d afbf e6e4 51bf 4a7a 0cbf 09e8 9d3f
00000130: 4540 9b3f 3d43 be3f 3fbb 893e aa89 b9bb
00000140: 1402 49bf cfc0 66be 8129 853f 91f1 6ebd
00000150: baae 8cbf 68b7 cc3f 943f 1dbf e75f 263f
00000160: ffa6 d3bf 4fe9 44bf ac91 ed3f a158 523b
00000170: 133f 7c3e fb74 a8bf 6881 31bf 38b1 f2be
00000180: 5789 9cbe 3e92 ba3f 05ab 0b3f 9a78 f53f
00000190: 9988 c93d 69c4 f83e 8fdd b8be 74c1 ff3e
000001a0: 6382 8ebe a93e 2c40 dd94 00c0 8753 f43f
000001b0: f077 25c0 1fee ff3e 81b7 c03f a152 503f
000001c0: 5e83 e3be 12ac a93e 340e c93e 5766 99bf
000001d0: 61bf 4e3f 6e33 13be 0501 4f3e 84b1 c73f
000001e0: f581 2fbe 738d da3c d83f 893e 84f7 9ebf
000001f0: 172b 1fbf 5238 0b3f d154 093d 220d 7f3e
00000200: 0569 d9be 52cb bfbf 75a5 06c0 28b6 203f
00000210: dc2b 0140 6669 ac3f 6217 a93f aa1b 8d3f
00000220: c19e bdbf 4b80 aabf f335 66bf 8bd4 c0bf
00000230: 5a2c 823e 10ca b53f 6637 92be 4da0 87be
00000240: 69ae bd3f 8b96 403f 4420 943f b395 383f
00000250: a4da cc3d a718 7fbe 5306 db3f c803 83be
00000260: 58d1 75bf 95d1 853d 3b82 313f 01cc e63d
00000270: d378 acbf 3c0b 4f3f 8603 febd 8e04 c13f
00000280: 790c f93e f45e 81bf 4a69 93be 1561 59bf
00000290: 3f3e 883f 1329 973f af98 85bf 1fa2 5ebe
000002a0: 6cdd 583f c470 883f c4f2 6bbd 5ff4 21bf
000002b0: d96a aebf 8829 3a3f 0a17 3a3d b618 76bf
000002c0: ac6e 91be 5198 b43f 045b 973f 0a19 1cbe
000002d0: b1a2 0b3f 1052 39be 9925 0240 1553 cb3e
000002e0: 6473 ee3e 653a 663f 30fc 3ebf 4dcc a13e
000002f0: ddd2 b0bf f788 04bf cdf1 d93d bb1b d9bf
00000300: 345c 193f e827 50bd c0e4 d63f d6a0 cd3f
00000310: dcfa bc3f c6ca ccbf b9d5 1a40 9303 80bf
00000320: 60d6 aa3f 3c8b 5bbf 2f21 b6bf d5a1 7dbf
00000330: b094 3abe afeb 03c0 cf07 03c0 08e1 27be
00000340: 9133 443f dbf3 a1bf

lstm.weight_ih_l0 f4 [40, 10]
-0.2641771 -0.12112108 -0.31225246 0.16748235 0.06201517 0.046910148 0.2282423 -0.100226484
-0.21465331 -0.09776326 0.014805485 -0.05696348 0.0786691 0.15206848 -0.11771929 0.26984632
0.03199998 -0.23235184 -0.0071056443 -0.020404432 -0.019586248 -0.17056341 -0.3001301 -0.25967446
0.25837162 -0.27759013 -0.268088 -0.17916502 0.08134515 0.2863571 0.04404955 0.2147526
0.112355106 -0.15985835 0.23048829 -0.17414092 -0.20376143 -0.0016013731 -0.08656385 -0.29302573
-0.24466333 0.14254376 -0.3032467 -0.07515764 0.108873166 0.24381594 0.025485007 0.00399131
-0.20979035 -0.1632227 0.24835043 -0.22659986 0.062511116 0.22931601 -0.22137788 -0.0013047772
-0.07423491 0.12858509 0.21729736 -0.16084655 0.19616866 0.14866836 -0.05854436 0.022631174
-0.15494816 -0.24826348 0.077031374 0.19996072 0.05453621 -0.0089945365 0.32650775 -0.28645152
0.16813429 0.29691425 -0.09940946 0.23417512 -0.15809481 -0.21055263 0.11776993 0.1861309
0.079410955 -0.25089374 -0.22536571 -0.20786932 -0.1153541 -0.10949549 -0.15211822 -0.11545509
-0.25160414 0.223414 -0.05842126 -0.07760404 0.26773566 0.39464086 -0.27897772 0.2308688
0.08050211 0.21942973 0.028631134 0.30237034 0.011414838 0.09801026 0.039613064 -0.088453695
-0.27669504 -0.20463796 -0.3248015 -0.06709623 -0.24008508 0.30714065 0.27982318 0.24307866
0.018703584 0.22018375 -0.088860884 0.14906377 -0.16526096 0.2889762 0.060463075 0.019720456
0.31474623 0.26344746 -0.07403223 0.0022534553 -0.20726687 0.07585585 0.24851377 -0.16275822
-0.18528226 0.10226078 -0.141667 0.12068924 0.026087297 -0.30606997 -0.08792393 0.28139597
-0.0966914 -0.16664685 -0.06275249 0.116329685 -0.14465155 0.06708543 0.25976887 0.09207832
0.22692315 0.08095244 -0.31624398 -0.11397605 0.00081123726 -0.33376542 -0.1726343 0.26760533
-0.03717786 -0.07274744 0.22196595 0.281983 0.22092745 0.0035463679 0.01502712 -0.17943156
-0.36735648 -0.32966393 0.21065287 -0.03289842 -0.2144401 -0.18933578 0.10071684 -0.1908575
-0.02557117 0.107711576 -0.049196843 -0.059742026 -0.1360189 0.20001526 0.2817448 -0.08614799
-0.1659885 0.18717922 -0.3490418 0.22149682 -0.18850635 0.35366184 0.059326895 0.23508605
0.11738452 0.31133857 0.10576344 0.08250883 -0.08982267 -0.16953038 -0.06643238 -0.25222036
-0.1237324 -0.099143855 0.19206586 -0.24516636 -0.07139338 -0.034523364 -0.22981237 0.117763765
0.26664895 -0.066343844 -0.08022166 -0.17909923 -0.16276573 -0.039136942 -0.23756625 -0.25574976
0.24017863 0.22288789 -0.31781176 -0.20925823 -0.18393901 -0.23033883 -0.09994489 -0.23180787
-0.11613338 0.22925018 0.20151378 0.0058652647 0.014938025 0.17601849 -0.11511215 -0.008049599
0.08127232 0.16348656 0.28343868 -0.17181288 -0.0148347905 -0.11953137 -0.25065103 -0.1387695
0.12778401 -0.16591848 0.261789 -0.053565666 -0.09310842 0.08149443 -0.020482782 0.17883815
-0.25604558 0.19294679 -0.043713793 -0.044350207 -0.3055674 0.12383391 0.25797263 -0.09299626
-0.17732824 0.033148196 -0.3295257 -0.17659503 0.07176129 0.33782864 -0.25559708 -0.13796674
00000000: 3942 87be 540e f8bd 8edf 9fbe 7e80 2b3e
00000010: 9e03 7e3d db24 403d 59b8 693e 8b43 cdbd
00000020: 14ce 5bbe 1b38 c8bd b492 723c 8a52 69bd
00000030: 441d a13d d7b7 1b3e d016 f1bd 4c29 8a3e
00000040: 6912 033d a4ed 6dbe 77d6 e8bb 3227 a7bc
00000050: 5773 a0bc 2da8 2ebe a7aa 99be 0df4 84be
00000060: 4949 843e 4b20 8ebe d542 89be 0977 37be
00000070: 4998 a63d 669d 923e 4d6d 343d 1be8 5b3e
00000080: 6f1a e63d e8b1 23be 1f05 6c3e ff51 32be
00000090: d6a6 50be 2ae5 d1ba 6348 b1bd 7807 96be
000000a0: 0689 7abe fef6 113e 2743 9bbe 40ec 99bd
000000b0: e5f8 de3d e3aa 793e efc5 d03c 89c9 823b
000000c0: 48d3 56be da23 27be 934f 7e3e cb09 68be
000000d0: d405 803d d1d1 6a3e e2b0 62be 0f05 abba
000000e0: 7908 98bd cfab 033e 3383 5e3e f5b4 24be
000000f0: 70e0 483e 853c 183e 36cc 6fbd 0365 b93c
00000100: bbaa 1ebe c838 7ebe a0c2 9d3d 81c2 4c3e
00000110: 5c61 5f3d d25d 13bc 062c a73e c6a9 92be
00000120: 652b 2c3e 2505 983e 3097 cbbd 9acb 6f3e
00000130: 9be3 21be 1c9b 57be 5c31 f13d 1999 3e3e
00000140: 36a2 a23d 2575 80be 45c6 66be b2db 54be
00000150: c53e ecbd 2c3f e0bd e1c4 1bbe b873 ecbd
00000160: 42d2 80be a4c6 643e 224b 6fbd deee 9ebd
00000170: a614 893e 5e0e ca3e 2bd6 8ebe df68 6c3e
00000180: 4ade a43d 30b2 603e d78b ea3c 49d0 9a3e
00000190: 4d05 3b3c 9ab9 c83d 4f41 223d 3627 b5bd
000001a0: f9aa 8dbe 9d8c 51be 624c a6be c069 89bd
000001b0: ddd8 75be 8a41 9d3e fc44 8f3e 9de9 783e
000001c0: 4238 993c d977 613e b2fc b5bd 2ca4 183e
000001d0: 2b3a 29be b0f4 933e 21a8 773d cb8c a13c
000001e0: 6b26 a13e 96e2 863e 369e 97bd b5ae 133b
000001f0: c43d 54be 505a 9b3d 657a 7e3e 17aa 26be
00000200: a2ba 3dbe 1a6e d13d 2711 11be ec2b f73d
00000210: 07b5 d53c 34b5 9cbe 7611 b4bd 2213 903e
00000220: 2406 c6bd 79a5 2abe 6184 80bd 423e ee3d
00000230: 891f 14be 1664 893d 6d00 853e 8f93 bc3d
00000240: 8b5e 683e 65ca a53d bbea a1be 466c e9bd
00000250: 36a9 543a 4de3 aabe 0cc7 30be 9103 893e
00000260: d047 18bd 9cfc 94bd 0b4b 633e 1360 903e
00000270: ce3a 623e 2e6a 683b 4f34 763c e8bc 37be
00000280: 2616 bcbe b6c9 a8be 63b5 573e 7ec0 06bd
00000290: 3096 5bbe 3de1 41be a144 ce3d 2670 43be
000002a0: a17a d1bc e397 dc3d a182 49bd 0eb4 74bd
000002b0: 8a48 0bbe cdd0 4c3e db40 903e 5b6e b0bd
000002c0: e4f8 29be e9ab 3f3e 9bb5 b2be 10d0 623e
000002d0: cf07 41be 2a13 b53e c200 733d 66ba 703e
000002e0: 4c67 f03d c567 9f3e 819a d83d 64fa a83d
000002f0: f3f4 b7bd 5f99 2dbe b30d 88bd 0723 81be
00000300: 6a67 fdbd ef0b cbbd eaac 443e e40c 7bbe
00000310: b136 92bd 5f68 0dbd ef53 6bbe 212e f13d
00000320: 3686 883e 48df 87bd 414b a4bd ca65 37be
00000330: 0fac 26be 0f4e 20bd 9144 73be a2f1 82be
00000340: 63f1 753e b93c 643e 39b8 a2be ca47 56be
00000350: 825a 3cbe f1dd 6bbe e8af ccbd 0b5f 6dbe
00000360: 56d7 edbd 8fc0 6a3e a159 4e3e 6831 c03b
00000370: 9ebe 743c 313e 343e ebbf ebbd 77e2 03bc
00000380: 1a72 a63d 0569 273e e01e 913e b7ef 2fbe
00000390: 9f0d 73bc ddcc f4bd 5555 80be 9819 0ebe
000003a0: d0d9 023e 89e6 29be 3509 863e ac67 5bbd
000003b0: a1af bebd 8de6 a63d 82cb a7bc 5921 373e
000003c0: 6818 83be d893 453e 3c0d 33bd 90a8 35bd
000003d0: 5573 9cbe a29c fd3d fd14 843e d374 bebd
000003e0: 8995 35be 67c6 073d 98b7 a8be 54d5 34be
000003f0: 95f7 923d e0f7 ac3e 9fdd 82be 2747 0dbe

lstm.weight_hh_l0 f4 [40, 10]
-0.2493708 0.17184013 0.28075916 -0.12942572 0.13515426 0.24247836 0.0881467 0.26615527
-0.30286154 -0.25349346 0.06273745 0.13247554 -0.036923565 0.18875419 -0.21529356 0.057639133
0.16203518 -0.0023208563 0.014032652 0.17149533 0.035284225 -0.12355074 0.014631508 -0.21825194
0.049820032 0.17206508 -0.021167755 -0.1652335 0.23219055 -0.28731507 -0.21976791 0.014374758
-0.19568892 -0.05866149 -0.05965879 -0.28259212 -0.0944011 0.2346862 0.08739876 -0.22951399
0.31322005 0.1627706 0.09797791 0.2817562 0.21927527 -0.1829366 0.23989356 -0.08661734
-0.08930603 0.2904444 0.1757192 0.25511655 0.13243295 -0.32485858 -0.0818196 -0.2582235
-0.1418023 -0.24694441 -0.18824273 -0.1851418 -0.21588548 -0.1206081 0.34421942 -0.15980706
-0.04308656 0.30669978 -0.22070923 -0.24611086 0.06149216 -0.038291577 -0.0037428034 0.0093285125
0.18764979 0.18703301 -0.30592912 -0.2688536 -0.11319737 -0.09372537 -0.15712222 0.01866953
-0.27159157 0.03765661 0.2574143 0.16948526 -0.13978986 -0.20289674 0.13722733 0.21110187
-0.15864138 -0.07008593 -0.025193678 0.3439747 0.06297215 -0.25579336 -0.26862827 -0.15587698
0.089286 -0.1779352 0.24151148 -0.30267286 -0.032082886 -0.25814614 0.06211295 0.028038433
0.03365632 -0.023900654 -0.2453862 0.17294085 0.16163091 0.17124125 0.06689533 0.29935294
-0.28931347 -0.05518397 -0.026495958 0.18584396 0.22756939 0.11442297 -0.02046202 -0.10944161
0.25307015 0.15873669 -0.012149908 0.2645923 0.29197544 -0.28360173 -0.2691936 -0.20141347
0.08754734 -0.17828628 0.30071118 0.2627435 -0.09901855 -0.0973603 -0.226168 -0.087165
-0.18045408 -0.12591106 0.27225658 -0.117264085 0.26973 0.1388473 0.04763284 0.26478785
0.28301737 0.18767866 0.1791916 0.0807235 0.27798626 0.28660417 -0.07124315 -0.0015076868
-0.1803354 0.05143036 -0.2576088 0.02721308 0.08184522 -0.12508762 0.07455735 0.34526917
0.195054 -0.112089984 -0.29587537 -0.03281474 0.26412323 0.19366743 0.07991324 -0.16478726
-0.29370883 -0.14527237 -0.085206814 0.06348789 -0.26453528 -0.30037272 0.044628512 -0.0045315363
0.009550866 0.0081377635 0.017138928 0.052192673 -0.10346839 0.004747335 0.13446923 -0.19791536
-0.30331233 -0.01733002 0.06908429 -0.26643443 -0.06821049 0.25537103 -0.073300496 0.15441372
4.9068283e-05 0.2692818 -0.1377449 0.31503975 0.09923551 -0.027526127 0.27030593 0.24245195
-0.021389 0.32613418 -0.15071884 0.19155882 -0.26750457 0.32027137 0.22450548 -0.233955
-0.16798688 0.18749508 -0.110721394 0.31764698 0.14835528 -0.24769002 -0.1467418 0.08765778
-0.22747257 0.26403567 -0.2204123 0.3172899 0.29716817 -0.33101505 0.16872646 0.22850128
-0.22553267 -0.3017642 0.2519025 -0.19021998 0.069170006 -0.2574026 0.1955308 -0.16932449
-0.06485264 0.23666501 0.088948965 0.27813044 0.22097571 0.30151886 0.097386636 0.28558564
-0.075244054 -0.062498644 0.028492168 0.18847792 -0.21564 -0.114573374 -0.076735966 0.20858444
0.17330469 -0.21247232 0.12404138 0.24260695 -0.042842902 -0.13254811 -0.046496455 0.20757964
00000000: 0f5b 7fbe dcf6 2f3e aabf 8f3e 2d88 04be
00000010: e165 0a3e 3f4c 783e 4286 b43d 8145 883e
00000020: ab10 9bbe e5c9 81be 7e7c 803d aba7 073e
00000030: 2a3d 17bd c748 413e ea75 5cbe 0317 6c3d
00000040: 8dec 253e 8219 18bb 35e9 653c 799c 2f3e
00000050: 3186 103d 2c08 fdbd feb8 6f3c 707d 5fbe
00000060: 1710 4c3d d431 303e 0068 adbc f832 29be
00000070: 5cc3 6d3e f61a 93be d70a 61be 1b84 6b3c
00000080: ad62 48be 0847 70bd c65c 74bd eaaf 90be
00000090: 5d55 c1bd 9451 703e 1ffe b23d b705 6bbe
000000a0: 615e a03e 56ad 263e a4a8 c83d 5942 903e
000000b0: b289 603e bb53 3bbe a8a6 753e 6f64 b1bd
000000c0: 14e6 b6bd 21b5 943e bcef 333e a39e 823e
000000d0: 819c 073e dd53 a6be 0991 a7bd df35 84be
000000e0: 9f34 11be ffde 7cbe b4c2 40be d095 3dbe
000000f0: 1511 5dbe 6101 f7bd 873d b03e 76a4 23be
00000100: 887b 30bd c107 9d3e 9a01 62be 7c04 7cbe
00000110: 34df 7b3d a1d7 1cbd d249 75bb 9ed6 183c
00000120: 4427 403e 9585 3f3e bea2 9cbe 2ea7 89be
00000130: 06d4 e7bd 16f3 bfbd a6e4 20be d8f0 983c
00000140: 0d0e 8bbe d13d 1a3d cfcb 833e 8b8d 2d3e
00000150: 1325 0fbe 2ac4 4fbe 5285 0c3e 172b 583e
00000160: e372 22be 3689 8fbd f962 cebc 741d b03e
00000170: 8bf7 803d 59f7 82be a589 89be 379e 1fbe
00000180: 94db b63d a534 36be c94e 773e f0f7 9abe
00000190: 5869 03bd bb2b 84be 266a 7e3d dbb0 e53c
000001a0: 36db 093d 4ecb c3bc 8546 7bbe 6817 313e
000001b0: 9382 253e de59 2f3e 6b00 893d ca44 993e
000001c0: e520 94be 9608 62bd 0d0e d9bc e14d 3e3e
000001d0: f307 693e 9756 ea3d f79f a7bc ec22 e0bd
000001e0: 6992 813e df8b 223e 6810 47bc a478 873e
000001f0: ce7d 953e 3f34 91be bed3 89be 553f 4ebe
00000200: 054c b33d ae90 36be d1f6 993e 5186 863e
00000210: 3dca cabd d664 c7bd 9698 67be 9083 b2bd
00000220: f4c8 38be d4ee 00be 3765 8b3e 2728 f0bd
00000230: 0d1a 8a3e fd2d 0e3e a71a 433d 4692 873e
00000240: a7e7 903e d62e 403e 017e 373e 5d52 a53d
00000250: 3754 8e3e c8bd 923e eee7 91bd 939d c5ba
00000260: d8a9 38be a4a8 523d 4de5 83be f7ed de3c
00000270: 779e a73d f816 00be 86b1 983d 1fc7 b03e
00000280: 3cbc 473e 6f8f e5bd fa7c 97be c068 06bd
00000290: 293b 873e c150 463e 8ea9 a33d febd 28be
000002a0: 0161 96be 48c2 14be e980 aebd f005 823d
000002b0: 2b71 87be 74ca 99be 63cc 363d 487d 94bb
000002c0: 3c7b 1c3c 4154 053c f066 8c3c fcc7 553d
000002d0: 3ce7 d3bd 888f 9b3b 4db2 093e 53aa 4abe
000002e0: c14b 9bbe b0f7 8dbc 107c 8d3d 186a 88be
000002f0: f1b1 8bbd febf 823e 921e 96bd a11e 1e3e
00000300: abce 4d38 4edf 893e 000d 0dbe e44c a13e
00000310: fd3b cb3d 797e e1bc 8a65 8a3e 5345 783e
00000320: fc37 afbc 0ffb a63e 0a56 1abe ff27 443e
00000330: 5cf6 88be 9cfa a33e c4e4 653e e691 6fbe
00000340: c104 2cbe b6fe 3f3e e6c1 e2bd a0a2 a23e
00000350: 72ea 173e 74a2 7dbe 7b43 16be ec85 b33d
00000360: 92ee 68be af2f 873e c3b3 61be d273 a23e
00000370: 6d26 983e ce7a a9be a1c6 2c3e 3dfc 693e
00000380: 09f2 66be d680 9abe 5df9 803e 07c9 42be
00000390: 01a9 8d3d 46ca 83be 3a39 483e 6663 2dbe
000003a0: 76d1 84bd 5058 723e e02a b63d 1d67 8e3e
000003b0: 7547 623e ae60 9a3e a572 c73d 4838 923e
000003c0: 8e19 9abd 94fe 7fbd 6868 e93c 5b00 413e
000003d0: bbd0 5cbe 72a5 eabd bf27 9dbd 2997 553e
000003e0: c976 313e 5892 59be 6809 fe3d f56d 783e
000003f0: 0a7c 2fbd b1ba 07be 1173 3ebd c28f 543e

lstm.bias_ih_l0 f4 [40]
-0.1960311 0.31140357 -0.11898111 0.051342204 0.09768779 0.13386256 -0.1322726 -0.18681423
0.0027237288 -0.08993644 0.2323747 -0.15877566 0.04857727 -0.088565834 -0.17520693 -0.10112296
-0.15666941 -0.030622102 0.24362792 -0.098374896 -0.021783685 -0.02105435 -0.2375728 -0.09415516
-0.21003614 0.0051808334 -0.15408395 0.24939126 0.28002283 0.22906467 -0.29778174 0.13972244
-0.13898452 0.051510956 -0.29921448 0.19740555 0.2801661 0.2609476 -0.15668085 0.29448363
00000000: 60bc 48be 4a70 9f3e 5eac f3bd 344c 523d
00000010: 8910 c83d 4413 093e 7872 07be 3b4c 3fbe
00000020: 9680 323b 9930 b8bd a2f3 6d3e 1696 22be
00000030: f6f8 463d 0162 b5bd 7269 33be 8e19 cfbd
00000040: f26d 20be 34db fabc 9979 793e c778 c9bd
00000050: b373 b2bc 2c7a acbc 4946 73be 6cd4 c0bd
00000060: b713 57be fbc3 a93b 2fc8 1dbe 6c60 7f3e
00000070: 275f 8f3e ee8f 6a3e d976 98be 6613 0f3e
00000080: f551 0ebe 27fd 523d a432 99be ae24 4a3e
00000090: ee71 8f3e ec9a 853e f270 20be 8fc6 963e

lstm.bias_hh_l0 f4 [40]
-0.3244203 -0.0650171 -0.049908843 0.16497219 -0.1995761 0.07115035 0.14701384 0.08225836
-0.11324474 0.12227883 -0.17526095 -0.12340799 -0.12128924 0.30338594 -0.118314974 -0.07456672
0.114382036 0.055681273 -0.10178741 -0.31885433 -0.1269186 -0.01443962 0.2650773 -0.27590653
0.11793812 -0.073408276 0.16830958 -0.07688733 -0.1495787 -0.029763019 -0.08827607 -0.20130959
-0.21285552 0.13765758 0.1210645 -0.03135084 0.06276504 0.3608123 -0.24588616 -0.050510824
00000000: 6b1a a6be af27 85bd 376d 4cbd 78ee 283e
00000010: ad5d 4cbe 46b7 913d cc8a 163e 1277 a83d
00000020: dcec e7bd 536d fa3d 9b77 33be 54bd fcbd
00000030: 7e66 f8bd 6755 9b3e 1f4f f2bd 70b6 98bd
00000040: 2141 ea3d 0c12 643d eb75 d0bd e040 a3be
00000050: f3f6 01be 2894 6cbc 36b8 873e 9f43 8dbe
00000060: 8b89 f13d 1457 96bd 5959 2c3e 1b77 9dbd
00000070: 292b 19be 93d1 f3bc 16ca b4bd 1a24 4ebe
00000080: ccf6 59be 1cf6 0c3e aaf0 f73d bd69 00bd
00000090: f58a 803d 64bc b83e 95c9 7bbe 70e4 4ebd

hidden_layer.weight f4 [10, 20]
-0.0236493 0.07092829 0.16889654 0.03199206 0.19784634 -0.030767597 -0.16097137 0.15670015
-0.19477798 -0.0369542 0.0196022 0.12356069 -0.21162605 -0.008335174 0.13407673 0.29540485
0.11757997 0.17822403 0.086911224 0.19307403 0.119020544 -0.12581274 -0.12734365 -0.049846575
0.052762516 0.19550389 -0.129885 -0.1071457 -0.05928904 -0.07898772 0.13993385 0.17221794
-0.050751965 -0.13415056 -0.1292958 0.2519586 -0.04411359 -0.15054911 -0.10446369 -0.037844054
-0.0131638525 -0.1747848 -0.0636675 0.09960488 -0.03451671 -0.1951229 -0.0076718163 -0.16903162
-0.19036317 0.19497028 -0.034626566 0.00520305 0.016023174 -0.038882215 -0.12469149 -0.18515263
-0.16767554 0.012430984 0.18035276 0.14328174 -0.023343269 -0.00907144 0.21412723 0.1952894
-0.1133654 -0.13897888 -0.1274902 -0.22100282 0.011250557 0.0017411028 0.13808428 0.03157632
0.019073095 -0.07335889 0.18304376 0.09203659 0.25521633 -0.14500242 0.18974455 0.21258217
0.04194215 0.20078975 0.016144294 0.055791687 -0.14496866 0.11520183 0.022134935 0.018243916
-0.09459463 -0.041457057 -0.07988079 0.087385304 0.13598579 0.11908629 -0.0501274 0.2198674
-0.032954074 -0.13587111 0.021413244 -0.17377225 -0.15857185 -0.08089856 0.18573959 0.1879332
0.053240087 0.20322789 0.088579275 0.0040773107 0.005974306 -0.033591893 -0.06454665 0.055763215
0.15066004 0.2213284 -0.08028232 -0.035053644 0.076985165 0.09354342 0.112392046 -0.07669815
-0.107522644 0.012049687 0.018611081 -0.08533024 0.07036012 0.16812634 -0.09397013 0.22270931
-0.09541543 0.08247426 0.030750977 0.13729072 -0.1821248 -0.1608933 -0.13557844 0.024879014
0.019765472 -0.19081289 -0.07885508 -0.07565592 0.19831677 -0.08833517 -0.014241934 0.035108805
0.05637621 0.13148062 -0.20038162 -0.10685586 0.13198991 -0.14989576 -0.09825189 -0.18590258
0.21572942 -0.15330106 0.038157795 -0.17036599 0.090274625 0.022681778 -0.014354598 0.116256565
0.13237874 0.14833847 -0.15640713 0.18706897 0.113583475 -0.14900124 -0.05974245 0.14999688
-0.021440022 -0.0985094 -0.14735603 0.07196501 -0.06792876 -0.031452786 0.14835213 -0.07957288
0.048040655 -0.012905937 0.17775404 0.12318503 0.09366116 0.21767488 0.21350962 -0.044362806
-0.1786018 -0.07644887 -0.14012277 0.055721693 -0.2458293 -0.23147656 0.085922144 0.11673302
0.008400873 0.22474058 -0.10500785 -0.069731526 0.18895525 0.19788393 0.19548827 -0.0736323
00000000: 2dbc c1bc da42 913d 37f3 2c3e 1b0a 033d
00000010: 3b98 4a3e 540c fcbc aed5 24be 0176 203e
00000020: e173 47be 4a5d 17bd cb94 a03c 630d fd3d
00000030: 80b4 58be 4190 08bc 694b 093e 4e3f 973e
00000040: c4cd f03d 5c80 363e 83fe b13d 33b5 453e
00000050: 0bc1 f33d 0ed5 00be 6066 02be ec2b 4cbd
00000060: 821d 583d 2c32 483e 9300 05be 346f dbbd
00000070: 10d9 72bd 50c4 a1bd d24a 0f3e e659 303e
00000080: 4be1 4fbd c45e 09be 1e66 04be b800 813e
00000090: 74b0 34bd 8c29 1abe 0ff1 d5bd 5e02 1bbd
000000a0: 33ad 57bc c9fa 32be 1b64 82bd a5fd cb3d
000000b0: 6561 0dbd 4cce 47be dc63 fbbb a016 2dbe
000000c0: 90ee 42be 4aa6 473e 96d4 0dbd 597e aa3b
000000d0: 0843 833c f542 1fbd 405e ffbd a798 3dbe
000000e0: 23b3 2bbe 53ab 4b3c 65ae 383e 73b8 123e
000000f0: 623a bfbc 61a0 14bc 2b44 5b3e f2f9 473e
00000100: 1e2c e8bd 7b50 0ebe ca8c 02be 904e 62be
00000110: 4254 383c b735 e43a f765 0d3e 2c56 013d
00000120: 2e3f 9c3c 303d 96bd d36f 3b3e ae7d bc3d
00000130: b7ab 823e 847b 14be 654c 423e 24af 593e
00000140: 88cb 2b3d d49b 4d3e 0a41 843c d385 643d
00000150: aa72 14be f0ee eb3d 5354 b53c 4474 953c
00000160: d4ba c1bd e0ce 29bd 8a98 a3bd 11f7 b23d
00000170: dc3f 0b3e 83e3 f33d 6352 4dbd eb24 613e
00000180: dafa 06bd cc21 0bbe d46a af3c 5af1 31be
00000190: a960 22be 25ae a5bd 8532 3e3e 9071 403e
000001a0: 4712 5a3d f91a 503e 0d69 b53d f69a 853b
000001b0: 1cc4 c33b a797 09bd 0931 84bd f867 643d
000001c0: a046 1a3e e9a3 623e 0f6b a4bd 6994 0fbd
000001d0: 66aa 9d3d b193 bf3d cd2d e63d eb13 9dbd
000001e0: d534 dcbd 0d6c 453c 4476 983c 9fc1 aebd
000001f0: f718 903d 5029 2c3e 6973 c0bd e90d 643e
00000200: 2a69 c3bd 44e8 a83d 79e9 fb3c f095 0c3e
00000210: ec7e 3abe 37c1 24be 13d5 0abe 13cf cb3c
00000220: 33eb a13c 7464 43be c67e a1bd 7ef1 9abd
00000230: 8d13 4b3e 12e9 b4bd 0057 69bc 40ce 0f3d
00000240: beea 663d dba2 063e d730 4dbe 3fd7 dabd
00000250: 5d28 073e 467e 19be 4938 c9bd 3f5d 3ebe
00000260: 2ce8 5c3e f4fa 1cbe 594b 1c3d 6c74 2ebe
00000270: e7e1 b83d 23cf b93c 8c2f 6bbc ec17 ee3d
00000280: 4b8e 073e 0ae6 173e 3129 20be 028f 3f3e
00000290: 749e e83d c893 18be 80b4 74bd c898 193e
000002a0: fca2 afbc 4cbf c9bd 80e4 16be 6462 933d
000002b0: 3c1e 8bbd a3d4 00bd 9fe9 173e 1bf7 a2bd
000002c0: 47c6 443d 6c73 53bc 2805 363e 6f48 fc3d
000002d0: 6cd1 bf3d 2ae6 5e3e 44a2 5a3e c6b5 35bd
000002e0: 64e3 36be 3a91 9cbd 587c 0fbe 6e3c 643d
000002f0: adba 7bbe 3108 6dbe f3f7 af3d b911 ef3d
00000300: d1a3 093c 6522 663e 5b0e d7bd 67cf 8ebd
00000310: 7c7d 413e 16a2 4a3e 142e 483e 88cc 96bd

hidden_layer.bias f4 [10]
0.059843697 0.13415045 -0.16202894 0.08709346 0.013522858 0.08877105 0.11378742 -0.06538701
-0.12181193 0.020482915
00000000: aa1e 753d bc5e 093e eaea 25be 0e5e b23d
00000010: fa8e 5d3c 99cd b53d 6109 e93d a0e9 85bd
00000020: 8878 f9bd c9cb a73c

output_layer.weight f4 [1, 10]
0.2898702 0.050886765 0.27200198 0.11717734 -0.026673095 0.2509455 -0.2096659 -0.2899115
-0.116624676 0.03751326
00000000: de69 943e a46e 503d d843 8b3e acfa ef3d
00000010: 8981 dabc ee7b 803e a8b2 56be 486f 94be
00000020: ebd8 eebd 81a7 193d
