pair_sampling/models/model_b100.pt (torch_old, 6962 bytes, 8 tensors)

embedding.weight f4 [21, 10]
00000000: 0000 0000 0000 0000 0000 0000 0000 0000
00000010: 0000 0000 0000 0000 0000 0000 0000 0000
00000020: 0000 0000 0000 0000 fd0d fcbe d3a3 9fc0
00000030: 724a 0dc0 b392 e3bc 6c81 c7bf 7a9d 4740
00000040: dfd9 eabe b220 1fbf 19fc 463f 88c5 fdbe
00000050: 9c7d b9bf 7219 b1be eec6 593d b75b ac3f
00000060: 5a1d a13f edf7 02be 016a 82bf 8482 c93f
00000070: 5b50 ba3f 8fe6 c43f e9dc 3a3f 29f3 7bbf
00000080: 4f2c e43f fddf e23f 70c3 26c0 1169 f93f
00000090: dcaf 04c0 1b30 b53e 6405 2dbf b6c4 8dbf
000000a0: c3d7 4dc0 f994 0e40 922c c53f b56e ef3f
000000b0: 1af3 32bf 61c5 82bf 84cf 9ebe 56b4 1a3e
000000c0: cce1 bcbf 5b19 85bf 5be8 80be de54 e63f
000000d0: 37d4 263f b742 8c3f 43ce 84bf b186 01bf
000000e0: a54a 23c0 3d63 5abf 54b1 2abe c7f6 2cbf
000000f0: 7147 ef3e 4620 2c40 2a81 ed3f b8ee 14be
00000100: 6888 1940 93a0 1040 0334 373e 240e 973e
00000110: a556 9ebf cb79 7ebe cfce 9dbe fb12 7ebe
00000120: 64da c93f bd03 4f3f 3d11 c13f f275 42c0
00000130: b9e1 f63f 209e 5e3f 1901 97bf 6d42 6ebe
00000140: 5bf6 ea3e b811 24c0 d589 c0be b07e 0e40
00000150: 520a 18bf b4ea af3f beb0 593d c915 d0bf
00000160: 47d3 9dbf 3d26 abbf 0104 c3be f9b4 66bf
00000170: a312 d2bf c920 93bf 05f3 8dbe 1fd9 bb3e
00000180: 67b4 0540 fd34 76bd 75f7 4dbf 23e0 583f
00000190: 16a9 763f 0da0 0b3f 482d 223f 5c63 c33f
000001a0: 659a 4040 723c 323f bfa9 c1bf 7988 e43e
000001b0: 1feb 893f 1c87 fabe 5e2a 1240 e0db 12bf
000001c0: 5c30 61bf 25de 6d3f 453b 963e 91e8 cabf
000001d0: 638a 02c0 a3ed 05bf bbc9 2fbf d45e 8b3f
000001e0: 681a 0540 f8c9 30bf 07fe 54bd 0ae6 0840
000001f0: 041c 20bf 2ada 123f e1fb a23f 748e 4ebe
00000200: 4e95 fc3f 1dd4 8fbf 74b8 e9be b7bf 8dbe
00000210: cae1 7bbe 57ca df3f 221d 5740 eb6b 0d3f
00000220: 6e06 08c0 5ffa 8abf dd36 9ebf 1465 333f
00000230: 141b 02bf aa37 85bf 16c8 8a3e 87f3 8a3e
00000240: 9607 bc3e 2365 683f 616f 72bf 7098 dfbf
00000250: b092 ca3e b802 0440 f6a9 64be 3ac7 4b40
00000260: 245c f5bf c33d b13f f975 563f 7104 463e
00000270: d79e ae3e 006e e1bf 8d38 bfbe 0916 7cbe
00000280: 1e81 98bf 1fb5 923d 7007 543f d01a bbbf
00000290: 01a6 4abe 7c0e e73e b160 48bf 2a13 f2bf
000002a0: 1d58 b83e 8350 d53e 9be4 e9bf a4dc a4bf
000002b0: a30e 00c0 e243 57bf 40ff 96be 1e41 eabf
000002c0: 5e27 fabf 704d b13f 2812 ee3e ba10 0540
000002d0: 7290 643f 23d1 14be cadd 81c0 12d8 4e3f
000002e0: 2789 a4be 49a0 f1bf b1bf 6b3e 3368 2dc0
000002f0: 37ee 29be ff51 cc3d d7c8 9e3f 1450 c83f
00000300: 44e3 c33d 0063 f5bc 0e9f 75bf ead2 01bf
00000310: 33d3 433f a69d 07bf 4836 86bf 8327 0740
00000320: 4bce 6a3f 02c3 05be deb4 0ebd 9881 20bf
00000330: 5d59 13c0 3d9b 37bf 962e 653f 56f9 ad3f
00000340: 046f ec3f 2b78 993f
0.0 0.0 0.0 0.0 0.0 0.0 0.0 0.0
0.0 0.0 -0.49229422 -4.988748 -2.2076688 -0.027779913 -1.5586371 3.1189866
-0.45869347 -0.62159264 0.7772842 -0.49564767 -1.4491458 -0.34589726 0.05316823 1.3465489
1.2587082 -0.12789889 -1.01886 1.5742955 1.4555773 1.5382861 0.7299333 -0.9841791
1.7826022 1.7724606 -2.6056786 1.9485189 -2.0732336 0.35388264 -0.6758635 -1.1075656
-3.216294 2.2278426 1.5404227 1.870566 -0.69902194 -1.0216485 -0.31017697 0.15107855
-1.4756408 -1.0398363 -0.25177273 1.799465 0.65167564 1.095786 -1.0375446 -0.5059615
-2.551431 -0.85307676 -0.16669208 -0.6756405 0.46734193 2.6894698 1.8555043 -0.14544189
2.3989506 2.2598007 0.17890935 0.29502976 -1.2370192 -0.24851148 -0.30821845 -0.24811928
1.5769773 0.8086508 1.5083386 -3.0384488 1.9287635 0.8696003 -1.179721 -0.23267527
0.4589108 -2.5635815 -0.37605157 2.2264824 -0.5939075 1.3743501 0.05314707 -1.6256648
-1.2330102 -1.3371044 -0.38088992 -0.9011989 -1.6411937 -1.149438 -0.27724472 0.36689088
2.089136 -0.060109127 -0.80455714 0.84717005 0.96351755 0.54541093 0.63350344 1.5264697
3.0094235 0.6962348 -1.5129927 0.4463537 1.0774878 -0.48931205 2.283836 -0.5736675
-0.87964416 0.9291709 0.29342094 -1.5852224 -2.0396965 -0.5231573 -0.6866719 1.0888314
2.0797367 -0.6905818 -0.05200007 2.1390405 -0.6254275 0.5736414 1.2733117 -0.20171529
1.9733064 -1.1236607 -0.4564854 -0.2768533 -0.2459785 1.7483624 3.3611531 0.55242795
-2.1253924 -1.0857657 -1.2360493 0.7007611 -0.5082257 -1.0407612 0.27105778 0.27138922
0.36724538 0.9077932 -0.947012 -1.7468395 0.3956504 2.062666 -0.2233046 3.1840348
-1.9168744 1.3846973 0.8377376 0.19337632 0.3410556 -1.7611694 -0.37347832 -0.2461778
-1.1914403 0.07163452 0.8282385 -1.4617558 -0.19789888 0.45128238 -0.7827254 -1.8912098
0.36004725 0.41662988 -1.827289 -1.2879834 -2.0008934 -0.84087956 -0.29491615 -1.8301122
-1.9543264 1.3851757 0.46498227 2.079146 0.89282906 -0.14532904 -4.058324 0.8079845
-0.3213589 -1.887704 0.23022343 -2.7094848 -0.16594778 0.09976577 1.2405041 1.5649438
0.09564832 -0.029954433 -0.95945823 -0.50712454 0.7649414 -0.5297493 -1.0485315 2.1117866
0.9172103 -0.13062671 -0.034840457 -0.62697744 -2.3023293 -0.7172125 0.8952421 1.3591716
1.8471379 1.1989797

lstm.weight_ih_l0 f4 [40, 10]
00000000: 129c 9cbe 2fd4 7abd c73a bfbe 8858 773e
00000010: 24c6 16bf a0b6 b0bf e0a7 703e 8f97 bbbe
00000020: 3e67 7b3f 2456 383f 9aa3 9a3f 08c2 64be
00000030: eb74 5b3f 0afc 5f3f b8dd 843f 6b01 713e
00000040: f9d9 503e 9dd3 143f 942b 243e b52a 6c3e
00000050: 7b92 b93e 8cbf b8be 783a 4f3f 809e 633d
00000060: fcf9 133d 5778 b53e 1894 4bbf ed87 823e
00000070: 92a8 ea3e caf5 03bf dca2 df3e 6cb1 7ebe
00000080: 0b77 843e 2ca9 8f3f 08a7 c7bd e5f6 a4be
00000090: 62f6 8c3e f622 e43d d18c ac3e e562 92be
000000a0: 1c55 b8be 20de 19bf c063 603e 1432 18be
000000b0: 5443 62be d3c5 cf3d 8198 29bf 9912 a4be
000000c0: ecc7 703e a9e6 763e 5b72 2b3f 3b9b 6abe
000000d0: d121 3e3f af73 a93e bf18 74bf dfa5 803e
000000e0: 296f 483f 590c 80bf 383b 66bf caff 79bf
000000f0: 4cd7 85bf a06d b53e 9103 433f 7579 a43e
00000100: 22fc b0bd f5a8 01bf 17b3 c1bf 5bc7 94bd
00000110: 6fee 01bf 25ef 57be 6967 0a3f 2ab4 90be
00000120: 653c bebe a3e1 d73d 8ca4 883e 53b9 ba3e
00000130: 6685 89bf e6b8 babf d0a8 c5be 0036 ff3e
00000140: dd2d 683f f87b 2d3e 5817 b43e 1bc1 943e
00000150: b17f 27be 7b98 023f 6741 51be 4a3c c3be
00000160: bbca 023e 1b0e 75bf 1c73 b63e 8fb0 90be
00000170: 1c61 1ebe 5895 4dbe 20fd 95be 0f77 e4be
00000180: 058b 13bf b38c 3dbf 86fd 1c3e b70d 383f
00000190: b9b5 083f 4ac0 5a3f f441 123f 133c 3dbf
000001a0: f78b 3f3f 9460 ecbe 4092 eabd 53dc 743e
000001b0: 950c a7be bd46 f4bd 1d48 0dbf 82ec be3e
000001c0: ac10 3a3f 37a2 533b f0d2 b63f 4f1c 40bf
000001d0: 0b15 c6be c4ae b43e 02fb 36be ccf2 943e
000001e0: 5b9d ff3c 31a5 d5bd 827f 703e 5214 e73e
000001f0: e18b a03d fb4a 2ebe 59b9 aebe cea4 b8bf
00000200: a83b 55bf fc17 053f a04e bc3e b831 943f
00000210: a1b4 58bf e5ce 043f d6b2 ad3e a116 993f
00000220: 8540 c3be 24b4 19bc 58ea 7ebf 3bb1 63be
00000230: 54b5 c33f 4d7c cd3e ad9f b4be dcaf 88be
00000240: 85ae a03d 3b22 b03d d58f c6be bd6c b4be
00000250: c384 223f f68b 203f 9f5e 1fbf 2031 5d3f
00000260: 2868 973d f14b cb3e 68d1 a13f ea80 833c
00000270: 18a6 943d c4c2 4abf a854 923e bda4 103e
00000280: 661d 11bf 3f3e 60bf 6e1d c0bf eba4 903f
00000290: a8cb 94be 12b3 4ebf f6e7 75be b1e8 943f
000002a0: f5f5 4ebe 5769 6c3d 2d35 1dbf c908 cebc
000002b0: 630e 63bf 1098 89bf d8c5 b8bf 9b84 203e
000002c0: b8d6 293e 7b5a acbf ce99 043d 00e0 833e
000002d0: 1bd5 893e e1a8 8d3f ed6b 823f 67f3 5dbf
000002e0: 313c 1240 f99f 1c3f c1a0 8e39 bb3e 8bbe
000002f0: 0a81 88bf 7afe 383e 77c6 c33c facb b6bf
00000300: f691 8f3e 2412 dcbe 1b55 933e 9eee a83e
00000310: 1bbb 11bc cf58 0bbf 2923 283f 6975 483f
00000320: 82c0 613e f102 b6be 7063 16bf a73f 193f
00000330: 66f1 df3e e3b7 c33c dfdb 28bf 1f6e f3be
00000340: 637a 1c3e ddb8 6ebe 483b f8bc 4156 07bf
00000350: 854e 423e 5583 903e dfa8 efbc 813a 38be
00000360: 5b1b 183f b239 a13e 44f7 9bbe f40d 33bf
00000370: 80bc a8bd e659 10bf eb81 adbe de2f 07bf
00000380: bd34 893e e24a 78bc 15ac db3d 74e5 843e
00000390: fc7e 333f 5027 cebe cd5c 643d eb48 16bf
000003a0: 1b78 f6bd 155e b4be 5787 35bf 06d6 033e
000003b0: 8a49 44be ccd2 e43d 835e 293d 7905 b6be
000003c0: c271 ad3d 07fb 173e f668 6abd b002 233f
000003d0: 5946 183e 5119 ed3d 76a1 693c 8efc f4bd
000003e0: cb8e e53d b667 a0be 3def 06bf eb46 f7be
000003f0: ad78 953b c5ed 483d 5fd9 8b3d 827b 983f
-0.30587822 -0.06123751 -0.3734953 0.24154866 -0.5889609 -1.3805733 0.23501539 -0.36639068
0.9820441 0.7200644 1.2081177 -0.22339642 0.8572528 0.87493956 1.0380163 0.23535697
0.2039565 0.58135396 0.16032249 0.23063166 0.36244568 -0.3608364 0.8094859 0.05557108
0.036127076 0.35443375 -0.7952285 0.25494328 0.45831734 -0.5154692 0.4367894 -0.24872369
0.25872073 1.1223502 -0.097486556 -0.32219616 0.27531725 0.11139481 0.33701184 -0.28591076
-0.36002433 -0.6010456 0.21913052 -0.14862853 -0.22095996 0.10145154 -0.6624833 -0.3204544
0.23513764 0.24111427 0.6697137 -0.22910778 0.7427035 0.33096072 -0.9535026 0.2512655
0.78294617 -1.0003768 -0.8993411 -0.9765593 -1.0456328 0.354352 0.76177317 0.32123914
-0.086418405 -0.5064843 -1.5132779 -0.072645865 -0.50754446 -0.2108732 0.5406404 -0.28262454
-0.37155452 0.10541084 0.2668804 0.36469516 -1.0743835 -1.4587677 -0.38605356 0.49845886
0.9069498 0.16941822 0.3517406 0.29053578 -0.16357304 0.51013917 -0.20435105 -0.38131934
0.12772648 -0.9572465 0.35634696 -0.28259704 -0.15466732 -0.20076501 -0.29294682 -0.44622084
-0.57634 -0.74042815 0.15331087 0.7189593 0.53402287 0.8544966 0.57131886 -0.7391979
0.74822944 -0.46167433 -0.11453676 0.23912172 -0.32626787 -0.11927555 -0.5518816 0.37289816
0.7268169 0.0032292733 1.4283123 -0.75043195 -0.3868793 0.35289586 -0.1786919 0.2909149
0.031202963 -0.104318984 0.2348614 0.4513269 0.0783918 -0.1702079 -0.34125784 -1.4425294
-0.83294153 0.5198972 0.36778736 1.1577673 -0.8465062 0.51878196 0.33925503 1.1960031
-0.38135162 -0.009381328 -0.9957633 -0.22235577 1.5289712 0.40133896 -0.35278073 -0.2669667
0.07845787 0.08600279 -0.3878161 -0.3523921 0.6348383 0.62713563 -0.62253755 0.86403084
0.07392913 0.39706376 1.2642031 0.016052682 0.07258242 -0.7920344 0.28580213 0.14125343
-0.56685483 -0.8759498 -1.5008981 1.1300329 -0.29061627 -0.8074199 -0.24014267 1.1633512
-0.20211013 0.057717647 -0.61409265 -0.025150673 -0.8869383 -1.0749531 -1.4435377 0.15675585
0.16585815 -1.3465112 0.032373242 0.25756836 0.269204 1.1067163 1.0189186 -0.8669953
2.2849238 0.611816 0.00027204122 -0.27196297 -1.066438 0.18065825 0.023898346 -1.4280999
0.28041047 -0.4298259 0.28775868 0.3299455 -0.008894707 -0.54432386 0.6567865 0.78304154
0.22046092 -0.3554912 -0.5874548 0.5986275 0.4373886 0.023891395 -0.65960497 -0.47544953
0.15281062 -0.23312707 -0.030301705 -0.5286599 0.18975265 0.28225198 -0.029255329 -0.17991067
0.5941674 0.3148933 -0.30462086 -0.69943166 -0.082390785 -0.56387174 -0.33888182 -0.52807415
0.2679805 -0.015154572 0.107261814 0.2595631 0.7011564 -0.40264368 0.055752564 -0.58705014
-0.12034627 -0.3522803 -0.7090964 0.12874612 -0.19168678 0.11173019 0.0413499 -0.3555105
0.08468963 0.14841853 -0.057229005 0.63675976 0.14870586 0.11577094 0.014259687 -0.119622335
0.11208876 -0.31329125 -0.527088 -0.48296294 0.004561505 0.04905488 0.068285696 1.1912692

lstm.weight_hh_l0 f4 [40, 10]
00000000: ea8e cebf 805c 203f 64c8 37be 5505 d33f
00000010: 0caf 323e f2ab 5fbf 292d bbbf 04d5 073f
00000020: bc82 973f d14a 903f b778 6abf 0acb e03f
00000030: e187 6c3f 854b 80bf 5b8f b5be de4c 3a3f
00000040: 8868 91be 2d8b d13e 8f98 f43f 9de6 b3bf
00000050: 0837 a1bf 3d0d 7d3f 7d90 9bbf 009d e1bf
00000060: b0ab 3cbf 61e8 db3d 3e12 fbbf dfd9 14bf
00000070: f007 aebf 14a4 e33f 95ff 01c0 b518 00bd
00000080: 725d 8fbf 9aa0 683e eba4 523f cd25 253e
00000090: 3f8e 4cbf 1aa4 b83e 0cc6 023f 19a5 8b3f
000000a0: cb93 9dbf 9423 9dbf fe88 2ac0 91ae 1dbf
000000b0: eb89 95bf 5dad 413f 3e9b fbbf 6d34 7fbe
000000c0: a638 d03e 90d3 9e3e 131b 49c0 8ee2 4c3e
000000d0: 60d7 59bf 039b 8bbe 9b8c b2bf ca68 163f
000000e0: 4a08 db3e 7951 6fbf 8b3c 213f 8d7b 283e
000000f0: ebfb ab3e 2264 2640 5439 16c0 8fb2 863f
00000100: 85ea 2dbf 1dd7 5c3f 3d1f ffbf ce92 e43e
00000110: 02ed 59bf 8d70 40bf b599 913f e3b2 5fbf
00000120: e366 61bf 10d7 dbbe dfda 33c0 a02d 9e3f
00000130: 9468 703f dff9 1f3f b731 ae3f 00cc abbe
00000140: b12e 75c0 7342 0a3f 0cdb 4bbe 2605 08bf
00000150: 46ea 443e e7a9 0bbf 8b77 1fc0 a398 a9bf
00000160: 5897 c73f 92e6 953f 0063 513f 1a9f 06c0
00000170: d034 fb3e 149a 66be af99 75be 5cc4 ab3f
00000180: 77a9 90bf 5661 5fbe 2202 87bf 5a67 df3e
00000190: f67d a9bf 1cf9 8b3e c067 513d 7fde d13d
000001a0: d77e e63e bc99 433f 8785 4ebf 7b90 1d3f
000001b0: fafc ea3f 847b 2140 eb86 1d3f 51a2 ef3e
000001c0: b9cc 8a3f b7b8 9dbf 2ea6 3bbf fd10 bb3e
000001d0: 5280 85be 3ff1 753f 0d30 8e3e 8fc1 5dbf
000001e0: b24b 813d bbf7 4d3f a17a f93e 4444 643f
000001f0: 64b1 4140 ed45 dbbd 2755 1a3d 4f88 b4bf
00000200: 5e82 2cbf f61f b43f c76c c43e 3a54 a1be
00000210: 476d b8bd 33ea c2bf 926c 3b3f 0431 eabe
00000220: 18c8 a5be 78e6 e2bf 82a9 043e 6e51 f43e
00000230: 4d46 423e 6323 fdbf fe2e 93bf 26cf c03e
00000240: 052a a83f 0a19 c9bf 316b 343f 8108 38bf
00000250: 7baf 8dbf a0a9 9c3f 1766 96bd e13a ecbe
00000260: 5823 1abf 11b7 733f eac6 83be d26b a83e
00000270: 15eb b6bf 3a1f 4bbe 30d4 4bbf 4c78 1fbe
00000280: 5c8a 94bf 4f33 95bf 0836 c23f c2e7 11bf
00000290: a90d 4d3f f566 80bf 71db f4bd 91c7 4d3f
000002a0: 14b7 aebf 3b80 9fbf 9335 393e 0a5f 2440
000002b0: a2f7 cdbd 36ca 1dc0 17ad 30bf 0288 b9bf
000002c0: 71b5 39be c1f3 5c3e 9973 adbf 8956 223f
000002d0: aad1 59bd 63d0 f4bd b3c7 743e 839a 80bf
000002e0: 5f74 e6bf a880 19bf bd6e 74bf 09c6 233f
000002f0: 6d88 2040 fa92 2240 c8bd aa3e 1ade aebf
00000300: e1f1 0dbf e96e 93bf 2a18 703e 930d 963d
00000310: 4881 f23e 2e2e 893f 57d8 9abf e42f cabd
00000320: bca9 593f 8c88 023e eaa0 6fbd 61b1 d33a
00000330: 5aa3 79bf 0b47 5b3e 676d 87be 3c03 35bf
00000340: 7041 053f 6206 183f e987 fa3e 7b27 cfbe
00000350: 33a3 94bd 4564 03bd 5eed ab3e 2211 253f
00000360: 9ee7 56bf dcaa c43e 78f7 bc3d 2124 533e
00000370: df4b e4be dd8d f0be fbfd 533f 48d6 55bf
00000380: ffad 59be 7bd7 a6bd 925d 143f 77f5 11bf
00000390: b429 5a3d 6ead ffbe 8cc3 903f d82e efbd
000003a0: 6e9e 933e 1c02 053f befd 5dbb d51b 533f
000003b0: 75fa e1be e21d 0cbd 4f09 9bbf b8bf a33f
000003c0: d8e3 933f 5daa 3a3e 636c b83e cb2b 21be
000003d0: e5c1 233f ac19 9abf d1ca 403f 4727 a1be
000003e0: 27df 1ebf 0e5f 253f 61a4 c5bf 10c3 ee3f
000003f0: 6339 88bf fa8c 223f b40e b0be 88e8 c13f
-1.6137364 0.62641144 -0.17947537 1.6486002 0.17449588 -0.8737174 -1.4623157 0.5305941
1.1836772 1.1272832 -0.91590446 1.7561963 0.92394835 -1.0023047 -0.35460934 0.7277354
-0.28400064 0.40926495 1.9109057 -1.4054753 -1.2594919 0.98848325 -1.2153469 -1.7626038
-0.73699474 0.10737682 -1.9614942 -0.58144945 -1.3596172 1.7784448 -2.0312245 -0.031273562
-1.1200392 0.22717515 0.82282895 0.16127701 -0.7990455 0.360627 0.51083446 1.0909759
-1.2310728 -1.2276483 -2.6646113 -0.6159449 -1.1682714 0.75655156 -1.9656751 -0.24922343
0.4066822 0.31020784 -3.1422775 0.20008299 -0.8509426 -0.27266702 -1.3949159 0.58753645
0.42779762 -0.9348369 0.62983006 0.16453381 0.33590636 2.5998616 -2.347249 1.0523242
-0.67935973 0.86265737 -1.9931408 0.44643253 -0.8512727 -0.7517174 1.1375033 -0.87382334
-0.8804762 -0.42937517 -2.8102338 1.2357674 0.93909574 0.6249065 1.3608922 -0.33554077
-3.8309748 0.54007643 -0.19907779 -0.53132856 0.19229993 -0.54556125 -2.4916713 -1.3249706
1.5593061 1.171099 0.81791687 -2.1034608 0.4906373 -0.22519714 -0.23984407 1.3419299
-1.1301717 -0.21814474 -1.0547526 0.43633538 -1.3241565 0.27338493 0.051124334 0.10247516
0.45018646 0.76406455 -0.80672497 0.61548585 1.8358452 2.5231638 0.61533993 0.46803525
1.0843726 -1.2321995 -0.73300445 0.365364 -0.26074463 0.9607124 0.27771035 -0.8662347
0.06313266 0.8045613 0.4872637 0.89166665 3.026452 -0.10706697 0.037678864 -1.4104098
-0.67386425 1.4072254 0.3836424 -0.31509572 -0.09005218 -1.5227722 0.7321254 -0.4574052
-0.32379222 -1.7726583 0.12955287 0.47718376 0.1897213 -1.9776424 -1.1498716 0.37658042
1.3137823 -1.5710766 0.7047606 -0.71887976 -1.1069177 1.2239265 -0.07343691 -0.4613867
-0.6021018 0.9520121 -0.25737697 0.3289476 -1.4290491 -0.1983613 -0.7962065 -0.15573233
-1.1604724 -1.1656283 1.5172739 -0.5699426 0.8009897 -1.003142 -0.119559176 0.8038264
-1.3649621 -1.2461008 0.18086843 2.5683007 -0.10056998 -2.465467 -0.69014114 -1.4494631
-0.1813562 0.2157736 -1.3550903 0.6341329 -0.053178467 -0.11953809 0.23904304 -1.0047153
-1.8004264 -0.5996194 -0.95481473 0.6397405 2.5083268 2.5402207 0.33347917 -1.366153
-0.554472 -1.1518222 0.23446718 0.07326808 0.4736426 1.0717218 -1.2097272 -0.09872416
0.8502462 0.12747401 -0.05850307 0.0016150885 -0.9751488 0.2141382 -0.26450655 -0.7070806
0.52052975 0.5938474 0.48931816 -0.4045981 -0.0725769 -0.032078046 0.33579534 0.6447927
-0.8394717 0.38411605 0.092268884 0.20619251 -0.44589135 -0.46983233 0.8280942 -0.8353009
-0.2125778 -0.081465684 0.57955277 -0.57015175 0.053262427 -0.49937004 1.1309676 -0.116788566
0.2883181 0.51956344 -0.0033873166 0.82464343 -0.44136396 -0.034208186 -1.2112216 1.2792883
1.1553907 0.18229051 0.36020193 -0.15739362 0.63967735 -1.2039084 0.75309473 -0.3147528
-0.62059253 0.64598167 -1.544079 1.8653278 -1.0642513 0.63496363 -0.34386218 1.5149088

lstm.bias_ih_l0 f4 [40]
00000000: bd2c 743f f2df 5c3e 550b 2b3f 528e 833f
00000010: 3727 553e 1fe3 0d3f 637f 933e 34b8 293f
00000020: 8d4d 2d3f 94d6 ef3e 6fc7 96be 241f b13e
00000030: c08d 993f 9772 bc3e c674 5e3e f44e ba3e
00000040: 65ff 0f3e 0476 cdbe c2d2 b0bd eb84 24be
00000050: 97cc 2cbf 0234 783e 74f9 cfbc 65bb 92bc
00000060: bb6d e23e 66b8 bfbd 3714 30bf 36f6 61bd
00000070: 64cb c53e e109 dcbd 66ce 953e 6307 363f
00000080: 5921 143f e584 aa3f 8eeb 293f bc48 de3e
00000090: bea8 ee3e 85b8 b63f 7116 013f 6ef6 023f
0.95380765 0.21569803 0.66814166 1.0277808 0.2081574 0.55424684 0.28808126 0.66296697
0.6769646 0.46843398 -0.2944903 0.3459407 1.1996384 0.36806175 0.21724233 0.3638836
0.14062269 -0.401291 -0.08633949 -0.16066329 -0.6749968 0.2423859 -0.025387503 -0.017911622
0.44224343 -0.09361343 -0.68780845 -0.055166446 0.38631737 -0.10744072 0.29259032 0.7110502
0.57863384 1.3321806 0.6637505 0.43414867 0.46613115 1.4275061 0.5042487 0.5115727

lstm.bias_hh_l0 f4 [40]
00000000: ee55 9e3f 6632 273f 1fa0 633e 9303 3c3f
00000010: 58f1 443e b30b 033f 7b67 863c dfc6 623f
00000020: 5867 443f 0495 213f 746b 06be 1331 d43e
00000030: e736 4c3f af6a e63e f951 993e 13ff 993e
00000040: d43e fdbd c95d 8cbe ff74 7dbe 908e 15bf
00000050: ea5f 89be e7dc b43d ef06 adbd a842 8dbe
00000060: d74e 813e e6d8 bcbd 6004 bebe 1e28 f73e
00000070: a46a bf3e 7ff4 e73e 6f9b c33e 8208 df3e
00000080: b07f 1c3f 97da 9f3f 1c62 853f 8fef 213f
00000090: 20ae 363f 5176 ba3f fd4b 4c3d 2146 123f
1.2369974 0.65311277 0.2222905 0.73442954 0.1923269 0.51189727 0.016406765 0.88584703
0.7672019 0.63118005 -0.13126928 0.4144369 0.79771274 0.45003268 0.29945353 0.3007742
-0.12365499 -0.27415302 -0.24751662 -0.5842066 -0.2683099 0.08831196 -0.08448588 -0.27589917
0.25255463 -0.092210576 -0.37112713 0.48272794 0.37386048 0.45303723 0.38204524 0.43561178
0.61132336 1.2488583 1.0420566 0.6325616 0.71359444 1.4567357 0.049877156 0.5713826

hidden_layer.weight f4 [10, 20]
00000000: dbd8 88be aba3 ce3f 244a 5a3c 4143 a73f
00000010: 26bf 9a3f 037f 3abf 4ffd 12c0 30d0 23be
00000020: 3d54 88be 7b8b d3be f771 45be ca2e 913e
00000030: bd9c 8dbd e4e6 d23f 4fcc 37be 661d b03e
00000040: 3aba e23e 9b88 6b3f 3a8b 403e 1224 473f
00000050: 2cfa 96bc 63fa b73d 374b a4bd d9dd e8be
00000060: 8720 3a3f 0d45 c4be df12 953f b0ba 483f
00000070: 60ce 4dbf e021 1c3f 314e 243f 11c8 59bf
00000080: fb86 4b3f 2f65 8c3d bb88 abbf b782 07bf
00000090: e50d 83be 26c0 1a3f cf9c 9fbe 89ee 84be
000000a0: 873f 683f 38dc e7be 3135 093f 23b3 703b
000000b0: 1452 aa3e e451 e5bf 199c 003f 224c 18bf
000000c0: 1ee8 12bc a02a a1bf 194b 02bf 681d 3b3f
000000d0: e6db 58bf a1f2 f1bd f0f3 643f dd8f bb3e
000000e0: ce9a 3f3f db41 8abd fb36 163d a7a8 3a3f
000000f0: 82e8 7d3e 5e83 c23e 0b82 c3be 4d62 a43d
00000100: 7ce6 963c 14dd 73be 4f26 d53e 263b 283f
00000110: a049 003f 356e a8be 5b29 443f b146 2c3f
00000120: 1b99 39be 5e7d 173f 0664 233f d51e 6139
00000130: 227c aa3f 722d 823e c029 9b3f 07d3 c53f
00000140: 52d9 aa3e 5c6e ecbe 3b86 05bd a620 31bf
00000150: 2f0f 45bf 37fc 3e3f 650d 73bd d995 cabe
00000160: f7ac 5a3d 6215 0bbf 55fe 083f 3f53 cc3e
00000170: b60a 83bf 4890 1dbe dc84 ebbd 4ffe 41bf
00000180: 775f acbe 7675 0bbf 702d 613f f5e0 e63e
00000190: 44ee 7f3f 8cd9 9f3c 814d 7fbf 1cac 573e
000001a0: d2b9 6bbe 0347 79bd c722 62bf 3e5a ec3d
000001b0: 5724 19bf 273a 39bf c69e 6cbe 8b21 85bf
000001c0: 5318 90bd 75cd ee3e c071 f5bd 835d 89bf
000001d0: 0e11 30bf debf 4d3e 154d 433e f927 61be
000001e0: 47da b33f 728b 783d d365 8fbe 74db ac3d
000001f0: dc0f 34be 7eaa f3bd b200 f43e b456 c1bf
00000200: 2e74 08be 7c8d 55bf 3176 833f 7c31 16be
00000210: 6a8f 23be 4d33 f0be 5fb0 c33e 7fdc f43e
00000220: 27aa 163f a41d 86bf 4303 df3e ba18 173d
00000230: 6441 983e 181a 9d3f d025 013f 77e2 003d
00000240: 0219 0e3e 6583 0abe 94bd 01bc 17d4 e7bd
00000250: e576 2f3e 59cf 33bf 34a1 14be c78c b53e
00000260: 47ec 6ebe b04a bfbf bb8d b6bc 5de7 103f
00000270: cc81 05bf bd28 25bf 4853 033f 0922 40bf
00000280: ea24 8c3e 3d15 c13f 20ac 6ebf 2f24 9a3f
00000290: 4bf6 f83e 69d2 e8be 7236 b0be 14a8 4d3f
000002a0: 9cfc 55bf 38c1 c33e 304d 37bf 3fe2 cebe
000002b0: f628 533f 5a67 99be 0ea6 83bf 4a64 92bf
000002c0: aeaf 7abf ff9f d03e 3ae6 05bf 9b7a 68bf
000002d0: 797e bbbe e6a6 0f3d dd4c a03f 8d98 75bf
000002e0: 84ba cabe 10ab 223f 92c6 233f d88c 67bd
000002f0: e4ed 2d3e da06 b6be d9d2 263e 5ba7 d83e
00000300: 0151 8f3e 0676 bb3e 79a1 5a3f d82c 8d3f
00000310: de3f 15bd cb48 32be 2abe 753f 7a57 b03c
-0.26727948 1.6143698 0.013323341 1.3067399 1.2089584 -0.72850055 -2.2967107 -0.15997386
-0.2662677 -0.41317353 -0.19281755 0.2835601 -0.06914661 1.6476712 -0.17949031 0.3439743
0.44282705 0.9200532 0.1880311 0.77789414 -0.018429838 0.08983304 -0.080221586 -0.45481756
0.7270588 -0.38333932 1.1646384 0.7840986 -0.8039303 0.6098919 0.6418181 -0.850709
0.7950284 0.06855237 -1.3401102 -0.5293383 -0.25596538 0.60449445 -0.31174323 -0.25963238
0.90721935 -0.452852 0.5359679 0.0036727868 0.33265746 -1.7915616 0.50238186 -0.5949117
-0.008966474 -1.2591133 -0.5089584 0.73091745 -0.8471054 -0.11813856 0.8943472 0.36633196
0.7484559 -0.06750842 0.036673527 0.72913593 0.24795726 0.3799085 -0.38185152 0.08026562
0.01842045 -0.23814803 0.4163079 0.65715253 0.5011234 -0.3289658 0.76625603 0.67295367
-0.18124811 0.5917567 0.638245 0.00021469158 1.3319132 0.25425297 1.2122116 1.5455025
0.33368927 -0.46177948 -0.032598715 -0.6919044 -0.76976293 0.746036 -0.059338946 -0.3956745
0.05338761 -0.543295 0.5351308 0.39907262 -1.0237644 -0.1538707 -0.1149995 -0.7577867
-0.33666584 -0.54476106 0.8795996 0.45093504 0.9997294 0.019512914 -0.99727637 0.21061748
-0.23020104 -0.060858738 -0.88334316 0.1154065 -0.59821075 -0.7235436 -0.23107442 -1.0400862
-0.070358895 0.46641126 -0.11984587 -1.0731663 -0.68776023 0.20092723 0.19072373 -0.21987905
1.4050988 0.06067986 -0.28007373 0.08440295 -0.17584175 -0.11897753 0.4765678 -1.5104585
-0.13325569 -0.83419013 1.0270444 -0.14667314 -0.15972677 -0.4691414 0.38220498 0.47824475
0.5885338 -1.0477796 0.43557176 0.036888815 0.2973739 1.2273588 0.5044832 0.031465974
0.13876727 -0.13526686 -0.007918734 -0.1131975 0.17135198 -0.7023826 -0.14514619 0.35458967
-0.2333232 -1.4944668 -0.02228438 0.5660303 -0.5215118 -0.64515287 0.5129895 -0.75051934
0.27371913 1.5084606 -0.9323139 1.2042292 0.48625407 -0.4547303 -0.34416538 0.8033459
-0.83588576 0.38233352 -0.71602154 -0.40406987 0.82484376 -0.29961663 -1.0285051 -1.1436856
-0.97924316 0.40747067 -0.5230442 -0.9081208 -0.36619928 0.035071276 1.2523457 -0.959359
-0.39595425 0.6354227 0.6397487 -0.056530803 0.1698528 -0.35552102 0.1629137 0.42315182
0.2799149 0.36613482 0.8540264 1.102931 -0.03643786 -0.17410581 0.9599329 0.021526087

hidden_layer.bias f4 [10]
00000000: 1aec c4bf 97d0 10bf db2b 863e 1f0e a03e
00000010: fbab 25bf e968 933e f29c 0abf e7ac 113f
00000020: dc1d 893d f11f 2f3e
-1.5384552 -0.5656828 0.26205334 0.31260774 -0.64715546 0.28790978 -0.5414573 0.56904453
0.06695148 0.17102028

output_layer.weight f4 [1, 10]
00000000: a1b6 ae40 2a2d 0d40 c038 4fc0 8619 b63f
00000010: 8740 cbbf a2cf 903f 3544 37c0 029f 0440
00000020: bded 60c0 f64a aebf
5.4597936 2.2058816 -3.2378387 1.4226539 -1.5879067 1.1313365 -2.863538 2.072205
-3.5145104 -1.3616626
