pair_sampling/models/model100_n.pt (torch_old, 6962 bytes, 8 tensors)

embedding.weight f4 [21, 10]
0	0x00000000	0.0
1	0x00000000	0.0
2	0x00000000	0.0
3	0x00000000	0.0
4	0x00000000	0.0
5	0x00000000	0.0
6	0x00000000	0.0
7	0x00000000	0.0
8	0x00000000	0.0
9	0x00000000	0.0
10	0x3ec26b83	0.3797265
11	0x4008887b	2.13333
12	0x3ebb7a3f	0.36616704
13	0x3e6f32d5	0.23359235
14	0x40072204	2.1114511
15	0xbfa3bc61	-1.2791864
16	0x4029cb2b	2.6530254
17	0xbfb05daa	-1.3778584
18	0x3f34d68b	0.70639867
19	0xbf98b46a	-1.1930058
20	0xbf28cdff	-0.65939325
21	0x3cd8ffe5	0.026489208
22	0x3f1fad09	0.62373406
23	0xbf973c18	-1.1815214
24	0x3ebb0e99	0.36534575
25	0x3e6d114d	0.23151131
26	0xbfbf9590	-1.4967518
27	0x3ea3b4c6	0.31973857
28	0x406d48da	3.7075715
29	0x3f3087c6	0.68957174
30	0xbf4ab425	-0.7918113
31	0xbf22f955	-0.636617
32	0x3eb10446	0.34573573
33	0xbf5ea632	-0.86972344
34	0xbf1d05bb	-0.6133687
35	0xbfbe2051	-1.4853612
36	0xbec5d281	-0.38637164
37	0x3f7003aa	0.9375559
38	0xbffefc2d	-1.9920708
39	0x4000a847	2.0102708
40	0x3eb4b16a	0.35291606
41	0x3f39a293	0.72513694
42	0x3f948db3	1.1605743
43	0x3d8a71be	0.06759976
44	0xbfc14bc6	-1.5101249
45	0x3ecd11db	0.40052685
46	0xbc891992	-0.016735826
47	0xbef2fb48	-0.47457337
48	0xbef923aa	-0.48660022
49	0xbffc1700	-1.9694519
50	0x3ed6afdc	0.41931045
51	0x4058840d	3.3830597
52	0xbee071b7	-0.43836758
53	0xbfda0ae8	-1.7034578
54	0x3fa407c9	1.2814876
55	0x3e25d22a	0.16193452
56	0xbf6da75a	-0.92833483
57	0xbf7e28e5	-0.9928115
58	0xbf02b58d	-0.51058275
59	0xc005d769	-2.0912726
60	0xbe7b94ff	-0.24568556
61	0xbfdcbd27	-1.7245225
62	0x40213154	2.5186357
63	0x4021e525	2.5296109
64	0xbe0dcdfb	-0.13848107
65	0x3daeb5e9	0.0853079
66	0x3e7ff2b1	0.24994923
67	0xbcf562ce	-0.02995434
68	0xbffcc827	-1.9748582
69	0xbeff09ae	-0.49812073
70	0x3ff5eb9e	1.921253
71	0x3f183d12	0.59468186
72	0x4002bffb	2.0429676
73	0x3f121162	0.57057774
74	0xbeeb2612	-0.45927483
75	0xbeb2defa	-0.34935743
76	0x3fbace07	1.4594125
77	0x3e7ef3d0	0.24897695
78	0x3eef8a8d	0.46785393
79	0x3f37fcad	0.7186993
80	0x3f3ceec7	0.73801845
81	0x3f4ca0db	0.79932946
82	0xbf810c0d	-1.0081803
83	0xbf37c228	-0.71780634
84	0x3fae130d	1.3599564
85	0x3e793b59	0.24339046
86	0xbfbc03df	-1.4688681
87	0x3f0e8d96	0.55684793
88	0xbeb78aaf	-0.35847995
89	0xbfe41c39	-1.7821113
90	0xc06c9df5	-3.697141
91	0xbe85c2e7	-0.2612526
92	0x3f6d2cb2	0.92646325
93	0xbf6ae5c8	-0.9175687
94	0xbef7ee06	-0.48423785
95	0xbf05daf8	-0.52287245
96	0xc018fa48	-2.390276
97	0x3fca7cf8	1.5819387
98	0xbe8f293d	-0.2796115
99	0x3f5f674e	0.87267005
100	0x3ee576b3	0.44817123
101	0xbf6b2e6b	-0.91867703
102	0xbf40a6e8	-0.7525468
103	0xbf142219	-0.5786453
104	0x3f92019d	1.1406742
105	0x400ee919	2.2329772
106	0x3f3d8280	0.7402725
107	0xbfc6b3ca	-1.5523617
108	0xbef69f25	-0.48168293
109	0xbe33dc31	-0.17564465
110	0xbf182cdc	-0.5944345
111	0x3fe42ebe	1.7826765
112	0xbfb1adca	-1.3881161
113	0x40059510	2.087223
114	0x3e81861f	0.2529764
115	0x3f9f3227	1.243718
116	0xbf83c1f3	-1.0293564
117	0xbde4afc2	-0.11166336
118	0xbfe05366	-1.7525451
119	0x3f6cfcf3	0.9257347
120	0x3fc85baa	1.5652974
121	0xbf65f770	-0.89830685
122	0xbea54593	-0.32279643
123	0xbf64c8ef	-0.893691
124	0xbfa14746	-1.2599876
125	0xbf1c9fb7	-0.61181206
126	0x405d679f	3.4594495
127	0x3e03bbcb	0.12864606
128	0xbf8c43ac	-1.0958152
129	0xbea7c105	-0.3276445
130	0x3d974bcc	0.07387504
131	0xbc83d853	-0.016094362
132	0x3dfdbbef	0.12389361
133	0xb8681476	-5.5332166e-05
134	0xbf9a247e	-1.2042387
135	0x3ff68c67	1.9261597
136	0x4000f268	2.0147953
137	0xbda8a6f6	-0.0823497
138	0x3f965d0e	1.1747148
139	0x3d26b3aa	0.040698685
140	0xbf67536a	-0.90361655
141	0x3eca7c3b	0.39547905
142	0x400a356a	2.1595101
143	0xbf7ddc7a	-0.99164546
144	0xbed32778	-0.4124105
145	0x3f855c02	1.0418704
146	0x3e456e10	0.19280267
147	0xbe260093	-0.16211157
148	0xbf10ec69	-0.56610733
149	0xbef3a3e0	-0.47585964
150	0xbfa110b3	-1.2583221
151	0xbf6dc831	-0.9288359
152	0xbfd80120	-1.6875343
153	0xbdfbf934	-0.12303391
154	0xbf28ad7e	-0.6588973
155	0x400ca59a	2.1976075
156	0xbf3dd6a3	-0.74155635
157	0x3e485454	0.19563419
158	0x40058959	2.086508
159	0xbf2552da	-0.64579546
160	0xbf8ffc19	-1.1248809
161	0x3f4970fa	0.78688014
162	0xc015049b	-2.328406
163	0xbf193362	-0.5984403
164	0xbdbe8ff0	-0.09304798
165	0xbf5c63e3	-0.86089915
166	0x3f35a376	0.70952547
167	0x400e6427	2.2248628
168	0x3f063a2d	0.5243252
169	0xbe0ccdf7	-0.13750444
170	0x3ee585c2	0.44828612
171	0xbf64cea6	-0.8937782
172	0xbf1be238	-0.6089206
173	0x3f2604b0	0.648509
174	0x4005d583	2.0911567
175	0xbf2ad5b1	-0.6673232
176	0x3e571f61	0.21008064
177	0xbf0a405f	-0.5400447
178	0xbf04da47	-0.51895565
179	0x3fea422b	1.8301443
180	0x3f847b74	1.0350175
181	0x3fab13b0	1.3365383
182	0xbf104c20	-0.5636616
183	0x3f025238	0.50906706
184	0xbf906f21	-1.1283914
185	0xbfc4b8bd	-1.5368878
186	0xc03a1ecb	-2.9081295
187	0x3f44d9d9	0.7689491
188	0x3e082234	0.13294297
189	0xbf8306fd	-1.0236508
190	0x3fffc85c	1.998302
191	0x3fb5bc46	1.4198081
192	0xbef33a22	-0.4750529
193	0xbf0214ce	-0.50812995
194	0xbed57f24	-0.41698563
195	0x3fc72624	1.5558515
196	0xbe9f6c61	-0.31137374
197	0x3f7dd8c9	0.9915891
198	0x4007fb25	2.1247036
199	0x3db1f503	0.086893104
200	0xbf260c19	-0.6486221
201	0x3eddcc2d	0.43319836
202	0xbeff1be3	-0.49825963
203	0x3f3a8e96	0.7287382
204	0x3fbbe008	1.4677744
205	0xbec2271b	-0.3792046
206	0xbe225ba4	-0.1585527
207	0x405bce22	3.4344563
208	0xbfce1f53	-1.6103309
209	0xbf7e1bb5	-0.9926103

lstm.weight_ih_l0 f4 [40, 10]
0	0x3e7e13ba	0.24812213
1	0x3ebfea41	0.3748341
2	0x3e66966e	0.22518322
3	0xbf368936	-0.7130312
4	0xbf014e21	-0.5050984
5	0xbf056b6e	-0.5211705
6	0x39156236	0.00014246334
7	0x3fb53429	1.4156543
8	0x3f5039a8	0.81337976
9	0x3e3ff95e	0.1874747
10	0xbefb5541	-0.4908848
11	0xbe3024b4	-0.17201501
12	0x3f398909	0.72474724
13	0x3eb6c6f6	0.3569867
14	0x3e19c773	0.1501749
15	0x3d7dd793	0.061973166
16	0x3f87b27c	1.0601344
17	0xbf178c03	-0.59198016
18	0x3de3fe4e	0.11132489
19	0xbe0f66f3	-0.14004116
20	0xbe9c715c	-0.30555236
21	0xbe1ff374	-0.15620214
22	0x3e4f5c58	0.2025007
23	0x3e15340b	0.14570634
24	0xbeb3cbc5	-0.351164
25	0xbee88b35	-0.45418707
26	0x3f0eae36	0.55734575
27	0xbea161ed	-0.31520024
28	0x3e6eb069	0.23309483
29	0x3e6d66b9	0.23183717
30	0x3d64074a	0.055671014
31	0x3fe77184	1.8081517
32	0x3ebb6399	0.36599424
33	0xbc6f7721	-0.014615805
34	0x3f0b962d	0.54526025
35	0x3f2de840	0.6793251
36	0xbe29386f	-0.16525434
37	0x3ac90988	0.0015337924
38	0xbf32e173	-0.6987526
39	0xbf619190	-0.88112736
40	0x3edd768a	0.432545
41	0xbe20bd29	-0.15697159
42	0x3f12d239	0.57352024
43	0x3ec7b5ee	0.3900599
44	0x3e89ba8e	0.26900142
45	0x3f2bb245	0.6706889
46	0x3f198110	0.5996256
47	0xbfac527b	-1.3462671
48	0x3eb00bc5	0.3438398
49	0xbea0a032	-0.3137222
50	0xbef458ba	-0.47723943
51	0x3e6ec761	0.23318245
52	0xbe8e5675	-0.27800336
53	0xbec15efa	-0.37767774
54	0x3ea82b28	0.32845426
55	0x3f4c44e3	0.7979261
56	0xbecb6308	-0.39723992
57	0xbf25b57a	-0.64730036
58	0xbeb7793a	-0.35834676
59	0x3dc3e4b8	0.09565109
60	0xbed4db27	-0.4157345
61	0xbdf95e65	-0.121762075
62	0x3f06e8a5	0.5269874
63	0xbe71c5de	-0.23610637
64	0x3e572403	0.21009831
65	0x3f5b0565	0.85555106
66	0xbf9e8b46	-1.2386253
67	0xbf3f36cb	-0.7469298
68	0xbe3d5518	-0.18489492
69	0xbeaea325	-0.34108844
70	0x3f196398	0.59917593
71	0x3f09268a	0.5357443
72	0x3e51b01c	0.20477337
73	0x3e1c2c16	0.15251192
74	0x3f41c7bb	0.7569539
75	0x3e21d4ac	0.15803784
76	0xbdc37d1d	-0.09545348
77	0xbeb98558	-0.36234546
78	0x3ef316ff	0.47478482
79	0xbdfad949	-0.12248475
80	0x3e579dc9	0.21056284
81	0x3edb6da1	0.42857078
82	0x3f4c9916	0.7992109
83	0x3fab25e0	1.3370934
84	0x3fb4a9f9	1.4114372
85	0xbf35c7db	-0.7100808
86	0x3f526908	0.82191515
87	0xbefc8994	-0.49323714
88	0xbffb2dad	-1.9623314
89	0xbe474210	-0.19458795
90	0x3db1393c	0.08653495
91	0xbe57a279	-0.21058072
92	0xbf31d27e	-0.6946181
93	0x3c8d88a3	0.017277068
94	0x3e35bde3	0.17748217
95	0x3d4ab0a9	0.049484883
96	0xbe9478dd	-0.2899846
97	0x3dd66f47	0.10470443
98	0xbf9d465a	-1.2287095
99	0xbe794298	-0.2434181
100	0xbf078a2a	-0.52945197
101	0x3e97d7fe	0.29656976
102	0x3e980077	0.29687855
103	0x3e200ed2	0.15630654
104	0xbf354af9	-0.70817524
105	0xbcec25c0	-0.028826594
106	0xbf0e8bf5	-0.5568231
107	0x3e366460	0.17811728
108	0x3e74225d	0.23841234
109	0x3f346ff0	0.70483303
110	0x3f8249bf	1.0178756
111	0x3e737738	0.23775947
112	0xbf1ea952	-0.6197711
113	0x3ebd4c3a	0.3697222
114	0xbf9a1e55	-1.2040507
115	0x3fb3bf51	1.404276
116	0x3f024566	0.50887144
117	0x3f163bc0	0.5868492
118	0x3f17cc2a	0.59295905
119	0xbe7aec9f	-0.24504326
120	0xbf5464ac	-0.82966113
121	0x3e8f755e	0.28019232
122	0x3b5db11e	0.0033827494
123	0xbe84c0d0	-0.25928354
124	0x3ebf4468	0.37356877
125	0x3ecc26b8	0.3987329
126	0x3f431f74	0.7621987
127	0x3a9647e2	0.0011465515
128	0x3f2dc784	0.6788256
129	0x3e5b68ca	0.21426693
130	0x3e8a4f22	0.270135
131	0x3e14e77e	0.14541432
132	0x3f5ce317	0.8628401
133	0xbfcc7db8	-1.5975866
134	0xbe84b273	-0.25917396
135	0x3f189b61	0.5961209
136	0xbf08efc3	-0.5349085
137	0xbd90bc79	-0.07067198
138	0x3dd923ca	0.10602529
139	0xbfd321f4	-1.6494737
140	0x3eff110d	0.49817696
141	0x3f087c5f	0.53314775
142	0x3e3719ed	0.17880984
143	0xbdb52e6a	-0.088467434
144	0x3effb255	0.49940744
145	0xbe5e4d7c	-0.21709245
146	0x3fddd5d4	1.733088
147	0xbf884bb8	-1.0648108
148	0xbe7e53c3	-0.2483664
149	0x3fb78e82	1.4340365
150	0xbd25c3d8	-0.040469974
151	0x3e84dfba	0.2595194
152	0x3dba1c3e	0.09087418
153	0x3d93873f	0.072035305
154	0xbea006d1	-0.312552
155	0xbf90fa46	-1.1326377
156	0x3f12595b	0.57167596
157	0x3ec35ce0	0.38156796
158	0x3f8f8b43	1.1214374
159	0xbf9ec9ca	-1.2405331
160	0x3f07b9cd	0.53017884
161	0x3d14f17b	0.036363106
162	0xbdae3b9e	-0.08507465
163	0xbf7e6d39	-0.9938541
164	0xbe384df8	-0.17998493
165	0xbe9fbdd6	-0.3119952
166	0xbda0636a	-0.07831462
167	0x3e85a6ee	0.2610392
168	0xbeb43b3d	-0.35201445
169	0x3ca4c7b7	0.020114763
170	0xbec24899	-0.37946013
171	0xbe62b62e	-0.22139809
172	0xbf8717f4	-1.0554185
173	0x3f8cff80	1.1015472
174	0x3e7ef6ba	0.24898806
175	0x3e82900a	0.25500518
176	0x3edaca65	0.4273254
177	0x3ed82764	0.42217553
178	0x3e2fe7ba	0.1717824
179	0x3fa85ffc	1.3154292
180	0xbf387c80	-0.7206497
181	0x3f2e2089	0.68018395
182	0xbefb0d76	-0.49033707
183	0x3f46f864	0.77722764
184	0x3f77d39e	0.9680728
185	0x3f01877c	0.5059736
186	0xbee9e0e5	-0.45679393
187	0x3ee9e6f4	0.45684016
188	0xbf0df829	-0.5545679
189	0xbf96fe74	-1.1796403
190	0x3e62a4e4	0.22133213
191	0x3f8e2792	1.1105826
192	0xbe25e4df	-0.16200589
193	0xbf1783a5	-0.5918525
194	0xbf77aea4	-0.96750855
195	0x3f6afe35	0.9179414
196	0xbe3cb48a	-0.18428245
197	0xbf83cfe7	-1.0297822
198	0x3f9c5a8b	1.2215132
199	0xbf93e572	-1.1554396
200	0xbf87b0e4	-1.0600858
201	0xbf26b5e1	-0.65121275
202	0x3ea8f8fa	0.33002454
203	0xbdf6b6c0	-0.120465755
204	0xbebf3608	-0.3734591
205	0xbd4dfbd9	-0.05028901
206	0xbf1793c2	-0.59209836
207	0x3eb91ec3	0.36156282
208	0xbda7aab8	-0.08186859
209	0x3e918a51	0.2842584
210	0x3ced348c	0.02895572
211	0x3c629500	0.01382947
212	0x3f165260	0.58719444
213	0x3eae8b6a	0.3409074
214	0xbf8f0c5d	-1.1175648
215	0x3efb7389	0.49111584
216	0x3e6fc2f1	0.23414208
217	0x3f2ef37d	0.68340284
218	0xbf33f569	-0.7029634
219	0xbd7268bb	-0.05918191
220	0xbe797ba0	-0.24363565
221	0xbe8c1701	-0.273613
222	0xbf29b7f1	-0.662963
223	0xbf585a9a	-0.84513247
224	0x3f52590e	0.82167137
225	0xbec389e2	-0.38191134
226	0x3ea48fd8	0.32140994
227	0x3eb99664	0.3624755
228	0x3f09e71f	0.5386829
229	0xbe842a68	-0.25813603
230	0x3edcf9e6	0.43159407
231	0x3ed5e8bd	0.41779128
232	0x3e0017a4	0.12509018
233	0xbe1a2c7c	-0.15056032
234	0xbd85920a	-0.06521995
235	0xbd79b148	-0.060960084
236	0x3eb3cb66	0.35116118
237	0xbf0d68a7	-0.5523781
238	0x3c18168a	0.0092827175
239	0x3eabd525	0.33561054
240	0x3e1fad33	0.15593414
241	0x3f4c1d6f	0.7973241
242	0x3d1cd465	0.038288493
243	0xbf33877b	-0.701286
244	0x3e18cbc7	0.14921485
245	0xbeaedebd	-0.3415431
246	0xbec4cda3	-0.38438138
247	0x3f1ae216	0.6050123
248	0x3f204678	0.62607527
249	0x3e3f36f4	0.18673307
250	0xbce016bb	-0.027354589
251	0xbe72b53b	-0.23701946
252	0x3f63a9aa	0.8893076
253	0xbe941c15	-0.28927675
254	0xbe6c346f	-0.23066877
255	0x3f84ccb4	1.037497

lstm.weight_hh_l0 f4 [40, 10]
0	0x3f7a3bc9	0.97747475
1	0xbecb3289	-0.39686993
2	0x3e2348a5	0.1594568
3	0x3e95eb04	0.29280865
4	0xbf865590	-1.0494862
5	0x3fc61a60	1.5476799
6	0xbf8bfb4b	-1.0936064
7	0xbf8e1557	-1.1100262
8	0x3fdd408f	1.7285327
9	0xc000a30b	-2.0099514
10	0x3fa342f7	1.2754811
11	0x3fba9c1d	1.4578892
12	0xbf4ac83d	-0.7921179
13	0x3f27710e	0.6540688
14	0x3dd4a12b	0.10382303
15	0xbe0b9375	-0.13630469
16	0x3f0f8089	0.56055504
17	0xbf7f294f	-0.99672407
18	0xbee3a345	-0.44460502
19	0xbff2b1d0	-1.8960514
20	0xbce599cb	-0.028027436
21	0xc00789d6	-2.1177878
22	0xbfa63132	-1.2983763
23	0xbe64d6df	-0.22347592
24	0xbe4a7af2	-0.19773462
25	0xbda22f71	-0.07919205
26	0x3e6402fb	0.22266762
27	0xbeee4b54	-0.46541846
28	0x3f5f0307	0.87113994
29	0x3f8138a8	1.0095415
30	0x4008cbd9	2.1374419
31	0xc007e04d	-2.1230652
32	0x3ea24ae6	0.31697768
33	0x3fc6a2f4	1.5518479
34	0xbe0e248a	-0.13881126
35	0xbeaaf18f	-0.3338742
36	0xc015f902	-2.3433232
37	0x3f79080e	0.97277915
38	0xbf100cd4	-0.56269574
39	0xbfab0530	-1.3360958
40	0xbef3c7dc	-0.47613418
41	0x3ffe04d4	1.9845223
42	0xbf95a42f	-1.169073
43	0xbf92cf24	-1.1469464
44	0xbf747a93	-0.95499533
45	0x3f58120b	0.8440253
46	0x3fd052c1	1.6275254
47	0x3eaae31f	0.33376405
48	0xbfb30cc9	-1.3988277
49	0xbed43039	-0.4144304
50	0xbf9091ef	-1.1294535
51	0xbe2b2acb	-0.16715543
52	0xbec5fc41	-0.38669017
53	0xbf29d0ff	-0.6633453
54	0xbeeaa417	-0.45828316
55	0x3ecdb7ad	0.40179196
56	0x3eb233b3	0.34805068
57	0x3df3eaa3	0.11909988
58	0xc02c22a5	-2.6896145
59	0xbf84d46e	-1.0377328
60	0xbe575689	-0.21029104
61	0x3fcb8e77	1.5902852
62	0xbf08d4c9	-0.53449684
63	0x3fd59973	1.6687454
64	0x3f8fd429	1.1236621
65	0x3fc1a46a	1.51283
66	0x3ef75412	0.48306328
67	0xbf99bf7c	-1.2011561
68	0x3f105288	0.5637593
69	0xc017a3ae	-2.3693652
70	0x3d8bd847	0.06828361
71	0x3f90bccb	1.1307615
72	0xbed81010	-0.42199755
73	0xbeed6ce9	-0.46372154
74	0x3f3499d9	0.7054725
75	0xbe66ce5b	-0.22539656
76	0xbff998d0	-1.949976
77	0x3f0178d5	0.50575
78	0x3efa0389	0.48830822
79	0xbfbcc5db	-1.4747881
80	0xbfb1d3b4	-1.3892732
81	0x3ffb9cce	1.9657228
82	0xbfa6d379	-1.3033286
83	0x3da8ac9c	0.082360476
84	0x40084777	2.1293619
85	0x3f252fe8	0.64526224
86	0x3ea63025	0.32458606
87	0xbfac7f97	-1.3476437
88	0xbed06a66	-0.40706176
89	0xbfa70d60	-1.3050957
90	0xbf139a15	-0.57656986
91	0xbf117b9c	-0.5682924
92	0xbf4e7a7b	-0.8065564
93	0x3fca935f	1.5826224
94	0xc007fadf	-2.124687
95	0xbf926135	-1.1435915
96	0x3fcf9319	1.6216766
97	0x3f37019d	0.71486837
98	0xbff1fb55	-1.8904825
99	0x3dce99e0	0.10087943
100	0xbeba5389	-0.36391857
101	0xbf944c37	-1.1585759
102	0xbf857838	-1.0427313
103	0x3f255c97	0.64594406
104	0xbf7a717a	-0.978294
105	0x3f0a1a5e	0.53946483
106	0x3e59bfcc	0.21264571
107	0xbf27b7ac	-0.65514636
108	0xbf92d612	-1.1471579
109	0x3fa433ef	1.2828349
110	0x3f319118	0.6936202
111	0xbef0f29f	-0.47060105
112	0x3e74df11	0.23913218
113	0x3e308ed5	0.17241986
114	0xbecec199	-0.40382078
115	0x3f88b88f	1.0681323
116	0xbf8a17b3	-1.0788482
117	0x3fcdf17c	1.608932
118	0x3e1f84ca	0.15577999
119	0x3f1e81c2	0.61916745
120	0xbf16718f	-0.58767027
121	0xbf25b458	-0.6472831
122	0x3e89e2e0	0.26930904
123	0xc00863f7	-2.1311014
124	0x3f7b9dad	0.9828747
125	0x3f777a5e	0.9667109
126	0x3f4464b0	0.76716137
127	0x3f125095	0.5715421
128	0xbf594776	-0.84874666
129	0x3f17d0cf	0.5930299
130	0x3fb735fc	1.431335
131	0x3fa45cd1	1.2840825
132	0x3d5395f1	0.051656667
133	0x3e559ec1	0.20861341
134	0xbf21f518	-0.6326461
135	0x3d6eb1ad	0.058274914
136	0xc0042b4b	-2.0651424
137	0x3f8034a3	1.0016063
138	0xbe32d310	-0.17463326
139	0x3ed09ea5	0.40746036
140	0xbe827571	-0.25480226
141	0xbf97190a	-1.1804516
142	0xbfc6c4b4	-1.5528779
143	0x3f659163	0.8967497
144	0x3ec1a8ea	0.37824184
145	0x3ee16392	0.4402128
146	0x3ea109ab	0.3145269
147	0xbf5e9584	-0.8694689
148	0xbf6c2970	-0.9225073
149	0xbf3775ff	-0.7166442
150	0xbfbc6ce0	-1.4720726
151	0xbe07a833	-0.13247757
152	0xbeb4abc8	-0.3528731
153	0x3db1ddff	0.086849205
154	0x3ef0f4da	0.47061807
155	0x3f857f6b	1.042951
156	0x3f254198	0.64553213
157	0xbe9165a4	-0.28397858
158	0x3e9cdb1a	0.3063591
159	0xbf700e09	-0.93771416
160	0xbe8377a6	-0.25677222
161	0x3fa06b57	1.2532758
162	0x3e697ec6	0.22802266
163	0x3f8258c4	1.0183339
164	0xbe5e7d05	-0.21727379
165	0x3f4afcc5	0.79291946
166	0xbf4973f8	-0.7869258
167	0xbc2cffa5	-0.010558997
168	0xbe99c06d	-0.30029622
169	0xbff66473	-1.9249405
170	0x3f45aefb	0.77220124
171	0xbf076021	-0.52881056
172	0x3d89956f	0.06717955
173	0xbf07bd41	-0.53023154
174	0x3ec45d85	0.383526
175	0xbfc044b4	-1.5020967
176	0xbef9e8a0	-0.4881029
177	0xbf71af13	-0.9440777
178	0xbf41d10f	-0.75709623
179	0xbd112645	-0.035436887
180	0xbfb36ef7	-1.4018239
181	0xbe3392b3	-0.1753643
182	0xbf2e01a9	-0.67971283
183	0xbfaf6267	-1.3701905
184	0x3dc28c3e	0.09499405
185	0xbf90cb27	-1.1311997
186	0x3f9f8ef7	1.2465504
187	0x3f1e1acd	0.61759645
188	0x3eb63540	0.35587502
189	0x3fea6e93	1.8314995
190	0xbf4112e4	-0.7541945
191	0x3fa40ada	1.2815812
192	0xbf89935e	-1.0748098
193	0x3ed1e1b0	0.40992498
194	0xbeb372b5	-0.35048452
195	0x400b917e	2.1807551
196	0xbd849c28	-0.06475097
197	0xbf89590c	-1.07303
198	0xbfb484d8	-1.4103041
199	0xbf6c9028	-0.92407465
200	0xbf2ec277	-0.6826548
201	0x3f4b4afd	0.794113
202	0x3f673c7c	0.90326667
203	0x3f911dd7	1.1337231
204	0xbe0d733b	-0.13813488
205	0xbfa0ee3a	-1.2572701
206	0xbecb0e62	-0.3965941
207	0x3fb11e04	1.3837285
208	0x3ee98c68	0.45614934
209	0xbf5c0b39	-0.85954624
210	0xbf435e68	-0.7631593
211	0x3f287460	0.65802574
212	0x3f02d856	0.5111135
213	0xbee12c17	-0.4397895
214	0xbfa754db	-1.3072771
215	0x3e23f132	0.16009977
216	0xbea43e68	-0.32078862
217	0xbddf4970	-0.10902679
218	0xbe0b9f5d	-0.13635011
219	0xbf968da8	-1.176198
220	0xbf803a58	-1.0017805
221	0xbeb23e6e	-0.34813255
222	0x3e908762	0.2822829
223	0x3f84f1f5	1.038634
224	0x3f274aa5	0.65348274
225	0xbe41b519	-0.1891674
226	0xbf6f94ee	-0.93586624
227	0x3ec2ebf5	0.38070646
228	0xbf4f02a3	-0.808634
229	0xbeca0438	-0.39456344
230	0xbe7b05ed	-0.2451398
231	0x3f9f999d	1.2468754
232	0xbea4c6b3	-0.32182845
233	0x3f3af75c	0.7303369
234	0xbfc62737	-1.5480717
235	0xbf17c582	-0.5928575
236	0xbf80d559	-1.0065109
237	0x3dcd42de	0.100225195
238	0xbe4eb2f9	-0.2018546
239	0xbfd1fa4b	-1.6404508
240	0xbf14e9cf	-0.58169264
241	0x3f6b6f7b	0.9196698
242	0xbe881c5d	-0.2658414
243	0xbe753f3d	-0.23949905
244	0x40004b22	2.0045857
245	0xbe46311f	-0.19354676
246	0xbf444b24	-0.76677155
247	0xbefe8521	-0.49710944
248	0xbcdd80b1	-0.027038904
249	0xbece2961	-0.40265945
250	0x3e478144	0.19482905
251	0x3fae2e48	1.3607874
252	0xbdc25c09	-0.094902106
253	0xbed672c1	-0.41884425
254	0xbf1fa5ca	-0.6236235
255	0x3fc1230e	1.5088823

lstm.bias_ih_l0 f4 [40]
0	0x3f959f0b	1.1689161
1	0x3f6a3c6b	0.9149844
2	0x3eab9785	0.33514038
3	0x3f0ed4ab	0.55793256
4	0xbd477c5f	-0.048702594
5	0x3eee393d	0.46528044
6	0x3e6d62b7	0.23182188
7	0x3ead60ea	0.33863002
8	0x3f494946	0.7862743
9	0x3ef7338a	0.4828151
10	0xbc8f14e2	-0.017466012
11	0x3e93a19f	0.28834245
12	0x3eba78a2	0.3642016
13	0x3e552d7f	0.20818137
14	0xbeec439f	-0.4614534
15	0x3ede3f97	0.4340789
16	0xbf03f2dd	-0.51542455
17	0xbea95d33	-0.33078918
18	0x3e930d20	0.2872095
19	0xbf00f898	-0.50379324
20	0xbe4495f3	-0.19197826
21	0xbe0bc916	-0.13650927
22	0x3ebbd43d	0.36685362
23	0xbd15043f	-0.036381003
24	0x3e6b774c	0.22994727
25	0xbd75984b	-0.05995969
26	0x3cda92ac	0.026681267
27	0x3c9b6844	0.018970616
28	0x3d8b119b	0.06790467
29	0xbe4a4976	-0.19754586
30	0x3f10761a	0.5643021
31	0x3f918c5e	1.1370962
32	0xbd24556d	-0.04012053
33	0x3eee930c	0.46596563
34	0x3ec2b33d	0.38027373
35	0x3f539b47	0.8265881
36	0x3faaf3a1	1.33556
37	0x3f98e05e	1.1943471
38	0x3f81c5aa	1.0138447
39	0x3f8d11bd	1.1021038

lstm.bias_hh_l0 f4 [40]
0	0x3f6fa771	0.9361487
1	0x3f8a54f7	1.0807179
2	0x3f0a5668	0.54038095
3	0x3f0995b6	0.53744066
4	0x3e3a6ed9	0.18206348
5	0x3f4b65e5	0.79452354
6	0x3ec45fe5	0.38354412
7	0x3ea5a22e	0.32350296
8	0x3f3fc563	0.74910563
9	0x3f0124c4	0.50446725
10	0xbe100a72	-0.14066485
11	0x3b82dd5a	0.0039936723
12	0x3f31d7e2	0.69470036
13	0xbd1744cc	-0.036930844
14	0xbea7462f	-0.32670733
15	0x3c2ae5da	0.010430777
16	0xbe12b085	-0.1432515
17	0xbf1c0c65	-0.6095641
18	0x3e517543	0.20454888
19	0xbe2c5a62	-0.16831353
20	0xbe6670a0	-0.225039
21	0x3d7092e8	0.05873385
22	0x3dd98655	0.10621325
23	0xbdc982d9	-0.0983941
24	0xbea6707e	-0.325077
25	0x3db4a524	0.088205606
26	0xbd813cb1	-0.06310404
27	0x3ddd6a6a	0.108113125
28	0x3e75c963	0.24002604
29	0x3daad995	0.08342282
30	0x3e941ff8	0.2893064
31	0x3f95fd8b	1.1718
32	0x3f0ef3ef	0.55840963
33	0x3eb478c1	0.35248378
34	0x3f5d09c5	0.8634303
35	0x3f9d5988	1.2292948
36	0x3faa5e50	1.3310032
37	0x3f3a07e5	0.72668296
38	0x3f9d9b12	1.2312949
39	0x3f71a907	0.9439854

hidden_layer.weight f4 [10, 20]
0	0x3d6450f9	0.055741284
1	0x3ed53e2f	0.41649005
2	0x3e08dce5	0.13365515
3	0x3ed37c61	0.4130583
4	0xbf2adcd5	-0.6674321
5	0x3d716c3c	0.05894111
6	0xbc9a3054	-0.018821873
7	0x3f922b0b	1.1419386
8	0x3f42c2d9	0.76078564
9	0xbf034e69	-0.5129152
10	0x3e57cbc2	0.21073821
11	0x3e83d110	0.2574544
12	0xbfdc0c15	-1.7191187
13	0x3e0eb9fb	0.13938133
14	0xbf4edb09	-0.8080297
15	0xbc2848f1	-0.010271297
16	0xbf8fa11e	-1.1221044
17	0x3f1de07a	0.6167065
18	0xbdc6b047	-0.09701591
19	0x3e321b08	0.17393124
20	0xbf30c406	-0.6904911
21	0xbf2a9f72	-0.66649544
22	0xbf60a8e4	-0.87757707
23	0xbf962bcf	-1.1732119
24	0xbeb5648b	-0.3542827
25	0xbf3b6321	-0.73198134
26	0xbf2e4ffb	-0.6809079
27	0xbe8513c4	-0.25991642
28	0xbf12eece	-0.5739564
29	0x3e7c9f23	0.24670081
30	0x3da3dd9d	0.08001254
31	0xbc8ad5ae	-0.016947594
32	0xbf38903d	-0.7209509
33	0x3d50529e	0.05086004
34	0x3fa1f63e	1.2653272
35	0xbe1182fb	-0.14210121
36	0x3d60fd94	0.05492933
37	0xbf8ec130	-1.1152706
38	0xbf1307ab	-0.57433575
39	0x3f4c009c	0.7968843
40	0x3d621440	0.055195093
41	0x3f2e8c60	0.68182945
42	0x3f9871dc	1.1909747
43	0xbd4ec620	-0.050481915
44	0xbf96e4d7	-1.1788586
45	0x3e9eba79	0.31001642
46	0xbe0dc90a	-0.13846222
47	0x3f1e11e6	0.6174606
48	0xbd40077d	-0.04688214
49	0xbd294337	-0.041323867
50	0xbf1056e5	-0.5638259
51	0x3ed01dfc	0.40647876
52	0xbfa59f6b	-1.2939276
53	0xbdcc78c0	-0.09983969
54	0x3f0d531e	0.5520495
55	0x3f123280	0.57108307
56	0x3eac32cc	0.33632505
57	0x3ee75fec	0.4519037
58	0xbe86314d	-0.2620949
59	0xbdd3939c	-0.10330889
60	0xbe302fad	-0.17205687
61	0xbedf1ed2	-0.43578202
62	0xbf0e8085	-0.55664855
63	0xbfbe78fa	-1.4880669
64	0xbea599b0	-0.32343817
65	0xbe76606b	-0.24060218
66	0x3e78826d	0.24268503
67	0xbf47c02e	-0.7802762
68	0xbe12f822	-0.14352468
69	0x3eb53fe8	0.3540032
70	0x3f1e4916	0.6183027
71	0xbf24bfbf	-0.6435508
72	0x3d1ebed4	0.038756207
73	0xbecd1f73	-0.40063056
74	0x3f0b2279	0.54349476
75	0xbcf65a35	-0.030072311
76	0x3f69a1d3	0.9126255
77	0xbf97c383	-1.185654
78	0x3e815f21	0.2526789
79	0x3eee0342	0.4648686
80	0x3f4c2474	0.79743123
81	0x3d21c958	0.039498657
82	0x3f643d82	0.89156353
83	0x3ea5cd60	0.3238325
84	0xbf889d56	-1.0673015
85	0x3e311674	0.17293721
86	0x3f08c36c	0.5342319
87	0x3fc66879	1.5500633
88	0x3e5d1e42	0.21593574
89	0xbddbffc7	-0.10742145
90	0xbe198781	-0.14993097
91	0xbf3f3135	-0.7468446
92	0xbe25c5b5	-0.161887
93	0xbf25ba38	-0.6473727
94	0xbf05ab65	-0.5221465
95	0x3f734fa8	0.9504342
96	0xbe19800f	-0.14990257
97	0x3fb372fc	1.4019465
98	0x3f5fa0ec	0.8735492
99	0xbf64b7fb	-0.8934323
100	0xbf216f77	-0.63060707
101	0x3f106c24	0.5641501
102	0xbfc52e28	-1.5404711
103	0x3e1ec1e4	0.15503651
104	0x3d00ae8e	0.03141647
105	0xbceafe18	-0.028685614
106	0x3ec35f1d	0.38158503
107	0xbeabd5fe	-0.335617
108	0x3e514512	0.20436504
109	0xbf43e500	-0.765213
110	0x3f112221	0.566927
111	0x3e24d2ef	0.1609609
112	0xbeb6d67a	-0.35710508
113	0xbeb966f7	-0.36211368
114	0x3f664e67	0.8996338
115	0xbf17fa93	-0.5936672
116	0x3e14d946	0.14536008
117	0x3ec7e31f	0.39040467
118	0x3d2f84fc	0.042851433
119	0x3d828eac	0.06374869
120	0xbdef5be1	-0.116874464
121	0xbe9340a3	-0.2876025
122	0x3d8873ca	0.0666271
123	0xbe64ced8	-0.2234453
124	0xbe1c0c5a	-0.15239087
125	0xbf37240a	-0.71539366
126	0x3cc27d33	0.02374134
127	0x4005a17f	2.087982
128	0x3ec951e8	0.39320302
129	0x3f0179ca	0.5057646
130	0x3e35fa25	0.17771204
131	0xbeb329e5	-0.349929
132	0x3e60cb4d	0.21952553
133	0xbd5ed357	-0.054400768
134	0xbfc679b6	-1.5505893
135	0x3f7d450e	0.98933494
136	0xbefe7f59	-0.49706534
137	0x3f926fb8	1.1440344
138	0x3f47ed05	0.7809604
139	0xbdc344cf	-0.095346086
140	0x3f1b307f	0.60620874
141	0x3ed8d3f3	0.42349204
142	0x3fa7a2d7	1.309657
143	0x3f457c52	0.7714282
144	0xbf1ba45b	-0.6079766
145	0xbe593124	-0.21210152
146	0x3e345ed0	0.17614293
147	0x3f90cbfc	1.1312251
148	0x3d1dd0c2	0.038529165
149	0xbdea3105	-0.11435131
150	0xbdb8238e	-0.089911565
151	0x3ef33b77	0.47506306
152	0x3e97630a	0.29567748
153	0xbe3e2004	-0.185669
154	0xbec3b1fc	-0.3822173
155	0x3e5613e0	0.20906019
156	0x3e993cff	0.2992935
157	0x3f18e2f9	0.5972133
158	0x3f4cb59e	0.79964626
159	0xbf2e9a8f	-0.6820459
160	0xbfbab9ca	-1.4587948
161	0xbe79afab	-0.24383418
162	0xbf5985f4	-0.8497002
163	0xbf240fdf	-0.6408672
164	0x3e26fe6d	0.16307993
165	0xbf3e3fcb	-0.7431609
166	0x3e70e68b	0.23525445
167	0x3ea2f050	0.3182397
168	0xbf65ce0e	-0.8976754
169	0x3dd0518f	0.10171806
170	0x3ee73497	0.4515731
171	0xbda1e2b9	-0.07904572
172	0xbf2ff1f3	-0.6872856
173	0x3fb52d3f	1.4154433
174	0x3f187cf3	0.5956566
175	0xbf32e058	-0.6987357
176	0xbdacdc31	-0.08440436
177	0xbecf9749	-0.4054511
178	0xbec1ef38	-0.37877822
179	0x3e0cb600	0.13741302
180	0x3d05d330	0.032672107
181	0x3ea95c7a	0.33078367
182	0xbf2d841e	-0.6777972
183	0xbf16107a	-0.5861889
184	0x3eb58e69	0.35460213
185	0x3e284d6b	0.16435783
186	0xbd098f58	-0.03358397
187	0xbee0bf80	-0.43896103
188	0x3f744803	0.9542238
189	0x3e19b259	0.1500944
190	0xbefb7456	-0.49112195
191	0x3fafbc01	1.3729249
192	0x3f33b9ea	0.7020556
193	0xbec42552	-0.38309723
194	0xbe6f2ad0	-0.23356175
195	0xbd867d68	-0.06566888
196	0xbe41150c	-0.18855685
197	0x3ea8f034	0.3299576
198	0xbdd44978	-0.103655756
199	0xbd745d01	-0.059659008

hidden_layer.bias f4 [10]
0	0xbf24d1ae	-0.64382446
1	0x3d9fc7b9	0.07801766
2	0x3f1d010e	0.61329734
3	0xbdfb7437	-0.122780256
4	0xbeec3d4e	-0.46140522
5	0x3ed02804	0.4065553
6	0x3eec62e5	0.461692
7	0xbf0db715	-0.55357486
8	0xbf075943	-0.5287058
9	0xbe168ca4	-0.14702088

output_layer.weight f4 [1, 10]
0	0xbfae2ea8	-1.3607988
1	0xc0014129	-2.019602
2	0x3f683cdd	0.9071787
3	0x3fe55180	1.7915497
4	0xc0202f4a	-2.5028863
5	0x3f0ed8a8	0.5579934
6	0x3fb40c35	1.4066225
7	0xbfd0c4cd	-1.6310059
8	0xc0415f13	-3.0214279
9	0xbf2783b5	-0.65435344
