pair_sampling/models/model_ep100.pt (torch_old, 6962 bytes, 8 tensors)

embedding.weight f4 [21, 10]
000000 00 00 00 00 00 00 00 00 00 00 00 00 00 00 00 00
       0.0 0.0 0.0 0.0
000010 00 00 00 00 00 00 00 00 00 00 00 00 00 00 00 00
       0.0 0.0 0.0 0.0
000020 00 00 00 00 00 00 00 00 53 69 9c 41 df 98 81 c1
       0.0 0.0 19.551428 -16.199644
000030 ad 68 79 c1 b7 55 24 be 09 e7 68 c0 95 b3 64 3f
       -15.588056 -0.16048323 -3.6391013 0.8933652
000040 96 03 31 41 30 54 9f 3f dd e3 20 40 e9 a2 68 41
       11.063375 1.2447567 2.5139077 14.539773
000050 07 8a 99 c1 f7 23 e9 bf de 68 8b 41 78 79 84 41
       -19.192396 -1.8214101 17.426205 16.55931
000060 f4 9d 4c c1 72 3d 5e 41 9a 23 42 c1 f7 fd 9f 41
       -12.788563 13.890001 -12.133692 19.999006
000070 79 e4 23 c1 cf 20 83 41 5a 64 10 41 a2 81 cb c0
       -10.243279 16.39102 9.0245 -6.3595743
000080 c4 a9 9f 41 58 a8 7a 40 2d e2 b0 bf ca 53 8b 41
       19.957893 3.916525 -1.3819023 17.415913
000090 df 32 9a 40 37 dd 31 41 ad f8 89 41 e7 ef 91 c1
       4.81871 11.116508 17.246424 -18.24214
0000a0 66 35 8f c1 37 f5 91 41 90 3f 34 41 6e 23 a6 41
       -17.901073 18.244734 11.265518 20.7673
0000b0 7d 14 51 c1 59 15 38 41 5a 73 ec 40 02 4a 85 41
       -13.067502 11.505212 7.389081 16.661137
0000c0 46 c9 a0 c0 f1 94 5a c1 11 35 19 41 bd f2 b3 3e
       -5.0245695 -13.661363 9.575456 0.35146132
0000d0 ab d0 9e c1 c1 af 57 c1 49 04 8b 41 e2 de ba 40
       -19.851889 -13.480409 17.377092 5.8397074
0000e0 93 3e 93 c0 c3 d4 76 c1 fb 0f c6 c0 69 fc 54 41
       -4.6013885 -15.426944 -6.1894507 13.311624
0000f0 f2 b2 1a 41 a4 46 49 c1 e5 7f 90 c1 57 1d 35 c1
       9.668688 -12.579746 -18.062449 -11.319663
000100 a4 00 89 41 10 8f 0c 41 2f 83 42 41 44 c2 8e c1
       17.125313 8.784927 12.157027 -17.844856
000110 c2 c6 96 3f be fa bd c0 69 94 86 c1 48 75 a3 40
       1.1779406 -5.936858 -16.822466 5.1080666
000120 67 d5 2e 41 07 54 92 41 7a 7c 8f c1 ca 00 74 41
       10.9271 18.291029 -17.93578 15.250193
000130 46 08 d5 c0 0e 50 8f 41 af 77 30 41 54 d1 74 c1
       -6.65726 17.91409 11.02922 -15.3011055
000140 af c9 8d c0 2e 21 2e c1 37 13 7d c1 11 0e 7a c1
       -4.4308696 -10.8831005 -15.817191 -15.628434
000150 09 a9 84 41 41 dd 53 41 75 ad 2c 3f 23 16 33 c1
       16.582537 13.241517 0.67452174 -11.192904
000160 4e 42 9b 41 77 e5 2e c0 72 b7 28 c1 38 ba 91 c1
       19.407375 -2.7327554 -10.544786 -18.215927
000170 37 1f 3e 41 5c f3 a1 c1 69 a1 59 c1 9a 2e 2d c1
       11.882621 -20.243828 -13.601907 -10.823877
000180 1c 44 a5 3f 7d 97 2a 41 fb 32 9e 41 bc 04 63 c1
       1.291141 10.661984 19.774893 -14.188656
000190 69 fa 97 41 98 ae 21 c1 98 32 9e c1 0c 92 a3 c0
       18.99727 -10.105125 -19.774704 -5.111578
0001a0 a8 29 91 41 6f c8 dc 40 ea 13 1b c0 fb 4e 6a c1
       18.14534 6.899467 -2.4230905 -14.644282
0001b0 07 02 39 41 5f 20 84 41 0e 50 a8 3f 44 f3 be 40
       11.562995 16.515806 1.3149431 5.9671955
0001c0 97 c0 c7 c0 0f ff 98 3f f0 06 82 c1 f9 88 4b 41
       -6.2422595 1.1952838 -16.253387 12.720941
0001d0 86 a4 67 c1 bd 35 a5 41 91 b7 99 c1 47 53 8a 41
       -14.477667 20.65124 -19.214632 17.290663
0001e0 0e 41 6f 40 15 a0 89 41 84 39 95 c1 d1 0c 8f 41
       3.7383456 17.203165 -18.653084 17.881258
0001f0 f6 35 85 41 c3 e4 8c 41 91 f7 be c0 ae 24 d6 40
       16.651348 17.6117 -5.9677205 6.6919775
000200 f2 04 2b 40 65 46 4d c1 9c eb 0d bf 9e 7c 83 c1
       2.6721768 -12.829686 -0.55437636 -16.435848
000210 e2 7b a2 c1 7f 02 2a c0 de 00 9c 41 52 e4 00 40
       -20.31049 -2.6564023 19.500423 2.0139356
000220 95 18 96 c0 2b 2f ef 40 c7 64 1e bf 7a 77 3e 40
       -4.6905007 7.474508 -0.61872524 2.9760423
000230 ad 3c 8c c1 b6 86 4e 40 e7 e1 9a 3e 43 b1 a4 41
       -17.529627 3.226972 0.30250475 20.586554
000240 e1 96 41 41 87 75 2b c1 b6 44 80 bf 25 d3 68 41
       12.099336 -10.716193 -1.0020969 14.551549
000250 66 b6 4e c0 81 e8 7d c1 44 4c 9c 40 74 36 5e 3f
       -3.2298827 -15.869264 4.88431 0.8680184
000260 27 f7 9f c1 9f f3 83 c1 1e f0 4a 3f 43 c0 36 41
       -19.99568 -16.493956 0.7927264 11.421939
000270 0f 93 98 c1 36 12 6d c0 7d ca 86 c1 7e c8 97 41
       -19.071806 -3.7042365 -16.848871 18.972897
000280 93 f3 8f c1 d9 94 8a c1 18 1a 74 41 91 8e 98 41
       -17.993933 -17.32268 15.256371 19.069613
000290 01 e9 88 c1 31 2a a0 41 97 ca 7b c1 03 09 6f 41
       -17.113771 20.020601 -15.73696 14.9397
0002a0 87 47 55 c0 92 8f 6a c1 39 0e 75 c1 61 2e 7c 41
       -3.3324907 -14.660051 -15.315972 15.761323
0002b0 b9 1b 28 c1 d2 89 a8 41 33 9b 7f c1 e1 6b 54 bf
       -10.506768 21.067295 -15.97539 -0.8297711
0002c0 d5 3e f8 c0 41 00 a2 c0 c3 17 77 c1 d8 af eb bf
       -7.75767 -5.062531 -15.443301 -1.8413038
0002d0 c9 51 7a c0 7f 74 82 c1 b9 5d 7e 41 5e 20 9b 41
       -3.9112418 -16.306883 15.8978815 19.390804
0002e0 a1 bd 7e 41 37 f6 66 c1 6e 4a 8c 41 b5 eb 93 41
       15.921296 -14.435111 17.536343 18.490091
0002f0 7a c4 a1 c1 5d f3 6c 41 36 5c 05 41 c9 c4 08 c1
       -20.220936 14.809415 8.335012 -8.548043
000300 59 45 98 41 5d 0f 9e 41 df 0f 27 41 20 64 6d 41
       19.033861 19.757502 10.441375 14.836945
000310 f6 a3 90 41 f1 b8 59 41 23 8e a8 c0 c8 29 9e c1
       18.08006 13.607652 -5.2673507 -19.770401
000320 79 1e 8e c1 52 dd 00 bf e0 09 92 41 4e 4b 91 41
       -17.76488 -0.5033771 18.254822 18.16177
000330 cc 42 12 c1 a8 74 b9 bf 4b 12 8a 41 1a 71 66 bf
       -9.141308 -1.4488726 17.258932 -0.9001633
000340 2f c0 59 bf ad ea 90 c1
       -0.85058874 -18.114588

lstm.weight_ih_l0 f4 [40, 10]
000000 ce 6c 92 41 ae 01 84 c0 7d 3b 91 41 1a d7 57 c1
       18.303127 -4.125205 18.154047 -13.490015
000010 75 a2 75 c0 66 f0 d2 3f 33 e3 89 41 ed 83 0a c1
       -3.8380406 1.6479614 17.235937 -8.657208
000020 34 ca 77 41 d2 43 4e c1 e7 94 85 41 17 4f 3d c1
       15.486866 -12.891558 16.697706 -11.831809
000030 a7 1e 8e c1 9a 17 1d c1 84 1a 31 41 67 d9 84 c1
       -17.764967 -9.818262 11.068974 -16.606153
000040 e4 10 98 c1 28 f0 51 41 3e 27 c2 c0 9a ba 9c 41
       -19.008247 13.121132 -6.0672903 19.591114
000050 3a 21 86 c1 16 ca 71 c1 92 bd c4 40 42 f8 92 c1
       -16.766224 -15.111837 6.148141 -18.37122
000060 2e 86 80 41 0a aa 82 c1 78 63 94 c1 90 3b 4c c1
       16.065517 -16.333027 -18.548569 -12.764542
000070 ed ab 93 41 eb 65 82 41 fe f5 32 41 55 66 96 c1
       18.458948 16.299765 11.185057 -18.799967
000080 b5 7e 10 c1 a7 50 93 c1 25 70 40 c1 8d d2 17 41
       -9.030934 -18.414381 -12.027379 9.488904
000090 13 78 2b c1 9e 61 38 c1 05 3c 90 41 24 06 dc 40
       -10.716815 -11.523832 18.029306 6.8757496
0000a0 f9 c7 0b c0 b8 c8 85 c0 92 c4 98 c1 e4 aa 15 40
       -2.1840804 -4.180752 -19.095982 2.3385553
0000b0 a3 b5 9b 41 a8 49 0a c0 78 e8 b2 40 8e 20 73 c1
       19.46369 -2.1607456 5.5908775 -15.195448
0000c0 ee b8 7d 41 37 67 a7 c0 9c 93 86 41 19 22 91 c1
       15.857649 -5.2313495 16.822075 -18.14165
0000d0 e9 aa 8f c1 df 79 43 bf db 93 95 41 1d 43 54 bf
       -17.958452 -0.76357836 18.697195 -0.82914907
0000e0 66 f8 5f 3e 91 75 bc 3d 25 47 04 3f 8d ac 96 41
       0.218721 0.092021115 0.5167106 18.834253
0000f0 7f 87 8d 41 5b 25 8f c1 bc 6d 94 c1 f3 74 57 c1
       17.69116 -17.89324 -18.553581 -13.466052
000100 7e d7 94 41 51 fd 18 41 ae 15 8c 41 5c f2 e9 40
       18.60522 9.561845 17.510586 7.310835
000110 3f 7c 7b c1 fd 9a 86 41 16 00 88 40 d9 af 6d 41
       -15.7178335 16.825678 4.2500105 14.855432
000120 71 66 70 41 73 cf 8c c1 ce ca 94 c1 ac 4f 7d 41
       15.02501 -17.601294 -18.599026 15.831951
000130 b3 a2 85 c1 4b b2 91 41 61 76 8d 41 4f 06 8a 41
       -16.704443 18.212057 17.682802 17.25308
000140 03 7a b5 c0 7f 0b 07 c1 cb 4f 89 41 fc 8a 92 c1
       -5.671144 -8.440307 17.163961 -18.317863
000150 a5 90 87 c1 93 33 c1 40 eb 08 69 41 a8 41 43 41
       -16.945627 6.0375457 14.564677 12.203529
000160 71 34 78 41 4a 75 72 c1 1c df 54 c1 f2 74 86 c1
       15.512803 -15.153635 -13.30447 -16.807102
000170 88 08 72 41 25 91 d4 c0 7d 7d 23 c1 f0 e2 57 c1
       15.127083 -6.642718 -10.218137 -13.492905
000180 2b 74 16 41 af 21 85 41 f2 00 ff 40 82 6e 87 c1
       9.403361 16.641447 7.9688654 -16.928959
000190 3f 88 83 41 2f 6d 54 c1 6a 34 3a c1 d1 d6 6d c1
       16.441526 -13.276656 -11.637796 -14.864945
0001a0 d3 83 84 41 7b 83 8d c1 f9 5b 8f 41 57 42 92 c1
       16.564367 -17.6892 17.919909 -18.282393
0001b0 21 23 84 c1 cb 6a 8e 41 27 81 0b c0 3a 51 93 bf
       -16.517153 17.802145 -2.1797578 -1.1509163
0001c0 ee 62 89 c1 25 3d 8e c1 9f b2 d2 3f 66 e5 94 41
       -17.173306 -17.779856 1.6460761 18.612011
0001d0 38 90 8e c1 55 3e 98 3f a9 5f 7b c1 d4 6c 8a 41
       -17.82042 1.1894022 -15.710855 17.303139
0001e0 b2 88 7b 41 62 ab 70 c1 d6 bb 97 41 4c f4 86 c1
       15.720873 -15.0418415 18.966717 -16.869286
0001f0 14 55 92 c1 9d 2a 58 c1 57 eb 91 40 a1 e3 8b 41
       -18.291542 -13.510404 4.559978 17.486147
000200 d2 1c 30 41 73 b9 91 41 1f d4 0d 41 cd 9b 18 c1
       11.007036 18.215551 8.864287 -9.538037
000210 f4 90 2b 41 40 a2 b1 c0 18 ba 8b 41 29 57 92 c1
       10.722889 -5.551056 17.465866 -18.292559
000220 65 e0 8e 41 61 e9 9a c1 9d 15 96 c1 9c ae 67 c1
       17.859568 -19.363955 -18.760553 -14.480129
000230 b1 6f 77 41 ad 98 7a c0 54 f4 73 c0 fa 64 85 bf
       15.464768 -3.9155686 -3.8117876 -1.0421441
000240 b9 d7 8e 41 77 3e 95 c1 4a 90 8d 3e e3 3b 89 c1
       17.855333 -18.6555 0.27649146 -17.154242
000250 c5 65 5c c1 46 f3 8f 41 1f b7 3b c1 e7 07 ff c0
       -13.774846 17.993786 -11.732207 -7.9697146
000260 7c dd 8c 41 0b a4 8d c1 b5 d1 8c c1 a7 1d b8 40
       17.608147 -17.7051 -17.602396 5.7536197
000270 dc d2 96 c1 74 2b 2e 41 05 fa 7e c1 03 d3 4b 41
       -18.852959 10.885609 -15.93604 12.739017
000280 d4 c6 80 c1 55 a0 35 c1 df 8b 5e 41 df d3 71 41
       -16.097084 -11.351644 13.909148 15.114226
000290 02 1c 5b 41 43 aa 95 c1 dc 3a 94 c1 8b 8d e6 bf
       13.694338 -18.708136 -18.52874 -1.8011945
0002a0 d7 44 6e c1 1c 48 64 41 1c c1 09 41 b5 ab 09 c1
       -14.891807 14.267605 8.609646 -8.604421
0002b0 ae d2 86 c1 2c 84 82 c1 80 2c 46 41 59 fc 93 3e
       -16.85287 -16.314537 12.385864 0.28903463
0002c0 be 92 75 c1 6a 75 cd c0 44 2e 12 41 c3 18 96 41
       -15.348326 -6.420583 9.136295 18.76209
0002d0 78 29 a4 40 13 99 1c 41 e0 ff c6 3f 0e a6 0b c0
       5.130062 9.787372 1.5546837 -2.1820102
0002e0 ae 18 ff c0 02 98 9c c1 21 b0 37 c1 ee 67 4e c1
       -7.9717627 -19.574223 -11.4805 -12.900373
0002f0 bb 77 9a 41 c5 0f 3b 40 cb f9 6d c1 e7 0a 98 41
       19.308462 2.9228375 -14.873485 19.005323
000300 9d 17 47 41 66 1c 55 41 25 3f 92 c1 e8 ef a1 40
       12.443265 13.319433 -18.280832 5.0605354
000310 e7 c8 55 c0 71 b7 3a 41 8a 50 85 c1 e6 fe 46 c1
       -3.340387 11.6697855 -16.664326 -12.437231
000320 e3 fb 24 41 18 1d 97 c1 a9 7e 4a c1 93 7c 78 c1
       10.311496 -18.889206 -12.655923 -15.530414
000330 f6 c8 92 41 1f 26 28 c1 ec ba 77 41 3f e5 79 c1
       18.348125 -10.509307 15.483135 -15.618468
000340 3a ce 8b 41 75 6c a0 40 f1 27 2d 41 01 dd eb 40
       17.475697 5.0132394 10.822251 7.370728
000350 63 6b 27 41 59 ef 95 41 bf 87 93 c1 d9 26 82 41
       10.463717 18.741869 -18.441282 16.268969
000360 85 bc 97 41 6f 55 45 41 b2 1b 65 c1 27 0e 65 41
       18.96705 12.333358 -14.319262 14.315955
000370 36 e9 99 41 f8 0f b7 3f 72 6e 9a c1 4b 3c 99 c1
       19.238873 1.4301748 -19.303928 -19.15444
000380 5a 68 e7 bf 76 e9 9d 40 69 36 cb 40 e4 dd 87 c1
       -1.807872 4.9347486 6.350392 -16.983345
000390 f6 3a 97 41 f1 b0 ed bf 65 90 92 41 d5 3a 6c c1
       18.90379 -1.8569623 18.320505 -14.764363
0003a0 2c 37 4f c1 1a 29 8d c1 9e 4d 3a 41 84 a5 8d 41
       -12.95097 -17.64507 11.6439495 17.705818
0003b0 ac 02 72 c1 e7 25 7a 41 5c 88 8e 41 5f b6 8f c1
       -15.125652 15.6342535 17.816582 -17.964048
0003c0 80 ce 98 c1 ad a7 9b 41 e1 f8 8e 41 28 b4 ac 40
       -19.10083 19.456873 17.871523 5.3969917
0003d0 c6 54 60 c0 93 f6 a6 c0 40 39 14 c0 f0 18 23 c1
       -3.5051742 -5.2175994 -2.3159943 -10.193588
0003e0 c4 ae 9c 3f 5c 60 97 c1 5b 6c 88 c1 f0 6b 86 41
       1.2240834 -18.92205 -17.052908 16.802704
0003f0 37 8a 7f 41 f9 03 8e c1 6d e4 8d c1 dd 81 78 41
       15.971244 -17.75194 -17.736536 15.531705

lstm.weight_hh_l0 f4 [40, 10]
000000 36 86 86 41 2c 0a 06 c1 0f e3 98 41 2d c0 89 c1
       16.815533 -8.377483 19.110868 -17.218836
000010 2e 39 97 c1 e7 f2 82 c1 96 dc 97 41 af cc 80 c1
       -18.90292 -16.368605 18.982708 -16.099943
000020 97 ad ec 40 9d da 8c 41 4d 94 57 41 79 0c 75 41
       7.39619 17.606745 13.473706 15.315545
000030 72 21 8e c1 a5 9a 7a 41 19 7e 79 c1 2e ba 83 c1
       -17.76633 15.662755 -15.593286 -16.465908
000040 46 1e 8d 41 f6 49 8f c1 a1 2d 2b 41 ec 12 95 41
       17.639782 -17.911114 10.69864 18.63424
000050 59 85 94 c1 48 d1 80 41 04 cd 75 41 49 c6 66 c1
       -18.565111 16.102188 15.362553 -14.423409
000060 ae ac 95 c1 b2 00 3c 41 d0 f8 92 41 80 9c 82 c1
       -18.709316 11.75017 18.37149 -16.326416
000070 a3 ae 81 c1 a1 45 22 41 f2 fa 82 41 3c ba 81 41
       -16.210272 10.141999 16.372532 16.215935
000080 ae b9 97 c1 e0 85 68 41 35 33 92 41 b2 4f 86 41
       -18.965664 14.532684 18.275003 16.788914
000090 85 7b 8d c1 4e 9d 79 41 e4 1a 8a 41 90 b5 49 41
       -17.685312 15.600904 17.26313 12.606827
0000a0 8a c9 4c 41 df 89 78 41 10 7b 96 41 01 27 97 c1
       12.799204 15.53366 18.81009 -18.894045
0000b0 39 82 61 41 92 14 70 c1 f4 2a 96 41 3d 67 84 41
       14.094293 -15.005022 18.770973 16.55041
0000c0 0c 94 93 41 9d 88 8a c1 68 54 8c c1 39 52 93 c1
       18.447289 -17.316706 -17.541214 -18.415148
0000d0 fa 22 8f c1 69 12 76 41 5c 97 7e 41 f4 ab 97 c1
       -17.892078 15.379495 15.911953 -18.958961
0000e0 82 f6 5f c1 2d a6 8d 41 be 11 90 41 34 62 82 41
       -13.997683 17.70614 18.008663 16.29795
0000f0 90 0f 95 c1 ef c8 8d c1 5b 11 3a 41 24 f3 75 c1
       -18.632599 -17.723112 11.629237 -15.3718605
000100 75 ae 71 c1 b9 8d 90 c1 dd 3f 7f 41 4b 29 8d 41
       -15.105092 -18.0692 15.953092 17.645163
000110 34 71 8b 41 aa 84 8d c1 6b 91 80 41 ad eb 8b c1
       17.430275 -17.689777 16.071005 -17.490076
000120 36 a3 88 c1 b8 ae 86 41 42 7e 84 41 dd 06 87 c1
       -17.079693 16.835312 16.56165 -16.878351
000130 f0 1d 8c 41 4e 4a 8c 41 7b 9a 90 41 e5 fe 72 41
       17.514618 17.536282 18.07543 15.18723
000140 2e c2 f9 3f ba 1e 57 41 12 72 20 40 13 f0 88 41
       1.9512384 13.445002 2.5069623 17.117224
000150 12 23 4e c1 42 ff 85 41 6c ee 79 41 63 af 77 c1
       -12.883562 16.749638 15.620708 -15.480319
000160 2c bc 8f 41 86 65 37 41 a7 85 58 41 fb 84 83 c1
       17.96688 11.462286 13.53263 -16.439932
000170 f4 30 83 c1 b0 8b 7d c1 8b 33 91 41 8e 6a a9 40
       -16.398903 -15.846603 18.150167 5.294257
000180 6e 5e 07 41 8b 5c 8e 41 5c d9 58 41 9a ae 79 41
       8.460554 17.795187 13.553066 15.605127
000190 00 b1 87 41 8d b2 7d 41 5c 4c 63 c1 e5 fc 86 41
       16.961426 15.8560915 -14.206142 16.873484
0001a0 ec c5 62 c1 dc 19 7b 41 92 4c 88 41 4b ff 87 41
       -14.173321 15.693813 17.037388 16.999655
0001b0 82 b7 8f 41 41 07 77 c1 0d 31 67 41 c5 85 97 41
       17.964603 -15.439271 14.449475 18.940317
0001c0 64 90 8a c1 36 92 95 41 76 f9 91 3f d3 02 94 41
       -17.320503 18.696392 1.1404254 18.501379
0001d0 ab 4c 7a bf 68 ff 8c c1 d0 3d 8e c1 2c 4a 73 41
       -0.97773236 -17.62471 -17.780182 15.205608
0001e0 a0 41 9a c1 b0 d7 84 41 f8 74 02 c1 bf 2f 8d c1
       -19.282043 16.605316 -8.153557 -17.648314
0001f0 e1 9e f9 40 fb f2 9a c1 28 2a 02 c1 60 70 8c c1
       7.8006444 -19.368643 -8.135292 -17.55487
000200 f5 82 16 c1 87 fb 7a 41 94 aa 5f 41 56 c4 6b c1
       -9.406972 15.686408 13.979145 -14.735434
000210 b0 66 91 c1 d0 d6 89 41 75 c7 8a 41 cf e6 7d c1
       -18.17514 17.229889 17.347391 -15.86885
000220 e5 5a 8d c1 0c 9f 8c 41 36 41 62 c1 43 a6 86 c1
       -17.669382 17.57766 -14.140921 -16.831182
000230 96 da 97 c1 74 89 5c 41 5e 0c 85 c1 d8 b7 23 41
       -18.981731 13.783558 -16.631039 10.232384
000240 4f 41 84 41 b9 a0 3e 41 78 ae 8d c1 83 74 90 41
       16.531889 11.914239 -17.71019 18.05689
000250 a6 69 7a 40 19 0c 7f 41 2a af 8c 41 8a 34 6b 41
       3.9126983 15.940454 17.58553 14.700327
000260 02 97 8f c1 10 9f 88 41 9f f9 8e 41 98 0d 30 40
       -17.948734 17.077667 17.871885 2.7508297
000270 36 b3 94 40 9d b6 09 41 17 5d 75 c1 0d 97 9b 40
       4.6468763 8.607083 -15.335227 4.862189
000280 7f 25 88 c1 72 91 93 41 1b 6a 8f c1 cd 3f 8b 41
       -17.018309 18.446018 -17.92681 17.406153
000290 e7 53 92 41 a1 c9 8c 41 9d 13 86 c1 4e e5 89 c1
       18.290968 17.598452 -16.759577 -17.236965
0002a0 a0 54 8b 41 a1 be 8e c1 6e a3 5f 41 d9 8d 87 c1
       17.41632 -17.84308 13.9774 -16.944262
0002b0 c7 b7 0c 41 b2 40 89 41 80 05 8a 41 76 4e 87 c1
       8.7948675 17.15659 17.252686 -16.913311
0002c0 eb 67 88 c1 da 63 27 41 85 97 8c 41 4b a9 8c 41
       -17.050741 10.461878 17.573984 17.582663
0002d0 ad 81 90 c1 db b9 84 c1 cf 7b 94 c1 25 8d 8d 41
       -18.063318 -16.59075 -18.560453 17.693918
0002e0 47 f4 18 3c b7 48 8f c1 ad 3d d8 40 91 8f 7f c1
       0.009335584 -17.910505 6.757529 -15.97255
0002f0 5f 0d 8c 41 04 05 8b c1 ce 4d 7f c1 7c 0b 3e 41
       17.506529 -17.377449 -15.956495 11.877804
000300 6a b0 97 c1 29 c2 ac c0 2e 96 97 41 a3 ed 66 41
       -18.96114 -5.398701 18.94833 14.433017
000310 e7 1d 56 c1 0f 50 94 41 58 55 96 41 48 35 95 41
       -13.3823 18.539091 18.791672 18.651016
000320 66 42 8d c1 39 ee 95 c1 2e 55 87 41 33 08 88 c1
       -17.657421 -18.74132 16.916592 -17.004004
000330 ac ff 8f c1 8b c8 7c c1 73 bd 95 41 4c cf 88 41
       -17.99984 -15.798961 18.717505 17.10122
000340 ed 0a 91 41 b0 8d 8b c1 3f c5 59 c1 3b 02 92 41
       18.130335 -17.444183 -13.610656 18.25109
000350 5d 63 77 41 66 9b 53 c1 c8 f6 cd 40 ef 12 fb c0
       15.461759 -13.225439 6.4363747 -7.846061
000360 f6 4d 47 41 dd dd 92 c1 cd 82 95 c1 64 e1 8a c1
       12.456533 -18.358332 -18.688868 -17.360054
000370 0f 4b 91 c1 e2 ed 8d c1 5c 8f 71 c1 2e a1 85 41
       -18.16165 -17.741154 -15.0975 16.703701
000380 5d 12 5f 41 60 d9 64 41 35 40 61 c1 56 da 88 c1
       13.941983 14.30307 -14.078176 -17.10661
000390 68 67 81 c1 3e 75 8a c1 a5 b0 8d c1 e9 39 8f c1
       -16.175491 -17.307247 -17.711252 -17.903276
0003a0 c3 b2 8d 41 8c 2f 51 41 e7 80 8e c1 fe 7b 86 c1
       17.712286 13.074108 -17.81294 -16.810543
0003b0 5f 71 8c 41 3d 76 85 41 8d bd 8c 41 ef 58 82 c1
       17.555357 16.682734 17.592554 -16.293425
0003c0 b9 11 93 41 88 ec 93 41 d5 5e 8c c1 ad c0 1a be
       18.383654 18.490494 -17.546305 -0.15112562
0003d0 c4 d8 b2 40 75 64 91 41 ae 31 3e 40 01 c6 8d c1
       5.5889606 18.174051 2.9717822 -17.721682
0003e0 a9 57 3e 40 f1 cc 12 40 a6 97 8b c1 03 86 91 c1
       2.9741004 2.2937586 -17.449047 -18.190435
0003f0 e0 c6 87 41 54 53 91 c1 ec 1c 87 c1 f2 47 8c c1
       16.972107 -18.165688 -16.889122 -17.53513

lstm.bias_ih_l0 f4 [40]
000000 05 ee 0b 41 cd fb 2a c1 9c eb 77 c1 58 55 d2 40
       8.74561 -10.686475 -15.495022 6.572918
000010 a6 f7 4d 41 a2 82 8b c1 dd 51 45 41 6d f1 91 c1
       12.872961 -17.438786 12.332486 -18.242884
000020 9c 67 99 c1 19 a1 9a c1 5a e6 86 c1 dd 5c 90 41
       -19.17559 -19.328661 -16.862476 18.045343
000030 c1 f0 34 c1 74 a1 68 c1 a8 df 8e c1 0a b5 8d c1
       -11.308778 -14.539417 -17.859207 -17.713398
000040 ea 0b 90 c1 32 2b 93 c1 f2 b6 94 c1 eb 1e 95 c1
       -18.005817 -18.396091 -18.589329 -18.640097
000050 41 ba 82 41 91 15 92 41 ac 61 89 41 ef f3 8f 41
       16.340944 18.26053 17.172691 17.994108
000060 f8 eb 91 c1 04 04 8b c1 5d 0e 83 c1 6a 7a 90 c1
       -18.24022 -17.37696 -16.382013 -18.059772
000070 0c 87 94 c1 ff ac 90 41 6c 6f 8e c1 df 83 88 c1
       -18.56594 18.08447 -17.804405 -17.06439
000080 17 49 82 41 a3 90 a2 c1 fb 2b 7d 41 6e 05 94 c1
       16.285688 -20.320623 15.823237 -18.502651
000090 4a 6c 87 c1 e7 95 9b c1 4e 2c 96 c1 34 4f 0b c1
       -16.927876 -19.448195 -18.771633 -8.706837

lstm.bias_hh_l0 f4 [40]
000000 2d e2 09 41 a6 6f 2a c1 d4 4a 7f c1 b5 b8 d3 40
       8.617719 -10.652258 -15.955769 6.6162972
000010 5d 2b 4c 41 b2 92 86 c1 92 28 41 41 bd 1b 92 c1
       12.760587 -16.821629 12.072405 -18.263544
000020 88 a5 96 c1 50 44 99 c1 00 84 87 c1 a9 da 8b 41
       -18.830826 -19.158356 -16.939453 17.481768
000030 05 98 3c c1 3c 55 71 c1 bb cd 90 c1 96 f6 8c c1
       -11.787114 -15.083309 -18.100454 -17.620403
000040 dd b7 8c c1 8f 6d 8e c1 7a 5f 94 c1 86 0d 98 c1
       -17.589777 -17.803495 -18.54662 -19.006603
000050 64 c3 82 41 90 4b 8e 41 1b 56 87 41 44 57 8f 41
       16.345406 17.786896 16.917044 17.91761
000060 76 93 8f c1 d0 6a 89 c1 1e 11 82 c1 ef fd 8e c1
       -17.947002 -17.177155 -16.258358 -17.873991
000070 66 30 94 c1 fc 54 8f 41 2b 4d 90 c1 57 99 88 c1
       -18.523632 17.916496 -18.03768 -17.074873
000080 f0 12 85 41 cc a7 a1 c1 a3 6a 7b 41 02 e7 90 c1
       16.634247 -20.206932 15.713534 -18.112797
000090 b8 35 89 c1 06 03 9f c1 0b b4 95 c1 1e cd 08 c1
       -17.15123 -19.876476 -18.712912 -8.550077

hidden_layer.weight f4 [10, 20]
000000 61 3e 97 c0 2c a4 8e c1 3d 57 b5 c0 53 34 0b c0
       -4.7263646 -17.830162 -5.666899 -2.1750686
000010 3c 76 86 41 5f 3d 4e c0 32 08 cf c0 d1 e1 0a c1
       16.807732 -3.2224958 -6.4697504 -8.680131
000020 b6 ca 81 c1 0e 5d 86 41 06 19 5b 40 e9 d1 db c0
       -16.22398 16.795437 3.4234023 -6.869374
000030 70 ae a8 c0 e1 10 90 41 0b fd 32 41 1e 0f 19 c1
       -5.2712936 18.008242 11.186778 -9.566191
000040 3e 1e 14 c1 04 2e 8c c1 e8 e8 4e 41 2a b1 43 41
       -9.257383 -17.522469 12.931862 12.230753
000050 aa 0e f0 40 45 62 78 40 8f 27 06 40 0d 76 92 bf
       7.50179 3.880998 2.0961645 -1.1442276
000060 95 f5 8e c1 7c dd de 40 72 07 93 c1 64 e1 8c 41
       -17.869913 6.9645367 -18.378635 17.610054
000070 a2 14 d3 c0 b6 f2 a4 40 2f 8f 9b c0 67 3e b7 bf
       -6.5962687 5.154628 -4.8612285 -1.4315919
000080 04 58 1a c1 d6 76 f0 c0 f9 a2 ce 40 21 1a 00 41
       -9.646488 -7.5145063 6.457394 8.006379
000090 23 2f 44 c0 b4 99 7d c1 4a 5c e9 40 f8 71 8b c0
       -3.065377 -15.850025 7.2925158 -4.357662
0000a0 59 25 99 40 ff ea 27 c1 e7 1a 53 c1 e4 26 13 c1
       4.785809 -10.494872 -13.194068 -9.196995
0000b0 0e 05 2a 41 85 b4 2f c1 57 ff 8d c1 9c ab 8a 41
       10.626234 -10.981572 -17.749678 17.333794
0000c0 e9 0c 3a 41 f8 d5 06 c0 69 13 0f c1 d8 ff 20 40
       11.628152 -2.1068096 -8.942239 2.5156155
0000d0 98 14 c4 40 1f e1 d1 be 6c 5d a0 40 d5 0a f1 40
       6.127514 -0.40992066 5.011404 7.5325723
0000e0 7b 35 ac c0 d9 56 d1 c0 f1 af 79 40 45 b9 65 41
       -5.3815284 -6.5418515 3.9013636 14.357732
0000f0 8b 46 02 c0 68 3c 4d 41 dc 4b 75 c1 2d a5 8c c1
       -2.0355556 12.827248 -15.33102 -17.580652
000100 a1 14 70 41 02 99 4c c1 9d 03 5d c1 4f 59 85 c1
       15.005036 -12.787355 -13.813382 -16.668608
000110 2c 0e 76 41 05 3b 89 41 78 25 4b c1 d3 5f ba 40
       15.37846 17.153818 -12.696648 5.8241973
000120 d4 6b 55 3f 97 6f 91 41 5e 48 7c 41 65 22 f7 40
       0.8336766 18.179487 15.767668 7.7229486
000130 7e 9a 6e c0 ba 40 4c c0 d3 02 3c 3f 8c bb 63 41
       -3.7281795 -3.1914506 0.7344181 14.233288
000140 53 34 91 c1 38 44 eb 40 94 b9 7a c1 de 66 64 c1
       -18.150549 7.3520775 -15.670307 -14.275114
000150 4a d1 1b 41 36 27 89 41 c4 80 52 bf 1c e1 8d 41
       9.738596 17.144146 -0.8222773 17.734917
000160 1e 20 92 41 1a 65 5e 3f 8b c1 3e c1 b7 8b ec c0
       18.265682 0.8687302 -11.922252 -7.392055
000170 73 89 a8 c0 f1 96 5e 40 d0 41 77 41 08 e6 3c 41
       -5.2667785 3.4779627 15.4535675 11.80616
000180 cb db 60 c1 c6 a8 88 c1 ba 7e ba 3f 1a fd 7c 41
       -14.05366 -17.082409 1.4569924 15.811792
000190 43 e2 8b c1 55 57 84 c1 1b 15 92 c1 77 f2 e2 bf
       -17.48548 -16.542643 -18.260305 -1.7730244
0001a0 9a 32 89 41 d3 99 e6 c0 6a 5b 94 c1 c6 c1 8e 41
       17.149708 -7.2062774 -18.544636 17.844616
0001b0 5f 2e 7e 41 bf 53 30 3e 30 26 c6 bf 14 21 d6 40
       15.886321 0.17219447 -1.5480404 6.691538
0001c0 df 0b 25 c0 d0 b2 7c 41 ca eb 51 41 75 f0 fb bf
       -2.5788496 15.793655 13.120066 -1.9682757
0001d0 fb 7f 24 c1 61 65 94 41 92 74 93 40 eb b3 6f 41
       -10.281245 18.549501 4.60798 14.981425
0001e0 4c 4a 8b c1 79 e6 88 c1 9d 53 02 41 93 44 7b c1
       -17.411278 -17.112535 8.145413 -15.704242
0001f0 93 83 a8 bf 9c f9 a1 40 61 bb 8f c1 15 21 8d 41
       -1.3165153 5.06172 -17.966494 17.641153
000200 e0 c5 65 c1 2b 8b 6d 41 e8 76 f6 40 e2 1d 89 c0
       -14.360809 14.846477 7.702015 -4.284898
000210 de cc 0e c0 ef f7 a5 c0 ae 03 62 41 e1 f7 a6 40
       -2.231254 -5.1865153 14.125898 5.2177587
000220 ae 70 b1 40 1e 1d 87 41 e8 84 a4 40 ba e7 7c 41
       5.545005 16.889217 5.141224 15.806574
000230 0c 22 d7 40 fb 3c 24 c1 97 34 4b c1 97 86 19 c1
       6.722906 -10.264888 -12.700339 -9.595359
000240 27 11 22 41 90 84 2c c1 ba c5 8c c1 40 1e 8c 41
       10.129188 -10.782364 -17.596546 17.51477
000250 78 0b 3d 41 48 39 55 c0 b5 e1 18 c1 41 a5 b1 bf
       11.8153 -3.3316212 -9.555104 -1.3878556
000260 a0 58 6e 40 e3 ab b6 40 52 b1 a8 40 13 e8 77 41
       3.7241592 5.7084823 5.2716455 15.494159
000270 bd 13 8c 3f e3 0e e3 c0 90 dc 0d 41 56 fa 6e 41
       1.0943524 -7.095567 8.866348 14.936117
000280 d6 39 95 c1 29 a5 44 41 9e ba 0c 41 34 e5 56 c1
       -18.65324 12.290322 8.795561 -13.430958
000290 01 64 24 41 7a 98 28 40 71 64 02 c1 db 36 91 41
       10.274415 2.6343064 -8.149522 18.151785
0002a0 ee 80 91 41 b1 f0 75 40 a6 92 8f c0 56 3d fa bf
       18.187954 3.8428156 -4.4866514 -1.9549968
0002b0 b8 82 b9 40 a9 51 24 41 ba d5 cb 40 6d a7 fa 40
       5.797207 10.269937 6.3698397 7.8329377
0002c0 eb 96 46 c1 db b8 29 41 df ce 27 c0 96 69 66 41
       -12.411845 10.607631 -2.6220014 14.400778
0002d0 9e 96 12 41 44 fa 1c c1 8c 22 4a c1 6a bd 0d c1
       9.161772 -9.8111 -12.633434 -8.858744
0002e0 0b 7c 8c 41 73 71 08 c1 9a c3 f1 c0 56 0c 25 c1
       17.560568 -8.527698 -7.555127 -10.315512
0002f0 1d b1 7d 41 07 85 82 c1 2c 5b 13 41 4c 4a 18 c1
       15.855741 -16.314955 9.209759 -9.518139
000300 d6 9a 48 c1 70 7b 4a 41 db 3a 3d 41 1a fe 4e c1
       -12.537802 12.655136 11.826869 -12.9370365
000310 43 52 57 c1 ab 28 bb 40 7c af f0 c0 25 dc a8 bf
       -13.457583 5.8487144 -7.5214214 -1.3192183

hidden_layer.bias f4 [10]
000000 5e 72 83 c1 a4 20 87 c1 37 3b 8d c1 c3 8f 93 c1
       -16.430843 -16.890938 -17.653913 -18.445196
000010 e9 ad 84 c1 a0 07 4e c1 6b 5e 89 c1 0a 4e 8c c1
       -16.584917 -12.876862 -17.171103 -17.538105
000020 d4 72 95 c1 dc 4a 87 c1
       -18.681068 -16.911552

output_layer.weight f4 [1, 10]
000000 bf 40 2d 40 6f 5b 06 c1 0f 0f df c0 32 ce 1b 3e
       2.7070768 -8.397323 -6.970588 0.15215376
000010 be a4 4c 41 76 85 3a 40 04 eb 7d 3f 05 4f d1 c0
       12.79022 2.9143958 0.9918673 -6.540896
000020 2d 7d a8 c0 bb 1d 15 c1
       -5.2652802 -9.319758
