pair_sampling/models/model_3.pt (torch_old, 6962 bytes, 8 tensors)

embedding.weight f4 [21, 10]
00000000: 0000 0000 0000 0000 0000 0000 0000 0000
00000010: 0000 0000 0000 0000 0000 0000 0000 0000
00000020: 0000 0000 0000 0000 32ac 2bbf 37d3 62bf
00000030: 0351 0040 2558 703f 69e3 3c3e c234 163f
00000040: 7d43 b23f 449e a6bf f866 4d3d 6657 c53f
00000050: 9e8a d63e a607 a93f 4399 f6be 8af5 7c3f
00000060: a1f4 083f d20f c8be 1135 00c0 d93f 0b40
00000070: 3543 4e3f 1bf1 e23e 70ed 86bf 6f0b 963f
00000080: 4e44 78bf 3178 b53f 8d4b 553f 016c 93be
00000090: 6d2c a6bf 0b4b 0f3e 40a1 4c3f fc06 80bf
000000a0: 3b77 cdbe b9f3 573f fcc6 8c3f 4c33 fcbf
000000b0: d36c 03bf 152a 8d3f 5489 b4be 15ca 1c3d
000000c0: a91b e73e d196 ae3f 60ec 12bf 08cc 35bf
000000d0: 3536 82bf 892e 07be 6289 0d40 9dce ab3f
000000e0: 3394 5cbe d838 12c0 6f9b d23e a191 163f
000000f0: 1905 b03f 4a11 40bf df97 cabe e928 d2bf
00000100: 6161 1f3f 8747 0c40 9ea5 b5bd 5945 0fc0
00000110: 4c46 993f 4ef9 3040 552f e73f 4d29 66bf
00000120: 538e ba3f d255 c13e 70f4 1a40 0cd5 41c0
00000130: f319 d93d f8ee abbe 2d9d 5f3f 87e4 fe3e
00000140: e6a0 5a40 25f1 9abf ab56 b93e 19d7 bd3f
00000150: 99ad 13c0 0d61 74be d3f7 53bf 560f 423f
00000160: e353 1abb a914 a73f 3ffe 2a3f 0417 5abf
00000170: 34d9 37bf 00d7 c83f f83c d43f 83c8 c6bf
00000180: 63f7 873e 3c03 b0bf 130b 58bf 47f8 03c0
00000190: bb92 4d3e 4ace f2be 0a3e 80bf e68f 073e
000001a0: 2ba8 c9be cd3c 543f cce2 fbbf b95a d8bf
000001b0: 6a72 7ebf e6f6 0ebf bab8 c03f af44 a03f
000001c0: b099 0dc0 faf8 3bc0 c141 b7bf 1cf7 d83e
000001d0: 68e0 24bf 41e9 1fbf a6a1 e53e 1a32 143f
000001e0: 758f d53f 017c 0abf 3b99 703f 87ca 66bf
000001f0: bb59 d5bf b85b efbe d60a 5abe 4c88 26bf
00000200: 6525 13c0 fe60 b93e 7e7c 233f 1867 223e
00000210: e1a4 7d3f 5405 31bf 219b 303f bc63 f6bf
00000220: 25d0 e2be 0a75 3a3f 7e08 39be 36e4 d1be
00000230: 5dbc 97be f3f9 7dbf b825 f0be 52ef 2d3e
00000240: 58eb 26be dc28 e63e ef7e 8a3e e915 d4bf
00000250: 98a7 29c0 90dc 88bd 2a67 f43d 7e01 53bf
00000260: 8eb2 8abe 3e39 f1bf 10f5 b8be 491e cdbe
00000270: 58f7 46c0 d446 cabe 2728 d7be d102 32c0
00000280: 2a97 d63e 319e 753f 8291 97be 3d3e b53d
00000290: 3aa9 273f 3454 3e3f 5a4e 39c0 f18b cd3f
000002a0: 8546 163e df0e 183f b1d0 43bf 5dc8 f1bf
000002b0: 9e88 45bf cfb6 ab3f d12e b7be 0935 28bf
000002c0: c653 41bf f045 5f3f dabc 5d3f b882 853f
000002d0: bd63 843f 6e35 1bbf f8a3 85bd 8a89 0240
000002e0: 9f94 8bbf 6f22 833f 561c 93be 4977 673f
000002f0: b297 00bf 8988 1f40 eed0 a23f e7f7 fe3f
00000300: 6b77 3b3f 1739 06bd 88e1 4e3d 2baa 0e40
00000310: 99fd b9bd 063e 373f 10f5 cb3e 8b4a 6fbf
00000320: d923 68bf 7451 36bf 383f 623f 1d62 d5bf
00000330: dc3e 673f 62f9 8e3f b1bb 0f40 e3c2 b23f
00000340: 8149 e63f 3676 3fbd
0.0 0.0 0.0 0.0 0.0 0.0 0.0 0.0
0.0 0.0 -0.67059624 -0.8860354 2.0049446 0.938845 0.18446125 0.5867425
1.3926846 -1.3017049 0.050147027 1.5417297 0.41902632 1.3205459 -0.48163804 0.9881216
0.53498274 -0.3907457 -2.003239 2.175772 0.805713 0.44324574 -1.054121 1.1722239
-0.96979225 1.4177305 0.83318406 -0.28793338 -1.2982308 0.1399347 0.7993355 -1.0002131
-0.40130028 0.84356266 1.0998225 -1.9703155 -0.5133793 1.1028467 -0.35261023 0.038278658
0.4513829 1.3639776 -0.5739193 -0.7101445 -1.0172793 -0.13201346 2.2115102 1.3422428
-0.21540909 -2.2847195 0.4113421 0.5881596 1.3751556 -0.7502638 -0.39568993 -1.6418735
0.62257963 2.1918657 -0.088694796 -2.2386076 1.1974578 2.7652164 1.806132 -0.8990677
1.4574684 0.37760788 2.4211693 -3.0286283 0.106006525 -0.33580756 0.87349206 0.49783728
3.4160705 -1.2104841 0.36198935 1.4831268 -2.3074706 -0.23865147 -0.82800025 0.7580465
-0.0023548536 1.305318 0.667942 -0.8519137 -0.718158 1.5690613 1.6581106 -1.5529941
0.2655593 -1.3750987 -0.843919 -2.0620286 0.20075504 -0.4742301 -1.0018933 0.13238487
-0.39386114 0.82905275 -1.9678588 -1.6902686 -0.9939333 -0.5584549 1.5056374 1.252096
-2.2125053 -2.9370713 -1.4316941 0.4237603 -0.64404917 -0.6246529 0.4484989 0.5788895
1.6684405 -0.54095465 0.9398381 -0.9015278 -1.6668009 -0.46749663 -0.21293196 -0.6505172
-2.2991574 0.36206812 0.63861835 0.1585964 0.9907971 -0.69148755 0.6898671 -1.9249187
-0.44299427 0.7283484 -0.18069646 -0.40994424 -0.29635897 -0.9920952 -0.46903777 0.16985825
-0.16300714 0.44953048 0.27049968 -1.6569186 -2.650854 -0.06682694 0.119337395 -0.8242415
-0.2708935 -1.8845594 -0.36124468 -0.40062168 -3.1088467 -0.39507163 -0.4202282 -2.781422
0.41912204 0.95944506 -0.296032 0.08849762 0.65492594 0.74347234 -2.8954072 1.6058332
0.14675339 0.5939769 -0.7649031 -1.8889271 -0.77161586 1.3415164 -0.35777906 -0.65705925
-0.75518453 0.8721609 0.8661629 1.0430517 1.0342938 -0.606284 -0.06525415 2.0396447
-1.090473 1.0244883 -0.28732556 0.9041639 -0.5023147 2.4927084 1.272001 1.9919404
0.7322909 -0.03276929 0.050508052 2.2291362 -0.09081573 0.71579015 0.39835405 -0.9347312
-0.906797 -0.7121804 0.88377714 -1.6670567 0.9033029 1.1169856 2.2458308 1.3965725
1.7991182 -0.046743594

lstm.weight_ih_l0 f4 [40, 10]
00000000: acb8 c63d 944e 9b3d 7187 143f 52f7 03bf
00000010: f8bf 353e 8d1c ed3d 89ac cb3e ba21 9a3e
00000020: c812 443f 9b5b 3b3e ca94 b03e 920b 0fbf
00000030: bc6c 7c3e 6179 13bf 437e bcbe 9cd5 1c3e
00000040: 1c87 b43e 896f 2a3e 50ef a33e 472b 723e
00000050: 2e71 823e 9f3d 133d 7646 b83d b5ae d13d
00000060: d55e 52be fb3c 1ebf f355 3f3d 4953 b53e
00000070: 379c 1ebf e17f ce3e c859 2a3f 4d29 013f
00000080: 8a52 113e 9cf7 9c3d 0a5e 9c3e 8cc7 8f3e
00000090: 6e94 40be 9b45 15bf a846 853a e96a c1bc
000000a0: 8ca6 7c3f f11b 03bf 87f4 4b3e 0305 553e
000000b0: 2b04 ddbb 8ae3 f73d 0a9f 3cbe a303 41be
000000c0: cf4e 18bf 14be 193f 6679 153e 440d e2bd
000000d0: 12aa 57be 547e 2dbf 6ee1 55be d5d6 5dbd
000000e0: 5ea2 a03e c6ad 17be 11b6 af3d afdd fa3e
000000f0: e96e 063f fcbc b43c 7b5a 933e ff38 88bd
00000100: dbd1 d2bc c6fc 513e afdc 9b3e 164d 2bbc
00000110: 59f9 d43e b34b d9ba 771e dc3e b15d a03e
00000120: 7b35 293f bd0b 71be 56a8 d93e 0914 8a3e
00000130: 9ccb 243d 4497 eebd 7de6 a43e f1b3 ba3d
00000140: 152c 2bbf 0bd8 22be a1f8 fd3d 815c 0e3e
00000150: b854 cbbd 9cfd 82be c5ac 00be df43 2bbe
00000160: 71fb 6dbd d638 01bf f275 063f b218 1c3e
00000170: f079 7abe 6fa6 13bf 2f59 0fbf feb2 a2be
00000180: a5ec 9bbf e9cc 083e 56f5 53bd ef91 7fbe
00000190: ebb8 e9be 744d dbbe 73fe 2dbe 15e6 bf3e
000001a0: f1a5 2ebf 7bde 2a3e c352 19be d479 26be
000001b0: 9a02 15bf 2155 3d3f 8087 d53e d0b6 13bf
000001c0: dafe 85bc e14d 9bbe 396a d0bd b39a ac3e
000001d0: 71e8 063e 534e bbbe 7f98 9e3b f67c 403d
000001e0: d35f c43d 4f8d c7be 1b8e 38bf c3a6 f4bd
000001f0: ba20 82be bfb4 213f 4110 56be 1b38 83bd
00000200: ff20 30be b7fb 553d 147c 0a3e e695 a4bd
00000210: 11b7 893e 0161 0ebe 500c 15be 11e9 0bbe
00000220: eef8 b8be 89e6 f0be 2e26 0dbe ec65 ed3e
00000230: f767 b83e dd68 d53e 7248 e53d 750f 44be
00000240: dcca 263f 4905 f13e 996a d23e da90 d6be
00000250: abcb 8d3e a940 3a3e da7b e8be ed47 e73d
00000260: a7fc f83e b8a7 473e 2bc5 53bf 6950 0e3f
00000270: efc9 1d3f 1193 2a3d 2daa 38bf 1b36 cebd
00000280: 9c2c 713e 64e4 ce3e 8694 033e 8545 23be
00000290: 4840 eebe d994 4a3f fd6c 0f3f da0f 26bf
000002a0: ece7 6ebf f803 a0bd 1bd3 04bf baa6 d4bd
000002b0: 2390 74be 6ffe 323f bd78 a0be ac6a 2c3f
000002c0: 0a79 d3be 8fff be3e f258 9bbd 6da5 433d
000002d0: 8194 2dbe 1bd7 4b3d 3186 27bf 82b4 6abf
000002e0: d64d 043f 5c84 29be d21c c23e d11b 66be
000002f0: f998 143e da8b 773e b700 f7be fd24 673d
00000300: 69a3 153f f857 473f eab3 5d3f 42ec e73e
00000310: bc2b 2d3e 59c6 773e 8980 b0be 5421 59bf
00000320: 8f5f 82bd f028 843e 2708 8a3e 5c75 e9be
00000330: f85b 853e b0c1 01be 4be3 e23e 3430 1c3f
00000340: 851b 4c3d c97e 93be 7627 18bf ac12 05bb
00000350: 26c7 383e b91a 92bd 37c0 aabd 9f86 38bb
00000360: 160d 4f3e 5cc0 463a 7440 223d 5663 53bd
00000370: 99a4 b8be 4e59 293c a2ae 1abe 1bdf 2f3f
00000380: 560e 273f c7c9 0cbe df8d bf3e efde 9fbe
00000390: bcee 433e f0a8 6bbd 39ad 143e 654e f8bb
000003a0: 8424 3d3d ec7e 2f3f 2537 ab3e 552f ba3c
000003b0: 1ecd b63d b569 4f3e 94ee 0bbd d0e6 ad3e
000003c0: c107 fa3e 5e74 2ebe 2408 133f 67d7 133e
000003d0: bd16 45be 5376 913c 6f67 56bd 7a7a 4abe
000003e0: ae33 c8bd 8dd6 48be f862 e9bd 21c7 55bd
000003f0: 8fe6 873e 6479 3b3f 674b 4d3e 12b7 0bbf
0.09703192 0.07583347 0.5801917 -0.51549256 0.17749012 0.11577711 0.3978007 0.30103856
0.7659116 0.18296663 0.34488517 -0.5587703 0.24650854 -0.57607085 -0.3681508 0.1531586
0.3525933 0.1664411 0.32018518 0.23649321 0.25476974 0.03594744 0.08997814 0.10238401
-0.20543988 -0.618118 0.046712827 0.35415104 -0.61957115 0.4033194 0.66543245 0.50453645
0.14191642 0.07664415 0.30540496 0.2808193 -0.18806621 -0.58309335 0.0010168152 -0.023610549
0.9869163 -0.5121451 0.19917499 0.20802693 -0.0067448816 0.121039465 -0.18420044 -0.18849044
-0.5949525 0.6005566 0.14597091 -0.110376865 -0.2106097 -0.67770886 -0.20886776 -0.054159958
0.31373876 -0.14812383 0.08579648 0.48997256 0.52512985 0.022062771 0.2877997 -0.06651496
-0.025734833 0.20506582 0.30441806 -0.01045539 0.41596487 -0.0016578346 0.42991993 0.3132148
0.6609723 -0.23539634 0.42511243 0.2696841 0.04023324 -0.116499454 0.322071 0.09116352
-0.6686414 -0.15902726 0.12400938 0.13902475 -0.09928268 -0.25584114 -0.12565906 -0.1672511
-0.05810112 -0.5047735 0.5252372 0.15243796 -0.24460578 -0.5767583 -0.5599546 -0.31777185
-1.2181593 0.13359417 -0.051747642 -0.24958013 -0.45648894 -0.4283253 -0.16991596 0.37480226
-0.68221956 0.16686432 -0.14972977 -0.16257411 -0.58207095 0.7395802 0.4170494 -0.57700825
-0.016356874 -0.30332854 -0.1017651 0.33711776 0.13174607 -0.36583194 0.0048399563 0.046994172
0.095885895 -0.38974997 -0.72091836 -0.1194587 -0.25415593 0.6316642 -0.20904638 -0.06407186
-0.17200087 0.052242007 0.13523895 -0.08036403 0.2689748 -0.13904192 -0.14555478 -0.13663127
-0.36127418 -0.47050884 -0.13784096 0.46366823 0.3601682 0.41681567 0.111954585 -0.19146521
0.6515329 0.47074345 0.41096953 -0.41907388 0.2769445 0.18188728 -0.4540699 0.11293016
0.48630258 0.19497573 -0.8272273 0.55591446 0.6163625 0.04164416 -0.7213467 -0.100689135
0.23552173 0.40408623 0.12849626 -0.15944488 -0.46533418 0.79133373 0.5602568 -0.6486794
-0.93322635 -0.07813257 -0.5188462 -0.10383363 -0.23883109 0.69919485 -0.31342116 0.6735027
-0.41303283 0.3730435 -0.07585324 0.047765184 -0.16951181 0.049765687 -0.65439135 -0.91681683
0.5168127 -0.16554397 0.37912613 -0.22471549 0.1451148 0.24174443 -0.48242733 0.05643176
0.5845247 0.77868605 0.8660265 0.45297438 0.16911215 0.24196757 -0.34473065 -0.8481648
-0.063658826 0.25812483 0.26959345 -0.4559735 0.2604673 -0.12671542 0.44314036 0.6101105
0.049830932 -0.28807667 -0.5943521 -0.0020305319 0.18044719 -0.07134003 -0.08337443 -0.0028156412
0.20219836 0.00075817644 0.03961225 -0.051608406 -0.36063078 0.010336233 -0.1510568 0.68699807
0.6525625 -0.13748847 0.37412927 -0.31224772 0.19134039 -0.05753416 0.14519204 -0.0075777047
0.046177402 0.6855304 0.3344051 0.022727648 0.08925842 0.20255168 -0.034163073 0.33965158
0.4883404 -0.17036578 0.57434297 0.14437638 -0.19246955 0.017756617 -0.052344736 -0.19773284
-0.09775482 -0.19613095 -0.1139583 -0.052191857 0.2654309 0.732321 0.20048295 -0.5457622

lstm.weight_hh_l0 f4 [40, 10]
00000000: 1dc4 9abf 83e8 bbbe ca4f ae3e df3f 1abe
00000010: 4f9c 3a3f 5148 54bc 26da e9be 7880 cb3c
00000020: 5524 c63e 44ca 813e 32cd a2be b078 26bf
00000030: cd62 673e 8c00 a2bd 04d3 c53e 28f9 25bf
00000040: c537 673f d2a0 123e bae9 223f e63f c0be
00000050: 4264 513f 6701 4c3d 0faa 183e 3a39 0f3f
00000060: bcac 9cbd 1284 babe 78f9 8d3a a3e6 bf3d
00000070: 50ab 7f3d 9022 7a3e 72ef e53c ac20 3fbf
00000080: cae1 8cbe f29f eb3d daaa 34bf 9ba3 02bf
00000090: 0a7e a5be 7b2b 6f3f 9dcd 5dbe b77b 75bf
000000a0: ff67 84be ceaa 26bc 7541 a0be 4aec f13d
000000b0: c05d ecbe 6376 2b3e 55be 69be fc0b 913e
000000c0: c1f3 31bf 765c dd3e 6e7b 5ebf 483b 2abf
000000d0: dddc 1fbf 640d 853f d542 5ebd 59d6 c5be
000000e0: 361b aa3d 6737 733f f816 b2be 8e92 043f
000000f0: a444 65bf b1aa a4be 4d1e b33e a220 f23e
00000100: 1e2a e33e 3f3c d2be 0730 b4be 717b bb3e
00000110: f9fc d43d ffb6 c33e 2a0a e3bd e61f e5be
00000120: 493b 3b3e 76dd 823f 14b8 efbd 5960 c9be
00000130: f28c 1a3e 796e 5e3f 5c66 f8be c80c 453e
00000140: b7c8 9bbe ccab 71bf f2b7 71bf 6561 6dbd
00000150: 8a11 5d3f b3a2 c43d 6d35 9dbf f582 ac39
00000160: 2865 01bd 085d d43e 962e c5bf 87d6 00bf
00000170: f5c0 08bf c2da 6e3e cd4c 1c3f d5f5 173d
00000180: 131a e2be 1cb4 433f 4231 a6be a327 403b
00000190: d6a2 4dbe b7cf d8be 5015 3bbe aa03 30be
000001a0: 996a 023e ae97 043f 0da4 623d 1427 f33d
000001b0: 4fa1 ae3d 0e8c de3e b051 1dbf 29ac dbbe
000001c0: 32c1 c33e 7fc4 5a3e 418c 843f 0bf7 a6be
000001d0: 3787 4bbe 6c99 e13e 781e 553f a161 74be
000001e0: ca84 503f 50d7 0b3d 1b42 fbbd b478 463e
000001f0: 3eea 723e 4368 03bf 2d9d 4b3e 440f 453e
00000200: e6e6 dbbd ffee 473e 407c c83c 3a7a acbe
00000210: d0d4 95be 9375 01be f05f b93d d7f8 18bf
00000220: 90b5 143f 2453 56bb 0a01 ef3e 8bb7 eabc
00000230: c93d 293f 2fd9 debe 696a 42bd 3966 903d
00000240: d712 db3d 4a6c a2bb 1e0d 5abe 2157 573e
00000250: e6d2 44be ec48 863f c2ca 16be d2d4 09be
00000260: 1c01 9a3d 711f 673e 8b08 01bf c563 45be
00000270: d6db 09be 2c26 443e 69f5 a33e 5169 0abf
00000280: 4cb7 e53e a798 29be ad44 44be 9a30 d33e
00000290: 99e9 c2be 2675 0e3e f608 8d3d 69be 4e3e
000002a0: e3a0 a4be 9f52 92be 5be2 233e 24fb 25be
000002b0: 8810 283e 8952 043d 8967 a33d 7551 4cbe
000002c0: 19d5 103f 09b5 973e 0251 693e cc24 313f
000002d0: 3c3a 543f 05c2 93be 76b7 223f ecb6 1f3e
000002e0: 30f4 d2bd 2027 91bd 130c e3be acf4 03bf
000002f0: 8d33 8d3e e9a2 05bf e818 5c3f 8e8b 9bbe
00000300: 4331 92be 8b0f 5e3f e25a 23bf a183 13bf
00000310: 6603 0a3e e301 4b3f f98a 2d3f 73ae 0c3e
00000320: e486 31be 2d85 433f daa4 143f 23a7 813e
00000330: 767f 2bbd 9987 4d3e 63f0 57be da32 9c3d
00000340: adc2 d33e 9281 87be e994 43bd 7197 913e
00000350: 6d57 5abe 6c73 223d 6efa 4cbf 697b 053f
00000360: 1940 c2be e252 463e db5f 96bf dc13 5f3d
00000370: 33b9 c13e 3f21 4d3e 30f0 c4be 5e58 b63e
00000380: 6f87 1d3f f5cc db3e 5e44 adbe 33d0 c5be
00000390: 440f 64bd ba8a 0fbf 7804 cb3d 37e1 8d3e
000003a0: a944 0abe 32bd 493e 0066 ca3e d318 32be
000003b0: 26f2 57be dc88 493f 59cc 1c3e e2a4 333d
000003c0: 9861 6f3e 2f3d 1dbf 011f b6be 9dd7 42be
000003d0: aa0d 0d3f c145 a4be d9c7 7d3e d93b 5c3e
000003e0: 1d0c f3bd 7354 21bf 68f4 6a3c d637 ca3e
000003f0: ee4a bb3d 6451 283e 42cf 123f 8309 853e
-1.2091099 -0.3670083 0.3404525 -0.15063427 0.7289476 -0.012956695 -0.45674247 0.024841532
0.38699594 0.2534963 -0.31797177 -0.65027905 0.22596283 -0.079102606 0.38637555 -0.6483331
0.9031947 0.1431916 0.6363789 -0.3754875 0.81793606 0.049806025 0.14908622 0.55946696
-0.07650134 -0.36428887 0.0010831794 0.09370162 0.062419236 0.24427247 0.028068278 -0.7465923
-0.27516013 0.115051165 -0.705732 -0.5103089 -0.32322723 0.9342572 -0.21660466 -0.958919
-0.25860593 -0.010172559 -0.3129994 0.11812647 -0.46165276 0.1674438 -0.22826512 0.28329456
-0.69512564 0.43234605 -0.8690709 -0.66496706 -0.62446386 1.0394711 -0.054262955 -0.38640097
0.08305971 0.9500641 -0.3478315 0.51786125 -0.8955786 -0.32161477 0.34984055 0.47290522
0.4436807 -0.4106159 -0.35192892 0.36617616 0.10399813 0.38225552 -0.11085923 -0.447509
0.18284334 1.0223835 -0.11705032 -0.3933132 0.15092829 0.8688732 -0.48515594 0.19243157
-0.3042657 -0.94402766 -0.94421303 -0.05795421 0.8635489 0.09601345 -1.2281929 0.00032903967
-0.03159061 0.41477227 -1.5404842 -0.5032734 -0.5341943 0.23325637 0.6105469 0.037099678
-0.44160518 0.764467 -0.32459456 0.00293205 -0.20081648 -0.42345974 -0.18269849 -0.17188898
0.12735976 0.51793945 0.055332232 0.11872688 0.08526861 0.43466228 -0.6145277 -0.42904785
0.38233334 0.2136402 1.0355302 -0.32610354 -0.19875799 0.44062364 0.83249617 -0.23865367
0.8145262 0.034140885 -0.12268468 0.19381982 0.23722169 -0.51330966 0.19884177 0.19244105
-0.107374 0.19524764 0.02447331 -0.33687 -0.29263926 -0.12642507 0.09051502 -0.597547
0.5808954 -0.0032703364 0.4668048 -0.028651973 0.661099 -0.43525073 -0.047464762 0.070507474
0.10696953 -0.0049567567 -0.21294066 0.21029331 -0.19221076 1.0491004 -0.14725783 -0.13460091
0.07519743 0.22570588 -0.5040366 -0.1927634 -0.13462767 0.19155186 0.3202317 -0.5406695
0.44866407 -0.16562138 -0.19166823 0.41248018 -0.38068846 0.13911876 0.06886475 0.20189823
-0.32153997 -0.2857866 0.16004317 -0.16209084 0.16412556 0.032305274 0.07978732 -0.19952948
0.5657516 0.29630306 0.22784808 0.6919677 0.8290136 -0.28858963 0.6356119 0.15597123
-0.10300481 -0.070875406 -0.4434515 -0.51545215 0.27578393 -0.52201706 0.85975504 -0.3037991
-0.2855321 0.86742467 -0.6381055 -0.57622725 0.13477859 0.79299754 0.6779018 0.13738422
-0.17336613 0.76375085 0.58064044 0.25322828 -0.041869603 0.20071258 -0.21087794 0.07626887
0.41359463 -0.26466042 -0.047749434 0.28435853 -0.21322413 0.039660856 -0.80069625 0.52141434
-0.37939528 0.19367555 -1.1748003 0.0544623 0.37836608 0.20032214 -0.384645 0.35614294
0.6153478 0.42929807 -0.33841223 -0.38635406 -0.05567862 -0.56071055 0.09912962 0.27710888
-0.13502754 0.19701079 0.39530945 -0.17392282 -0.21088466 0.78724456 0.15312327 0.043858416
0.23377073 -0.61421484 -0.3557053 -0.19027562 0.55098975 -0.32084468 0.24783267 0.21507205
-0.11867545 -0.63019484 0.014340498 0.39495724 0.09145151 0.16437298 0.573475 0.2598382

lstm.bias_ih_l0 f4 [40]
00000000: 01a8 ca3d cd43 163f 502c a33e a724 503e
00000010: 59bb cbbd 8dc0 b13d 022e 2a3f 6b08 d13e
00000020: dce0 193f 8146 9b3b 0268 62be a07f 893e
00000030: a10c 95be 3992 a13e a530 bbbd 8364 723e
00000040: 1ea1 5ebd 4757 09bd 2410 813d 7fa4 8f3e
00000050: cd85 aebe 3d94 14bf 693e 3abe b32d ebbd
00000060: 389b c9bd 51b5 f5bd d714 3d3e 2677 993d
00000070: 1f2c a3bd deb8 5a3e 421b dc3e f902 ae3e
00000080: 38c6 933e 7df9 833e ca25 f63e 8701 ff3b
00000090: 1ef4 a63e 38d2 793e 47f1 803e 5dd2 443f
0.098953255 0.58697206 0.31869745 0.20326482 -0.09947843 0.08679304 0.6647645 0.40826735
0.60108733 0.0047386293 -0.22109988 0.26855183 -0.29111198 0.31556872 -0.091401376 0.23671155
-0.054352872 -0.0335305 0.06301907 0.28055188 -0.34086457 -0.58038694 -0.1818787 -0.11483326
-0.09844059 -0.11997474 0.18464981 0.07493429 -0.079674 0.21359584 0.42989546 0.33986643
0.28862166 0.25776282 0.48075706 0.0077821645 0.32608122 0.24396598 0.2518408 0.7688349

lstm.bias_hh_l0 f4 [40]
00000000: 5190 7c3c ab88 1c3f ba3a 003f f4ff e73d
00000010: dfe8 c43e 2b43 e73e 4e75 1c3e da83 993e
00000020: 428f 803e 58ad 18be c35d 243d aa7b a03e
00000030: c096 41be 6201 c93e 48cf af3e 6914 3fba
00000040: b383 4cbe 7009 343e af00 48be 47cf 803e
00000050: bfc8 dcbd 2f5f d1be 1cdf fabd 4ef0 db3d
00000060: 2478 a6bd d975 2c3e 9f61 a5bd c9e8 4d3c
00000070: fc47 643e e49d 843e 528c b23e 8edc c33e
00000080: af10 9a3d 8315 913e 2ca4 543f 17ff 973d
00000090: 4cc0 f0bd 1641 0b3f b94f 0a3f 9a37 8c3e
0.015415267 0.6114604 0.5008961 0.11328116 0.38458917 0.45168433 0.15279123 0.29983407
0.25109297 -0.14909875 0.04012848 0.31344348 -0.18905163 0.39258868 0.3433783 -0.0007289113
-0.19972114 0.17581725 -0.19531511 0.2515814 -0.10780477 -0.40892932 -0.12249586 0.10739194
-0.08128384 0.1684183 -0.0807526 0.012567707 0.22293085 0.2590171 0.3487268 0.38254207
0.075227134 0.28336725 0.83063006 0.074217014 -0.11755428 0.5439619 0.540279 0.2738617

hidden_layer.weight f4 [10, 20]
00000000: 9d4d 80be 17ce b53c 9a25 9cbe afc3 cd3d
00000010: e204 aebe ea06 0cbf be10 673e ed1e fb3e
00000020: c582 f4bc fe01 0bbe 61a5 94be 1b7e 9e3e
00000030: de19 a0be 7b57 a2be 3820 813e d1cb 22be
00000040: 237b 22bd b88d 39bf 5035 91be 282a 6f3e
00000050: 9c96 003b a43b f1bc 9f89 863e 7c6d e83d
00000060: 9de7 e43e f1cd 32bd fd8d 1b3d bc2a 7abd
00000070: 993f 223f 497a 78be 68b6 12be 4987 acbe
00000080: c51d 6fbd a716 cfbe 9d02 203f 7e79 a43d
00000090: 2a4c 49be a5c8 65be c446 c23e 362e cebe
000000a0: bed9 debd 36dc 5f3e ec8d 9bbe 361e f8bc
000000b0: 3597 e2be f7cf b43e d004 acbe a5c9 033e
000000c0: 1d56 ddbd e45c 32bc f4f9 87be c2a7 a9bc
000000d0: eed7 223f da8e 303e d51c eebc 0f95 1c3f
000000e0: b284 b2be 1fd4 813d 1778 783e f4eb 41be
000000f0: a2fb 173f b9cd e33e d6b5 8d3d 2060 9c3e
00000100: ab99 173e 3d50 513d 2573 f93e 14de 353d
00000110: 404a e63e 9098 f1bc c0dc 6d3d 4f06 db3e
00000120: 6e01 cebd 820d 603e fb2b 71be 4145 46bf
00000130: 0486 c43e e5e3 053e 9137 1dbf b9b5 253f
00000140: 8d52 d2bc c07d 243d 1f3c 20be 3f35 95be
00000150: 1bfb f2be 2242 f53e baa5 edbe dbe1 80be
00000160: ce30 18bf 8fcc 1a3e 43f9 923e d50a c93e
00000170: 4d78 7cbe b82f d53e 9b49 6f3e 8fdb 2bbf
00000180: 605b 05bb 06be 2bbd 3537 e6be bc41 003f
00000190: d40b f4bd 346c 363d 2873 9c3d a1c6 debe
000001a0: d3ee e43e 7f76 803e 337a 50be 199e 75be
000001b0: df4d df3c 0bd3 96be d956 ca3e fce6 e73e
000001c0: efc7 80be 8a92 003d 53e0 8dbe ff7f 89be
000001d0: d65d 1c3f 67ca 293e 78e8 20be 441f dfbd
000001e0: 756e b2bd 7f92 c93c 3bc0 bebe d67f b13e
000001f0: d5d4 59be fb73 7dbf 438b 203f e245 263f
00000200: 874e 433e d826 38bf 3d04 fbbd d9b3 4cbe
00000210: e1c2 8e3f 80bf 07bf 0889 313e 98d6 823f
00000220: c0c2 aabd bec3 babe b15d bf3e 4ec1 ccbe
00000230: d548 48be cc85 2fbe a21f c7be 5c3d 1ebe
00000240: 1a34 d1be 74e1 a83d 9d5b 8c3c 5510 5ebc
00000250: 9bc7 e4be fc0b 8a3d e24c c6be bd85 ffbe
00000260: 124f af3d 47dd 0f3e 14fa 8c3e c2d8 813e
00000270: 599c 2ebe de8e bbbe 9228 013e 292d 4bbe
00000280: e95f 01bf 7bdb ed3d 842d 96be 59eb 4cbe
00000290: ac18 15bf 7d25 233f b9d2 e6be e9a4 b8bc
000002a0: acf9 60bf 7ee3 083f dd84 0a3e 11f7 153f
000002b0: 89e4 173d fcfa 8b3e 079c ac3e f33b 36bf
000002c0: 3b9d 7e3e dd88 203e baaf 14bf 95bf f53e
000002d0: 04cf ccbd 13a2 88bc a55c 0c3f 2352 573d
000002e0: 0e76 e23d b4c5 e03e 1a95 03be 20cc 8cbe
000002f0: 9d4a debd ac3a 863d 096d 893c 4ad5 143e
00000300: 1cb2 0abe e0c7 d8be 680f b0be e0e8 b8be
00000310: a532 b83e 1cec f23d 08e6 24bd 7718 d5bd
-0.25059214 0.022192998 -0.30497438 0.10047089 -0.339881 -0.5469805 0.2256498 0.49047032
-0.029847512 -0.13574979 -0.29032424 0.30955586 -0.31269735 -0.31707367 0.25219893 -0.15898062
-0.039668214 -0.7248187 -0.28360987 0.23355925 0.001962102 -0.029447384 0.26276872 0.113490075
0.44707957 -0.043653432 0.037977207 -0.06107591 0.6337829 -0.24265398 -0.14327395 -0.33696964
-0.058378 -0.4044697 0.6250399 0.08030985 -0.1965796 -0.22439821 0.37944615 -0.4026963
-0.10881375 0.21861348 -0.30381715 -0.030287843 -0.44255987 0.35314915 -0.33597422 0.1286989
-0.108074404 -0.010886405 -0.26557887 -0.020709876 0.6361073 0.17241994 -0.029066483 0.61164945
-0.34866863 0.06339287 0.2426456 -0.18937665 0.59368336 0.4449289 0.06919448 0.30542088
0.14804713 0.05110191 0.4872066 0.044401243 0.44978523 -0.029491693 0.05807185 0.4277825
-0.100588664 0.21880153 -0.23551933 -0.77449423 0.38383496 0.13075216 -0.6141291 0.6473041
-0.025674129 0.040158987 -0.15647934 -0.29142186 -0.47457203 0.47902018 -0.46415502 -0.25172314
-0.5944947 0.15117095 0.28705797 0.39266077 -0.24655266 0.4163797 0.23367922 -0.67131895
-0.0020348653 -0.041929267 -0.44963995 0.501003 -0.119163185 0.044536784 0.07639152 -0.43510917
0.44713458 0.25090405 -0.20359115 -0.2398609 0.027258812 -0.29457888 0.39519385 0.45293415
-0.25152537 0.03138975 -0.27710208 -0.26855466 0.6108068 0.16581117 -0.1571368 -0.10894635
-0.08712474 0.024605988 -0.37256035 0.34667844 -0.21272595 -0.990051 0.62712497 0.6495038
0.19072925 -0.7193427 -0.12256668 -0.19990481 1.1153222 -0.5302658 0.1733743 1.0221739
-0.08337927 -0.36477464 0.37376168 -0.3999123 -0.19559033 -0.17140883 -0.3889132 -0.15453094
-0.40860063 0.08246127 0.017133528 -0.013553699 -0.44683537 0.06740567 -0.38730532 -0.49906722
0.08560003 0.14049254 0.27534544 0.25360686 -0.1705183 -0.36632437 0.12613133 -0.19841446
-0.5053697 0.11614128 -0.293316 -0.20011653 -0.5824077 0.6372908 -0.45082644 -0.022539573
-0.8788097 0.53472126 0.13527246 0.5858012 0.037083182 0.27339923 0.3371279 -0.71185225
0.24864666 0.15677209 -0.5808064 0.47997728 -0.100004226 -0.016678846 0.54828864 0.052568566
0.110576734 0.43900836 -0.12849846 -0.27499485 -0.10854075 0.065541595 0.016775625 0.14534488
-0.13544506 -0.42339993 -0.34386754 -0.3611517 0.3597614 0.118614405 -0.040258437 -0.10405057

hidden_layer.bias f4 [10]
00000000: e9e0 ac3d ada2 aabd 7996 b03d ba0c 96bd
00000010: 3ba0 4ebe 694f cd3d 6cac a43d bb13 b93e
00000020: 7cfc 50be 3dbc 46bd
0.08441336 -0.08331809 0.086224504 -0.07326646 -0.2017831 0.10024912 0.08040699 0.36147866
-0.20408815 -0.04851936

output_layer.weight f4 [1, 10]
00000000: 4628 583f 803f c8be c4d2 d93e 52b3 6e3f
00000010: cb26 8cbf b617 e43e 5504 edbf 60d9 0f3f
00000020: b4a6 99bf d9b4 4ebe
0.8443645 -0.39110947 0.42543614 0.9324237 -1.0949339 0.4454934 -1.8516947 0.5619106
-1.2003999 -0.20186175
