pair_sampling/models/model_b50.pt (torch_old, 6962 bytes, 8 tensors)

embedding.weight f4 [21, 10]
00000000: 0000 0000 0000 0000 0000 0000 0000 0000
00000010: 0000 0000 0000 0000 0000 0000 0000 0000
00000020: 0000 0000 0000 0000 7a50 a33f 7dc0 df3e
00000030: 4e90 66bf f1ed 713f c8e1 c23d 46e7 783f
00000040: 9fe2 c4bd 03e6 7240 7217 f73f 153f ac3e
00000050: 00e0 86bf 62b3 dc3f 855e 70be 62f7 96be
00000060: c537 d03f 1449 a8bf c68e 9abf 8586 a0be
00000070: c859 d8bd ac21 1abf d5d1 ba3c 0103 003f
00000080: 665e 0540 059c 1b40 05a7 d8bf 5ae8 943f
00000090: 35aa 503f 27ee a63e 48ee 9fbd 1ac1 bdbe
000000a0: 7d01 7b3e 5bad 23bf 63dd 99bf 2b02 04bf
000000b0: 44af 05c0 d862 2340 e91b c7be a188 8cbf
000000c0: 4ccd 4b3f fc37 853f 1fc5 8fbf dda8 cd3c
000000d0: 1be9 653f c07b 19be 2c8b 113e 9ecc eebf
000000e0: e15f 5b3f 5d5d f2be b364 8e3f 6549 cc3f
000000f0: 7d3b 4ac0 fe3b 95bf f9e2 f4bf d2db 0e40
00000100: 3e09 aa3d 6839 f13f 728b 8fbf 8fd4 aa3f
00000110: 48de 54be cab8 2ac0 176e 3f3f 81b2 713e
00000120: f061 17c0 0e90 23be 4372 103f 3dda 85be
00000130: c2fc 80bf 4ddd babe cc63 2dbf f351 8a3f
00000140: fa34 d83d 7b3c 31c0 b21f 38c0 72d1 ad3f
00000150: 51b5 593f 3e58 1d40 e932 9d3f b953 32bf
00000160: 7306 ca3f 3179 3fbe b3dc 20c0 d062 ddbf
00000170: 56e1 b7bf 6f38 a13e 84a0 3f3e bc60 8dbf
00000180: a3dd 0d40 1a80 1fbf 61d3 b7be 5d50 7340
00000190: 9dbd 543f 52fc 79bf 900a bebd 9e0e 2e3f
000001a0: 7def a03f b98b e3bf 9a48 0e40 3d5a fd3f
000001b0: 207c 053d 79a5 e5be 6e61 c8bf c412 bc3e
000001c0: 2931 8fbf ad2c 37bf d9b2 16c0 4050 0840
000001d0: b7f7 7c3f b20c 2240 7601 b5bf d4d3 0fbf
000001e0: f016 78be 2753 b83f c74c 2f40 be7d b83f
000001f0: f2f3 473f 0f2f 413f a0d0 a9be aef1 5c3f
00000200: 2d68 43c0 dc65 ab3f 589b dbbf 28a6 3a40
00000210: 30fa b63e 03a9 10be 91ce 2abf cd8b a0bc
00000220: d79c 27be ea0b 213f bc97 c53f 76b5 0640
00000230: 23f2 cc3e 60c6 0dc0 6f77 d6bd 1af7 22c0
00000240: 7dfd 75bf 9519 bbbf 187d 3cbc a811 863d
00000250: 0969 f53e efd4 cbbe 4098 fc3f dc18 3d3f
00000260: 0792 3dbf 039c cd3f 8875 f73e ccd5 5cbf
00000270: 68c6 a0bf b668 88bf b796 263f 1dd7 933e
00000280: dffc 373f 27ad e8bf b20b 903f 0c70 9cbf
00000290: c578 203f 8f97 0040 10b5 b6bf c99b df3f
000002a0: a0f7 b43e 717b b9bd b29d d43f 0c12 ba3f
000002b0: fcb0 08bf 97e0 82be b024 b2be beed 7cbf
000002c0: 73e9 783e e934 48be d73f b2bd b344 e0bf
000002d0: 1178 2cc0 d49a a83e 1815 823d 883a f43f
000002e0: 8318 d4bf e313 4e3d 0fd7 913f c7f3 b83e
000002f0: 1f5a 2ec0 7e48 81be 2cc8 323f 56c1 fa3e
00000300: 5d5c e43f 2c7f eb3e 00cc 3fbf 523d c3bf
00000310: 7d94 343f 86bf 00bf 7cb1 aa3e 2f14 29bf
00000320: 6047 1fc0 89f9 243e 25cc e63f fee0 86bf
00000330: fa41 993e 4f00 0c40 d84f 4e3e 068a 553f
00000340: 3357 9c3f 2497 cabf
0.0 0.0 0.0 0.0 0.0 0.0 0.0 0.0
0.0 0.0 1.2758934 0.43701544 -0.9006394 0.94503695 0.095157206 0.97227895
-0.09613537 3.7952888 1.930403 0.33641878 -1.0537109 1.7242243 -0.23473556 -0.29485613
1.626702 -1.3147302 -1.2074821 -0.3135263 -0.105639994 -0.6020763 0.022805134 0.50004584
2.0838866 2.4313977 -1.692597 1.1633408 0.81509715 0.3260357 -0.078091204 -0.37061387
0.24512286 -0.63936394 -1.2020687 -0.5156581 -2.0888224 2.552908 -0.3888848 -1.0979196
0.79610133 1.040771 -1.1232032 0.025104934 0.89808816 -0.14988613 0.14213246 -1.8656194
0.85693175 -0.47336856 1.1124481 1.5959898 -3.1598809 -1.1658933 -1.9131767 2.2321668
0.08302544 1.8845644 -1.121443 1.3346118 -0.20787919 -2.6675286 0.7477736 0.2360325
-2.3653526 -0.15972921 0.5642435 -0.26143065 -1.0077136 -0.36496964 -0.677304 1.0806259
0.105569795 -2.7693164 -2.8769345 1.3579543 0.8504229 2.4585109 1.2281162 -0.69659
1.5783218 -0.18698575 -2.5134704 -1.729578 -1.4365642 0.31488368 0.18713576 -1.1045146
2.2166526 -0.6230484 -0.35903457 3.80178 0.83101827 -0.97650635 -0.092793584 0.67991054
1.2573086 -1.7777015 2.2231812 1.9793164 0.032589078 -0.44852808 -1.5654733 0.36733067
-1.1186877 -0.71552545 -2.354666 2.129898 0.9881548 2.5320249 -1.4141071 -0.561826
-0.242275 1.4400376 2.739061 1.4413373 0.78106606 0.7546243 -0.3316698 0.86306274
-3.0532334 1.339046 -1.7156782 2.9163914 0.35737753 -0.14126973 -0.66721445 -0.019597912
-0.16368423 0.62908804 1.5436931 2.1048255 0.40028486 -2.2152328 -0.10471999 -2.546332
-0.9608992 -1.4617182 -0.011504434 0.065463364 0.47931698 -0.39810893 1.9733963 0.7386606
-0.74050945 1.6063236 0.48331857 -0.8626373 -1.2560549 -1.0656955 0.6507372 0.28875056
0.71870226 -1.8177842 1.1253569 -1.2221694 0.6268428 2.0092504 -1.4274006 1.7469417
0.35345173 -0.09056748 1.6610625 1.4536757 -0.53395057 -0.25561973 -0.34793615 -0.98800266
0.24307804 -0.19551434 -0.08703583 -1.7520965 -2.6948283 0.32930624 0.063516796 1.9080362
-1.656998 0.050311934 1.1393756 0.36123487 -2.7242506 -0.2525062 0.6983669 0.4897563
1.7840687 0.45995462 -0.74920654 -1.5253088 0.70539075 -0.5029224 0.33338535 -0.6604642
-2.4887314 0.16110815 1.803105 -1.0537412 0.2993315 2.1875188 0.20147645 0.8341373
1.2214111 -1.5827374

lstm.weight_ih_l0 f4 [40, 10]
00000000: df52 fd3e 9ef8 05bd 1c7a 81be 2d00 01be
00000010: bae0 893f 51b5 52bc 2aac 82bf c945 f4be
00000020: 4028 bebe 77a5 383f 4cde 79bf 4e4a febd
00000030: f537 c1be e51b 2dbe 9702 033f 8abc 213f
00000040: 84d2 56bf b505 5c3f 0a66 ed3e b456 86bf
00000050: bf2a 8ebe 0777 c6be 6dfc a8be ca11 6c3f
00000060: ef51 e7bc 9965 52be ecd9 a2be 272a d9be
00000070: 1014 5dbe a4bb 933e 06ec 5f3f 7c69 833f
00000080: e251 40be 2467 e43e 455b 043f fe86 483f
00000090: 3843 b1bf c957 1bbf 4d2f c43e dd9c 60bf
000000a0: e4d0 acbf 4cba b73f 36a2 99bf b83e 653f
000000b0: be44 333f df97 893e 89a4 45bf cd36 603f
000000c0: ded8 663e 0596 a43f 3e61 193f 5f52 d1be
000000d0: 0572 273f b9f6 dabd c30b 1fbe d0bc 8ebe
000000e0: ca67 95bf 8bb1 6a3f 04c9 1abd 5016 603e
000000f0: 4a14 ebbe a910 e03e 77fd 053f 193d 95be
00000100: aadc 38bf f20b f7bb f8db a7bd e957 403e
00000110: 102d abbe f7d4 97bd d85c c83e 2c20 f23e
00000120: 3722 533f f6e9 a5be 11a4 47be f8e3 b6be
00000130: 46c3 393f 7c8a 323f 7d53 a53f 0db2 89be
00000140: 9493 893e 373b 06be 2de1 38be 5311 323e
00000150: e0c3 043f 7bf6 e53e ee96 d03d aeca 503f
00000160: ee8c 1440 7c66 1dbe aaa2 773e e378 79be
00000170: bb9c a5bf 57e7 08be 2672 52bf a303 d9be
00000180: c415 d2be d31f 29bf 1909 d4be 6574 99be
00000190: 2d05 42bf e937 2abf 8b00 32bf a011 12be
000001a0: 91a6 52be c041 9bbe 8b42 103e e356 1fbf
000001b0: bb43 24bd 955e babd 9dca bf3d f278 cf3e
000001c0: c905 8dbd 8f93 63bd 340f 61be 4b50 4abf
000001d0: dd3a 54be ab3c 503f b1b8 093f dc44 1e3f
000001e0: bf87 903d efbb ffbe a39e aa3d 3284 39bf
000001f0: 564f 5ebf c3c4 5d3e 22d8 cd3e fc53 0c3f
00000200: 68e6 743e 1bfd 173f d23a 7e3e 0dd1 95bd
00000210: bead 95be a6fa bebe 1e1a 29bf 8e15 b63e
00000220: 9e9b 2b3e 6164 4abf 3990 28bf 1db2 0f3f
00000230: a06f 0bbf 9d78 80bf 9189 ffbf 08d6 5dbe
00000240: dde9 573f 1b3e fcbd 2597 9d3e 0203 1f3f
00000250: 21fd c4bc 13bf 323f 2b7d 0ebf 0a90 de3e
00000260: 1ead 983f 1e45 5abe fec4 81bd 3570 cebc
00000270: 785b 813f 6f06 a93e b4e1 6e3f 9fc4 07bf
00000280: 3303 11bf 2f42 ffbe 3651 c43f aba8 51bf
00000290: b2e3 22bf 56c8 283d dd59 bcbd 4102 9a3e
000002a0: a67e 1bbf 3eec b6be 43c6 dfbf ea66 8c3e
000002b0: d00d 853c 0bbd 5b3d 9a90 8f3f 418a a13f
000002c0: 2389 193e eff2 3f3f 4398 f7bf 7cf8 a1be
000002d0: e4ee 8c3f 1d17 28bf 4147 acbe aed9 fa3d
000002e0: 45ee d1bd 5ce0 893e 935d 8abe 07fe 9f3f
000002f0: 6f7d b93e 051b f7bd 6949 bdbe 0471 15bf
00000300: 8b73 c2bd d860 fbbd c4ce 223f b1d6 5bbf
00000310: 1762 723e 4710 353f fa4e f13e cae8 1a3f
00000320: 6960 b63e d4d7 c53e a175 623f 46cc 853d
00000330: dfcd 833f 4b01 41bf ca7e 00bf e0a0 acbe
00000340: 2d33 93be a8d1 783e bdb7 2a3f e539 cebd
00000350: 8008 21bf 9157 023e 9b04 1c3f 3b00 cabe
00000360: 898b 0bbe ea78 a6be ffef df3e 7a6c d6bd
00000370: 10bc eb3e 52f2 2f3f 6807 a53e 6fdb c0be
00000380: eec8 033f 6c58 89bf 17c2 89bd 6772 61bf
00000390: 4851 213e 37a2 03bf 35ac bfbe ffce b03d
000003a0: eb29 24bf d2db 0e3f f77d f63d 7e96 073f
000003b0: 8cfd 6d3e 3875 3f3f 6d5c 0f3e c770 d9bd
000003c0: f48c 723f 6d42 ecbe 62a8 43be 0887 543d
000003d0: 3cae 473f 7e5b db3c e9a1 87bf f145 233f
000003e0: b836 eb3e 8f13 cabe e1c0 17bf 5ec5 e33d
000003f0: 5aaf 073f dbfc 4e3e 2238 463e 5a46 6abe
0.49477288 -0.032707803 -0.25288475 -0.12597723 1.0771706 -0.012860612 -1.020879 -0.47709492
-0.37140083 0.7212748 -0.97604823 -0.12416516 -0.37738004 -0.16905172 0.51175827 0.6317831
-0.8391497 0.8594621 0.46366912 -1.049521 -0.27766988 -0.38762686 -0.33005086 0.92214644
-0.028237311 -0.20546569 -0.31806886 -0.42414972 -0.21589684 0.28854096 0.8746952 1.0266566
-0.18781236 0.4460994 0.51701766 0.7833098 -1.3848639 -0.60680825 0.38317338 -0.87739354
-1.3501248 1.4353728 -1.2002628 0.89548826 0.7002677 0.2687368 -0.77204186 0.8758362
0.22543666 1.2858282 0.59914005 -0.40883157 0.65408355 -0.1069159 -0.1553183 -0.27878428
-1.1672299 0.9167716 -0.03778936 0.21883512 -0.45913917 0.4376271 0.5233988 -0.29148176
-0.72211707 -0.007539266 -0.081962526 0.18783535 -0.33432817 -0.07413667 0.39133334 0.4729017
0.8247408 -0.3240506 -0.1949618 -0.357208 0.7256359 0.6974256 1.2916104 -0.26893654
0.26870406 -0.13108526 -0.18054648 0.17389421 0.5186138 0.44914612 0.101850376 0.81559265
2.3211017 -0.15371126 0.24183145 -0.24362521 -1.2938455 -0.13369499 -0.82205427 -0.42385587
-0.4103223 -0.66064185 -0.4141319 -0.29971614 -0.7578915 -0.6649156 -0.6953208 -0.14264536
-0.20571353 -0.303236 0.14087884 -0.62241954 -0.040103655 -0.09100071 0.09364817 0.4052196
-0.06885869 -0.055560645 -0.21978456 -0.7902877 -0.2072558 0.8134257 0.5379744 0.6182382
0.070571415 -0.4994807 0.08331039 -0.7246734 -0.8683981 0.2165709 0.4020396 0.5481565
0.23916018 0.59370583 0.24827126 -0.07315264 -0.29234117 -0.37300605 -0.66055477 0.3556332
0.16758582 -0.79059416 -0.65845066 0.56131154 -0.544672 -1.0036808 -1.9963857 -0.21663678
0.8434122 -0.12316533 0.30779377 0.62113965 -0.024046483 0.69822806 -0.5565974 0.43469268
1.1927831 -0.21315429 -0.063364014 -0.025199989 1.0106039 0.3301272 0.93313146 -0.53034395
-0.56645507 -0.49855182 1.5337284 -0.8189799 -0.63628685 0.04120668 -0.091968276 0.30079845
-0.60740125 -0.35727113 -1.748238 0.27422267 0.016241938 0.053647082 1.1216004 1.2620317
0.1499372 0.7498006 -1.9343342 -0.3163489 1.1010404 -0.6566027 -0.33648112 0.1224855
-0.102505244 0.26928985 -0.27024516 1.2499398 0.3622851 -0.120657004 -0.3697007 -0.58375573
-0.09494694 -0.12274331 0.6359675 -0.8587447 0.23670231 0.7072796 0.47130567 0.6051146
0.3562043 0.38641226 0.8846074 0.06533103 1.0297202 -0.753926 -0.50193465 -0.33716488
-0.28749982 0.24298728 0.6668661 -0.10069636 -0.62903595 0.12728716 0.6094453 -0.394533
-0.13627447 -0.32514125 0.4373779 -0.10469909 0.46041918 0.68729126 0.32232213 -0.37667415
0.5147847 -1.0730109 -0.06726473 -0.8806519 0.15753663 -0.51419395 -0.3743607 0.08633231
-0.6412646 0.5580417 0.12035745 0.5296401 0.23241252 0.74788237 0.14000101 -0.10617214
0.9474633 -0.4614443 -0.19107202 0.05188659 0.78000236 0.026777025 -1.0596286 0.637786
0.45940185 -0.39468047 -0.59278685 0.11121629 0.5300194 0.20213644 0.1935735 -0.228784

lstm.weight_hh_l0 f4 [40, 10]
00000000: e009 93bf adbf 3a40 3b54 3a3f 5e44 ac3f
00000010: 882e e03f 9770 b43e 5cff 7f3f 5535 ea3f
00000020: d223 833e b735 6abf 892f 493e 60b7 943f
00000030: 61ec 50bd b54b 8e3f b102 a93f bbbb 82be
00000040: 0363 94be 269e 483f 771e 693f b22c a53f
00000050: 2974 5ebf ed4f ebbf 4c42 2e3e 7f87 a73f
00000060: 8ac2 a33f 72c1 0fbf f556 3ebf 36a8 0c3f
00000070: e79a 863f e615 a5bf 132e 633f c140 bfbf
00000080: 3a86 57be 952c ec3f 329d 8c40 f9f8 10bf
00000090: 7ee8 893f 99d5 d3bd e7f9 df40 1bb4 37bf
000000a0: 1813 213f e8db 0a3e d530 98bd a0ee 2d3f
000000b0: 69b8 523e 20dd 8dbf 759e cebf 6ac8 983e
000000c0: 4ab4 b53e c2c9 9f3f 2e17 09bf 59bc bbbe
000000d0: 580a 7b3f 8803 2940 f4ac 8040 28ac 5d3d
000000e0: 6e70 893e 0ee6 af3f f75a 2340 17f5 3f3f
000000f0: 2168 3d3e 0cda 693e ec02 8c3e 7cc4 83bf
00000100: 2acb 04bf f15a 223e 862c c63e 53f8 813e
00000110: 007e 793f 1bf8 09c0 1b93 34be 7223 3f40
00000120: 2a6b 1a3f b4e7 ea3f 93d2 1840 301d fa3f
00000130: 39b5 493f 2b32 d13f 4403 4340 3d07 dc3d
00000140: f520 763e 5c80 03c0 4f94 8cbe 5ff4 fbbf
00000150: 9416 5b3f 7c2f 85bf 657a 403f 59a6 6f3f
00000160: 2b34 aa3e 059d 07c0 525c a1bd c51a 70bf
00000170: 5ed2 d63f 80fa 123f 247c c53f ca19 533f
00000180: bf76 2e40 786d ea3f 9dd9 1f3f 3d4c a2bf
00000190: d993 bfbe e0e2 a3be 51b2 983e 4a59 26be
000001a0: dfb4 94bf 6697 31bf 946f 82be 1671 473f
000001b0: 5d65 103f 9bc6 493f 3a9c cebe 084d f6be
000001c0: dfec bdbe c1d8 143f adcd b3bf ac00 05bf
000001d0: 5fde a83e a3fb 7cbd f7a5 b83d 7799 7cbf
000001e0: 7230 cd3e 8c0c 10be 52fc 45bf 1fed 45bf
000001f0: 6901 55bf 11c4 a63f c939 6dbe b491 bebf
00000200: 8aca 813e bf5c ad3d 750a 6e3e 5778 1340
00000210: bddb 81be 7cb4 8bbe 7871 053f cce3 bd3f
00000220: 3ff9 f6bf a444 b53f 568e 24bf cbbe 9e3e
00000230: e0a3 da3d 35c9 7abf 5544 b5bf df62 26bf
00000240: f867 98bf a448 8c3f 5670 0fc0 d1bb 0740
00000250: 7c55 f7be 523e 0ebf d63e 5c3f a3c0 3f3e
00000260: 1284 0640 3af1 b83e 6d6a 35bd ed63 c93e
00000270: a52b 8abf ecca 773d 457a 123e 4eb1 9fbe
00000280: 1239 963e e7e0 473d b0dc 2ebb 5e8c bb3e
00000290: 49ee 823d 9446 203f 1f35 473d 6bb3 8d3d
000002a0: 5f61 8c3f e2de 42bf 3134 36bf 15ec 2cc0
000002b0: 4d1d e73e b3d6 933f 73f5 b7bf ab1a a7bf
000002c0: 6835 b1be cce1 bebf 00bb ed3e 70eb 19c0
000002d0: 04f7 bfbe 724e b43d 3d00 803e 6d77 4e3f
000002e0: e43d 1a3e da40 b8be 2927 d2bf 91fb e23f
000002f0: eada aa3d b1f4 ab3f 1e4f c13d d6aa 2abd
00000300: a48e 00be dbf0 813f bdf0 39be 914c b53f
00000310: 2686 8dbc f144 c43f 9209 aa3f c628 9c3f
00000320: b919 abbe 5639 4b3f 8c9b 293f 613b 8cbe
00000330: 5831 9d3e 8ac3 0640 5c77 0d3f 18b3 ddbf
00000340: 1c20 533f b4c0 1c3f 5239 4cbe c71e 27bf
00000350: 115b 333e 9abf e3be eb8a 5dbf 6f14 233f
00000360: 5b41 adbe f103 dfbe 112a 9e3c 9caa 3fbf
00000370: aba5 25bf c864 88bf 6a0d d63f a64e e2be
00000380: bf13 9e3f 9d92 423f e696 8ebf 43dc db3e
00000390: a323 db3e b403 a33d 86c7 10bd fe97 d6bd
000003a0: 72f8 32bf ce8d 8ebb bf2f 9b3e 502d 383a
000003b0: abd3 b3bf 0361 cc3f 6258 bebf ba7a 79be
000003c0: 2fb9 3bbf d780 683e 43be b6bf 7a42 1bbf
000003d0: 8ab6 99bf ac65 003f ad5d 94be cd7e 68bf
000003e0: 7373 9ebd 6e08 f3be 0f35 72bf d6a0 0b3f
000003f0: ef21 903e 2dfc 42bf 043d 6fbf c746 afbd
-1.1487389 2.917949 0.72784775 1.3458364 1.75142 0.3524215 0.9999902 1.8297526
0.25613266 -0.9148821 0.1964704 1.1618462 -0.05100668 1.1116854 1.3203946 -0.25533852
-0.2898179 0.78366315 0.9106211 1.2904265 -0.86895996 -1.8383766 0.17017478 1.3088225
1.2793744 -0.5615455 -0.74351436 0.5494417 1.0516022 -1.2897308 0.8874218 -1.4941636
-0.21047297 1.8451105 4.394189 -0.566299 1.0774076 -0.10343475 6.9992557 -0.71759194
0.6291976 0.1356045 -0.07431189 0.6794224 0.2057816 -1.1083107 -1.6142107 0.29840404
0.35489112 1.2483447 -0.53550994 -0.36667135 0.9806266 2.6408405 4.0211124 0.05411926
0.2684359 1.3742082 2.552427 0.7498335 0.18496753 0.22837085 0.2734598 -1.0294337
-0.51872504 0.15855004 0.38705844 0.2538477 0.97457886 -2.1557682 -0.17634241 2.9865384
0.6031977 1.835196 2.3878524 1.9540157 0.7879215 1.6343435 3.0470743 0.10743568
0.2403601 -2.0547094 -0.274569 -1.9683951 0.85581326 -1.0405116 0.7518676 0.936132
0.33242926 -2.1189587 -0.07878937 -0.9379085 1.6782949 0.5741348 1.542851 0.82461226
2.7259977 1.8314657 0.62441427 -1.2679516 -0.37417486 -0.3200903 0.29823545 -0.16244999
-1.1617697 -0.6937164 -0.25475752 0.7790693 0.5640467 0.7881867 -0.40353566 -0.48105645
-0.3709478 0.5814324 -1.4047142 -0.5195415 0.32982156 -0.061763417 0.0901603 -0.9867167
0.40076023 -0.14067286 -0.77338135 -0.77314943 -0.83205277 1.3028585 -0.23166575 -1.4888215
0.25349838 0.084649555 0.23246177 2.30422 -0.2536296 -0.27286136 0.52126265 1.4835143
-1.9294814 1.4161572 -0.6427969 0.31004938 0.10675788 -0.9796327 -1.4161478 -0.64994615
-1.1906729 1.0959668 -2.2412314 2.1208384 -0.48307407 -0.55563843 0.8603338 0.18725829
2.101811 0.3612154 -0.04429095 0.3933405 -1.0794569 0.060496256 0.14304455 -0.3118996
0.29340416 0.048798468 -0.0026681833 0.3663053 0.063931055 0.62607694 0.048634645 0.06918987
1.0967215 -0.7612134 -0.7117339 -2.7019093 0.45139542 1.1549896 -1.437178 -1.3055013
-0.34611058 -1.4912658 0.46431732 -2.404995 -0.37493145 0.08804025 0.25000182 0.8065098
0.15062672 -0.35986978 -1.6418201 1.7733022 0.08342536 1.3434049 0.094389185 -0.041666828
-0.12554413 1.0151628 -0.1815824 1.4163991 -0.017275881 1.5333539 1.3284171 1.2199943
-0.33418062 0.7938436 0.6625297 -0.27389053 0.3070171 2.1056848 0.5526025 -1.732028
0.8247087 0.6123154 -0.19943741 -0.6528134 0.17515208 -0.44482118 -0.86540097 0.63703054
-0.33838925 -0.43557695 0.019307168 -0.74869704 -0.64705914 -1.0655756 1.6722844 -0.4420063
1.2349776 0.76004964 -1.11398 0.42941484 0.42800626 0.07959691 -0.03534653 -0.10478209
-0.6991035 -0.0043504005 0.30309865 0.0007025795 -1.4048971 1.5967106 -1.4870722 -0.24363223
-0.7332944 0.22705398 -1.4276813 -0.6064831 -1.2008832 0.5015514 -0.2897772 -0.9081848
-0.07736864 -0.4746737 -0.9461221 0.5454229 0.2815089 -0.7616604 -0.9345248 -0.085584216

lstm.bias_ih_l0 f4 [40]
00000000: d79f 243f e1c5 483f 1ee4 10bd 4302 ef3e
00000010: ba29 b0bd 1f2c a83f 3c87 cd3e 15e0 b43f
00000020: 34c4 503f 7111 3e3f f0c4 423f 6075 5e3d
00000030: 4040 9a3e b792 003f a3b0 38be febc 86bd
00000040: a675 be3e de5e 80bf 0252 0dbe 793d 1d3f
00000050: 2cc5 5d3d ba8a 143f ef8e 12bf 4666 1c3f
00000060: b2bf 39be 4df3 69be 9ec3 423d 16a5 9c3e
00000070: 47e9 b33e 6b35 8ebe 3cca 6b3f 3176 8a3f
00000080: ef35 213f d08d 843f cf3a ad3f 5025 9e3f
00000090: 97be c03f c72a 163f 9b10 403f b21b cd3e
0.64306396 0.7842694 -0.0353738 0.46681413 -0.08601709 1.3138465 0.40142238 1.4130884
0.8154938 0.74245363 0.7608175 0.054311156 0.30127144 0.5022387 -0.18036132 -0.06579016
0.37199134 -1.0028951 -0.13800815 0.61421925 0.054143116 0.5802418 -0.5724935 0.61093557
-0.18139532 -0.22846718 0.047549836 0.305947 0.35138914 -0.2777513 0.9210546 1.0817319
0.6297292 1.0355778 1.3533572 1.2355137 1.5058163 0.58659023 0.7502534 0.40060192

lstm.bias_hh_l0 f4 [40]
00000000: 57f7 283f 7ec9 013f 3ce1 ae3d ad3b 783d
00000010: b0dd 063d 12ae b33f 72d7 143f e104 ca3f
00000020: 7a6f 623f f9e3 1a3e 7c2a 4e3f 2d0c 053f
00000030: 9126 a73e fc14 703e 84d5 66be 7aa2 bd3e
00000040: bfeb 8b3e 3262 95bf 6d22 903e 50ca 203f
00000050: f3b2 ed3e 2eb2 4c3d f8b3 aabe 9f0c 033f
00000060: 4885 f2be 0ad7 eb3d 7f98 543c 6abc 473e
00000070: 6ed3 b03e 1410 c13d 0059 823f c6f4 593f
00000080: 8d99 003f 3247 943f 5704 be3f 1821 b43f
00000090: 45c0 9e3f 1a52 ee3e 1ba2 3e3f 84db c53e
0.6600241 0.5069808 0.08539054 0.060603786 0.03292626 1.4037497 0.58141243 1.5782739
0.8845135 0.15126027 0.80533576 0.51971704 0.3264661 0.23445505 -0.22542387 0.37038022
0.27328297 -1.1670592 0.28151265 0.62808704 0.4642559 0.049974613 -0.3334043 0.51191133
-0.4736731 0.11515625 0.012975811 0.19505468 0.34536308 0.09426895 1.0183411 0.8513912
0.502343 1.1584227 1.4845074 1.40726 1.2402426 0.46547014 0.74466103 0.3864404

hidden_layer.weight f4 [10, 20]
00000000: f03d 223f 3cdd 8dbd 4a96 9e3e 06d7 143f
00000010: 2dab ea3e 8b2a 1fbf 9efe d6be b553 cdbe
00000020: 94fd f73d 97d7 3bbe ed78 eebf 4cc5 96bf
00000030: ea21 e63e 77c9 d9bc 47b4 53bf 819c f03e
00000040: f6f8 923e 67a9 3e3f eae0 44bf 069c cfbe
00000050: 0eb7 473f 6ba8 90be 8745 22bf aa83 d13e
00000060: bcef 533e d0cc 033e 71b1 45bf e815 0ebf
00000070: 7956 943f 64bf 71bf 8f7e 7c3f e544 c63d
00000080: fca9 0a3f 7ce3 74bd 5e1c 36bf 81fe 29bd
00000090: 922e babf cc22 68bf 2562 273f 169d e13e
000000a0: 6326 d3be cb8e f8be d209 39bc 10ce 893f
000000b0: a34e 423f 927a 30bf 5f88 92be 15d2 04bf
000000c0: 2cc9 013f 0435 da3e cc69 783e eed6 f33e
000000d0: 6bb4 0b3f c867 2ebf a26e 7abf e621 c63f
000000e0: e8ae abbf 4825 67bf eaef c23d 0869 4a3f
000000f0: fb9c d4be 2190 99bf 278b 1dbe deb5 133f
00000100: e1af 613f 8c78 bcbd 5214 10bf 67b7 a6be
00000110: 7511 223f a29c c63e 6ab0 aebd 8a99 5bbf
00000120: 6872 30be 0735 1b3f d85d cbbf 2cb8 8c3f
00000130: 1bbb debd ac1b d5bd 6764 4cbf 7000 d43c
00000140: 66d6 2f3d bf23 abbd 60cd 76bc 5026 a1be
00000150: 4a77 8cbf 9eff 44bf 673a eb3e a1e1 9fbe
00000160: 0fb4 acbe 7f77 5f3c ee9d 573e 1ee4 97be
00000170: 3ea0 98bf 1ff4 a5be 08e6 133f c086 3dbf
00000180: e914 283d 6c6a 9cbe 94af 073f 6ac2 583f
00000190: 3f22 823e 7705 8b3f 2b97 1b3d 8a68 8cbe
000001a0: 6a13 dfbe e623 38bf 71db 8abd af45 823f
000001b0: 9358 6fbf 21d4 0c3f b0cf a23d 917e 913e
000001c0: 67c3 503f 1e54 0ebf 95a1 af3d 93af a5bf
000001d0: 0d85 78bf ef74 aabf d514 4c3f cd59 af3f
000001e0: f3a1 40bf cd88 37bf 9524 243e 5930 d33f
000001f0: d57a b93f 0a4d 0fbd 0d65 cdbe 5166 8dbe
00000200: 6ad0 a63f 2a42 62bd f897 153f 74c9 35bf
00000210: 2897 83bf 71a6 8bbf 6044 f3be 712d d6be
00000220: 1045 44be 5370 5a3f 37ec 433f 7fd6 5d3f
00000230: 7477 ccbe 5da2 b7be f547 ba3f 47eb 243f
00000240: b8f8 883f 5baa 6d3f 1208 1fbe 944e 8abe
00000250: 125b 2ebf b63c 99bf 5b44 9cbf c67e 0fbf
00000260: 4df2 3d3d 4e3b 7f3f 9ea9 56bf ddc6 313f
00000270: 80c1 b6be 865c 4e3f 37d3 87bf c8aa 95bf
00000280: f27e ec3e e126 8fbe 47db 7fbf e09d 393f
00000290: 4413 48be 9650 04bf afb2 95bf dea5 80bf
000002a0: c11e 823f 34d9 dabe 6c63 c63e efa5 54bf
000002b0: e077 353f afaa 8abe a9ae 7f3f 83a3 313f
000002c0: 8398 a8be aeb9 3bbe 1901 303e 6741 3b3f
000002d0: 322d 853f 2102 8cbe 7d53 c8bf 5a47 91bf
000002e0: 0b8e f7be ff56 c1bf 382f 13be c717 05be
000002f0: 38ba f83e c2a0 a33f 767b be3f 8777 853e
00000300: 2dce f63e 925e 3c3d 9555 f9be a366 2ebc
00000310: 75bf aebf ae2d e6bf 592a 5e3f 5a82 533f
0.6337576 -0.06926963 0.30974036 0.581406 0.45833722 -0.6217429 -0.41991132 -0.40102926
0.12108913 -0.1834396 -1.8630654 -1.177896 0.4494775 -0.026585324 -0.82696956 0.46994403
0.28705567 0.7447724 -0.7690569 -0.40548724 0.78013694 -0.28253493 -0.6338734 0.40920764
0.2069692 0.12871099 -0.7722388 -0.55502176 1.1588889 -0.94432664 0.98630613 0.09681109
0.54165626 -0.05978726 -0.71137035 -0.04150248 -1.4545462 -0.90678096 0.6538413 0.4406516
-0.41240224 -0.48546442 -0.011293845 1.076601 0.7590124 -0.6893703 -0.28619668 -0.5188306
0.5069759 0.42618573 0.24259108 0.47624916 0.5457217 -0.6812711 -0.9782506 1.5479095
-1.3412752 -0.9029126 0.09518416 0.79066515 -0.41526017 -1.199711 -0.15385114 0.5769938
0.88158995 -0.0920268 -0.56281006 -0.325618 0.6330789 0.38791376 -0.08529742 -0.85781157
-0.17231143 0.6062779 -1.5888014 1.0993705 -0.10875531 -0.104056686 -0.798407 0.025879115
0.042929076 -0.083564274 -0.015063614 -0.31474543 -1.0973904 -0.7695254 0.45942995 -0.3122683
-0.33731124 0.01363933 0.21056339 -0.29666227 -1.1923902 -0.32412812 0.57772875 -0.7403374
0.041035566 -0.30549943 0.53002286 0.8467165 0.25416753 1.0861043 0.037985962 -0.27423507
-0.435695 -0.71929777 -0.067801364 1.0177516 -0.9349453 0.55011183 0.079497695 0.28416875
0.8154816 -0.555971 0.08575741 -1.2944206 -0.9707802 -1.3316935 0.7971929 1.369928
-0.75247115 -0.71693116 0.1602958 1.649913 1.449061 -0.03498558 -0.40116158 -0.27617124
1.3032353 -0.05523888 0.5843501 -0.7101052 -1.0280504 -1.0910169 -0.47513103 -0.41831544
-0.1916697 0.85327643 0.7653231 0.8665542 -0.39934886 -0.3586606 1.455321 0.64421505
1.0700903 0.92838067 -0.15530422 -0.27013075 -0.6810771 -1.1971653 -1.220836 -0.56052816
0.046373654 0.99699867 -0.83852565 0.69444066 -0.35694504 0.8060993 -1.0611333 -1.1692743
0.46190602 -0.2795935 -0.99943966 0.72506523 -0.19538599 -0.51685464 -1.1695155 -1.0050619
1.0165635 -0.42743838 0.38747728 -0.83065695 0.7088604 -0.27083346 0.99875885 0.69390124
-0.32928857 -0.1833255 0.17187919 0.7314667 1.0404418 -0.27345374 -1.5650479 -1.13499
-0.48350558 -1.5104674 -0.14373481 -0.12997352 0.48579574 1.2783434 1.4881427 0.26067755
0.48204175 0.045988627 -0.48698106 -0.010644588 -1.3652178 -1.798269 0.8678337 0.82620776

hidden_layer.bias f4 [10]
00000000: 4b99 f53c 0a5d 013f 06f9 a63d 15f3 5ebe
00000010: 7b47 80bf 6e29 a2be 6748 9cbd 1b22 56be
00000020: 8da2 f43e e6d9 06be
0.029980322 0.5053259 0.08152966 -0.21772416 -1.0021814 -0.31672233 -0.07630997 -0.20911448
0.47780266 -0.13169059

output_layer.weight f4 [1, 10]
00000000: 9636 a13f 9553 ce3f dab4 1940 c6b4 ac3f
00000010: e413 883f 6e3b 0740 de6b f1bf 1211 f5bf
00000020: 9aa1 bebf 514c 63c0
1.2594783 1.6119257 2.4016633 1.3492668 1.063107 2.1130023 -1.8861043 -1.9145834
-1.4893067 -3.551533
