pair_sampling/models/s_model.pt (torch_old, 6962 bytes, 8 tensors)

embedding.weight f4 [21, 10]
0	0x00000000	0.0
1	0x00000000	0.0
2	0x00000000	0.0
3	0x00000000	0.0
4	0x00000000	0.0
5	0x00000000	0.0
6	0x00000000	0.0
7	0x00000000	0.0
8	0x00000000	0.0
9	0x00000000	0.0
10	0xbf3b1353	-0.7307636
11	0xc019e501	-2.4046023
12	0x3fbc1a09	1.4695445
13	0xc015cc58	-2.3405972
14	0x3f907c9a	1.1288025
15	0xc0218f07	-2.5243547
16	0xbf3ebd7b	-0.74507874
17	0xbfa4635b	-1.2842821
18	0xbfbd66fc	-1.4797053
19	0xbe3040ba	-0.17212191
20	0xbdcda519	-0.100412555
21	0xbf4eeca0	-0.8082981
22	0x3e3e6eb0	0.18596911
23	0x3f9815fd	1.188171
24	0xbedaebf7	-0.42758152
25	0x400b4e27	2.176645
26	0xbea5e244	-0.3239919
27	0xbf769078	-0.9631419
28	0xbe5c30fd	-0.21503063
29	0x4013b908	2.3081684
30	0x3fd085e6	1.6290863
31	0x3e4130eb	0.18866317
32	0xbf4ce02d	-0.80029565
33	0x3ed79a4d	0.4210991
34	0x3f03a960	0.5143032
35	0x3ed2622d	0.41090527
36	0x3faaef9a	1.335437
37	0x40083f1e	2.1288524
38	0x3fbdfa93	1.4842094
39	0x3ebc3b8b	0.36764178
40	0xbd24aa5d	-0.040201534
41	0x3f44417f	0.7666244
42	0xc03d03ac	-2.953349
43	0x3f0c873f	0.5489387
44	0xbfcbc885	-1.5920569
45	0x3fedade4	1.8568692
46	0xbfc10f3a	-1.5082772
47	0x3fe3cc1d	1.7796665
48	0x4014f338	2.327345
49	0x3f1cb521	0.6121388
50	0xbf23db13	-0.64006156
51	0x3f337f5b	0.70116204
52	0xbf25670d	-0.6461037
53	0x3fb51d49	1.4149562
54	0x3fd3f116	1.6557949
55	0xbfa8aa04	-1.3176885
56	0x3f973ac6	1.1814811
57	0xbf98e46c	-1.1944709
58	0x3f4689c4	0.77553964
59	0xbec98008	-0.39355493
60	0xbfb13f46	-1.3847435
61	0xbf4c0698	-0.7969756
62	0xbf8957e9	-1.0729953
63	0xbecc354d	-0.39884415
64	0xbe2362a0	-0.15955591
65	0x3f7406d5	0.95322925
66	0xbfd6d72a	-1.6784413
67	0x3f355e6d	0.7084721
68	0xbf2b346e	-0.66876876
69	0xbeb85bfd	-0.3600768
70	0xbfbc7b9c	-1.4725223
71	0x3fa9814f	1.3242587
72	0xbf2faada	-0.68620074
73	0x3f591c56	0.8480886
74	0xbf8bb90b	-1.0915846
75	0xbf711c26	-0.94183576
76	0xbde3c5db	-0.11121722
77	0xbfdfab0f	-1.7474078
78	0xbed5ff71	-0.4179645
79	0x3fe6e077	1.8037251
80	0x3f839b04	1.0281682
81	0x3eb08d23	0.3448268
82	0xbf9135a3	-1.1344494
83	0x3fba1940	1.4538956
84	0xbff691ae	-1.9263208
85	0xc0289f79	-2.6347334
86	0x401d8fa9	2.4618933
87	0x3ef5cf80	0.48009872
88	0xbebe120a	-0.37123138
89	0x3ef86872	0.48517185
90	0xbf09f59b	-0.5389039
91	0x3d396b23	0.04526819
92	0x3fd387d7	1.652583
93	0x3f8ce712	1.1008017
94	0xbf2f614e	-0.6850785
95	0x3f22b043	0.63550204
96	0xbfa28420	-1.2696571
97	0x3e1f6bf0	0.15568519
98	0xbf80227a	-1.0010521
99	0xbf4aa74a	-0.7916151
100	0x3fa3f8f4	1.281035
101	0xbfb0ec8e	-1.3822191
102	0x40114bf5	2.270261
103	0x4008483e	2.1294093
104	0x3fd621db	1.6729082
105	0x3f997455	1.1988627
106	0xbf16b085	-0.588631
107	0xbf00c909	-0.50306755
108	0xbfbbb322	-1.4664042
109	0xbfac9536	-1.3483036
110	0xbf6343e7	-0.88775486
111	0xbdb9e335	-0.090765394
112	0x3f735edc	0.9506662
113	0xbf08fe28	-0.5351281
114	0xbf058b75	-0.5216592
115	0x3fb3aa33	1.4036316
116	0x402a1577	2.65756
117	0xbf210a0f	-0.62905973
118	0xc0274790	-2.6137428
119	0xbe81ee43	-0.25377092
120	0xbe9c481a	-0.3052376
121	0xbf3bc200	-0.73342896
122	0xbec8c920	-0.39215946
123	0x3f066a20	0.52505684
124	0x3dc840a2	0.09777953
125	0xbee64316	-0.44973058
126	0x3f19593c	0.59901786
127	0x3f821c35	1.0164858
128	0x3fa4b4b3	1.2867645
129	0xbfbde57d	-1.4835659
130	0x3ea80bbe	0.3282146
131	0xbf4807a7	-0.78136677
132	0x3e1fcc20	0.15605211
133	0x3f8aa181	1.0830537
134	0x3fd60e4f	1.6723117
135	0x400a2399	2.1584227
136	0xbeb29bfa	-0.34884626
137	0xbf8e933a	-1.113868
138	0xbeb1bcb3	-0.3471428
139	0x3f86b455	1.0523783
140	0x3f642c91	0.891305
141	0xbdde196f	-0.10844695
142	0xbf98cc73	-1.1937393
143	0x3d03e2a3	0.03219856
144	0x40028516	2.039373
145	0x3fb96843	1.4484943
146	0xbf1103cc	-0.5664642
147	0x3edc9c3f	0.43087956
148	0xbfc70caf	-1.5550746
149	0x3e824e84	0.25450528
150	0x3fc42093	1.5322441
151	0xbf04f3b5	-0.5193437
152	0xbf67125f	-0.9026241
153	0xbdae30fe	-0.08505438
154	0x3efff990	0.4999509
155	0xbfdcf80b	-1.7263197
156	0x3ffa5b69	1.9559146
157	0xc01e4ce6	-2.4734435
158	0x3fef2965	1.8684508
159	0x3d966c0d	0.07344828
160	0x3f92152c	1.1412711
161	0xbef23a12	-0.4730993
162	0x3ea27c29	0.31735352
163	0xbee2abc2	-0.44271666
164	0xbfe75ac1	-1.8074571
165	0x3fdc2227	1.7197922
166	0xbfad52e8	-1.3540926
167	0x3f2e7145	0.68141586
168	0xbf119d22	-0.5688039
169	0x3f902d1d	1.1263767
170	0xbdb85128	-0.08999854
171	0xbfb322f4	-1.3995042
172	0x3f6cb708	0.92466784
173	0x3f8affa0	1.085926
174	0xbfe46408	-1.7843027
175	0x3c9b49b6	0.018956047
176	0x3dd48909	0.103777
177	0x3f848230	1.035223
178	0x3f667d63	0.90035075
179	0xba18bcb0	-0.00058264565
180	0xbdefdaed	-0.11711679
181	0x4041496f	3.020107
182	0xbe5bef9c	-0.21478122
183	0x3fcffdfb	1.6249384
184	0x406beb9e	3.686256
185	0xbf6669a3	-0.9000494
186	0x3f801daf	1.0009059
187	0x3fde0621	1.734562
188	0x3f6d73a5	0.92754585
189	0x3f0f55f8	0.5599055
190	0xbfba3ea4	-1.4550366
191	0x3f15c92b	0.5851008
192	0x3e834aee	0.25643104
193	0xbf94f08b	-1.1635908
194	0x400f57a7	2.2397249
195	0x3f69a375	0.9126504
196	0x3f578912	0.8419353
197	0xbf091d05	-0.53559905
198	0x3fe75b49	1.8074733
199	0xbecd4126	-0.40088767
200	0x400ee7aa	2.2328897
201	0x3fa7e3d5	1.3116404
202	0xbdadebcf	-0.084922425
203	0xc007f838	-2.124525
204	0x3eb81b7e	0.35958475
205	0xbf902892	-1.1262381
206	0xbfd8abec	-1.6927466
207	0xbe2f580e	-0.17123434
208	0x3f78782b	0.9705836
209	0xbfb84773	-1.4396805

lstm.weight_ih_l0 f4 [40, 10]
0	0x3f32461b	0.6963822
1	0xbe86fd39	-0.2636507
2	0xbf3f57ae	-0.74743164
3	0xbf0a0673	-0.5391609
4	0x3f137a05	0.5760806
5	0x3d5c7842	0.053825624
6	0x3d516bf7	0.051128354
7	0xbf40fb85	-0.7538379
8	0xbf4711bc	-0.77761436
9	0xbedbeb47	-0.4295294
10	0x3f83529d	1.0259587
11	0x3e8441d9	0.25831488
12	0x3c70201e	0.014656095
13	0xbf1bcadb	-0.6085641
14	0x3e93232a	0.28737766
15	0x3ee50ebb	0.447378
16	0xbf838431	-1.0274717
17	0xbead9653	-0.3390375
18	0xbf46ad74	-0.7760842
19	0x3ee09da4	0.4387027
20	0x3ec418e4	0.3830024
21	0x3db003e4	0.08594492
22	0xbf434c8b	-0.7628867
23	0xbd0dad3c	-0.034589037
24	0x3f845220	1.0337563
25	0x3f4046de	0.75108135
26	0xbef9efe6	-0.4881584
27	0xbe777b89	-0.24168219
28	0xbd6995c4	-0.057027593
29	0x3f8109ba	1.0081093
30	0xbf466c67	-0.7750916
31	0xbfb0a6d3	-1.3800911
32	0xbec18e38	-0.37803817
33	0xbd805ffa	-0.06268306
34	0x3ede2562	0.43387896
35	0xbf444757	-0.76671356
36	0x3ee0fb47	0.4394171
37	0xbec2dac8	-0.38057542
38	0xbe6e181a	-0.23251382
39	0xbf266c7a	-0.6500927
40	0x3ef61e60	0.4807005
41	0xbf16c482	-0.588936
42	0x3faa953a	1.332679
43	0x3e411f8f	0.18859695
44	0x3f8e073e	1.109596
45	0x3ec11d93	0.37717876
46	0x3e5e3035	0.21698077
47	0x3ea95463	0.33072194
48	0xbef4de98	-0.47826076
49	0xbf685e60	-0.90769005
50	0xbf350587	-0.7071156
51	0x3f4449ee	0.7667531
52	0x3f4cb5d8	0.7996497
53	0xbe8898c9	-0.26679066
54	0x3e3f0720	0.18655062
55	0xbec5182c	-0.38495004
56	0x3f31a101	0.693863
57	0xbf5d126c	-0.86356235
58	0x3d79b3be	0.06096243
59	0x3d835ed1	0.06414569
60	0xbe97ff83	-0.29687127
61	0xbeedd995	-0.46455064
62	0xbf56f5f9	-0.83969074
63	0xbf59834e	-0.8496598
64	0x3e5ebb0b	0.21751039
65	0x3e1bdf61	0.15221931
66	0xbd1eac51	-0.038738552
67	0x3e2d2ee7	0.16912423
68	0x3df55d5e	0.11980699
69	0xbcd1ffa9	-0.025634604
70	0xbd92d4d2	-0.071694985
71	0x3f08ba58	0.5340934
72	0xbe03661a	-0.12831917
73	0xbed779df	-0.42085168
74	0xbe9c7512	-0.30558068
75	0xbec0b467	-0.37637636
76	0xbe5861e5	-0.21131094
77	0xbf2d25af	-0.67635626
78	0x3e88bce2	0.26706606
79	0xbe802f7b	-0.25036225
80	0x3e9ce4bb	0.30643257
81	0xbe735abc	-0.23765081
82	0x3eee7cf9	0.46579722
83	0xbe961a8b	-0.29317126
84	0x3eefba06	0.46821612
85	0x3db23915	0.08702294
86	0xbe05e670	-0.13076186
87	0x3fb26152	1.393595
88	0x3de8084c	0.113297075
89	0xc01aa2ff	-2.4161985
90	0xbe555558	-0.20833337
91	0x3f25842f	0.6465482
92	0x3e3c853d	0.18410201
93	0x3f501369	0.8127962
94	0xbef09dd7	-0.46995422
95	0x3efafa75	0.4901921
96	0x3e90ca34	0.2827927
97	0x3db9d507	0.09073835
98	0x3f306b68	0.6891389
99	0x3faaab83	1.3333591
100	0x3f424e58	0.75900793
101	0x3e6eb495	0.23311074
102	0xbdb9eda3	-0.09078529
103	0x3cfeff90	0.031127721
104	0xbe318d8e	-0.17339155
105	0xbe016024	-0.12634331
106	0xbedd9abf	-0.43282124
107	0xbf049a36	-0.5179781
108	0xbc435a2e	-0.011923356
109	0x3ef33cd0	0.47507334
110	0x3f218ffe	0.6311034
111	0x3ecc7fbf	0.39941213
112	0xbed61ade	-0.41817373
113	0x3e9c6fa1	0.30553916
114	0x3ed0c76b	0.40777144
115	0x3ea0dcf2	0.31418568
116	0xbf18e7f5	-0.5972894
117	0x3eda008f	0.4257855
118	0x3e200483	0.15626721
119	0xbb22b87b	-0.0024829197
120	0x3e8a2b74	0.26986277
121	0x3eead6c3	0.45866975
122	0x3ec8c0cb	0.3920959
123	0xbf35c038	-0.7099643
124	0x3f9d8cb7	1.2308568
125	0xbd15539f	-0.0364567
126	0x3e5b368c	0.21407527
127	0xbf0320b6	-0.5122179
128	0x3e195d33	0.14976959
129	0xbf3bf8d5	-0.7342656
130	0x3ef64bc9	0.48104694
131	0xbc7fd9ef	-0.015615924
132	0xbec04040	-0.3754902
133	0x3e0a8bbf	0.13529871
134	0xbf0265d6	-0.5093664
135	0x3f57eed0	0.84348774
136	0x3ec52d3a	0.38511068
137	0x3d547566	0.051869772
138	0x3e5fad55	0.21843465
139	0xbe2a523a	-0.1663293
140	0x3d866bec	0.06563553
141	0xbf7258c3	-0.9466669
142	0xbeee95bd	-0.46598616
143	0xbf36d166	-0.71413267
144	0x3f4d712d	0.8025082
145	0x3f12d3b7	0.573543
146	0xbf4b811f	-0.794939
147	0x3e8503f6	0.25979584
148	0x3c13ebe6	0.009028411
149	0xbd477ca9	-0.04870287
150	0xbf149414	-0.5803845
151	0xbfa74fb2	-1.3071196
152	0x3ef4530b	0.47719607
153	0x3ef30424	0.47464097
154	0x3e991335	0.29897466
155	0x3f717b32	0.94328606
156	0x3da50e37	0.08059352
157	0xbf573e86	-0.8407978
158	0xbc8eff8c	-0.017455839
159	0x3e385fa9	0.18005241
160	0xbef4e714	-0.4783255
161	0x3e9ab602	0.30216986
162	0x3e0450fd	0.1292152
163	0xbd3cb4c6	-0.046070836
164	0xbcca011e	-0.024658736
165	0x3e2fb907	0.17160426
166	0xbd0cf3a4	-0.03441204
167	0x3eb11c5a	0.34591943
168	0x3f1a5cd3	0.6029789
169	0xbefe1a8b	-0.49629626
170	0x3f5df3a5	0.866999
171	0xbe91213c	-0.28345668
172	0x3e8f506e	0.2799105
173	0x3f30efbb	0.691158
174	0xbf6cdf5f	-0.9252834
175	0xbf61717d	-0.88063794
176	0xbd1da986	-0.03849175
177	0x3e01b726	0.12667522
178	0xbf325712	-0.6966411
179	0x3e327f6b	0.17431419
180	0x3ec1c44c	0.37845075
181	0xbee88d2e	-0.45420212
182	0xbf69fc74	-0.9140084
183	0x3f4934e6	0.7859634
184	0xbe4162d5	-0.18885358
185	0x3ece2326	0.4026119
186	0x3f028a70	0.5099249
187	0xbde5404b	-0.111939035
188	0xbe3cba05	-0.18430336
189	0xbebcd224	-0.36879075
190	0xbe0324af	-0.12806962
191	0x3f4fa6e3	0.81114024
192	0x3dba626c	0.09100804
193	0xbf5d7575	-0.8650735
194	0x3fa50c36	1.2894351
195	0xbce9b0e7	-0.028526736
196	0x3f8a7993	1.0818352
197	0xbf574574	-0.8409035
198	0xbf5b26fe	-0.8560637
199	0xbefb9c15	-0.4914252
200	0x3efaac0e	0.48959392
201	0x3e2afcfe	0.16698071
202	0x3f363ecb	0.71189564
203	0x3dcc84de	0.0998628
204	0x3f16d991	0.5892573
205	0x3e825bfd	0.25460806
206	0xbf048621	-0.51767164
207	0xbeac2b17	-0.33626625
208	0x3e96be03	0.29441842
209	0xbe9f0572	-0.31058842
210	0xbec10687	-0.37700292
211	0x3c5ba40e	0.013405813
212	0xbdd75c9b	-0.1051571
213	0x3f2a0b93	0.6642391
214	0x3dd62956	0.10457103
215	0xbe684f3d	-0.22686477
216	0xbe28f847	-0.1650096
217	0xbee6e25f	-0.45094582
218	0xbee317a0	-0.44353962
219	0x3f0081e6	0.5019821
220	0x3dc669b9	0.09688134
221	0x3f0cc23e	0.5498389
222	0xbf36cb2b	-0.7140376
223	0xbe279fa7	-0.16369496
224	0xbeb8b3bf	-0.36074635
225	0x3ea50810	0.32232714
226	0x3d37df8e	0.044890933
227	0x3f245a37	0.64200157
228	0x3d099f1c	0.033599004
229	0x3c63a5b6	0.013894489
230	0x3b79a3fb	0.0038092125
231	0xbf466e38	-0.7751193
232	0x3e87cf92	0.2652555
233	0xbe6fec4c	-0.23429984
234	0xbd231e05	-0.03982355
235	0xbec311b7	-0.38099453
236	0xbecf4804	-0.4048463
237	0x3f0eb196	0.55739725
238	0xbe79d3e5	-0.24397238
239	0xbe8e3bdf	-0.27780053
240	0xbdb7944d	-0.08963833
241	0x3e912557	0.283488
242	0xbe32e8bc	-0.17471594
243	0xbee61f2c	-0.44945657
244	0x3e83e354	0.25759375
245	0xbdac1b9a	-0.08403702
246	0xbf426b82	-0.75945294
247	0xbe84d580	-0.25944138
248	0x3f026ab6	0.5094408
249	0xbeb45cff	-0.352272
250	0x3ac7dddf	0.0015248618
251	0x3ea48c68	0.3213837
252	0x3d040f9c	0.03224145
253	0x3f00e59d	0.5035036
254	0xbde933ee	-0.11386858
255	0xbe144033	-0.14477615

lstm.weight_hh_l0 f4 [40, 10]
0	0xbf3a9fd4	-0.7290013
1	0x4020c9c2	2.5123143
2	0xbfa9c4b7	-1.3263158
3	0x3eed7380	0.46377182
4	0xbf43e9a4	-0.7652838
5	0xbec66fd9	-0.38757208
6	0xbfc5e247	-1.5459679
7	0x4003d898	2.0600948
8	0x3fe3f435	1.7808901
9	0x3f91a3f6	1.1378162
10	0x3fdee8ef	1.7414836
11	0xbf32aa3c	-0.6979101
12	0xbea77c0f	-0.32711837
13	0xbf454924	-0.7706473
14	0xbfcca0df	-1.5986594
15	0x3dcaa2e8	0.09894353
16	0x3eff6c9b	0.49887547
17	0xbf5930ff	-0.8484039
18	0x40102a3e	2.2525783
19	0x3f12606a	0.57178366
20	0x3eb057f9	0.34442118
21	0xbeed3117	-0.46326515
22	0xbf892ae2	-1.0716212
23	0x3c93cf04	0.018043049
24	0xbf2743a5	-0.6533759
25	0xc055f785	-3.3432324
26	0xc03f613f	-2.9903104
27	0x3e5daa89	0.21647085
28	0x4004e3c8	2.0764027
29	0xbfdf69b8	-1.7454138
30	0x3ea9857c	0.33109653
31	0x3f3bc97e	0.7335433
32	0xc00034da	-2.0032258
33	0x3efbd649	0.49186924
34	0x3f4126ad	0.7544964
35	0xbf747beb	-0.95501584
36	0xc02278bb	-2.5386188
37	0xbe82ef17	-0.25573036
38	0xbde8f3ef	-0.11374652
39	0x3f7ececf	0.99534315
40	0x3e75bee4	0.239986
41	0xbf6727be	-0.90295017
42	0x3e8ed037	0.2789323
43	0xbdad9ad6	-0.08476798
44	0xbf9fe0e6	-1.2490509
45	0xbf2202cd	-0.63285524
46	0xbfb07972	-1.3787062
47	0xbe1132e1	-0.14179565
48	0x3f7a6ba1	0.9782048
49	0xbf032f24	-0.51243806
50	0xbe500845	-0.20315655
51	0xbf9def87	-1.2338723
52	0xbfa1573a	-1.2604744
53	0x3e995f0e	0.29955333
54	0x3fcd03fe	1.6016843
55	0x3f14ecae	0.58173645
56	0x3efa2664	0.48857415
57	0xbfbe8d9f	-1.4886969
58	0x3e981a52	0.2970758
59	0x3fa2af09	1.2709666
60	0x3f28c5c3	0.6592676
61	0x3e9aaafb	0.30208573
62	0x3f8904bf	1.0704573
63	0xbf8252c5	-1.0181509
64	0xbf3ef61c	-0.74594283
65	0xbff9a8d3	-1.9504646
66	0xbf921943	-1.1413959
67	0xbe297847	-0.16549788
68	0xbe9ab532	-0.30216366
69	0xbf94799c	-1.1599612
70	0x3ceb4e33	0.028723812
71	0xc05df653	-3.4681594
72	0x3f999391	1.1998159
73	0xbfa3334c	-1.275003
74	0xbffb7431	-1.9644834
75	0xbfef162f	-1.8678645
76	0xbf2c0f14	-0.6721051
77	0x4002252f	2.0335195
78	0x3fc92e51	1.571726
79	0x3ea7ea55	0.3279597
80	0x3e6522b4	0.2237652
81	0xbf1d9ae4	-0.6156447
82	0xc0097565	-2.1477902
83	0xc046f246	-3.1085372
84	0x3f815093	1.0102714
85	0xbc8a8dc2	-0.016913299
86	0xbf99f701	-1.2028505
87	0x40033282	2.0499578
88	0x3dc8bc90	0.098015904
89	0x3f098e05	0.5373233
90	0x3e4675f2	0.1938093
91	0x40122c12	2.2839398
92	0xbfb61e8d	-1.4228073
93	0xbe91e8e8	-0.28498006
94	0xc03f14ff	-2.9856565
95	0xbe2df878	-0.16989315
96	0xbfbd53d7	-1.4791211
97	0xbf593182	-0.8484117
98	0x3f82f260	1.0230217
99	0x3fc826a5	1.5636793
100	0x3e884ccb	0.26621088
101	0x3f33193f	0.699604
102	0x3e0fe4db	0.14052145
103	0xbfaaf123	-1.3354839
104	0xbeea9a6d	-0.45820943
105	0xbebf2281	-0.37331012
106	0xbe6eb50b	-0.2331125
107	0xbf823636	-1.0172794
108	0x3f3c8bd8	0.73650885
109	0xbd502b4f	-0.050822552
110	0x3f3b0170	0.7304907
111	0xbc056cb9	-0.008143597
112	0x3f0f064a	0.5586897
113	0xbee47faf	-0.44628665
114	0x3e287e4f	0.16454433
115	0xbf21bd75	-0.63179713
116	0xbc8356bf	-0.016032575
117	0xbfa4b842	-1.2868731
118	0x3ef96ee4	0.48717415
119	0x3f6f1817	0.93396133
120	0xbf4ab79d	-0.7918642
121	0x3f76e19b	0.96437997
122	0xbf9bc048	-1.2168055
123	0xbfa0c209	-1.2559215
124	0x3fb772eb	1.4331945
125	0xbfdfcfb8	-1.7485266
126	0x3f15c19e	0.5849856
127	0xbff7cc3a	-1.93592
128	0xbee02b6b	-0.43783125
129	0xbe7e0a60	-0.24808645
130	0xbebde943	-0.37092027
131	0xbfb1a6ec	-1.3879066
132	0x3e28f195	0.16498406
133	0xbecee805	-0.40411392
134	0xbf186d1d	-0.59541494
135	0xbea328fb	-0.31867203
136	0x3e1dc0f6	0.1540564
137	0x3d11c036	0.035583697
138	0xbec68a60	-0.38777447
139	0x3f6163b7	0.8804278
140	0x3e9ea369	0.30984047
141	0x3e29120e	0.16510794
142	0xbfb06303	-1.3780216
143	0xbefc61c6	-0.49293345
144	0xbf801e4f	-1.000925
145	0x3dd38ecb	0.1032997
146	0xc02231e1	-2.5342944
147	0x3fd2bdf5	1.646422
148	0xbfe463d5	-1.7842966
149	0xbf7f0296	-0.9961332
150	0x3f4520d1	0.770032
151	0xc003ec5a	-2.0613008
152	0xbf264247	-0.6494488
153	0x3f4c9cc0	0.7992668
154	0xbf3fd516	-0.7493452
155	0xbf593831	-0.84851366
156	0x3f12f34d	0.574025
157	0xbcd25bcf	-0.025678543
158	0xbe34fe98	-0.17675245
159	0x3f90a3fd	1.1300045
160	0x3f0d7089	0.5524984
161	0xbe244e62	-0.16045526
162	0x3f20af68	0.6276765
163	0xbd06cea6	-0.03291192
164	0xbf7a0f77	-0.9767985
165	0xbf40262c	-0.75058246
166	0xc015692a	-2.3345437
167	0xbc6df7df	-0.014524429
168	0x3dd569b9	0.104205556
169	0xbf83e4ee	-1.0304239
170	0xbec10e58	-0.37706256
171	0xbf1a6065	-0.60303336
172	0x3f868317	1.0508755
173	0x3f8de698	1.1085997
174	0x3f91ee91	1.140093
175	0xbede1de4	-0.4338218
176	0xbf21643b	-0.63043565
177	0x3ed6ed1e	0.4197778
178	0xbe805a91	-0.25069097
179	0x3e93ea4a	0.28889686
180	0xbcd8c9a7	-0.026463343
181	0xbf377dff	-0.7167663
182	0xbf58a005	-0.8461917
183	0xbf8e372e	-1.111059
184	0xbf4afdfa	-0.7929379
185	0x3e72601f	0.2366948
186	0xbec93dbf	-0.3930492
187	0x3dda5609	0.10660941
188	0xbb64d2df	-0.0034915728
189	0xbfddb0b6	-1.7319553
190	0x3f9a2a0c	1.2044082
191	0xbfa5728e	-1.2925584
192	0x3f6fff4c	0.9374893
193	0xbfa9c723	-1.3263897
194	0x3fcd8498	1.6056089
195	0xbfe140e9	-1.7597934
196	0x3f901a21	1.1257974
197	0x3f4c8b4e	0.7990006
198	0xc001cfa9	-2.0282996
199	0x3fa57d1c	1.2928805
200	0x3ee6f7f7	0.45111057
201	0x3fb92297	1.4463681
202	0xbe7af428	-0.245072
203	0xbe82c443	-0.2554036
204	0xbf1ac663	-0.60458964
205	0x3dec31bb	0.11532923
206	0xbe03a032	-0.12854078
207	0x3f383fb5	0.7197221
208	0xbf86d6e4	-1.053433
209	0x3e860162	0.2617293
210	0x3ea996f5	0.33122984
211	0x3f184fad	0.59496576
212	0xbf3d7ade	-0.74015605
213	0x3d9a1590	0.07523644
214	0x3deea017	0.116516285
215	0x3f71ff03	0.9452974
216	0xbeed847f	-0.4639015
217	0xbf484c70	-0.78241634
218	0xbdf8b2ca	-0.12143476
219	0x3f706549	0.9390455
220	0x3f85e187	1.045945
221	0x3fcf564b	1.619821
222	0xbeac7693	-0.33684215
223	0x3f60bf2f	0.87791723
224	0xbfbcf72d	-1.4762932
225	0xbfafb3d1	-1.3726751
226	0x3f399b75	0.72502834
227	0xbf8a44de	-1.0802267
228	0xbdd0166f	-0.10160529
229	0x3e9e6589	0.3093684
230	0x3dbd3673	0.09238901
231	0xbe872672	-0.2639652
232	0xbf47504f	-0.77856916
233	0x3f589348	0.84599733
234	0xbda49e9f	-0.08038067
235	0x3f864c07	1.0491952
236	0x3f37c32f	0.717822
237	0x3f9e6071	1.2373182
238	0x3f771be5	0.9652694
239	0x3ecce5cc	0.4001907
240	0x3f121672	0.570655
241	0x3eec1bda	0.46115
242	0xbf6eb270	-0.93241024
243	0xbd869fda	-0.06573458
244	0x3e6468a4	0.22305542
245	0x3f56a7b7	0.8384966
246	0x3f9f0752	1.2424109
247	0x3ecc1e42	0.39866835
248	0xbe8acdc1	-0.27110103
249	0x3e87aac9	0.26497486
250	0x3e13e39d	0.14442296
251	0x3e806ac7	0.25081465
252	0x3f3b97af	0.73278326
253	0xbf23f083	-0.64038867
254	0x3f671b61	0.9027615
255	0x3f00b269	0.5027223

lstm.bias_ih_l0 f4 [40]
0	0x3f9345e5	1.1505705
1	0x3f302e6c	0.68820834
2	0x3f1110ac	0.56666064
3	0x3f385fc7	0.72021145
4	0x3f054190	0.52053165
5	0x3f0614f0	0.523757
6	0xbd953338	-0.0728516
7	0x3f1868f1	0.5953513
8	0x3df86142	0.121279255
9	0x3e6eda13	0.23325376
10	0x3e80b565	0.25138393
11	0xbe8903b6	-0.26760644
12	0xbebb6673	-0.366016
13	0xbd1d8461	-0.038456324
14	0x3eb1c2b8	0.3471887
15	0x3ee6464a	0.449755
16	0x3da712f4	0.08157912
17	0x3e8249a1	0.254468
18	0x3f16895f	0.5880336
19	0x3e606443	0.21913247
20	0xbd866f63	-0.06564214
21	0xbe818b33	-0.25301513
22	0xbecebe5d	-0.4037961
23	0xbe91236d	-0.2834734
24	0xbcf9a636	-0.030474763
25	0xbeba950d	-0.36441842
26	0xbe2e59c1	-0.17026426
27	0x3e93ea55	0.2888972
28	0x3ebb0ff5	0.36535612
29	0xbe5e44c5	-0.21705921
30	0x3f4206da	0.75791705
31	0x3f711729	0.94175965
32	0x3f9713eb	1.1802953
33	0x3f35153e	0.7073554
34	0x3f9b2132	1.2119505
35	0x3f79f98e	0.97646415
36	0x3f4e4af0	0.80583096
37	0x3ef90dc7	0.48643324
38	0x3f3c3cc6	0.7353023
39	0x3f55f7fe	0.8358153

lstm.bias_hh_l0 f4 [40]
0	0x3f97a606	1.1847541
1	0x3f277d43	0.6542551
2	0x3f7cb6ae	0.9871625
3	0x3f604bf4	0.87615895
4	0x3eba8fd9	0.36437872
5	0x3f04d392	0.5188533
6	0xbd3bf940	-0.045892
7	0x3f3956fb	0.72398347
8	0x3e7de910	0.24795938
9	0x3dcee6fc	0.101026505
10	0x3d4c102b	0.049820106
11	0xbe942cc1	-0.28940395
12	0xbeb5453d	-0.35404387
13	0x3efecb52	0.49764496
14	0x3e0d56a4	0.13802582
15	0x3ecb0555	0.39652506
16	0x3decde3a	0.11565824
17	0x3e216fed	0.15765353
18	0x3ef1f657	0.47258255
19	0x3e2189c2	0.15775207
20	0xbca0c9fa	-0.01962756
21	0x3e87f59d	0.26554576
22	0xbe8f7115	-0.28015962
23	0xbeb691b8	-0.3565805
24	0x3e223d65	0.15843733
25	0xbf31e302	-0.6948701
26	0xbee12282	-0.4397164
27	0x3dd18b45	0.10231642
28	0x3eede19c	0.4646119
29	0x3d3414ea	0.043965258
30	0x3f3ed099	0.74537045
31	0x3f92a830	1.1457577
32	0x3f7cbcad	0.98725396
33	0x3f1465a1	0.57967573
34	0x3f66daca	0.90177596
35	0x3f45993f	0.7718696
36	0x3eb2e645	0.34941307
37	0x3f01e382	0.50737774
38	0x3ef2f6b6	0.4745385
39	0x3f876ff0	1.0581036

hidden_layer.weight f4 [10, 20]
0	0x3e9a9a2c	0.3019575
1	0xbeab26d6	-0.33428067
2	0x3f967953	1.1755775
3	0x3ee1fcdb	0.44138226
4	0xbea15f56	-0.31518048
5	0x3e4651fe	0.19367215
6	0x3f8b4008	1.0878916
7	0x3be651ab	0.0070287785
8	0x3fbb696e	1.464155
9	0x3d9e80eb	0.07739433
10	0x3f01792b	0.5057551
11	0xbde24e87	-0.11050134
12	0x3f87d504	1.0611882
13	0xbf126d4c	-0.57198024
14	0xbf804179	-1.0019981
15	0x3f50546b	0.8137881
16	0x3f3d9e1c	0.7406938
17	0x3e818803	0.2529908
18	0xbf0a397d	-0.5399397
19	0x3f48ce67	0.78439945
20	0x3fa9beec	1.326139
21	0xbe3d035a	-0.1845831
22	0x3f37eedc	0.71848845
23	0x3c893ef4	0.016753651
24	0x3f40e7c5	0.7535365
25	0x3f882910	1.0637531
26	0x3f7625b5	0.96151286
27	0x3f9deea2	1.233845
28	0xbdd4aa2a	-0.10384019
29	0x3db5f438	0.08884472
30	0x3fabbc8b	1.3416914
31	0x3e9793df	0.29605004
32	0xbe2e3332	-0.17011717
33	0xbf81ba25	-1.0134932
34	0xbe437d2c	-0.19090718
35	0x3e87b20f	0.26503035
36	0xbef87f24	-0.485345
37	0x3f85a042	1.0439532
38	0x3eb6ef34	0.35729373
39	0x3ec36ebf	0.3817043
40	0xbec5c030	-0.3862319
41	0xbf65adc9	-0.897183
42	0xbf1aec26	-0.60516584
43	0xbe262557	-0.16225182
44	0xbd83b7c4	-0.06431535
45	0xbf00d94e	-0.5033158
46	0xbe709816	-0.23495516
47	0xbe04e21e	-0.12976882
48	0xbf8a952b	-1.0826772
49	0xbefc6782	-0.4929772
50	0x3da68c6e	0.081322536
51	0x3e29a595	0.16567071
52	0xbe05854b	-0.13039128
53	0xbe2487e8	-0.16067469
54	0x3ff2003d	1.8906323
55	0xbf7890eb	-0.9709613
56	0x3e5b438d	0.21412487
57	0xbf1b056e	-0.6055516
58	0xbefb0cdf	-0.49033257
59	0x3f2cf6cd	0.6756409
60	0xbe1b174e	-0.15145609
61	0x3e2ab0df	0.16669033
62	0x3f28f10a	0.65992796
63	0x3f0e4e40	0.5558815
64	0xbf2d1a42	-0.6761819
65	0xbf007414	-0.5017712
66	0x3e443e33	0.19164352
67	0xbe980a94	-0.2969557
68	0x3f049571	0.5179053
69	0x3ee14ef1	0.4400554
70	0xbcc83ea3	-0.02444393
71	0x3e7539cd	0.2394783
72	0x3f00320b	0.5007636
73	0xbef8a85f	-0.48565957
74	0xbf8430a1	-1.032734
75	0x3f170e24	0.5900595
76	0x3e900704	0.28130352
77	0x3f23bd48	0.63960695
78	0xbeed7018	-0.46374583
79	0x3f633423	0.8875143
80	0xbf62fa80	-0.8866348
81	0xbe4c89ac	-0.19974393
82	0x3f3fdb6d	0.7494419
83	0xbe4a2206	-0.19739541
84	0xbef763c1	-0.48318294
85	0xbeb5de18	-0.35521007
86	0x3f718afa	0.94352686
87	0xbfa6d7c1	-1.3034593
88	0xbe4d1cc3	-0.20030503
89	0x3f34da33	0.70645446
90	0x3f5162f6	0.8179163
91	0x3eb01274	0.3438908
92	0xbdeaf2ce	-0.114720926
93	0xbf2e044a	-0.67975295
94	0xbfaec511	-1.365389
95	0x3e52e6f4	0.20595914
96	0x3f619d94	0.8813107
97	0x3f747aa3	0.9549963
98	0xbf2c79a7	-0.67373127
99	0x3fdb2704	1.7121282
100	0xbf0fe529	-0.56209046
101	0x3d033950	0.03203708
102	0x3e1c0305	0.15235527
103	0x3e419a10	0.18906426
104	0x3ef2fe51	0.47459653
105	0xbe30a7fe	-0.17251584
106	0x3f1decac	0.6168926
107	0x39e16194	0.00042988046
108	0xbec5c74b	-0.3862861
109	0x3f187a02	0.5956117
110	0xbf8a9f53	-1.0829872
111	0xbf82c842	-1.0217364
112	0xbe827a04	-0.25483716
113	0x3f134197	0.5752196
114	0x3eafcb29	0.34334686
115	0xbeb01e2d	-0.34398022
116	0x3e27148f	0.16316436
117	0x3cce7110	0.025200397
118	0x3fbe6a31	1.4876157
119	0xbf14362f	-0.5789518
120	0x3e593eea	0.21215406
121	0x3e1a2103	0.15051655
122	0x3c4c4546	0.012467688
123	0xbf020fb4	-0.5080521
124	0x3ef55fb1	0.4792457
125	0x3f3f140e	0.74639976
126	0x3f9b3aa5	1.2127272
127	0x3f699754	0.91246533
128	0xbf321d84	-0.6957629
129	0x3ef084a9	0.46976212
130	0x3e465924	0.19369942
131	0xbf809129	-1.0044299
132	0xbeff1d8c	-0.4982723
133	0xbee1ab83	-0.44076166
134	0xbd008e62	-0.031385787
135	0xbf134bae	-0.57537353
136	0x3e1be02b	0.15222232
137	0x3f22a1e6	0.6352829
138	0x3f98062b	1.1876882
139	0x3eade054	0.3396021
140	0xbf928518	-1.1446867
141	0xbd2a7c1f	-0.041622277
142	0xbeec38ec	-0.46137178
143	0x3e1aa8f6	0.15103516
144	0xbdc8edbb	-0.098109685
145	0xbf725bc5	-0.9467128
146	0x3df952c2	0.12173988
147	0xbfd1cc1c	-1.6390414
148	0xbf327500	-0.6970978
149	0xbf24ed0c	-0.64424205
150	0xbf4c3be8	-0.7977891
151	0xbe84325a	-0.25819665
152	0xbece3829	-0.40277222
153	0x3f76adf4	0.9635918
154	0x3f0c1d78	0.54732466
155	0xbf5a55f1	-0.85287386
156	0x3e8e5143	0.27796373
157	0xbf8febcc	-1.1243834
158	0xbecb69b1	-0.39729074
159	0xbf274324	-0.65336823
160	0xbf2a8f07	-0.6662449
161	0x3e575284	0.21027571
162	0x3f14ae1b	0.58078164
163	0x3f01a83d	0.50647336
164	0xbf0722e2	-0.527876
165	0x3f1533eb	0.58282346
166	0x3f6a5e3d	0.91550046
167	0x3c636ea4	0.013881359
168	0x3efc1fe2	0.49243075
169	0x3f636c7d	0.88837415
170	0x3eb8a236	0.36061257
171	0xbd7ad205	-0.061235446
172	0xbd56f2cf	-0.052477654
173	0xbf17304d	-0.59058076
174	0xbf9974fb	-1.1988825
175	0x3f1fb81b	0.623903
176	0x3f42916a	0.76003134
177	0x3fbfc66b	1.4982427
178	0x3da1df72	0.07903947
179	0x3f40b6d0	0.7527895
180	0x3faaaa9e	1.3333318
181	0x3ecaa4f6	0.3957898
182	0x3f772829	0.96545655
183	0x3e19bb98	0.15012968
184	0x3f86c567	1.0528992
185	0x3e6371a5	0.2221132
186	0xbee134b8	-0.43985534
187	0x3f2a0f7b	0.6642987
188	0x3e8ad692	0.2711683
189	0xbda86a6a	-0.08223422
190	0x3edc0474	0.42972147
191	0x3f884513	1.064608
192	0x3f53abb1	0.82683855
193	0xbe83b8ff	-0.25727078
194	0xbee7a927	-0.4524624
195	0xbe003ef8	-0.1252402
196	0xbd66869e	-0.056280725
197	0x3fb7350e	1.4313066
198	0x3e831ffc	0.2561034
199	0x3e3b674b	0.18301122

hidden_layer.bias f4 [10]
0	0xbf215fa5	-0.63036567
1	0xbe68fb9e	-0.22752234
2	0xbeaa87f0	-0.33306837
3	0xbf34ad84	-0.70577264
4	0x3f28e9e9	0.6598192
5	0x3f199ea7	0.6000771
6	0x3c759d3b	0.0149911
7	0x3e0e6139	0.13904275
8	0xbf415a8d	-0.75528795
9	0x3e9e8324	0.30959427

output_layer.weight f4 [1, 10]
0	0xc0c4f0df	-6.154403
1	0x4020e86d	2.5141861
2	0xc071256a	-3.7679086
3	0xc00cdfec	-2.201167
4	0x3ffd4acb	1.978845
5	0x3f953226	1.1655929
6	0xbfdf06bf	-1.7423934
7	0xc007fb45	-2.1247113
8	0xc071faec	-3.78094
9	0xbfc1bbdd	-1.5135456
