old_result_files/my_model2.json.pt (torch_old, 27554 bytes, 10 tensors)

weight f4 [21, 10]
0	0x00000000	0.0
1	0x00000000	0.0
2	0x00000000	0.0
3	0x00000000	0.0
4	0x00000000	0.0
5	0x00000000	0.0
6	0x00000000	0.0
7	0x00000000	0.0
8	0x00000000	0.0
9	0x00000000	0.0
10	0xbd267f79	-0.04064891
11	0xbd267f71	-0.04064888
12	0xbd267ff3	-0.040649366
13	0xbd2b4dc4	-0.04182221
14	0x3d267ff4	0.04064937
15	0x3d267887	0.040642288
16	0x3d268008	0.040649444
17	0x3d267f71	0.04064888
18	0xbe808b8e	-0.25106472
19	0xbd267f6b	-0.04064886
20	0x3e15b138	0.14618385
21	0x3e15b135	0.1461838
22	0x3e15b1de	0.14618632
23	0x3e1c870f	0.15285896
24	0xbe15b1ef	-0.14618658
25	0xbe15a696	-0.14614329
26	0xbe15b1f2	-0.14618662
27	0xbe15b132	-0.14618376
28	0xbe3d9e8e	-0.18517515
29	0x3e15b137	0.14618383
30	0x3d7541c3	0.05987717
31	0x3d7541bd	0.059877146
32	0x3d7542d1	0.059878174
33	0x3d8195a5	0.063273706
34	0xbd7542e7	-0.059878256
35	0xbd752b93	-0.05985601
36	0xbd7542f1	-0.059878293
37	0xbd7541ab	-0.05987708
38	0xbe869f73	-0.26293525
39	0x3d7541bc	0.059877142
40	0xbde16069	-0.11004717
41	0xbde16060	-0.1100471
42	0xbde161b8	-0.110049665
43	0xbdf1e68b	-0.11811551
44	0x3de161ec	0.11005005
45	0x3de14668	0.10999757
46	0x3de161ec	0.11005005
47	0x3de16052	0.110047
48	0x3f5fddc8	0.87447786
49	0xbde16053	-0.110047005
50	0xbd62f890	-0.05541283
51	0xbd62f885	-0.055412788
52	0xbd62f9fa	-0.055414177
53	0xbd72a373	-0.05923791
54	0x3d62fa1c	0.055414304
55	0x3d62e004	0.05538942
56	0x3d62fa30	0.05541438
57	0x3d62f880	0.05541277
58	0xbf103127	-0.56325
59	0xbd62f880	-0.05541277
60	0x3d328d41	0.04359174
61	0x3d328d3f	0.043591734
62	0x3d328ceb	0.04359142
63	0x3d2da8fb	0.04239748
64	0xbd328ce3	-0.04359139
65	0xbd3294d9	-0.043598983
66	0xbd328cd7	-0.043591347
67	0xbd328d3e	-0.04359173
68	0xbec97e51	-0.39354184
69	0x3d328d3a	0.043591715
70	0x3c030499	0.007996702
71	0x3c0304ac	0.007996719
72	0x3c0303a1	0.007996471
73	0x3bf0ebe1	0.0073523377
74	0xbc0303a1	-0.007996471
75	0xbc03141b	-0.008000399
76	0xbc03038f	-0.007996454
77	0xbc0304ad	-0.00799672
78	0xbd987d13	-0.07445731
79	0x3c0304ad	0.00799672
80	0x3d33dc1d	0.04391109
81	0x3d33dc1c	0.043911085
82	0x3d33dc98	0.043911546
83	0x3d3a3aed	0.045466352
84	0xbd33dca9	-0.04391161
85	0xbd33d1f6	-0.043901406
86	0xbd33dcab	-0.043911617
87	0xbd33dc1c	-0.043911085
88	0xbf04c06a	-0.518561
89	0x3d33dc1a	0.043911077
90	0x3c0f7a87	0.00875724
91	0x3c0f7a88	0.008757241
92	0x3c0f7a61	0.008757205
93	0x3c0dbaa0	0.008650452
94	0xbc0f7a55	-0.008757194
95	0xbc0f7d4f	-0.008757903
96	0xbc0f7a57	-0.008757195
97	0xbc0f7a8a	-0.008757243
98	0xbe0b9a12	-0.13632992
99	0x3c0f7a8f	0.008757248
100	0x3bd3c42b	0.006462594
101	0x3bd3c422	0.00646259
102	0x3bd3c949	0.006463204
103	0x3c09bf50	0.008407429
104	0xbbd3ca38	-0.0064633153
105	0xbbd35f7d	-0.006450592
106	0xbbd3ca50	-0.0064633265
107	0xbbd3c3d5	-0.006462554
108	0x3e9a8f02	0.3018723
109	0x3bd3c3e0	0.006462559
110	0xbc982f30	-0.018577188
111	0xbc982f29	-0.018577175
112	0xbc982ee5	-0.018577049
113	0xbc92c52b	-0.017916283
114	0x3c982ed7	0.018577022
115	0x3c983817	0.018581433
116	0x3c982ecc	0.018577002
117	0x3c982f39	0.018577205
118	0xbe605944	-0.21909052
119	0xbc982f37	-0.018577201
120	0xbc7724a5	-0.01508442
121	0xbc7724c1	-0.015084446
122	0xbc77230f	-0.015084042
123	0xbc6004fc	-0.013673063
124	0x3c7722f9	0.015084022
125	0x3c774794	0.015092749
126	0x3c7722d3	0.015083986
127	0x3c7724bb	0.015084441
128	0x3e22ade5	0.15886648
129	0xbc7724b2	-0.015084432
130	0xbc787f45	-0.015167062
131	0xbc787f47	-0.015167064
132	0xbc787fb1	-0.015167163
133	0xbc7e7cfe	-0.01553273
134	0x3c787fbd	0.015167174
135	0x3c787586	0.0151647385
136	0x3c787fb3	0.015167165
137	0x3c787f43	0.01516706
138	0x3df69f20	0.120420694
139	0xbc787f46	-0.015167063
140	0x3cf227ba	0.029559959
141	0x3cf227c0	0.02955997
142	0x3cf227bf	0.029559968
143	0x3cf0a9c4	0.029377826
144	0xbcf227b9	-0.029559957
145	0xbcf229e0	-0.029560983
146	0xbcf227b5	-0.02955995
147	0xbcf227c3	-0.029559975
148	0xbebcc0d3	-0.36865863
149	0x3cf227c6	0.029559981
150	0xbd84221c	-0.06451818
151	0xbd842216	-0.06451814
152	0xbd84230a	-0.06451996
153	0xbd8e9539	-0.06962056
154	0x3d84231d	0.0645201
155	0x3d841191	0.06448663
156	0x3d842327	0.06452017
157	0x3d842211	0.0645181
158	0xbf349e9f	-0.70554537
159	0xbd842212	-0.06451811
160	0x3d184258	0.037172645
161	0x3d184256	0.037172638
162	0x3d1841e3	0.03717221
163	0x3d126288	0.035738498
164	0xbd1841d6	-0.03717216
165	0xbd184bc0	-0.037181616
166	0xbd1841d2	-0.037172146
167	0xbd18425e	-0.037172668
168	0xbeddc0a4	-0.43311036
169	0x3d18425b	0.037172657
170	0x3d93cc8d	0.07216749
171	0x3d93cc8c	0.072167486
172	0x3d93cce0	0.07216811
173	0x3d971524	0.07377079
174	0xbd93cce3	-0.072168134
175	0xbd93c76d	-0.07215772
176	0xbd93cce0	-0.07216811
177	0xbd93cc8a	-0.07216747
178	0xbeb260af	-0.3483939
179	0x3d93cc8d	0.07216749
180	0x3b7484f0	0.0037310682
181	0x3b7484b6	0.0037310547
182	0x3b748364	0.003730976
183	0x3b5dff9c	0.003387428
184	0xbb7483d6	-0.0037310026
185	0xbb74ab5b	-0.003733358
186	0xbb748390	-0.0037309863
187	0xbb7484dd	-0.0037310638
188	0xbd635d28	-0.055508763
189	0x3b7484b0	0.0037310533
190	0x3d660886	0.056160472
191	0x3d660887	0.056160476
192	0x3d660951	0.05616123
193	0x3d6f2b91	0.058391158
194	0xbd660962	-0.056161292
195	0xbd65f9f8	-0.056146592
196	0xbd660966	-0.056161307
197	0xbd66088d	-0.0561605
198	0xbea7b792	-0.3275724
199	0x3d66088a	0.056160487
200	0xbcd21eb2	-0.025649402
201	0xbcd21eb2	-0.025649402
202	0xbcd21ec4	-0.025649436
203	0xbcd1e52c	-0.025621973
204	0x3cd21ebd	0.025649423
205	0x3cd21f60	0.025649726
206	0x3cd21ec0	0.025649428
207	0x3cd21eb6	0.02564941
208	0x3e8bd0b5	0.27307668
209	0xbcd21eb7	-0.025649412

weight f4 [21, 10]
0	0x00000000	0.0
1	0x00000000	0.0
2	0x00000000	0.0
3	0x00000000	0.0
4	0x00000000	0.0
5	0x00000000	0.0
6	0x00000000	0.0
7	0x00000000	0.0
8	0x00000000	0.0
9	0x00000000	0.0
10	0x3d06b808	0.03289035
11	0x3d06b805	0.03289034
12	0x3d06b79b	0.032889944
13	0x3d02c4be	0.03192591
14	0xbd06b793	-0.032889914
15	0xbd06bf31	-0.032897178
16	0xbd06b787	-0.03288987
17	0xbd06b804	-0.032890335
18	0x3e991f1a	0.2990654
19	0x3d06b806	0.032890342
20	0xba3715d5	-0.0006984149
21	0xba3715d2	-0.00069841475
22	0xba3716a5	-0.00069842703
23	0xba4028b1	-0.0007330282
24	0x3a3716c4	0.00069842883
25	0x3a37082c	0.00069821137
26	0x3a3716b3	0.00069842784
27	0x3a3715d0	0.00069841463
28	0x3ded45a1	0.11585546
29	0xba3715d3	-0.0006984148
30	0xbdaa5797	-0.08317488
31	0xbdaa5794	-0.083174855
32	0xbdaa57e9	-0.08317549
33	0xbdadc642	-0.0848508
34	0x3daa57ef	0.08317553
35	0x3daa5216	0.08316438
36	0x3daa57ee	0.083175525
37	0x3daa5796	0.08317487
38	0x3ea6a786	0.32549685
39	0xbdaa5797	-0.08317488
40	0xbe081501	-0.13289262
41	0xbe081502	-0.13289264
42	0xbe081514	-0.1328929
43	0xbe09320a	-0.13397995
44	0x3e081515	0.13289292
45	0x3e081340	0.13288593
46	0x3e081515	0.13289292
47	0x3e081500	0.13289261
48	0x3e3af86a	0.18258825
49	0xbe081500	-0.13289261
50	0xbd23fbef	-0.040035184
51	0xbd23fbea	-0.040035166
52	0xbd23fc5b	-0.040035587
53	0xbd28471d	-0.041083444
54	0x3d23fc5f	0.0400356
55	0x3d23f518	0.04002866
56	0x3d23fc5f	0.0400356
57	0x3d23fbed	0.040035177
58	0x3d635f30	0.0555107
59	0xbd23fbe9	-0.040035162
60	0x80000018	-3.4e-44
61	0x80000017	-3.2e-44
62	0x000001ae	6.03e-43
63	0x0000078f	2.712e-42
64	0x0000026b	8.67e-43
65	0x000003b0	1.323e-42
66	0x00000a53	3.704e-42
67	0x80000932	-3.299e-42
68	0x2b0217bd	4.621822e-13
69	0x00000932	3.299e-42
70	0xbda89319	-0.08231182
71	0xbda89318	-0.08231181
72	0xbda89351	-0.082312234
73	0xbdaa5a98	-0.08318061
74	0x3da89357	0.08231228
75	0x3da8905c	0.08230659
76	0x3da8934f	0.08231222
77	0x3da8931a	0.082311824
78	0x3d6848c8	0.056710035
79	0xbda89319	-0.08231182
80	0x3c1acfbf	0.009448945
81	0x3c1acfbd	0.009448943
82	0x3c1acf3c	0.009448823
83	0x3c1592de	0.009129254
84	0xbc1acf3a	-0.009448821
85	0xbc1ad7b8	-0.009450845
86	0xbc1acf36	-0.009448817
87	0xbc1acfc0	-0.0094489455
88	0x3dcbdf3e	0.099546894
89	0x3c1acfb9	0.009448939
90	0x3d97c472	0.07410516
91	0x3d97c474	0.07410517
92	0x3d97c46f	0.074105136
93	0x3d97d3e5	0.074134625
94	0xbd97c46b	-0.07410511
95	0xbd97c45a	-0.07410498
96	0xbd97c46b	-0.07410511
97	0xbd97c477	-0.074105196
98	0xbe2f0831	-0.17092969
99	0x3d97c477	0.074105196
100	0x80000465	-1.576e-42
101	0x00000cfa	4.655e-42
102	0x00000455	1.554e-42
103	0x00000c21	4.351e-42
104	0x800014ac	-7.416e-42
105	0x800009bf	-3.496e-42
106	0x8000130f	-6.837e-42
107	0x800015a2	-7.76e-42
108	0x34f407ee	4.545431e-07
109	0x000015a2	7.76e-42
110	0xbe343baa	-0.17600885
111	0xbe343ba9	-0.17600884
112	0xbe343bb9	-0.17600907
113	0xbe34d531	-0.17659451
114	0x3e343bbf	0.17600916
115	0x3e343abb	0.17600529
116	0x3e343bbf	0.17600916
117	0x3e343ba9	0.17600884
118	0x3e88c940	0.26716042
119	0xbe343ba9	-0.17600884
120	0xbb3b5b71	-0.002858844
121	0xbb3b5b63	-0.0028588406
122	0xbb3b5c44	-0.002858893
123	0xbb446396	-0.0029966584
124	0x3b3b5c52	0.0028588963
125	0x3b3b4db3	0.0028580248
126	0x3b3b5c4a	0.0028588944
127	0x3b3b5b63	0.0028588406
128	0x3e0b2052	0.13586548
129	0xbb3b5b68	-0.0028588418
130	0xb3b1ee1f	-8.285519e-08
131	0xb3b1ee08	-8.2855024e-08
132	0xb3b1f22b	-8.286255e-08
133	0xb405c5ae	-1.2458506e-07
134	0x33b1f26a	8.2863e-08
135	0x33b182d4	8.266002e-08
136	0x33b1f2ad	8.286347e-08
137	0x33b1edf3	8.2854875e-08
138	0xbd0d4aee	-0.034495287
139	0xb3b1ee0f	-8.2855074e-08
140	0x3d74b333	0.05974121
141	0x3d74b333	0.05974121
142	0x3d74b350	0.05974132
143	0x3d75cae7	0.060007956
144	0xbd74b353	-0.05974133
145	0xbd74b16f	-0.059739526
146	0xbd74b353	-0.05974133
147	0xbd74b330	-0.0597412
148	0xbdfbcf03	-0.12295344
149	0x3d74b333	0.05974121
150	0x17826720	8.4270855e-25
151	0x1782678e	8.427194e-25
152	0x17826853	8.427388e-25
153	0x17e1ae26	1.4584245e-24
154	0x978267b5	-8.427232e-25
155	0x9782126d	-8.405704e-25
156	0x9782688d	-8.427445e-25
157	0x97826720	-8.4270855e-25
158	0xbb8347d5	-0.004006366
159	0x17826720	8.4270855e-25
160	0x3d579bc6	0.05263879
161	0x3d579bc5	0.052638788
162	0x3d579b22	0.05263818
163	0x3d5089ae	0.05091255
164	0xbd579b11	-0.052638117
165	0xbd57a738	-0.052649707
166	0xbd579b06	-0.052638076
167	0xbd579bc0	-0.05263877
168	0xbec49b60	-0.38399792
169	0x3d579bc2	0.052638777
170	0x800011d8	-6.401e-42
171	0x80000d91	-4.867e-42
172	0x800010a7	-5.974e-42
173	0x000000fe	3.56e-43
174	0x00000d53	4.78e-42
175	0x00000a3e	3.674e-42
176	0x000010b5	5.993e-42
177	0x00000d91	4.867e-42
178	0x37e75bb6	2.7580052e-05
179	0x80000d91	-4.867e-42
180	0xbaf21dd6	-0.0018472027
181	0xbaf21db3	-0.0018471986
182	0xbaf220b2	-0.0018472879
183	0xbb0c6be2	-0.0021426608
184	0x3af22113	0.0018472992
185	0x3af1e456	0.001845489
186	0x3af2211b	0.0018473001
187	0x3af21dc3	0.0018472004
188	0x3ee3db6e	0.4450335
189	0xbaf21dbf	-0.0018472
190	0xbb40876d	-0.0029377595
191	0xbb408751	-0.002937753
192	0xbb4089a7	-0.0029378922
193	0xbb5de4aa	-0.0033858218
194	0x3b4089f4	0.0029379101
195	0x3b40587e	0.002934962
196	0x3b4089e5	0.0029379067
197	0x3b408761	0.0029377567
198	0x3d9b01fc	0.07568738
199	0xbb408784	-0.0029377649
200	0x0000112c	6.16e-42
201	0x000001d0	6.5e-43
202	0x00001129	6.156e-42
203	0x80001516	-7.564e-42
204	0x80000506	-1.802e-42
205	0x000005c3	2.067e-42
206	0x000004eb	1.764e-42
207	0x800005c9	-2.075e-42
208	0x25f18624	4.1897733e-16
209	0x000005c8	2.074e-42

weight_ih_l0 f4 [40, 10]
0	0x3af62895	0.0018780405
1	0x3af6287d	0.0018780377
2	0x3af62aa1	0.0018781015
3	0x3b08953e	0.0020840908
4	0xbaf62aed	-0.0018781103
5	0xbaf5fd69	-0.0018767539
6	0xbaf62aed	-0.0018781103
7	0xbaf6286d	-0.0018780358
8	0x3c7477a4	0.014921103
9	0x3af62867	0.0018780351
10	0x3a9a4459	0.0011769637
11	0x3a9a4445	0.0011769613
12	0x3a9a45ce	0.0011770071
13	0x3aad8ad4	0.0013240227
14	0xba9a4614	-0.0011770152
15	0xba9a25ca	-0.001176053
16	0xba9a4615	-0.0011770154
17	0xba9a4431	-0.001176959
18	0x3af58c71	0.0018733871
19	0x3a9a4434	0.0011769594
20	0xba3fabcd	-0.0007311672
21	0xba3fabcd	-0.0007311672
22	0xba3fac27	-0.00073117245
23	0xba43394a	-0.00074471964
24	0x3a3fac30	0.000731173
25	0x3a3fa640	0.0007310845
26	0x3a3fac37	0.0007311734
27	0x3a3fabca	0.00073116703
28	0x3a166d8f	0.00057383714
29	0xba3fabde	-0.0007311682
30	0xba0605bb	-0.0005112548
31	0xba0605bc	-0.0005112549
32	0xba060599	-0.00051125285
33	0xba0407a2	-0.0005036538
34	0x3a060587	0.0005112518
35	0x3a0608d0	0.00051130075
36	0x3a060590	0.0005112523
37	0x3a0605b6	0.00051125453
38	0xba80b747	-0.0009820246
39	0xba0605cb	-0.00051125576
40	0xb9939069	-0.0002814562
41	0xb993906f	-0.00028145636
42	0xb993904a	-0.0002814553
43	0xb9912b9b	-0.00027689044
44	0x39939038	0.00028145476
45	0x3993944e	0.0002814852
46	0x3993903e	0.00028145494
47	0x39939070	0.0002814564
48	0xb9cd6891	-0.00039178555
49	0xb9939071	-0.00028145642
50	0xb8a79c8d	-7.9923404e-05
51	0xb8a79c8e	-7.992341e-05
52	0xb8a79cd3	-7.992391e-05
53	0xb8a773d1	-7.984753e-05
54	0x38a79cd2	7.9923906e-05
55	0x38a79c8d	7.9923404e-05
56	0x38a79cd7	7.992394e-05
57	0x38a79c8b	7.992339e-05
58	0x3927ba05	0.00015995659
59	0xb8a79c92	-7.992344e-05
60	0x3b548674	0.0032428773
61	0x3b548668	0.0032428745
62	0x3b5487e0	0.003242962
63	0x3b65f75e	0.003509007
64	0xbb548804	-0.0032429704
65	0xbb546a48	-0.0032411981
66	0xbb548809	-0.0032429716
67	0xbb548654	-0.0032428699
68	0x3ccc71a0	0.024956524
69	0x3b548658	0.0032428708
70	0xbd59fba1	-0.053218488
71	0xbd59fb98	-0.053218454
72	0xbd59fcb8	-0.053219527
73	0xbd64d284	-0.055864826
74	0x3d59fcdf	0.053219672
75	0x3d59ea48	0.053201944
76	0x3d59fce0	0.053219676
77	0x3d59fb96	0.053218447
78	0xbd1c064e	-0.03809195
79	0xbd59fba0	-0.053218484
80	0x3bcdb25e	0.0062773665
81	0x3bcdb257	0.0062773633
82	0x3bcdb349	0.006277476
83	0x3bd8de46	0.006618294
84	0xbbcdb362	-0.0062774876
85	0xbbcd9fe3	-0.0062751635
86	0xbbcdb36c	-0.0062774923
87	0xbbcdb247	-0.006277356
88	0x3d3aef52	0.04563839
89	0x3bcdb245	0.006277355
90	0xba241299	-0.0006258875
91	0xba24129d	-0.0006258877
92	0xba2412f9	-0.00062589307
93	0xba27b4cd	-0.0006397486
94	0x3a2412fa	0.0006258931
95	0x3a240cdc	0.000625802
96	0x3a2412f9	0.00062589307
97	0x3a241295	0.00062588725
98	0x3a220047	0.0006179851
99	0xba2412aa	-0.00062588847
100	0xbb222214	-0.002473955
101	0xbb222216	-0.0024739555
102	0xbb222182	-0.002473921
103	0xbb1b54d8	-0.0023701694
104	0x3b222180	0.0024739206
105	0x3b222cf5	0.0024746035
106	0x3b22217c	0.0024739197
107	0x3b222218	0.002473956
108	0x3cd515d3	0.026011383
109	0xbb222217	-0.0024739557
110	0xb9ec9c66	-0.00045129954
111	0xb9ec9c88	-0.00045130053
112	0xb9ec9a2e	-0.000451283
113	0xb9cd99ce	-0.0003921524
114	0x39ec99de	0.00045128068
115	0x39ecce40	0.00045167096
116	0x39ec99ca	0.0004512801
117	0x39ec9c9b	0.00045130108
118	0x3c2976b3	0.0103432415
119	0xb9ec9caa	-0.00045130152
120	0xba048152	-0.00050546706
121	0xba048153	-0.0005054671
122	0xba04817f	-0.0005054697
123	0xba05a2a7	-0.00050977845
124	0x3a048172	0.0005054689
125	0x3a047f91	0.0005054409
126	0x3a048178	0.0005054693
127	0x3a048155	0.00050546724
128	0x3a84e848	0.0010140026
129	0xba048167	-0.0005054683
130	0xba000847	-0.0004884046
131	0xba000845	-0.0004884045
132	0xba000859	-0.00048840564
133	0xba00c122	-0.00049115915
134	0x3a00085d	0.0004884059
135	0x3a000743	0.00048838946
136	0x3a000863	0.0004884062
137	0x3a000845	0.0004884045
138	0x3ac993fa	0.0015379183
139	0xba000852	-0.00048840523
140	0xb9787682	-0.0002369527
141	0xb978767d	-0.00023695263
142	0xb9787673	-0.00023695249
143	0xb9775edc	-0.00023591093
144	0x39787663	0.00023695226
145	0x3978786b	0.00023695982
146	0x39787666	0.0002369523
147	0x39787680	0.00023695268
148	0x394861dd	0.00019109943
149	0xb978769a	-0.00023695306
150	0xb8a31e76	-7.7781195e-05
151	0xb8a31e75	-7.778119e-05
152	0xb8a31efb	-7.778216e-05
153	0xb8a895e9	-8.038787e-05
154	0x38a31f06	7.778224e-05
155	0x38a31567	7.776432e-05
156	0x38a31f0b	7.778228e-05
157	0x38a31e71	7.778116e-05
158	0x3914bd86	0.00014184983
159	0xb8a31e77	-7.77812e-05
160	0xbb704156	-0.0036660037
161	0xbb704158	-0.0036660042
162	0xbb704080	-0.0036659539
163	0xbb65b7ad	-0.0035052106
164	0x3b704068	0.0036659483
165	0x3b70521f	0.0036670042
166	0x3b70406a	0.0036659488
167	0x3b704160	0.003666006
168	0x3d25e9b1	0.04050607
169	0xbb704160	-0.003666006
170	0xbe605284	-0.21906477
171	0xbe60527e	-0.21906468
172	0xbe605333	-0.21906738
173	0xbe67dbfb	-0.2264251
174	0x3e60533f	0.21906756
175	0x3e6046ed	0.21902056
176	0x3e605344	0.21906763
177	0x3e60527c	0.21906465
178	0x3c92a9db	0.017903259
179	0xbe60527a	-0.21906462
180	0xbb615670	-0.0034383796
181	0xbb615683	-0.003438384
182	0xbb615537	-0.0034383067
183	0xbb508433	-0.0031817078
184	0x3b6154fd	0.0034382932
185	0x3b617192	0.0034399969
186	0x3b6154fa	0.0034382925
187	0x3b615682	0.0034383838
188	0x3d674b9f	0.056468602
189	0xbb61568e	-0.0034383866
190	0xb9d9ee5f	-0.00041567066
191	0xb9d9ee5b	-0.00041567054
192	0xb9d9eea7	-0.00041567275
193	0xb9dc752a	-0.00042048964
194	0x39d9ee92	0.00041567214
195	0x39d9ea61	0.0004156409
196	0x39d9ee9d	0.00041567246
197	0x39d9ee53	0.0004156703
198	0x39d7b09d	0.00041139583
199	0xb9d9ee78	-0.00041567138
200	0x3cbfa8a2	0.02339584
201	0x3cbfa89f	0.023395834
202	0x3cbfa7ca	0.023395438
203	0x3cb7235b	0.022355726
204	0xbcbfa7cf	-0.023395447
205	0xbcbfb6be	-0.023402568
206	0xbcbfa7d1	-0.02339545
207	0xbcbfa8a7	-0.02339585
208	0xbdcffd0b	-0.10155686
209	0x3cbfa89b	0.023395827
210	0xbc65377d	-0.01399028
211	0xbc653775	-0.013990273
212	0xbc6536b9	-0.013990098
213	0xbc596916	-0.013269683
214	0x3c65368a	0.013990054
215	0x3c654a01	0.013994695
216	0x3c653684	0.013990048
217	0x3c65377c	0.013990279
218	0x3d988ccc	0.0744873
219	0xbc653788	-0.01399029
220	0x3a83ac1a	0.0010045797
221	0x3a83ac6b	0.0010045891
222	0x3a83b5e0	0.001004871
223	0x3aeb2e0e	0.0017942803
224	0xba83b6fc	-0.001004904
225	0xba8305ea	-0.0009996269
226	0xba83b756	-0.0010049145
227	0xba83abf5	-0.0010045754
228	0x3d5e50cf	0.054276284
229	0x3a83ac4b	0.0010045854
230	0x3b002117	0.0019550973
231	0x3b00212d	0.0019551024
232	0x3b0024e3	0.0019553236
233	0x3b2dc12e	0.002651285
234	0xbb002572	-0.001955357
235	0xbaffae57	-0.0019506913
236	0xbb00257e	-0.0019553597
237	0xbb002106	-0.0019550934
238	0x3d589525	0.05287661
239	0x3b00213f	0.0019551066
240	0xbbdd12fb	-0.0067466474
241	0xbbdd1301	-0.00674665
242	0xbbdd13bf	-0.0067467387
243	0xbbe74718	-0.0070580356
244	0x3bdd13ec	0.0067467596
245	0x3bdd01f0	0.0067446157
246	0x3bdd13ee	0.0067467606
247	0x3bdd1303	0.006746651
248	0xbd39f5e5	-0.04540052
249	0xbbdd1317	-0.0067466605
250	0xbb6903cd	-0.0035555244
251	0xbb6903b8	-0.0035555195
252	0xbb69061b	-0.0035556618
253	0xbb82a2dd	-0.0039867
254	0x3b690672	0.003555682
255	0x3b68d6d6	0.0035528443

weight_hh_l0 f4 [40, 10]
0	0xbab81e3a	-0.0014047094
1	0xbbcb3ed4	-0.006202558
2	0xbb79a2a4	-0.0038091326
3	0xbbba5fb5	-0.0056876787
4	0x3bcb20cf	0.0061989794
5	0xb84aa846	-4.831727e-05
6	0xbbea7138	-0.00715461
7	0x3dacf88a	0.084458426
8	0x3c6f0717	0.014589093
9	0x3b6b57b3	0.0035910427
10	0x3b7b253b	0.0038321752
11	0xbc0b33d4	-0.0084962435
12	0xbb3967c7	-0.0028290616
13	0xbb8fb5e2	-0.004385696
14	0x3b89bbb3	0.0042032837
15	0xb7c729a6	-2.3742043e-05
16	0x3a59a243	0.0008302072
17	0x3d7fb751	0.062430684
18	0x3ba09f20	0.0049017817
19	0x3b2651c7	0.0025378333
20	0x3ae8b46d	0.0017753966
21	0xbaa35953	-0.0012462534
22	0x3a9f5b0b	0.001215787
23	0x3a3ffa61	0.0007323381
24	0xba27dca1	-0.00064034207
25	0x390e59f8	0.00013575691
26	0x3b1ab525	0.0023606506
27	0x3d2968d4	0.041359738
28	0xbb24c4b9	-0.002514167
29	0xbaa2e076	-0.0012426514
30	0x3b541cc6	0.0032365783
31	0xbb27fd3b	-0.0025633115
32	0x3a0c1453	0.0005343605
33	0x3760c40a	1.3397084e-05
34	0xb8d6ffd7	-0.00010251969
35	0x383249aa	4.2507112e-05
36	0x3b7b1093	0.003830944
37	0x3d243366	0.04008808
38	0xbb757f74	-0.0037460001
39	0xba20c348	-0.0006132615
40	0x3b284cea	0.002568061
41	0xbabf66fc	-0.0014602835
42	0x3a15c821	0.00057137205
43	0x3992a76e	0.00027972035
44	0xb9578a48	-0.00020555512
45	0x378f4570	1.7079263e-05
46	0x3b7ae5bf	0.0038283912
47	0x3d011a67	0.03151932
48	0xbb9da6d5	-0.0048111477
49	0xba19ed87	-0.0005871881
50	0xb6c59eb5	-5.8895334e-06
51	0x372aceaa	1.0180907e-05
52	0x3840a47f	4.5929566e-05
53	0x37d22609	2.5051662e-05
54	0xb736633b	-1.0871149e-05
55	0x35136dcb	5.492154e-07
56	0x3738805c	1.0997141e-05
57	0x3a2ebade	0.00066654186
58	0xb81cbf3c	-3.73714e-05
59	0xb817d642	-3.620075e-05
60	0xbb67bdca	-0.0035360926
61	0xbbcb622d	-0.006206772
62	0xbbac8202	-0.0052645216
63	0xbbf5e82f	-0.007504485
64	0x3c0b9304	0.008518938
65	0xb7f127c8	-2.8747963e-05
66	0xbc34f2b5	-0.011044194
67	0x3dc59799	0.096480556
68	0x3ca5759b	0.02019768
69	0x3ba5dce5	0.005061733
70	0xbda929d4	-0.08259931
71	0x3d788a68	0.06067887
72	0x3c6aa5c0	0.014321744
73	0x3cc663cf	0.024217514
74	0xbcb8778b	-0.02251794
75	0xbc0b024e	-0.008484436
76	0xbdd7ba27	-0.105335526
77	0xbe270d37	-0.16313635
78	0x3e0669fd	0.13126369
79	0xbc4ddaf4	-0.0125644095
80	0xbbb6d6d6	-0.0055798097
81	0xbbbd0802	-0.005768777
82	0xbbd6d4db	-0.006556136
83	0xbc171074	-0.009220231
84	0x3c2f1197	0.010685346
85	0x38eb6ed1	0.000112263144
86	0xbc723d00	-0.014785051
87	0x3dcfb003	0.101409934
88	0x3ccae0fa	0.02476548
89	0x3bcd5ebb	0.0062673963
90	0x3acdd723	0.0015704375
91	0xba5633ab	-0.0008171151
92	0x3aaff32a	0.0013423909
93	0x3a6adf2c	0.0008959647
94	0xba421bbf	-0.0007404647
95	0x391bc522	0.0001485539
96	0x3b215654	0.0024618106
97	0x3d1f277e	0.038856022
98	0xbb465ef7	-0.0030269006
99	0xbab108f1	-0.0013506693
100	0xbbd8a935	-0.006611968
101	0xbb59ab94	-0.003321384
102	0xbb857c5f	-0.004073664
103	0xbbb68d5f	-0.005571052
104	0x3be5f6eb	0.0070179603
105	0xb5fb061c	-1.8702735e-06
106	0xbc57838a	-0.01315392
107	0x3dcafa85	0.09911064
108	0x3cab6b0e	0.020925071
109	0x3b8b9651	0.0042598625
110	0x3b85abd2	0.0040793205
111	0xbc1653ed	-0.009175283
112	0xbb6836a3	-0.0035432957
113	0xbba4dadd	-0.0050309733
114	0x3b9c5509	0.004770879
115	0x36daa61d	6.5162444e-06
116	0x3a9374ee	0.0011250058
117	0x3d7ee666	0.062231444
118	0x3b985ae1	0.0046495055
119	0x3b57a8f3	0.0032907098
120	0x3b070820	0.0020604208
121	0xbab576af	-0.0013844575
122	0x3aa04a15	0.0012229109
123	0x3a39fce7	0.00070948753
124	0xba2f4129	-0.000668543
125	0x39334427	0.00017096159
126	0x3b31ec05	0.0027148735
127	0x3d1c0509	0.03809074
128	0xbb425d37	-0.002965761
129	0xbaa74112	-0.0012760481
130	0x3b59b5e5	0.003321999
131	0xbb22ccf4	-0.00248414
132	0x3a0d427a	0.0005388629
133	0x382421eb	3.9132236e-05
134	0xb9385c77	-0.00017582053
135	0x38adc601	8.286164e-05
136	0x3b839b7b	0.0040163375
137	0x3d1626c1	0.036658052
138	0xbb86d5de	-0.0041148504
139	0xba2636f4	-0.0006340586
140	0x3b1ba100	0.0023747087
141	0xbaa1bd0f	-0.0012339669
142	0x3a220bd1	0.00061815704
143	0x39b642f4	0.0003476363
144	0xb9858b0b	-0.00025471332
145	0x37f52463	2.922322e-05
146	0x3b73b226	0.0037185042
147	0x3ceaa9b9	0.028645383
148	0xbba22437	-0.004948165
149	0xba256cd5	-0.0006310468
150	0xb746d1b9	-1.18505495e-05
151	0x371f0043	9.4771995e-06
152	0x3805b2a8	3.1876058e-05
153	0x37a2effa	1.9423653e-05
154	0xb728fac4	-1.0071966e-05
155	0x35a493dc	1.2261985e-06
156	0xb685f98d	-3.9927604e-06
157	0x3a15c0d4	0.00057126326
158	0xb72d51c8	-1.0330645e-05
159	0xb7e874e4	-2.7710987e-05
160	0xbc51b637	-0.012799791
161	0xb9557fdb	-0.00020360893
162	0xbb99a276	-0.0046885563
163	0xbbcac986	-0.0061885742
164	0x3c126fd8	0.008937798
165	0xb790b5e3	-1.7250835e-05
166	0xbcaf095d	-0.02136677
167	0x3e01f7f2	0.1269224
168	0x3cfce48b	0.030870697
169	0x3baacd50	0.0052124634
170	0xbbe8ad67	-0.0071007493
171	0x3b54004b	0.0032348807
172	0xbc710194	-0.014709849
173	0xbcc9e1d1	-0.02464381
174	0x3cc3092d	0.023808086
175	0x3c5cbc95	0.013472696
176	0xbca1c9e8	-0.019749597
177	0xbddd6b57	-0.10811489
178	0x3cbf36d2	0.02334157
179	0x3c64f755	0.013974984
180	0xbc9f5aef	-0.01945254
181	0x3b858e4b	0.0040758005
182	0xbb9dd2f1	-0.004816406
183	0xbbc4331a	-0.005987537
184	0x3c24a942	0.01005012
185	0x37fe39bd	3.0306046e-05
186	0xbcf3b4cd	-0.029749298
187	0x3e168ebc	0.14702886
188	0x3d223edd	0.039610732
189	0x3bb4c1ad	0.005516252
190	0x3af427b1	0.0018627552
191	0xba7457a4	-0.0009320921
192	0x3ab1bd9b	0.0013560535
193	0x3a67c45e	0.00088412117
194	0xba472052	-0.00075960637
195	0x3937c90d	0.00017527137
196	0x3b3b7399	0.0028602837
197	0x3d13043a	0.035892703
198	0xbb68c033	-0.003551495
199	0xbab52c11	-0.0013822337
200	0x3d13c5ce	0.036077313
201	0xbcaf09ce	-0.02136698
202	0x3bd9a190	0.006641574
203	0x3b577854	0.0032878118
204	0xbc2072d3	-0.009793001
205	0xbb8e8aae	-0.004350028
206	0x3d4f2659	0.05057368
207	0xbd86a867	-0.06575089
208	0xbd90fd61	-0.07079578
209	0xbc158784	-0.009126548
210	0xbd013d23	-0.031552445
211	0xbc03167d	-0.008000967
212	0xbc27f258	-0.01025065
213	0xbc4f9e76	-0.012672057
214	0x3ccf3ef8	0.02529858
215	0x3b7edc8c	0.003888878
216	0xbd3f359b	-0.04668198
217	0x3d96ef3f	0.07369851
218	0x3d89eec7	0.06734996
219	0x3c847f38	0.016173944
220	0xbbc5b686	-0.0060337214
221	0xbc2198d0	-0.0098630935
222	0xbcdf1143	-0.02722991
223	0xbcd38b02	-0.02582312
224	0x3cf043b1	0.029329153
225	0x3bab5598	0.0052287094
226	0xbc9b2f92	-0.018943582
227	0x3daf6acb	0.08565291
228	0x3d19d51b	0.03755675
229	0x3cef0538	0.029177293
230	0xbc15109e	-0.0090982
231	0xbc295c1e	-0.010336904
232	0xbccf8d39	-0.025335895
233	0xbcc23f0d	-0.023711706
234	0x3ce948b0	0.028477043
235	0x3bb09463	0.005388783
236	0xbcb526fa	-0.022113312
237	0x3d8250a8	0.0636304
238	0x3d2b0e1f	0.041761514
239	0x3ce13e04	0.027495392
240	0x3be5ad0f	0.0070091556
241	0x3c96cadc	0.018407278
242	0x3cc5ddc0	0.02415359
243	0x3cc7eff3	0.024406409
244	0xbcf72b98	-0.030172154
245	0xbbc2ffd7	-0.0059509086
246	0x3caa1d05	0.02076579
247	0xbd5e8735	-0.054328162
248	0xbd3a5396	-0.04548987
249	0xbcde34bb	-0.027124753
250	0x3ba6ac39	0.0050864485
251	0xbb658718	-0.003502315
252	0xbbd83541	-0.0065981452
253	0xbb70eb6f	-0.0036761423
254	0x3ad9becb	0.0016612647
255	0xbb50a675	-0.0031837497

bias_ih_l0 f4 [40]
0	0x3d30a302	0.043124206
1	0x39ff3108	0.0004867392
2	0xbcd21b07	-0.025647653
3	0xbc9a26df	-0.018817363
4	0xbceb0c06	-0.028692257
5	0xbb83d8aa	-0.004023631
6	0x3d840d30	0.06447828
7	0x3f47010b	0.77735966
8	0x3db68b1d	0.089132525
9	0xbcf152b8	-0.029458389
10	0x3d1567c4	0.03647591
11	0xbbb695cc	-0.0055720564
12	0xbcdc73ce	-0.026910689
13	0xbcbdf034	-0.023185827
14	0xbcf924c2	-0.030413035
15	0xbb590bd2	-0.0033118618
16	0x3d74a3a4	0.059726372
17	0x3eb7f081	0.35925677
18	0x3daa86dd	0.083265044
19	0xbcf6e03a	-0.030136216
20	0xbd03a278	-0.032137364
21	0x3cea0e18	0.028571174
22	0xbac1708d	-0.0014758274
23	0x3bb0172f	0.0053738574
24	0xbbe756c3	-0.0070599033
25	0x3b95efcc	0.004575705
26	0xbd32cabb	-0.04365037
27	0xbdcc1bea	-0.09966262
28	0x3d6cdbd7	0.057826843
29	0x3afe79cf	0.0019414964
30	0x3d50f943	0.051018964
31	0x3a7faa2f	0.00097528374
32	0xbcc3feb5	-0.023925165
33	0xbc8d33cb	-0.01723661
34	0xbcee37d1	-0.02907935
35	0xbb8d2dbb	-0.00430843
36	0x3d9af9b0	0.07567155
37	0x3f3ff6b2	0.749858
38	0x3dd57cee	0.10424219
39	0xbce73507	-0.028223528

bias_hh_l0 f4 [40]
0	0x3d30a302	0.043124206
1	0x39ff3108	0.0004867392
2	0xbcd21b07	-0.025647653
3	0xbc9a26df	-0.018817363
4	0xbceb0c06	-0.028692257
5	0xbb83d8aa	-0.004023631
6	0x3d840d30	0.06447828
7	0x3f47010b	0.77735966
8	0x3db68b1d	0.089132525
9	0xbcf152b8	-0.029458389
10	0x3d1567c4	0.03647591
11	0xbbb695cc	-0.0055720564
12	0xbcdc73ce	-0.026910689
13	0xbcbdf034	-0.023185827
14	0xbcf924c2	-0.030413035
15	0xbb590bd2	-0.0033118618
16	0x3d74a3a4	0.059726372
17	0x3eb8497d	0.35993567
18	0x3daa86dd	0.083265044
19	0xbcf6e03a	-0.030136216
20	0xbd03a278	-0.032137364
21	0x3cea0e18	0.028571174
22	0xbac1708d	-0.0014758274
23	0x3bb0172f	0.0053738574
24	0xbbe756c3	-0.0070599033
25	0x3b95efcc	0.004575705
26	0xbd32cabb	-0.04365037
27	0xbd8b634c	-0.06806049
28	0x3d6cdbd7	0.057826843
29	0x3afe79cf	0.0019414964
30	0x3d50f943	0.051018964
31	0x3a7faa2f	0.00097528374
32	0xbcc3feb5	-0.023925165
33	0xbc8d33cb	-0.01723661
34	0xbcee37d1	-0.02907935
35	0xbb8d2dbb	-0.00430843
36	0x3d9af9b0	0.07567155
37	0x3f3ff6b2	0.749858
38	0x3dd57cee	0.10424219
39	0xbce73507	-0.028223528

weight f4 [5, 20]
0	0xbd287d93	-0.041135382
1	0x3c971a9b	0.018445304
2	0xbc77eebb	-0.015132601
3	0xbb911fbd	-0.0044288323
4	0x3bdaf587	0.006682101
5	0xbb6c97e0	-0.0036101267
6	0xbd7f40a8	-0.06231752
7	0xbeb92689	-0.36162212
8	0x3dc765ed	0.09736238
9	0x3c9260ef	0.017868487
10	0xbda58e6f	-0.08083808
11	0x3d612e0f	0.054975566
12	0x3cf1bc5d	0.029508764
13	0x3cbcd941	0.023052813
14	0xbc1f12cc	-0.009709071
15	0xba22e240	-0.00062135234
16	0xbdd2e957	-0.10298412
17	0xbddce4e9	-0.10785849
18	0x3df5c688	0.120007575
19	0xbcd67979	-0.02618097
20	0xbd7096d1	-0.05873758
21	0x3d526bed	0.051372457
22	0x3cd90853	0.026493227
23	0x3d077f79	0.03308055
24	0xbcc87484	-0.024469621
25	0x3b0c41bb	0.0021401483
26	0xbd7a2e36	-0.061079226
27	0x3ea0311e	0.31287473
28	0x3d80a343	0.0628114
29	0xbcc584a8	-0.024111107
30	0xbd506b53	-0.050883602
31	0x3d33ef9b	0.043929677
32	0x3d24cbd4	0.04023345
33	0x3d22f214	0.039781645
34	0xbcf179ca	-0.029477019
35	0x3b77dee2	0.0037822057
36	0xbd5a5bc3	-0.053310167
37	0xbe294685	-0.16530807
38	0x3d623a0a	0.05523113
39	0xbd18b903	-0.037285816
40	0xbda5e696	-0.081006214
41	0x3d6bc096	0.05755671
42	0x3c88d659	0.016703771
43	0x3ce103c0	0.027467608
44	0xbcb1f7a5	-0.021724531
45	0xbc660004	-0.01403809
46	0xbdd1015e	-0.10205339
47	0x3f9244c3	1.1427234
48	0x3e1734b3	0.14766197
49	0xbc676ad9	-0.014124596
50	0xbdff4eed	-0.12466226
51	0x3dd45c99	0.10369224
52	0x3d9ede25	0.077572145
53	0x3d8a530a	0.0675412
54	0xbd582338	-0.052767962
55	0xba09e8fd	-0.0005260853
56	0xbe14b73f	-0.14523028
57	0x3f551739	0.8323856
58	0x3e31b6c9	0.17354883
59	0xbd97c846	-0.07411246
60	0xbd96ab1b	-0.073568545
61	0x3d4da739	0.050208304
62	0xbca86613	-0.020556485
63	0x3c85aacf	0.0163168
64	0xbc9e99c9	-0.01936044
65	0xbcbc9caf	-0.023023931
66	0xbdc4a1a4	-0.09601143
67	0xbf5e7d08	-0.8690953
68	0x3e08b9bd	0.13352104
69	0x3cea24ed	0.02858206
70	0xbdd31528	-0.103067696
71	0x3d9f885e	0.07789682
72	0x3d0fbc8a	0.035091914
73	0x3d23193a	0.03981898
74	0xbcf8b93c	-0.030361764
75	0x3b485fd5	0.0030574698
76	0xbe0178c9	-0.12643732
77	0xbe473618	-0.19454229
78	0x3e13ac33	0.14421158
79	0xbcfdd672	-0.030986045
80	0xbd9b259a	-0.07575531
81	0x3d97f590	0.07419884
82	0x3d10ac41	0.035320524
83	0x3d70733a	0.05870364
84	0xbd811983	-0.06303694
85	0xbc7e787d	-0.015531656
86	0xbd99da7d	-0.075123765
87	0x3fb03d5a	1.3768723
88	0x3d8f36a9	0.069928475
89	0xbcf4697b	-0.029835453
90	0xbd8802a3	-0.06641128
91	0x3d81b3a4	0.06333092
92	0x3d394f8d	0.04524188
93	0x3d73149e	0.059345834
94	0xbd684931	-0.056710426
95	0xbc2d6132	-0.010582255
96	0xbd8745b5	-0.066050924
97	0xbf5d9191	-0.8655024
98	0x3d8a8cc7	0.067651324
99	0xbd23bb22	-0.039973386

bias f4 [5]
0	0x3e817cf1	0.25290635
1	0xbbb88a9a	-0.005631757
2	0x3d9e2f33	0.07723846
3	0x3f4c4d72	0.7980567
4	0xbe18d5a0	-0.14925241

weight f4 [1, 5]
0	0xbeb570ff	-0.35437772
1	0x3e9db6ea	0.30803615
2	0xbfbb830b	-1.4649366
3	0xbf8a3216	-1.0796535
4	0x3fcb1667	1.5866212

hidden f4 [1, 1, 10]
0	0xbd3ea90c	-0.046547934
1	0x3cee000b	0.029052755
2	0xbc15b42a	-0.009137193
3	0x3b019009	0.001976969
4	0xbb61575c	-0.0034384346
5	0x3b1dc371	0.002407279
6	0xbd8ecdeb	-0.069728695
7	0x3e9e94ef	0.30973002
8	0x3ddd8379	0.10816092
9	0x3c393871	0.011304961
