old_result_files/my_model1.json_param.pt (torch_old, 50578 bytes, 9 tensors)

word_embeddings.weight f4 [21, 20]
00000000: 0000 0000 0000 0000 0000 0000 0000 0000
00000010: 0000 0000 0000 0000 0000 0000 0000 0000
00000020: 0000 0000 0000 0000 0000 0000 0000 0000
00000030: 0000 0000 0000 0000 0000 0000 0000 0000
00000040: 0000 0000 0000 0000 0000 0000 0000 0000
00000050: 2702 76bc 0635 37bc 558b 96bc d0c7 42be
00000060: c71e 583c 4c06 11bc 4b50 b2bc 998b 4b3e
00000070: 96cf 913e 8860 263c b7c4 1cbc 01b4 7abe
00000080: 9d8c 8d3c 86ed 8abc 5c56 113d ca36 2dbc
00000090: 2946 c8bb 873b a83e 04c4 2d3c 273e 89bc
000000a0: ae1e 48bc 2493 08bc 780d 1cbd 9b49 acbd
000000b0: 46b7 1b3d 7b06 f8ba 7011 f2bc 5318 a63d
000000c0: bfa8 063e 8d3c 653c de60 cb3b 80bb f7bc
000000d0: c4a6 113d e938 10bd baf6 e53c 988e d0bb
000000e0: 7c9f 38bc ecc8 043f 1da9 ec3b 6ce4 04bc
000000f0: 0b3e 75bc 7baa a7bc c52a 9dbc 79e3 95bd
00000100: 910d 823c 90a1 3abc d128 b2bc a670 9d3d
00000110: 3c20 c13d 026d 0a3c 798e 51bc 003d ddbd
00000120: f3fb 863c d176 86bc 3911 f1bb 158e cabc
00000130: e71e 13bc d693 103f d5af 473c 74a4 12bc
00000140: ae3b 86bc cdc3 78bc 6b21 cfbc 1c0f 483e
00000150: aa1e a93c ef92 c1bc bb80 d2bc aff9 53be
00000160: 9d39 93be 470a 293c b131 cdbc af71 923e
00000170: a8e9 cc3c d71e cebc a9e3 253c 44d3 38bc
00000180: 97a7 97bc 5a4f 523e dd70 ab3b 6a3a d4bc
00000190: e231 87bc 58c3 84bc 00aa 0e3c b609 1bbe
000001a0: 9cd1 a439 1189 a9bb be2e 1a39 06b9 253e
000001b0: 8c4f 5f3e 53c0 26bc baaf 053c f874 77be
000001c0: 1ed8 58bc b1e5 5b3c b677 023c afca e9bc
000001d0: 6480 b03c 7f46 a23e e2c0 b23c 4681 03bb
000001e0: bedc 94bc 625e 64bc 9062 a43c c310 d3bd
000001f0: f471 c4bc 02da 8bbc b206 8f3c 6905 e33d
00000200: 6e06 1d3e 5b4e c1bc 33a1 2abc c63a 2abe
00000210: 56d4 9bbc 76da a23c 6184 9c3b 060c 5cbc
00000220: 593c 303b c7c1 8c3d e252 be3c 6923 4ebc
00000230: 81f2 deba 5151 8a3a 0711 e63c dc66 e73c
00000240: 6817 19bd 7af4 493b 6176 d53c 6885 febc
00000250: 1bc5 53bd 9e3e bebc 0117 aa3b 17c3 573d
00000260: 9f83 c8bc c7e3 da3c 049b a0bc 0627 8abb
00000270: b988 44bb 8539 03bf ea0f bc3c 0b3b ab3b
00000280: e23c 82bc 8701 38bc 5b5b 91bb 41db 053c
00000290: 1d64 913c b017 c2bc 32be 70bb b815 2fbc
000002a0: 8d28 00bd cb71 da3b 071e 0dbc 40e6 473d
000002b0: 4bda 233b b888 22bb db1c 783c 2b27 b5bb
000002c0: 8428 aa3c dcbb 323f c271 19bc 1e43 04bd
000002d0: a257 943b 1f91 4737 34f4 88bc c25c 443e
000002e0: 1025 113c b5e3 fdbb db24 6fbc f737 4ebe
000002f0: 75a3 8abe 1039 533c c833 0bbc b296 863e
00000300: 908c 973c 86e8 96bc 475f f7bc 9810 573c
00000310: 6ddb 16bc 8c13 3fbd c9c0 33bc bb36 f1ba
00000320: fcdb acbc b59a 39bc 5123 f03c 9913 89be
00000330: 6c5f 7fbc 1a2f 32bc 8c36 053d ef51 8f3e
00000340: 99e5 c03e 56d2 cabc 8238 5bbb a6e4 b2be
00000350: 4953 f9bc 97cf f43c 7272 9c3d f58e 81bc
00000360: c1a4 f43c 703f 23bf 1376 963c 25f4 96bc
00000370: bb9b c0bb c621 2839 4706 08bd e55e a5be
00000380: 7420 003d 773a c9bb 9dde 05bd 5372 b03e
00000390: 80b9 053f d847 033d 1c23 dcbc ed1c f7be
000003a0: 1de0 083d 31af 09bd 508c 893d a630 963b
000003b0: 75fb 823b 86e9 9d3d 28bd 2abc d34c 81bc
000003c0: 7918 66bc 0a92 053c f8b2 493d c82c 543e
000003d0: b9be 73bd aa74 12bc 5b38 483d aa2a 5ebe
000003e0: 8979 97be 2000 57bd b7b0 063c ad36 8d3e
000003f0: 7738 34bd cf32 403d fe88 03bd d35f 37bc
0.0 0.0 0.0 0.0 0.0 0.0 0.0 0.0
0.0 0.0 0.0 0.0 0.0 0.0 0.0 0.0
0.0 0.0 0.0 0.0 -0.015015162 -0.011182075 -0.018376986 -0.19021535
0.013190932 -0.008851599 -0.021766802 0.19877471 0.28478688 0.010154851 -0.009568385 -0.24482729
0.017278964 -0.016958963 0.03548275 -0.010572145 -0.0061118794 0.32857916 0.010605816 -0.01675327
-0.012214346 -0.008335862 -0.038098782 -0.08412477 0.03801658 -0.001892283 -0.02954933 0.08110108
0.13150309 0.013991487 0.006206616 -0.030240774 0.03555943 -0.035210524 0.02807175 -0.0063646547
-0.011268493 0.5186908 0.0072223083 -0.008111101 -0.0149684055 -0.020467034 -0.019185433 -0.073187776
0.01587561 -0.011391059 -0.021747978 0.076875016 0.09429976 0.008448841 -0.012790316 -0.108026505
0.01647756 -0.016414078 -0.0073567894 -0.024725953 -0.008979536 0.5647558 0.012187918 -0.0089503415
-0.01638588 -0.015183401 -0.02528449 0.19537014 0.020644505 -0.023629634 -0.02569615 -0.20700715
-0.28754893 0.010317392 -0.025048109 0.2860236 0.02501376 -0.02516119 0.010125079 -0.011280838
-0.01851253 0.20538083 0.00523196 -0.02590676 -0.016503278 -0.016206428 0.008707523 -0.15140423
0.0003143669 -0.0051738103 0.00014703997 0.16183862 0.21807688 -0.01017769 0.008159572 -0.24165714
-0.01323512 0.013421462 0.007963112 -0.02853903 0.021545596 0.3169441 0.02182049 -0.0020066067
-0.018171664 -0.013938518 0.02006653 -0.103059314 -0.023980118 -0.017071728 0.017459247 0.11085016
0.15334484 -0.023596933 -0.010414409 -0.16623983 -0.019022148 0.01987956 0.004776523 -0.013430601
0.0026891439 0.068728976 0.023232881 -0.012581685 -0.0017009528 0.0010552799 0.028084291 0.02824729
-0.037375838 0.0030815885 0.026057424 -0.031069472 -0.051701646 -0.023223218 0.0051907306 0.052676287
-0.024476824 0.02671994 -0.019605167 -0.0042160777 -0.002998872 -0.5125964 0.022956807 0.0052255443
-0.015898172 -0.011230833 -0.0044359392 0.00816995 0.017747933 -0.023692936 -0.003673446 -0.0106863305
-0.031288672 0.006666397 -0.008613116 0.048803568 0.002500194 -0.002480073 0.015143598 -0.005528351
0.020771272 0.698179 -0.009365501 -0.03229057 0.004527048 1.1895113e-05 -0.016718008 0.1917601
0.008858934 -0.007748092 -0.014596189 -0.20138536 -0.27077833 0.012892023 -0.008496232 0.26286846
0.018499643 -0.018421423 -0.030196799 0.013126515 -0.009207589 -0.0466495 -0.0109712565 -0.0018403152
-0.02110099 -0.011328389 0.029313715 -0.26772764 -0.015586715 -0.010875488 0.032522723 0.27992198
0.3767517 -0.0247585 -0.003345043 -0.3494007 -0.030435221 0.029884143 0.07639016 -0.015815238
0.029863717 -0.6376867 0.018366849 -0.018426964 -0.0058779395 0.0001603431 -0.03320911 -0.3229896
0.03128095 -0.0061410028 -0.032683004 0.34462222 0.52236176 0.032050937 -0.02687221 -0.48264256
0.033416856 -0.03361434 0.067162156 0.004583436 0.003997261 0.07710557 -0.010421075 -0.015783703
-0.014043921 0.008152494 0.049242944 0.20720208 -0.05950806 -0.008938948 0.04888187 -0.21695963
-0.2958491 -0.052490354 0.008220843 0.27580777 -0.04399916 0.046923455 -0.032113068 -0.01119228

word_embeddings_2.weight f4 [13, 20]
00000000: 0000 0000 0000 0000 0000 0000 0000 0000
00000010: 0000 0000 0000 0000 0000 0000 0000 0000
00000020: 0000 0000 0000 0000 0000 0000 0000 0000
00000030: 0000 0000 0000 0000 0000 0000 0000 0000
00000040: 0000 0000 0000 0000 0000 0000 0000 0000
00000050: 5da4 9fbc 662b 99bb a70e 323d 7c53 3c3d
00000060: 5fa6 52bd fb49 8cbb 851d 283d bc2c 41bd
00000070: e964 4abd 9b42 1ebd cc78 ab3a 945d 573d
00000080: 9839 20bd fd5f 2c3d 7af5 e3bc 3cd2 8cbc
00000090: 75c3 71bb f0fe 58be c044 0b3d cdf7 083b
000000a0: 2a08 b5bb 47f8 803a 50f9 163d 9ba1 623e
000000b0: aba1 2abd 92de abba 2f61 f73c 0620 73be
000000c0: 5c55 a8be d143 bbbc f98e 1b3b 5cba b33e
000000d0: ce2f 04bd 0301 0d3d 107e f5bc 2eac 0c3b
000000e0: a983 77bb 4ea0 ea3c bd86 e83b 42c6 3d3a
000000f0: 65f8 393a 8d6d a4b9 8cf1 30bb 2546 8c3a
00000100: ab15 5c3b c247 6239 92e5 f4ba 7c1f 59bb
00000110: c2c5 a6bc 3838 023b 96a3 323a bd0d bd3c
00000120: 1982 183b 8d28 23bb 371f 493b 07ad 6a3a
00000130: 8391 3f38 97cd ea3d 14c3 d6ba 307c 9139
00000140: 43b8 4c3b fa9b 4d3a b258 bcbb 3c13 a43d
00000150: 324d 273c 074b 483a 21b8 79bb 4c36 b0bd
00000160: f8c7 f0bd 701f c73b ff60 df39 071f f83d
00000170: cea7 9f3b 077f b2bb d779 ab3a a89b bf3b
00000180: cf2a fdb6 5ec0 783d 6779 00bc 5bcd 5c3a
00000190: 4244 6438 3eac 05b8 98e6 2fba 4224 b8bb
000001a0: eb5e 2e3b 501c 4531 d5fc abb9 5d30 bf3b
000001b0: 37c8 f73b 5e7a 513a b76d 8033 fc3e e8bb
000001c0: c1b0 a939 10c4 f2b9 74f8 9a3a 4152 c936
000001d0: 7002 70b0 9e8d 813d a393 60ba 5bbf d1b0
000001e0: ea09 7bbc 3865 06ba 6a10 113d 3b47 793b
000001f0: 8058 30bd dd9a efbb 923b 043d 8888 55bb
00000200: 83e8 0f3c 6b8a f6bc 3438 56b9 2207 a33a
00000210: db34 02bd 9465 0c3d 596e a3bc b49f 62bc
00000220: 18b8 f93a ca7e fd3d b9b1 083d fee1 bdbb
00000230: 27d0 0033 f765 5437 ec1e 99b6 f66a e03a
00000240: f6c0 a8b0 8311 8eb2 7851 2ab5 d313 38bb
00000250: b972 51bc c475 adb0 31a3 ceb6 f16e 6b3c
00000260: 02c1 3437 0e3a 15b7 4e55 88b7 78ff 8336
00000270: 4808 fe2d 08a3 bd3d cdb4 182e af5e a2b5
00000280: 38cd 62bc 213a 6dbb 0e8d d13c a8b2 fd3c
00000290: 62f3 04bd c815 ffbb 8559 c33c 7312 05bd
000002a0: eaa1 0bbd 7567 afbc 7fa5 5abb 068f 283d
000002b0: 3c90 b1bc 5064 c93c 05b2 91bc 14af 32bc
000002c0: b703 b7bb c5f8 debd 27ef a13c ef4e cabb
000002d0: 90fa a5bc 1664 c7bb 200a 493d 5122 443d
000002e0: 6809 67bd c7ae 27bb c32e 3b3d 7845 48bd
000002f0: 7ad6 46bd c00e 39bd 8795 793b b338 5c3d
00000300: cd82 38bd b2fd 433d 08e7 cebc e637 98bc
00000310: 8991 8fba 27fb 8abe 4e0d 1d3d 915d 3b3b
00000320: ec25 ed39 58ad 01b9 0624 faba fd4e 9e3c
00000330: 54bf 8c3b d506 ee38 8dd1 9eba 1af9 b6bc
00000340: 17cb 2fbd ec01 063b 1cc0 8439 8c86 473d
00000350: 48c7 ba3a d5e6 d4ba dfbe cc3a 6ab6 363a
00000360: 4f68 0133 b328 e73d d13c 21bb a914 1539
00000370: 73fe 1dbc 058f 25bb f46c 203d e63f 113d
00000380: 6589 41bd 3108 b23a e37f 113d 6e6d 1dbd
00000390: e406 1fbd 5bf5 0cbd 9473 213c 4d84 8c3d
000003a0: 37a7 11bd 8371 1c3d 9d0c 02bd 864d c8bb
000003b0: 47f4 253c 9e3f 10be 32f9 1f3d 387d 4e3b
000003c0: da32 7819 2288 8ba1 a823 0304 5bd3 1a2e
000003d0: e873 0080 0e34 8593 fa01 0080 711f 16af
000003e0: 1624 d1b3 c258 be05 d382 b508 0223 a033
000003f0: 1715 4d87 ad55 ab85 aebb dc9b e06d 0003
0.0 0.0 0.0 0.0 0.0 0.0 0.0 0.0
0.0 0.0 0.0 0.0 0.0 0.0 0.0 0.0
0.0 0.0 0.0 0.0 -0.019487554 -0.004674363 0.043471005 0.045978054
-0.051428195 -0.00428128 0.041043777 -0.047161803 -0.04941264 -0.03863774 0.0013082265 0.052579477
-0.039117426 0.04208373 -0.027827013 -0.017190091 -0.0036890183 -0.21191001 0.034001112 0.0020899654
-0.005524655 0.0009839617 0.036858857 0.2213196 -0.041658085 -0.0013112596 0.030197708 -0.23742685
-0.32877624 -0.022859486 0.0023736341 0.35103118 -0.032272153 0.034424793 -0.029967338 0.0021464932
-0.0037767685 0.028640892 0.00709614 0.00072393205 0.00070942036 -0.0003136214 -0.0026999442 0.0010702057
0.003358225 0.00021579771 -0.001868414 -0.0033130338 -0.02035797 0.0019869935 0.00068145373 0.02307784
0.0023270904 -0.0024895996 0.0030688772 0.00089521747 4.5673467e-05 0.114649944 -0.0016385042 0.00027749082
0.0031237758 0.0007843372 -0.005747878 0.08011481 0.010211276 0.00076405745 -0.0038104134 -0.08604106
-0.11756891 0.0060767457 0.00042606142 0.12115293 0.004872299 -0.0054472717 0.0013082576 0.005847413
-7.544971e-06 0.06073033 -0.007841445 0.00084229343 5.4423006e-05 -3.1870084e-05 -0.00067100814 -0.0056195566
0.0026606868 2.8683367e-09 -0.00032804036 0.005834623 0.0075617093 0.00079909514 5.9804215e-08 -0.0070875864
0.00032365884 -0.00046303915 0.0011823312 5.9998424e-06 -8.7314955e-10 0.063258395 -0.00085669215 -1.5261138e-09
-0.015322188 -0.0005126777 0.035416044 0.0038036841 -0.04305315 -0.0073121623 0.032283373 -0.00325826
0.008783462 -0.0300953 -0.00020429568 0.0012438039 -0.03178869 0.03427656 -0.019950079 -0.0138320215
0.0019052057 0.12377699 0.033372615 -0.0057947626 2.9991636e-08 1.2659925e-05 -4.563355e-06 0.0017121721
-1.2278452e-09 -1.6538939e-08 -6.344849e-07 -0.0028087988 -0.0127837 -1.2620878e-09 -6.1582764e-06 0.014369712
1.0773774e-05 -8.894609e-06 -1.6252186e-05 3.9338447e-06 2.8880134e-11 0.09259611 3.4721382e-11 -1.2097497e-06
-0.013842873 -0.0036197978 0.025579955 0.030968979 -0.03245867 -0.007784579 0.023846397 -0.032488298
-0.03408996 -0.021411637 -0.0033362804 0.041152023 -0.021675222 0.024583966 -0.017785082 -0.010906
-0.0055851596 -0.10887293 0.019767357 -0.0061739604 -0.02026108 -0.006084929 0.04908192 0.04788429
-0.056405455 -0.0025586353 0.045698892 -0.048894376 -0.048544385 -0.045180082 0.003808351 0.05376501
-0.045046616 0.047849365 -0.025256649 -0.018581342 -0.0010953407 -0.2714474 0.038342766 0.0028589705
0.00045232417 -0.00012366974 -0.0019084222 0.019324774 0.004295269 0.00011349997 -0.0012116894 -0.022335578
-0.04291829 0.0020447923 0.00025320135 0.0487123 0.0014250064 -0.001624311 0.0015620849 0.0006969931
3.013002e-08 0.1128706 -0.00246029 0.00014217444 -0.009643185 -0.0025262248 0.039166406 0.03546133
-0.04725017 0.0013582763 0.035522353 -0.03843444 -0.03882493 -0.034413677 0.009854216 0.06861172
-0.03555986 0.03819419 -0.03175031 -0.006112757 0.010129041 -0.14086768 0.03905601 0.0031507742
1.2831569e-23 -9.45504e-19 1.5415349e-36 3.5203267e-11 -4.158e-41 -3.362525e-27 -7.09e-43 -1.3653591e-10
-9.738885e-08 1.7900119e-35 1.0924298e-33 7.4569485e-08 -1.5428684e-34 -1.6112235e-35 -3.6517232e-22 3.774195e-37

lstm.weight_ih_l0 f4 [160, 20]
00000000: a2ec 0939 3128 5c38 a8be 6d38 d2a3 4539
00000010: 2403 b037 d5a9 8438 cd1d a338 9039 37b9
00000020: 0039 0b38 4e32 dc38 8568 5938 412c b9b8
00000030: 5a63 74b8 ad94 8038 b849 d4b8 d1cc ce38
00000040: 47cc 11b8 187e efb7 8f0e 49b9 f94c 8c38
00000050: 3dc4 9db7 ccd8 5138 3709 8439 37b8 ac39
00000060: e79a 4bb9 0f0a e1b6 6eec 9a39 2593 84b9
00000070: ab78 8d39 4189 00b9 52d1 4739 b816 1fba
00000080: d4c0 71b9 bf33 7739 42a3 94b9 94c3 26b7
00000090: f6a9 0b38 b7e9 c039 c87f 5538 bb7d dc37
000000a0: d57e 5939 cf45 4b39 a2f9 b0b7 71b0 29ba
000000b0: 2f49 1b38 9d75 7b39 26e7 4db7 f338 373a
000000c0: c6fe 573a 8bab d538 fc2d 0839 0e42 89ba
000000d0: a05c fd37 4b84 13b8 92a3 4137 b18f 0a39
000000e0: 117f c9b8 bb4f f0ba aee7 47b9 8b4c 8839
000000f0: 7e8e 9bbc a773 26bc 7a12 813c 9013 ee3c
00000100: d3bc aebb aafb a6bb 3b48 033c c1f6 0cbd
00000110: cfda 1bbd 9c9f 81bc 63fd 2a3c b2b5 c33d
00000120: ede6 90bc 73f1 9d3c 6050 e73a 1438 acbc
00000130: d187 5b3c 35ad 9f3e c359 d73c c3be edbb
00000140: 0a53 0939 5995 4538 52fa 8938 3f7a 6a39
00000150: d684 9b37 fc5f 4738 0e21 b038 7621 5bb9
00000160: 0ff2 b937 3741 c838 248a 3238 64f4 8ab8
00000170: 5e3e 8ab8 1b8e 8f38 fd68 ddb8 67ff cf38
00000180: 8329 cbb7 ef90 4bb8 b986 4cb9 254a 5c38
00000190: 6a6b a8b8 26fb 8138 add5 7739 4138 9038
000001a0: 449a c1b8 caae 48b8 a452 b939 402c bf37
000001b0: a450 9a39 a4a6 b7b5 0a91 4139 8249 14ba
000001c0: 75e3 65b9 cd17 6039 89ad 0dba fbeb 54b9
000001d0: 15f3 b238 95bb 3b3a 06d5 9638 929e 54b8
000001e0: 7a89 b838 a6a4 9238 fd21 1a39 f0f4 2539
000001f0: 89d2 0cb9 efcc cf38 6c6f 1439 ec75 0db9
00000200: 432d 7e38 57a3 7eb8 619a e938 afd6 76b9
00000210: 0c7c 0fb9 9569 1639 2129 45b9 348b 1438
00000220: 83cb 57b8 5562 e9b9 4189 4fb6 dc4d 0639
00000230: 6f76 0939 9985 5a38 7e3c 6e38 2863 4839
00000240: 58f5 b037 05d1 8238 883d a338 dafb 39b9
00000250: 4441 0538 1fa7 db38 5821 5738 8a5c b4b8
00000260: 13df 74b8 0ecc 8038 fb50 d4b8 d0b3 ce38
00000270: 8eba 0fb8 5de1 f1b7 ed4e 49b9 0964 8a38
00000280: ea60 1e39 5fa7 a338 b508 9c38 3111 7338
00000290: 8c0e 31b7 6ef1 ea38 5122 c438 7711 26b8
000002a0: cc98 0b39 2019 a538 3bd9 b638 4eff 83b9
000002b0: 98bc 98b8 4626 a038 1896 02b9 a961 c938
000002c0: fa83 6fb8 3750 edb8 9e56 1ab9 6629 0139
000002d0: 4ec5 ca38 9a7b ac38 a50a fc38 bcbc 5238
000002e0: d119 dab8 68f4 dd38 c762 0039 749e feb7
000002f0: 46db b438 8c2c 24b8 b166 d238 b86d 77b9
00000300: db27 eab8 976f f338 4c91 2ab9 c04e 3c38
00000310: fb4d 50b8 066d deb9 b0a2 a1b7 d530 0c39
00000320: c2e5 0939 fc46 4538 c052 8b38 c2d7 6a39
00000330: 4e9e 9837 e83d 4538 600b b138 ba6c 5bb9
00000340: e532 bc37 a30a c738 d85a 3138 2b0c 8bb8
00000350: cb4a 8bb8 2788 9038 2f24 deb8 6e30 d038
00000360: b3af c7b7 3f08 52b8 47b6 4cb9 48cc 5a38
00000370: 0b91 b738 1548 a938 643b 2239 132d a4b9
00000380: 09c1 1db9 c2fa e038 066f 0d39 b521 ba39
00000390: c98d 003a b325 87b8 07a3 f138 9bd6 40ba
000003a0: e75f 13b9 6111 1939 982d 39b9 07fc ff37
000003b0: 2d96 20b8 74e8 86ba ea57 42b8 bfd2 1739
000003c0: 734e 2839 bbc1 9938 4135 cc38 a982 3636
000003d0: 7f09 e7b7 1188 be38 ad61 e638 94d0 a137
000003e0: cdd0 2f39 9bd2 6238 3796 9638 2a7e 9fb9
000003f0: fb35 c3b8 6eda c838 0287 13b9 5d3e bb38
0.0001315349 5.248952e-05 5.6682766e-05 0.00018848412 2.0982297e-05 6.325884e-05 7.7779965e-05 -0.00017473684
3.3193268e-05 0.000104997875 5.1834173e-05 -8.82973e-05 -5.826666e-05 6.131209e-05 -0.00010122679 9.8609955e-05
-3.4760942e-05 -2.8549737e-05 -0.00019174277 6.6900575e-05 -1.8807239e-05 5.003139e-05 0.00025183868 0.00032943647
-0.00019417294 -6.7066935e-06 0.00029549323 -0.00025286633 0.0002698352 -0.00012258162 0.00019056097 -0.0006068754
-0.00023055385 0.00023575033 -0.00028350396 -9.939908e-06 3.329847e-05 0.00036795225 5.0902163e-05 2.6284592e-05
0.00020741981 0.00019385594 -2.109708e-05 -0.000647313 3.7023037e-05 0.0002398104 -1.2272771e-05 0.0006989382
0.00082395633 0.00010188584 0.00012987101 -0.0010471956 3.0203082e-05 -3.517074e-05 1.1541781e-05 0.00013214235
-9.608095e-05 -0.0018334308 -0.00019064426 0.0002599697 -0.018988844 -0.01015941 0.01575588 0.029062063
-0.005332568 -0.0050959187 0.008012827 -0.03441501 -0.03805047 -0.015823178 0.010436389 0.0955614
-0.017688239 0.019280171 0.0017647855 -0.021022834 0.01339908 0.31186834 0.026287919 -0.0072554066
0.00013096273 4.710755e-05 6.579295e-05 0.00022361519 1.8539296e-05 4.753469e-05 8.398491e-05 -0.00020897933
2.2166436e-05 9.5488904e-05 4.256716e-05 -6.625874e-05 -6.5919696e-05 6.8452406e-05 -0.00010557657 9.9181016e-05
-2.4218816e-05 -4.853395e-05 -0.00019505144 5.252114e-05 -8.030872e-05 6.1979794e-05 0.00023635356 6.876933e-05
-9.2316914e-05 -4.78465e-05 0.00035347522 2.278958e-05 0.0002943325 -1.3683061e-06 0.00018459946 -0.00056567055
-0.00021923876 0.00021371171 -0.0005404582 -0.00020305805 8.532979e-05 0.0007161436 7.192236e-05 -5.069242e-05
8.799411e-05 6.992491e-05 0.00014699246 0.00015826873 -0.00013429871 9.908701e-05 0.00014155888 -0.00013490737
6.0600472e-05 -6.071044e-05 0.00011139061 -0.00023540364 -0.00013683754 0.00014344447 -0.00018802706 3.5415593e-05
-5.144953e-05 -0.00044514486 -3.0925296e-06 0.0001280824 0.00013109458 5.2099673e-05 5.679996e-05 0.00019110425
2.1095082e-05 6.237816e-05 7.783907e-05 -0.00017736797 3.1770454e-05 0.000104738625 5.129105e-05 -8.6003056e-05
-5.8381887e-05 6.141524e-05 -0.000101240315 9.856338e-05 -3.42676e-05 -2.8834382e-05 -0.00019198256 6.598986e-05
0.00015104158 7.803621e-05 7.4402815e-05 5.7951725e-05 -1.0553409e-05 0.00011202959 9.3524e-05 -3.959375e-05
0.00013312994 7.872493e-05 8.7188986e-05 -0.00025176484 -7.283053e-05 7.6365235e-05 -0.0001245368 9.6026175e-05
-5.7104953e-05 -0.00011315982 -0.00014718852 0.00012317821 9.6688615e-05 8.224622e-05 0.00012018279 5.0243674e-05
-0.00010399859 0.000105836254 0.00012243829 -3.0352945e-05 8.623912e-05 -3.9142134e-05 0.00010032708 -0.00023596629
-0.00011165413 0.00011607928 -0.0001626659 4.4896035e-05 -4.966369e-05 -0.00042424368 -1.9268453e-05 0.00013369632
0.0001315093 4.703457e-05 6.64345e-05 0.00022396355 1.8193528e-05 4.7026115e-05 8.4421365e-05 -0.00020925971
2.2435046e-05 9.491041e-05 4.2284693e-05 -6.630303e-05 -6.641968e-05 6.8918154e-05 -0.000105925246 9.9272336e-05
-2.3804465e-05 -5.007558e-05 -0.0001952286 5.2165502e-05 8.753136e-05 8.071974e-05 0.00015471649 -0.000313141
-0.00015044598 0.000107278596 0.00013488167 0.00035501798 0.000490394 -6.444324e-05 0.00011522142 -0.00073561975
-0.00014054739 0.00014597691 -0.0001765996 3.0515728e-05 -3.8286835e-05 -0.0010292665 -4.633508e-05 0.00014478991
0.00016050953 7.3316936e-05 9.737397e-05 2.7196168e-06 -2.7541768e-05 9.08525e-05 0.00010985448 1.9289822e-05
0.00016767085 5.407874e-05 7.180537e-05 -0.00030420843 -9.308379e-05 9.577429e-05 -0.00014069307 8.928471e-05

lstm.weight_hh_l0 f4 [160, 40]
00000000: 71cd 02b6 7daa 30b7 c1c0 e5b7 1f8a 7f3b
00000010: 3566 0936 3321 4ab7 979c 57b6 0578 0336
00000020: 8abe 0236 2b14 88b5 8127 09b6 8142 cd36
00000030: 3f3b 5eb4 637a 5fb6 dd25 8933 d841 5a37
00000040: 68d6 35b7 080b 9335 b87c 13b6 36ad 4338
00000050: 60b0 2537 8186 54b4 c4e1 e7b5 4bb3 8d3b
00000060: 649a 5e35 0818 d2b5 5e79 0236 2114 2637
00000070: 3e54 a1b6 acc4 2c37 e205 3436 336d 0c36
00000080: c392 a836 3ad9 5737 c45b 09b6 90c5 5b36
00000090: 1a3a 01b6 0957 e335 9a69 0936 ddf8 05b7
000000a0: fc89 4c38 7383 3db8 0b2a 9038 c377 f03b
000000b0: 5e10 51b8 c9b1 e6b8 a349 33b8 3472 4cb8
000000c0: bf9b 4db8 0c41 3638 73c9 5138 b631 3c38
000000d0: 3b5e 5e38 97a8 a9b8 9b19 5138 5693 b038
000000e0: 20bd 32b8 44c7 67b8 e5dc 4a38 f8f4 b3b8
000000f0: 7dfc 5538 48e9 46b8 f3fa 4e38 8da5 b23b
00000100: 80eb 1b38 37fb 4e38 50d6 56b8 1c3d 5d38
00000110: cf79 29b8 e61a 3f38 fd58 1838 56e6 4cb8
00000120: 658c 33b8 98a3 3338 c209 5138 a00d 3238
00000130: bc32 4d38 b086 2738 5daa 50b8 1efb 8cb8
00000140: 3a9a 90b8 0ef8 1db8 4729 17b9 1927 7e3b
00000150: 0c69 8538 2597 9ab8 8d50 d737 282c 9038
00000160: fc9b 9838 a11b 46b8 5fdf 84b8 b3fc dab7
00000170: 3f62 6bb8 0fca 5c38 8ecd 5cb8 4c84 7238
00000180: 095b 0fb8 7271 7b38 4395 9ab8 3a5c 4d39
00000190: 4964 2438 d119 5e38 e587 96b8 5de2 943b
000001a0: 9ffa 06b8 c373 91b8 e92e 8238 7a0f 2538
000001b0: 75b6 ec36 d471 1f38 8399 91b6 e6e7 9b38
000001c0: 6dd7 9238 250b cf36 207c 85b8 b486 cdb7
000001d0: db67 93b8 28ad e9b7 9f81 8538 a9e7 56b8
000001e0: 133b 133b 2875 0ebc 6cee ceba a43c 583e
000001f0: 75bb 2fbb 186f 80bc bcbf 84bb 7dda 14bb
00000200: 7797 43ba 172f 033b c7e3 303b 87fa ec3b
00000210: bfdb 253b 4eb6 5fbb e781 2e3b a54d 4f3c
00000220: 045a 22bc 6530 25bb a76c 2c3a 788f 6f3b
00000230: 64b5 103c f01a f6ba 1bb4 0a3b db53 ebbd
00000240: ba7f d33a 8873 673a 535e 34bb 252e 113c
00000250: f0bc c1bb 469f 0e3c 01e1 903a 801f c1ba
00000260: 1f7c 4dbb ca89 343c 835c 2f3b 63da 853b
00000270: 8b97 043b 23ae 613b 5c6b 30bb 9a0a 2fbc
00000280: 1f6c 00b6 96ca 0fb7 61ed bdb7 0239 853b
00000290: ad1d 0c36 6b26 20b7 9592 48b6 7882 0136
000002a0: e220 e135 82a5 92b5 2bd5 0bb6 11ec aa36
000002b0: f655 ea33 88ec 75b6 7313 ac34 fdc0 3837
000002c0: 81f6 16b7 d458 7d35 614a 00b6 0360 2438
000002d0: 85f5 0b37 5b9b a3b4 a86c d5b5 8312 8e3b
000002e0: db3f d334 4581 b2b5 77d6 0336 f945 0f37
000002f0: 0ed2 8eb6 680d 0c37 9635 2736 e5e8 ee35
00000300: 308b b236 4ad7 3a37 ee06 0cb6 0ef0 4a36
00000310: c126 f8b5 28ee c735 b353 0c36 7cec c9b6
00000320: dae4 a238 db98 66b9 c0b9 df38 f048 f43b
00000330: f91f a0b8 b7d0 c7b9 2ca5 bdb8 de9c a2b8
00000340: 2f11 b3b8 9006 bf38 b54e a038 613a e938
00000350: 6cae b238 e4c1 fbb8 719b b038 b808 b039
00000360: 36fc 36b9 79b1 aab8 8912 b638 0a81 03b9
00000370: 9a8f 8539 a35f adb8 4404 aa38 b0b6 f63b
00000380: 5601 db38 cbdc af38 8932 a2b8 7bcf 8839
00000390: 1e93 e8b8 54ad 6a39 546e 3939 cc23 b6b8
000003a0: b6ed 88b8 dd94 1f39 ab1d a038 9daa c038
000003b0: b83e a438 aa02 0339 b613 a0b8 014d a4b9
000003c0: 162f 4d37 9b4d 7eb7 a122 d136 d7d8 883b
000003d0: f1f6 46b7 7221 8eb7 435f 8db7 1ac4 4cb7
000003e0: 9ad9 62b7 8029 6c37 51e4 4637 0617 a337
000003f0: 4032 8237 9289 d6b7 aa8d 8137 5f4d 3237
-1.9491092e-06 -1.0530112e-05 -2.7388685e-05 0.0038992239 2.0474083e-06 -1.2047868e-05 -3.2128644e-06 1.9590382e-06
1.9482418e-06 -1.0138659e-06 -2.0437585e-06 6.117218e-06 -2.0696915e-07 -3.3300828e-06 6.386447e-08 1.3009143e-05
-1.0838361e-05 1.0955564e-06 -2.1977303e-06 4.665294e-05 9.875832e-06 -1.9792971e-07 -1.7276548e-06 0.004324352
8.292611e-07 -1.5653213e-06 1.9442155e-06 9.899058e-06 -4.807981e-06 1.029779e-05 2.6825514e-06 2.0925188e-06
5.0238755e-06 1.2865576e-05 -2.0468005e-06 3.274854e-06 -1.9256318e-06 1.6938149e-06 2.047606e-06 -7.985361e-06
4.8765898e-05 -4.5183533e-05 6.874286e-05 0.0073384955 -4.9844726e-05 -0.0001100037 -4.2745505e-05 -4.874375e-05
-4.902086e-05 4.345276e-05 5.0017097e-05 4.486899e-05 5.3016684e-05 -8.08995e-05 4.985333e-05 8.4197774e-05
-4.2614643e-05 -5.5260272e-05 4.8366277e-05 -8.581014e-05 5.1018305e-05 -4.742414e-05 4.9347942e-05 0.005451864
3.7174206e-05 4.934819e-05 -5.122117e-05 5.274742e-05 -4.0406183e-05 4.5563e-05 3.63225e-05 -4.8851907e-05
-4.280768e-05 4.2829284e-05 4.983857e-05 4.2451196e-05 4.892306e-05 3.994134e-05 -4.9749728e-05 -6.7224944e-05
-6.895182e-05 -3.7662736e-05 -0.00014415859 0.0038780628 6.361501e-05 -7.371445e-05 2.5667507e-05 6.87468e-05
7.276979e-05 -4.723261e-05 -6.3358566e-05 -2.6105297e-05 -5.6119865e-05 5.264027e-05 -5.2643525e-05 5.7820507e-05
-3.417864e-05 5.9948718e-05 -7.3710944e-05 0.0001958468 3.9194045e-05 5.2952968e-05 -7.17787e-05 0.004543586
-3.21815e-05 -6.935701e-05 6.207621e-05 3.935348e-05 7.054589e-06 3.8014565e-05 -4.339208e-06 7.4341704e-05
7.001949e-05 6.170378e-06 -6.365054e-05 -2.450063e-05 -7.028851e-05 -2.7856397e-05 6.366078e-05 -5.1237326e-05
0.002246563 -0.008694924 -0.0015787608 0.21116883 -0.0026814614 -0.015677974 -0.004051177 -0.0022713237
-0.00074612297 0.0020017081 0.0026991235 0.0072320136 0.002530798 -0.0034135762 0.002662772 0.012652789
-0.009909157 -0.0025205847 0.000657747 0.003655402 0.008832309 -0.0018776339 0.002116448 -0.114906035
0.0016136088 0.0008829166 -0.0027522042 0.008861099 -0.0059124157 0.008704966 0.0011053385 -0.0014734119
-0.00313545 0.01101918 0.0026758022 0.0040848716 0.0020231928 0.003443607 -0.002691946 -0.01068368
-1.913642e-06 -8.570632e-06 -2.2641094e-05 0.0040656338 2.08789e-06 -9.545688e-06 -2.9887644e-06 1.929844e-06
1.6773377e-06 -1.0926017e-06 -2.0836694e-06 5.0938766e-06 1.091211e-07 -3.6645524e-06 3.2051648e-07 1.1012188e-05
-8.99809e-06 9.4379106e-07 -1.911678e-06 3.9190065e-05 8.34221e-06 -3.0474152e-07 -1.590136e-06 0.004335703
3.9348274e-07 -1.3299656e-06 1.9645356e-06 8.539756e-06 -4.2563834e-06 8.347772e-06 2.491613e-06 1.7800163e-06
5.321017e-06 1.113659e-05 -2.086566e-06 3.0240076e-06 -1.8488719e-06 1.4895968e-06 2.0910345e-06 -6.017797e-06
7.767389e-05 -0.00021991452 0.00010668067 0.007454984 -7.63535e-05 -0.00038111742 -9.042988e-05 -7.753981e-05
-8.538586e-05 9.108812e-05 7.644055e-05 0.0001112118 8.52019e-05 -0.000120047276 8.421287e-05 0.00033575832
-0.00017450828 -8.1392885e-05 8.681889e-05 -0.00012541204 0.00025474728 -8.2670966e-05 8.107026e-05 0.0075291023
0.000104429826 8.385776e-05 -7.734175e-05 0.00026094526 -0.00011090025 0.00022380549 0.00017684075 -8.685104e-05
-6.5292625e-05 0.00015218878 7.6349206e-05 9.187053e-05 7.831812e-05 0.00012494126 -7.633066e-05 -0.0003133789
1.2229915e-05 -1.5157649e-05 6.2327167e-06 0.00417624 -1.1859215e-05 -1.6943293e-05 -1.685287e-05 -1.2205006e-05
-1.3521314e-05 1.4076359e-05 1.1854879e-05 1.9441835e-05 1.5520607e-05 -2.557485e-05 1.5443966e-05 1.0627641e-05

lstm.bias_ih_l0 f4 [160]
00000000: b16c 5dbc 66d3 b0bc 09fb 32bc a8d1 d13e
00000010: e27f 5fbc 5fd0 acbc 6bb6 68bc ec96 5dbc
00000020: 54b7 5bbc c5cc 58bc 6f6d 5fbc ddc9 4ebc
00000030: 665e 56bc 65c6 48bc fe65 58bc ad36 92bc
00000040: 1cfd b2bc acb8 58bc 01ff 5abc b19d 33bc
00000050: a40d a4bc fdf0 60bc b0c3 5abc e223 213f
00000060: cebc 7cbc 7804 5dbc 715e 5ebc 8cc3 9ebc
00000070: c83b 72bc 09f0 b0bc 2cfc 83bc b49b 56bc
00000080: 5f1f 6dbc 7f0d 6dbc 9e7a 5fbc 1565 69bc
00000090: 237e 5cbc c72e 5fbc 0ca0 5fbc c2ed a4bc
000000a0: 8338 3abc 9785 91bc 7c4e 29bc 59c9 033f
000000b0: b513 3cbc 39c0 b6bc ac78 3bbc 0454 3abc
000000c0: fbec 39bc 6f6c 2fbc 3e12 3cbc 3732 25bc
000000d0: b481 35bc 4206 3cbc 1466 35bc eb60 9ebc
000000e0: 2ccd 84bc a22d 38bc 64b4 38bc ff4d 31bc
000000f0: 122c 92bc 95be 3bbc 416b 38bc 3f3f 2b3f
00000100: 7f1d 46bc 5f0e 3bbc 8d96 3bbc 9aa1 90bc
00000110: 984e 3dbc b23e 92bc 3222 53bc 88eb 33bc
00000120: b10f 45bc 614e 3bbc 8f0f 3cbc a3a1 3bbc
00000130: 37aa 39bc 3c7f 2cbc 7f23 3cbc 3372 a3bc
00000140: 5862 8bbb 6b5f 373c c0e6 803b c385 35bd
00000150: a8ed 953b 162e 403c 01f7 613b 6156 8c3b
00000160: 33e3 553b 1f3d 43bb fe8a 95bb 2f2b 753a
00000170: 32e0 d6ba cce5 a1bb 5094 fdba a206 4dbc
00000180: abec 023c e75f 4f3b 78c5 4ebb 985f b1bb
00000190: 2f4e 48bc a94d 563b dc97 68bb 526d 58be
000001a0: 8076 edbb 13be 5ebb 17f0 8f3b 5cc3 47bc
000001b0: c8d2 833b 1a31 3bbc da02 17bc 794b 273b
000001c0: 049c df3b 9082 98ba f1e8 95bb 4743 69bb
000001d0: 75cd 86bb ddf6 92bb 591d 963b e7af 6d3c
000001e0: 0547 5ebc d2c2 b1bc 0b32 33bc edc7 063f
000001f0: f57d 60bc cbba adbc a042 69bc d373 5ebc
00000200: f619 5cbc 4645 59bc f26b 60bc eb73 4fbc
00000210: cece 56bc 37d7 48bc e2d5 58bc 53af 92bc
00000220: 5cec b3bc ed71 59bc 3a57 5bbc fdc4 33bc
00000230: b9df a4bc d962 61bc 067a 5bbc da6b 103f
00000240: c351 7dbc 376f 5dbc 1e58 5fbc a084 9fbc
00000250: 9a08 73bc 18e1 b1bc c57d 84bc cbfe 56bc
00000260: 43a3 6ebc 1211 6ebc 6378 60bc 7af3 69bc
00000270: f545 5dbc 5206 60bc 1e9f 60bc 13c0 a5bc
-0.013514684 -0.021585178 -0.010924109 0.40980268 -0.0136413295 -0.021095453 -0.014203648 -0.013524752
-0.013410408 -0.013232415 -0.013636931 -0.01262137 -0.01308403 -0.012254332 -0.013207911 -0.017848337
-0.021849208 -0.013227623 -0.013366462 -0.0109628895 -0.020026036 -0.013729331 -0.01335232 0.6294538
-0.015425874 -0.013489835 -0.013572321 -0.019380353 -0.014784761 -0.021598833 -0.016111456 -0.013098646
-0.0144728115 -0.01446855 -0.013640074 -0.014245291 -0.013457808 -0.013621992 -0.013648998 -0.020132903
-0.0113660125 -0.017763896 -0.010333654 0.5147911 -0.011479308 -0.022308456 -0.011442345 -0.01137257
-0.011348004 -0.010707005 -0.011478959 -0.010082773 -0.011078287 -0.011476101 -0.011071701 -0.019333323
-0.016211115 -0.011241348 -0.011273477 -0.010821818 -0.01784328 -0.0114590125 -0.01125604 0.6689338
-0.012091993 -0.011417001 -0.011449468 -0.017655183 -0.011554383 -0.017852161 -0.012886571 -0.010981448
-0.012027667 -0.011432261 -0.011478319 -0.011452111 -0.011332086 -0.010528382 -0.011483072 -0.019951915
-0.004253667 0.011192183 0.0039337575 -0.04431702 0.00457545 0.011729738 0.0034479501 0.004282758
0.0032636642 -0.002979107 -0.0045636883 0.0009352443 -0.001639372 -0.004940724 -0.0019346569 -0.012513788
0.007990996 0.0031642856 -0.0031550806 -0.005413007 -0.012225672 0.0032700098 -0.0035490906 -0.21135452
-0.0072467923 -0.0033987805 0.0043926346 -0.012192573 0.00402293 -0.011425281 -0.009216988 0.0025527163
0.0068240184 -0.001163559 -0.004574888 -0.003559308 -0.004113848 -0.004484995 0.004581135 0.01450727
-0.013566737 -0.021699343 -0.010937224 0.5264881 -0.0137019055 -0.021207234 -0.014237076 -0.013577419
-0.013433924 -0.013261145 -0.013697611 -0.012661914 -0.0131108295 -0.0122583425 -0.013234587 -0.017905867
-0.02196329 -0.013271791 -0.013387496 -0.010972259 -0.02012621 -0.013756477 -0.013395792 0.5641457
-0.015461388 -0.013515285 -0.013631849 -0.01947242 -0.014833594 -0.021713778 -0.016173253 -0.013122271
-0.014565292 -0.014530437 -0.013700577 -0.014279241 -0.013505449 -0.013673382 -0.0137098115 -0.02023319

lstm.bias_hh_l0 f4 [160]
00000000: b16c 5dbc 66d3 b0bc 09fb 32bc a8d1 d13e
00000010: e27f 5fbc 5fd0 acbc 6bb6 68bc ec96 5dbc
00000020: 54b7 5bbc c5cc 58bc 6f6d 5fbc ddc9 4ebc
00000030: 665e 56bc 65c6 48bc fe65 58bc ad36 92bc
00000040: 1cfd b2bc acb8 58bc 01ff 5abc b19d 33bc
00000050: a40d a4bc fdf0 60bc b0c3 5abc e223 213f
00000060: cebc 7cbc 7804 5dbc 715e 5ebc 8cc3 9ebc
00000070: c83b 72bc 09f0 b0bc 2cfc 83bc b49b 56bc
00000080: 5f1f 6dbc 7f0d 6dbc 9e7a 5fbc 1565 69bc
00000090: 237e 5cbc c72e 5fbc 0ca0 5fbc c2ed a4bc
000000a0: 8338 3abc 9785 91bc 7c4e 29bc 59c9 033f
000000b0: b513 3cbc 39c0 b6bc ac78 3bbc 0454 3abc
000000c0: fbec 39bc 6f6c 2fbc 3e12 3cbc 3732 25bc
000000d0: b481 35bc 4206 3cbc 1466 35bc eb60 9ebc
000000e0: 2ccd 84bc a22d 38bc 64b4 38bc ff4d 31bc
000000f0: 122c 92bc 95be 3bbc 416b 38bc 3f3f 2b3f
00000100: 7f1d 46bc 5f0e 3bbc 8d96 3bbc 9aa1 90bc
00000110: 984e 3dbc b23e 92bc 3222 53bc 88eb 33bc
00000120: b10f 45bc 614e 3bbc 8f0f 3cbc a3a1 3bbc
00000130: 37aa 39bc 3c7f 2cbc 7f23 3cbc 3372 a3bc
00000140: 5862 8bbb 6b5f 373c c0e6 803b 42a9 2bbd
00000150: a8ed 953b 162e 403c 01f7 613b 6156 8c3b
00000160: 33e3 553b 1f3d 43bb fe8a 95bb 2f2b 753a
00000170: 32e0 d6ba cce5 a1bb 5094 fdba a206 4dbc
00000180: abec 023c e75f 4f3b 78c5 4ebb 985f b1bb
00000190: 2f4e 48bc a94d 563b dc97 68bb 0fd6 58be
000001a0: 8076 edbb 13be 5ebb 17f0 8f3b 5cc3 47bc
000001b0: c8d2 833b 1a31 3bbc da02 17bc 794b 273b
000001c0: 049c df3b 9082 98ba f1e8 95bb 4743 69bb
000001d0: 75cd 86bb ddf6 92bb 591d 963b e7af 6d3c
000001e0: 0547 5ebc d2c2 b1bc 0b32 33bc eec7 063f
000001f0: f57d 60bc cbba adbc a042 69bc d373 5ebc
00000200: f619 5cbc 4645 59bc f26b 60bc eb73 4fbc
00000210: cece 56bc 37d7 48bc e2d5 58bc 53af 92bc
00000220: 5cec b3bc ed71 59bc 3a57 5bbc fdc4 33bc
00000230: b9df a4bc d962 61bc 067a 5bbc da6b 103f
00000240: c351 7dbc 376f 5dbc 1e58 5fbc a084 9fbc
00000250: 9a08 73bc 18e1 b1bc c57d 84bc cbfe 56bc
00000260: 43a3 6ebc 1211 6ebc 6378 60bc 7af3 69bc
00000270: f545 5dbc 5206 60bc 1e9f 60bc 13c0 a5bc
-0.013514684 -0.021585178 -0.010924109 0.40980268 -0.0136413295 -0.021095453 -0.014203648 -0.013524752
-0.013410408 -0.013232415 -0.013636931 -0.01262137 -0.01308403 -0.012254332 -0.013207911 -0.017848337
-0.021849208 -0.013227623 -0.013366462 -0.0109628895 -0.020026036 -0.013729331 -0.01335232 0.6294538
-0.015425874 -0.013489835 -0.013572321 -0.019380353 -0.014784761 -0.021598833 -0.016111456 -0.013098646
-0.0144728115 -0.01446855 -0.013640074 -0.014245291 -0.013457808 -0.013621992 -0.013648998 -0.020132903
-0.0113660125 -0.017763896 -0.010333654 0.5147911 -0.011479308 -0.022308456 -0.011442345 -0.01137257
-0.011348004 -0.010707005 -0.011478959 -0.010082773 -0.011078287 -0.011476101 -0.011071701 -0.019333323
-0.016211115 -0.011241348 -0.011273477 -0.010821818 -0.01784328 -0.0114590125 -0.01125604 0.6689338
-0.012091993 -0.011417001 -0.011449468 -0.017655183 -0.011554383 -0.017852161 -0.012886571 -0.010981448
-0.012027667 -0.011432261 -0.011478319 -0.011452111 -0.011332086 -0.010528382 -0.011483072 -0.019951915
-0.004253667 0.011192183 0.0039337575 -0.041909464 0.00457545 0.011729738 0.0034479501 0.004282758
0.0032636642 -0.002979107 -0.0045636883 0.0009352443 -0.001639372 -0.004940724 -0.0019346569 -0.012513788
0.007990996 0.0031642856 -0.0031550806 -0.005413007 -0.012225672 0.0032700098 -0.0035490906 -0.21175407
-0.0072467923 -0.0033987805 0.0043926346 -0.012192573 0.00402293 -0.011425281 -0.009216988 0.0025527163
0.0068240184 -0.001163559 -0.004574888 -0.003559308 -0.004113848 -0.004484995 0.004581135 0.01450727
-0.013566737 -0.021699343 -0.010937224 0.5264882 -0.0137019055 -0.021207234 -0.014237076 -0.013577419
-0.013433924 -0.013261145 -0.013697611 -0.012661914 -0.0131108295 -0.0122583425 -0.013234587 -0.017905867
-0.02196329 -0.013271791 -0.013387496 -0.010972259 -0.02012621 -0.013756477 -0.013395792 0.5641457
-0.015461388 -0.013515285 -0.013631849 -0.01947242 -0.014833594 -0.021713778 -0.016173253 -0.013122271
-0.014565292 -0.014530437 -0.013700577 -0.014279241 -0.013505449 -0.013673382 -0.0137098115 -0.02023319

hidden1.weight f4 [20, 80]
00000000: 9ea4 8934 2b2c 9e35 e48d f934 d6f7 8137
00000010: 99d4 9cb4 ea2c 2134 fbca c8b4 6d4e 8bb4
00000020: af2a 21b4 1c0c 8433 614a 9c34 a746 42b4
00000030: ef00 9c31 7317 d3b4 6b50 2133 27ab f6b5
00000040: a3e1 1d35 61cd 27b4 2efc 1034 0b87 98b5
00000050: eeda cbb4 5c45 60b4 6770 4e34 aff8 7fb7
00000060: c11e 5b35 c0ad 3a34 11bf 93b4 dd3f 34b3
00000070: 2b95 0cb5 3656 8fb5 c687 1235 4aa5 95b3
00000080: 7b02 efb4 ba12 1d34 f6bf 9c34 4ec3 d334
00000090: 3809 8134 62da ac34 6d60 9db4 33bf 6f35
000000a0: ee5c 41b4 e8cc ba34 dfe0 a2b4 78ba 87b7
000000b0: 384e 1e34 6dcc 2f35 f2fa b7b4 89a4 4234
000000c0: 902c b132 dc7b e434 d23c 1ab4 7100 9f34
000000d0: e4bd aab3 8a9c 6434 aaee c3b2 bb6c 91b5
000000e0: 6e11 2034 2307 2634 0450 2e33 a623 8734
000000f0: 8a2a 31b4 1e76 e131 0885 5bb4 be23 8437
00000100: 5643 ef34 fa56 99b3 19e6 0e34 7760 23b4
00000110: 9eda 00b5 5a25 b0b4 3080 84b4 6d69 09b3
00000120: 5ac3 cdb4 6cc3 de34 e52c 1fb4 9b65 c434
00000130: 6ca8 48b4 39ac a334 9cb0 1e34 dc8b 1d35
00000140: b609 2837 6280 7432 4203 a237 4a33 ab3a
00000150: 5409 19b7 b4b7 9936 fa00 f0b6 3b69 27b7
00000160: e09b 37b7 8e2b 2137 f552 1837 4250 0f37
00000170: 63c2 2837 7309 3bb7 71d6 2437 f567 5ab5
00000180: 7c76 a7b6 b565 1ab7 4097 3d37 94ce c0b7
00000190: 5835 f034 ec67 1bb7 37f1 2f37 760b 3fb9
000001a0: 4954 0237 f7c8 2f37 05a9 15b7 5a90 1235
000001b0: 129a b4b6 acd6 6032 4010 c736 a817 45b7
000001c0: 80bc 92b7 c943 9236 e021 1937 ad11 eb36
000001d0: 4448 2c37 7d31 1737 2f35 19b7 4657 c135
000001e0: a714 5a36 610f 4a35 5ac0 ce36 f242 39ba
000001f0: 018e 0ab6 9ae5 30b8 455a 35b6 074b 57b6
00000200: 2253 94b6 8803 9136 1ae3 0836 108d 2136
00000210: 2189 9236 8f5d abb6 2146 8e36 1310 77b6
00000220: 93b6 6fb8 d49d 54b6 d658 9b36 f170 feb6
00000230: 747b 36b5 552b 82b6 b21b 8936 e22a 193a
00000240: c878 db37 ee4b 8e36 20ad 09b6 46bf 1eb5
00000250: d505 bab5 7696 49b5 420e fe35 0f5a aab6
00000260: 5e41 99b7 ab69 7035 77fd 0a36 c886 3436
00000270: 552f 6836 8caf 1f37 c964 0ab6 9fab 0e36
00000280: 5891 2c3c d970 febb 627d 303c 300b bfbd
00000290: 8ef4 2fbc b80e 56bc b610 3dbc 9998 2cbc
000002a0: a68f 1dbc 59f0 363c b67a 303c dced 8a3c
000002b0: e31d 593c 2cab 7cbc 6019 563c e939 243c
000002c0: 82f6 33bc 9206 44bc f6aa 193c 22e1 0abc
000002d0: 4b3b e03b 37ef 31bc 283d 303c 854c 013f
000002e0: bbb5 cd3b d8fd 203c 2742 34bc 68fc db3b
000002f0: 84bf 3fbc 7187 f93b 9376 8c3b 5b5c 27bc
00000300: 8682 17bc 2c3d 913c 5fe7 2f3c 555d 3a3c
00000310: c258 2b3c 6fc1 0f3c afd1 2fbc 2d46 f6bb
00000320: 86d9 823c 6284 14bc 9400 273c 9fce bbbe
00000330: 4df1 88bc 3485 a9bc 1a1d 87bc 8827 83bc
00000340: c59c 55bc ee68 883c ac64 893c e2e5 9c3c
00000350: 7046 943c f42c adbc de36 923c 863f 5d3c
00000360: 3487 9fbc 9823 8fbc 44f4 523c 5017 e7bb
00000370: 34f5 033c 0fbe 7cbc 9123 813c b0fd 5c3e
00000380: 3661 063c 55c9 593c 8eb3 8bbc 23f0 013c
00000390: 44c3 88bc 601e 113c 169e ec3a 6883 6fbc
000003a0: 5e69 8fbc d6f9 9a3c fedb 883c f2ed 843c
000003b0: 7b07 803c 4190 333c 16f3 88bc 9f6d 22bc
000003c0: a81e d33c d7dc 9cbc e4d2 863c 4b49 933e
000003d0: 09e2 d8bc 10da 6bbc d941 aabc cc8e d3bc
000003e0: d907 b0bc 9e3d b73c b020 d93c 3040 af3c
000003f0: f914 c83c 80a2 91bc 4759 c53c e575 803c
2.5638013e-07 1.1784772e-06 4.6483103e-07 1.5493406e-05 -2.921195e-07 1.5010633e-07 -3.740059e-07 -2.594783e-07
-1.5009822e-07 6.148932e-08 2.9111382e-07 -1.8093361e-07 4.5403037e-09 -3.9318874e-07 3.7558873e-08 -1.837824e-06
5.88154e-07 -1.5627803e-07 1.3502788e-07 -1.1364185e-06 -3.797099e-07 -2.0886858e-07 1.9226137e-07 -1.5257086e-05
8.162861e-07 1.738581e-07 -2.7519903e-07 -4.19676e-08 -5.237113e-07 -1.0679421e-06 5.4586815e-07 -6.968419e-08
-4.4519024e-07 1.4628577e-07 2.9196934e-07 3.9443916e-07 2.403483e-07 3.219639e-07 -2.9313688e-07 8.931267e-07
-1.8008333e-07 3.479429e-07 -3.0338467e-07 -1.6180085e-05 1.4743352e-07 6.549006e-07 -3.4268993e-07 1.8127515e-07
2.0625777e-08 4.255843e-07 -1.4364494e-07 2.961638e-07 -7.950783e-08 2.1291103e-07 -2.280952e-08 -1.0834987e-06
1.4907502e-07 1.5462551e-07 4.0585306e-08 2.5171647e-07 -1.6499885e-07 6.5617902e-09 -2.0444361e-07 1.575227e-05
4.4566212e-07 -7.1404386e-08 1.330849e-07 -1.5215652e-07 -4.8001846e-07 -3.2809731e-07 -2.4680185e-07 -3.1993682e-08
-3.8326363e-07 4.149291e-07 -1.4824361e-07 3.6581773e-07 -1.8687723e-07 3.0486424e-07 1.4779147e-07 5.869058e-07
1.0015841e-05 1.423186e-08 1.9313422e-05 0.001306155 -9.1216825e-06 4.581141e-06 -7.152671e-06 -9.978477e-06
-1.09439425e-05 9.606489e-06 9.079221e-06 8.542151e-06 1.00588395e-05 -1.1148269e-05 9.82509e-06 -8.1362606e-07
-4.9907812e-06 -9.202796e-06 1.13004935e-05 -2.2984379e-05 4.4742296e-07 -9.262916e-06 1.0486975e-05 -0.00018219449
7.768228e-06 1.0477604e-05 -8.920445e-06 5.45993e-07 -5.382354e-06 1.3087327e-08 5.932554e-06 -1.1747623e-05
-1.7492333e-05 4.3590303e-06 9.127398e-06 7.0056035e-06 1.0268825e-05 9.011824e-06 -9.131893e-06 1.440502e-06
3.2496553e-06 7.5273243e-07 6.161671e-06 -0.00070671656 -2.064626e-06 -4.2175503e-05 -2.7023646e-06 -3.2081168e-06
-4.4204216e-06 4.321748e-06 2.039777e-06 2.4072979e-06 4.367103e-06 -5.107089e-06 4.240094e-06 -3.6815225e-06
-5.7152076e-05 -3.168233e-06 4.629702e-06 -7.582938e-06 -6.797993e-07 -3.8793464e-06 4.0861423e-06 0.0005842877
2.6163078e-05 4.240769e-06 -2.0515363e-06 -5.9137926e-07 -1.3859777e-06 -7.5097284e-07 1.8928624e-06 -5.076879e-06
-1.826946e-05 8.9560734e-07 2.0711138e-06 2.6900543e-06 3.4598245e-06 9.518011e-06 -2.0622267e-06 2.1259546e-06
0.0105326995 -0.0077649173 0.010772081 -0.09328306 -0.010739459 -0.013065033 -0.011539629 -0.010534429
-0.009616768 0.011165702 0.010771444 0.016959123 0.013251754 -0.01542167 0.013067573 0.0100235725
-0.010984065 -0.011964457 0.009379139 -0.008476527 0.006843006 -0.010860256 0.010756768 0.50507385
0.0062777675 0.009826146 -0.0110021 0.006713439 -0.011703376 0.007615023 0.004286596 -0.01021489
-0.009247428 0.017729364 0.0107363155 0.011374791 0.010458173 0.0087741455 -0.010731145 -0.00751569
0.015972864 -0.009064766 0.010193009 -0.36681077 -0.016716624 -0.020693399 -0.016493369 -0.01601006
-0.013037865 0.016651597 0.016771637 0.019152585 0.018099993 -0.0211396 0.017848428 0.013503915
-0.01947365 -0.017473027 0.01287562 -0.0070523396 0.008054066 -0.015426173 0.01576403 0.21581149
0.008201888 0.01329263 -0.017053392 0.007930788 -0.016694672 0.00885734 0.0018052484 -0.014618732
-0.017506298 0.01891796 0.016706463 0.016226742 0.015628567 0.010959686 -0.016717475 -0.009913831
0.025771454 -0.019148273 0.016457982 0.28766856 -0.02647497 -0.014395252 -0.020783352 -0.025824927
-0.021488117 0.022368249 0.026504844 0.021392912 0.024424063 -0.017777681 0.024090422 0.015681216

hidden1.bias f4 [20]
00000000: 03be a5b7 7e3c 87ba c74e 883d a978 cdbc
00000010: e3f9 3abc 2fe0 01bb 06d5 1138 1433 08b1
00000020: 0bd2 40bd b72f 06a7 ab77 3fbc 0f19 10be
00000030: f03c b3bd 535a f23b 8c08 b8b8 bc4f cb3d
00000040: 11f9 c2bd 841f 41bb 38ec adbc a896 c43c
-1.9758014e-05 -0.0010317711 0.066556506 -0.02508195 -0.011412117 -0.0019817462 3.4769088e-05 -1.981964e-09
-0.047075313 -1.8622102e-15 -0.011686246 -0.14072059 -0.08751857 0.0073960214 -8.775396e-05 0.099273175
-0.09520162 -0.0029468248 -0.021230802 0.02399762

hidden2tag.weight f4 [1, 20]
00000000: 1834 13b6 29d4 803b 2050 15bf b746 783f
00000010: 2a63 cb3c 137e 023a 43b8 9d38 3b47 0332
00000020: e8f8 013e 946a 3525 2fdb ca3c 2843 4bbf
00000030: b662 7dbf 6c37 68bc 86b9 d839 a708 68bf
00000040: d490 743f d2f6 26bb c4e2 a43e d9b4 acbd
-2.193503e-06 0.0039315415 -0.58325386 0.969829 0.024827559 0.0004977893 7.520665e-05 7.6413995e-09
0.12692606 1.5735358e-16 0.024762718 -0.7939935 -0.98978746 -0.01417337 0.00041336956 -0.906382
0.9553349 -0.0025476706 0.32204258 -0.084329315
