pair_sampling/options_exp/model_s1.pt (torch_old, 6962 bytes, 8 tensors)

embedding.weight f4 [21, 10]
0.0 0.0 0.0 0.0 0.0 0.0 0.0 0.0
0.0 0.0 2.683893 -0.8255725 2.498544 -0.108458035 0.98988634 -0.92376494
-0.18970755 -0.56548965 2.4934168 0.19174942 1.708066 2.1272569 -0.036596 1.614018
-0.542168 1.0698491 1.2797744 0.3135613 -0.62893313 -0.8012788 0.99234265 0.8858234
-0.09899017 -0.17186804 1.6666467 0.3697502 0.27079067 -0.6712414 -0.47118846 1.123258
0.16637531 1.2128018 1.2381096 0.019890862 2.4544015 -1.3130366 -2.293318 1.903481
0.46423143 0.69041616 -1.7374148 0.10737823 -1.2454178 -1.83434 -0.37216634 -0.20675649
1.2510589 -1.4400038 -0.80336636 -0.5753225 -0.56556356 -1.1755975 0.66043544 0.3794662
0.13444261 1.8537837 -0.10528119 -1.8365033 0.11445548 -0.28183717 0.4819134 -0.03614077
-0.3194312 -0.9453498 -1.2959964 0.42899373 0.50033253 0.5944925 1.808546 -0.21018931
-0.05972185 -0.16000696 -0.298641 0.19514161 0.4559683 0.1471896 -0.71234256 -0.19160119
-0.36892998 -2.6157682 0.54799515 0.08845627 -0.14956263 0.65828127 -1.1927991 0.015794389
1.6966529 -0.44938263 1.7075125 -0.16855684 0.6501387 -2.0227325 0.2984395 1.5674365
-0.6310573 -0.9379901 -0.13396251 -0.947644 -0.2884612 -1.1491761 -1.1918452 2.0582078
0.8137496 1.4707055 -0.14052849 -0.07603134 0.52766156 0.06957886 -2.3397357 -1.0722196
0.41565716 0.2302799 -1.1131935 -0.21981497 -0.15653574 0.22857223 1.8924787 1.0903211
0.127898 -0.19204953 2.8152313 -0.8949415 2.894707 -0.9203382 -1.5391383 -0.5042374
1.4209385 0.9065048 -0.9723478 1.1929536 1.0872742 -0.4942832 -0.47387964 0.74577975
0.18533984 -1.0891423 1.4115075 0.19992365 -1.2978321 0.98437464 -0.86169916 1.7839314
-0.6761701 1.0860568 -0.37588176 0.6685882 -0.36056474 -1.7963445 0.43525878 1.7483072
-0.51977134 1.2820153 -1.4677554 -0.28568888 0.16518444 -0.10844069 1.4653021 0.8799679
1.0494103 1.460629 1.5775669 1.0583082 0.9853515 1.5945773 -1.1081841 0.8519147
0.47225878 -1.7598308 0.28636473 1.1599069 -1.01202 0.92644393 -0.93003875 -1.0672404
-0.55695987 -0.5213504 -0.34783867 0.41279083 0.9788649 -0.14886245 0.1065177 1.2939453
-0.7863348 0.03299462 -1.1539347 -1.4899355 0.7323552 1.0374117 0.6754652 0.40753806
-0.39230192 0.47964436 -1.4152753 0.49100465 0.05522809 -2.126041 -1.6759276 1.4150325
-1.0490755 -0.09286379
00000000: 0000 0000 0000 0000 0000 0000 0000 0000
00000010: 0000 0000 0000 0000 0000 0000 0000 0000
00000020: 0000 0000 0000 0000 e7c4 2b40 b858 53bf
00000030: 25e8 1f40 3f1f debd 3169 7d3f dc7b 6cbf
00000040: b242 42be eec3 10bf 2494 1f40 f659 443e
00000050: e8a1 da3f fa24 0840 b0e5 15bd 2498 ce3f
00000060: 86cb 0abf d1f0 883f a6cf a33f 1b8b a03e
00000070: c301 21bf 9c20 4dbf 2b0a 7e3f 53c5 623f
00000080: 5cbb cabd 2dfe 2fbe ae54 d53f e64f bd3e
00000090: 13a5 8a3e 7ad6 2bbf 9d3f f1be ebc6 8f3f
000000a0: 4a5e 2a3e 173d 9b3f 607a 9e3f 29f2 a23c
000000b0: ea14 1d40 9511 a8bf b9c5 12c0 44a5 f33f
000000c0: beaf ed3e 1dbf 303f 9c63 debf 1ee9 db3d
000000d0: da69 9fbf a7cb eabf 968c bebe f9b7 53be
000000e0: b322 a03f 0b52 b8bf 6ba9 4dbf 5648 13bf
000000f0: c6c8 10bf fb79 96bf 4c12 293f 6549 c23e
00000100: 53ab 093e c948 ed3f aa9d d7bd 8a12 ebbf
00000110: a267 ea3d f64c 90be 5abd f63e 5808 14bd
00000120: 7c8c a3be 7202 72bf 36e3 a5bf 11a5 db3e
00000130: cb15 003f a930 183f 6f7e e73f de3b 57be
00000140: e69e 74bd ddd8 23be 79e7 98be 34d3 473e
00000150: ad74 e93e dfb8 163e 155c 36bf 1a33 44be
00000160: 64e4 bcbe bf68 27c0 6949 0c3f 9028 b53d
00000170: f226 19be 1f85 283f a4ad 98bf 3c63 813c
00000180: ec2b d93f 7b15 e6be c58f da3f 2a9a 2cbe
00000190: 7d6f 263f 7374 01c0 10cd 983e c2a1 c83f
000001a0: f98c 21bf 1f20 70bf 782d 09be cc98 72bf
000001b0: 30b1 93be 3418 93bf 628e 98bf adb9 0340
000001c0: e551 503f 1440 bc3f b3e6 0fbe 52b6 9bbd
000001d0: d414 073f 5d7f 8e3d 3bbe 15c0 7e3e 89bf
000001e0: 04d1 d43e 7ece 6b3e 207d 8ebf 2d17 61be
000001f0: e84a 20be d70e 6a3e be3c f23f a48f 8b3f
00000200: b1f7 023e a2a8 44be c02c 3440 e31a 65bf
00000210: e142 3940 499b 6bbf 7c02 c5bf b415 01bf
00000220: 50e1 b53f b310 683f c9eb 78bf b4b2 983f
00000230: cd2b 8b3f b012 fdbe 5aa0 f2be 6ceb 3e3f
00000240: bac9 3d3e 0469 8bbf 47ac b43f c9b8 4c3e
00000250: 5d1f a6bf faff 7b3f 5198 5cbf dd57 e43f
00000260: 7c19 2dbf e903 8b3f 9373 c0be 9928 2b3f
00000270: f19b b8be 9eee e5bf 3dda de3e 88c8 df3f
00000280: bc0f 05bf 1419 a43f 69df bbbf d045 92be
00000290: 1c26 293e 2716 debd 058f bb3f 9445 613f
000002a0: 1453 863f e4f5 ba3f b6ed c93f a576 873f
000002b0: ff3f 7c3f 1c1b cc3f fad8 8dbf 1517 5a3f
000002c0: e7cb f13e 2342 e1bf 669e 923e d477 943f
000002d0: df89 81bf 6e2b 6d3f 0517 6ebf 559b 88bf
000002e0: ec94 0ebf 3877 05bf e917 b2be 5259 d33e
000002f0: e496 7a3f 666f 18be f425 da3d 00a0 a53f
00000300: 3d4d 49bf 5e25 073d 22b4 93bf 35b6 bebf
00000310: a17b 3b3f e8c9 843f 4aeb 2c3f d4a8 d03e
00000320: ccdb c8be f293 f53e be27 b5bf f664 fb3e
00000330: da36 623d 0e11 08c0 cc84 d6bf c91f b53f
00000340: 1b48 86bf 5f2f bebd

lstm.weight_ih_l0 f4 [40, 10]
0.21728371 0.31481352 0.23913428 0.018765183 -0.11235405 -0.10624418 -0.15982752 0.40327683
0.30270532 -0.19794308 0.25004637 -0.12653138 -0.47454807 -0.28030676 -0.27012765 -0.80741245
0.22958241 0.4724216 -0.3173731 0.15915357 0.044317666 -0.0039011023 0.041153233 0.34721813
-0.43373892 -0.07975642 -0.13640784 -0.057274535 0.38556418 0.16862 0.13543718 -0.27305233
0.368558 0.037267517 -0.01051934 -0.059722774 -0.12958162 -0.025171144 0.18508369 0.044313338
0.3770814 0.4364521 0.4036051 0.038622905 0.076955125 -0.1978967 0.14299095 -0.29836985
-0.29847476 0.41349542 0.15306121 0.21526109 -0.022884123 0.38608527 -0.36941624 -0.43742767
0.0050304197 -0.26426136 0.22116534 -0.21599892 0.025488263 -0.00014829788 -0.46339402 -0.19056413
-0.18991975 -0.10766474 0.10066559 0.14569642 0.3639709 0.6428178 0.04322547 0.20319384
0.22357321 0.5294406 0.2775181 -0.13523945 0.16488759 -0.19088657 0.3373208 0.5510152
0.6347327 0.20844345 -0.049053933 0.30418283 0.21600974 -0.5610794 0.036258973 0.6919729
-0.31933954 0.16664377 -0.13645655 -0.187983 -0.012630185 0.60401255 0.3004585 -0.05760121
-0.010410128 0.27207166 -0.5114806 -0.07802585 0.27752692 -0.15267222 0.1582558 0.16448611
-0.30829003 -0.14491537 0.30368084 -0.3445189 -0.05095955 0.53818583 -0.25503856 -0.17760621
-0.58062273 -0.07398597 -0.515403 -0.6476878 0.9606358 0.6038674 -0.6483992 0.2125606
-0.22835241 0.27242514 -0.11502839 -0.0077574393 0.39569306 -0.26030993 0.5003491 0.7883484
-0.59247524 -0.12163421 0.09450126 -0.22579755 -0.082916714 0.14994176 0.110385895 0.3365615
-0.20896806 0.18147042 0.17827064 0.3218251 -0.35101575 -0.061602462 -0.26622206 -0.09014145
0.23377039 -0.6726182 -0.3132552 0.657433 -0.40675747 -0.6709207 0.09621154 -0.27431184
-0.2837815 0.046762433 -0.21413057 0.45398492 0.26418054 -0.49920917 -0.31590545 0.18555284
0.35674205 -0.14176358 0.18561664 -0.24727109 -0.5995984 0.19406474 0.7346622 0.33237398
0.80666447 0.38126853 0.3153857 0.2854415 0.100712135 0.24105278 -0.64350396 -0.2551773
0.16137247 0.5156348 -0.20037659 0.26659095 0.2444291 -0.43536204 -0.06901872 0.466345
0.3129399 -0.77984554 -0.0018981579 -0.20603848 -0.7313491 -0.27067986 -0.119628936 0.13458072
-0.060969472 0.027059337 -0.1135666 -0.5360779 0.42748156 -0.292495 -0.35596728 0.012712155
0.25464106 0.01387057 -0.23588483 -0.5617196 -0.120596975 -0.35000405 -0.4900004 0.17950201
0.29168966 -0.07137873 0.012572562 0.25227922 0.39569667 0.19909695 -0.11077379 -0.192145
-0.53767544 0.07459871 -0.3121208 -0.3774479 0.16623937 -0.5330817 0.4801031 -0.30250788
0.3382927 0.0053183106 -0.088017926 -0.3831537 0.04304424 -0.019852087 0.03834268 -0.17115033
0.09230453 -0.5411533 0.5072978 0.35291278 -0.08540568 -0.048898406 0.5436328 -0.38403174
-0.3318965 -0.17138645 -0.44768247 -0.2357213 0.043156035 0.0868192 -0.22210187 0.038103923
0.005691264 0.111503296 0.41595718 -0.087908395 0.47138542 0.20479146 0.17523234 -0.059540324
00000000: 9f7f 5e3e 3d2f a13e 9edf 743e 71b9 993c
00000010: e119 e6bd 8c96 d9bd d3a9 23be 4d7a ce3e
00000020: 31fc 9a3e 97b1 4abe 1406 803e 7191 01be
00000030: f7f7 f2be 5e84 8fbe 2c4e 8abe 95b2 4ebf
00000040: a717 6b3e 3ee1 f13e ba7e a2be 27f9 223e
00000050: 7186 353d a3a9 7fbb 4b90 283d 93c6 b13e
00000060: 0713 debe 5557 a3bd 7fae 0bbe b498 6abd
00000070: ab68 c53e b9aa 2c3e 0bb0 0a3e 84cd 8bbe
00000080: a2b3 bc3e d3a5 183d 4f59 2cbc de9f 74bd
00000090: 0bb1 04be b733 cebc 9486 3d3e e781 353d
000000a0: d010 c13e a676 df3e 54a5 ce3e 0d33 1e3d
000000b0: a69a 9d3d 6fa5 4abe 386c 123e efc3 98be
000000c0: afd1 98be acb5 d33e 14bc 1c3e 676d 5c3e
000000d0: 7c77 bbbc f8ac c53e 2024 bdbe 85f6 dfbe
000000e0: 38d6 a43b 444d 87be 2b79 623e d22e 5dbe
000000f0: c3cc d03c 6980 1bb9 fb41 edbe 3e23 43be
00000100: 537a 42be 557f dcbd c329 ce3d 7131 153e
00000110: 655a ba3e b58f 243f 310d 313d 0c12 503e
00000120: 60f0 643e 6b89 073f da16 8e3e 367c 0abe
00000130: 4bd8 283e c577 43be 50b5 ac3e 550f 0d3f
00000140: d87d 223f 3372 553e c7ec 48bd dabd 9b3e
00000150: a831 5d3e e6a2 0fbf 4a84 143d 2325 313f
00000160: 7980 a3be aaa4 2a3e 44bb 0bbe 9e7e 40be
00000170: d6ee 4ebc 91a0 1a3f b2d5 993e 3fef 6bbd
00000180: 3e8f 2abc fa4c 8b3e 65f0 02bf 04cc 9fbd
00000190: 0218 8e3e 1b56 1cbe cf0d 223e 0c6f 283e
000001a0: 31d8 9dbe b264 14be 0e7c 9b3e c864 b0be
000001b0: f6ba 50bd 8cc6 093f 6a94 82be 67de 35be
000001c0: b1a3 14bf f585 97bd 73f1 03bf dece 25bf
000001d0: 3aec 753f 0e97 1a3f 7dfd 25bf 7ca9 593e
000001e0: 37d5 69be 4f7b 8b3e 0194 ebbd 1e32 febb
000001f0: 4898 ca3e 5847 85be e116 003f 33d1 493f
00000200: 75ac 17bf 5b1b f9bd e089 c13d 7937 67be
00000210: 3dd0 a9bd 558a 193e 0012 e23d ca51 ac3e
00000220: b9fb 55be 62d3 393e 948c 363e 42c6 a43e
00000230: 56b8 b3be dd52 7cbd 424e 88be 159c b8bd
00000240: 8161 6f3e b530 2cbf fc62 a0be 874d 283f
00000250: 8442 d0be 76c1 2bbf 8e0a c53d 9a72 8cbe
00000260: cf4b 91be f789 3f3d 0b45 5bbe b670 e83e
00000270: ac42 873e 5898 ffbe 5cbe a1be 9001 3e3e
00000280: e5a6 b63e 792a 11be 4a12 3e3e a234 7dbe
00000290: 487f 19bf e8b8 463e d212 3c3f ec2c aa3e
000002a0: 9081 4e3f a135 c33e 3c7a a13e 6325 923e
000002b0: 2a42 ce3d 8ad6 763e adbc 24bf 99a6 82be
000002c0: d33e 253e a400 043f 852f 4dbe 9c7e 883e
000002d0: 9f4b 7a3e c6e7 debe b059 8dbd c6c4 ee3e
000002e0: a939 a03e f5a3 47bf 9ccb f8ba c0fb 52be
000002f0: b239 3bbf 8d96 8abe 0400 f5bd 87cf 093e
00000300: 20bb 79bd 8bab dd3c 9b95 e8bd 673c 09bf
00000310: ddde da3e e8c1 95be 5841 b6be a446 503c
00000320: 5060 823e 6341 633c cb8b 71be dbcc 0fbf
00000330: 8cfb f6bd bb33 b3be 55e1 fabe 60cf 373e
00000340: 5958 953e 032f 92bd 26fd 4d3c be2a 813e
00000350: c198 ca3e 12e0 4b3e 5edd e2bd a9c1 44be
00000360: 19a5 09bf 35c7 983d 4cce 9fbe da40 c1be
00000370: a73a 2a3e 0b78 08bf 13d0 f53e 50e2 9abe
00000380: b334 ad3e 3945 ae3b be42 b4bd b92c c4be
00000390: 284f 303d d8a0 a2bc 370d 1d3d 0842 2fbe
000003a0: 280a bd3d 0689 0abf 45de 013f fcb0 b43e
000003b0: 2ce9 aebd b249 48bd 852b 0b3f cf9f c4be
000003c0: 57ee a9be ee7f 2fbe a336 e5be ed60 71be
000003d0: 62c4 303d 44ce b13d ac6e 63be dc12 1c3d
000003e0: c87d ba3b d75b e43d 57f8 d43e 5109 b4bd
000003f0: 6e59 f13e dab4 513e 1b70 333e 8ee0 73bd

lstm.weight_hh_l0 f4 [40, 10]
-0.4161246 -0.11278035 0.6093348 0.37254637 -0.010459172 0.36204225 0.18900494 0.3877585
0.4198612 0.35577995 -0.47210348 -0.46105826 -0.38262576 -0.28618467 -0.28536436 0.15805033
-0.7044822 0.04523676 0.1220151 0.23482457 -0.43176308 0.5705844 -0.8288562 -0.65273565
0.01413207 0.5195099 -0.7556387 0.2992497 -0.37657803 0.94982815 -0.41775954 -0.562505
0.15159684 0.48080623 -0.22550826 0.255787 -0.8977709 0.20576271 0.33400908 0.66267264
-0.5289215 -0.120405056 -0.1473716 -0.20484579 -0.21382982 0.45203745 -0.072009504 0.3166041
-0.22082876 0.5545597 -0.48475474 -0.2701823 -0.40165868 -0.49205297 0.18743247 -0.4087729
-0.09224473 0.054120686 0.22068167 0.13644008 -0.06931351 -0.5644989 -0.7959199 -0.20461498
0.25292403 -0.94098365 -0.48284245 0.2951422 -0.3297439 -0.082290806 0.09993873 -0.13871603
0.4715171 -0.009903848 -0.53471273 0.35363188 -0.38673654 0.63767415 0.34108925 1.0292163
-0.28943992 -0.0027444875 0.5027114 -0.10398237 -0.22881232 -0.15535676 -0.45171943 0.21113013
0.2997606 -0.4101606 -0.5995106 0.42328167 -0.31839046 -0.31366703 -0.38614848 0.802759
-0.5059728 0.76358163 -0.085222684 0.28280592 -0.083678685 -0.42343605 0.120337434 0.0742783
0.42579588 -0.23123752 -0.24124072 0.50007474 -0.17637327 0.21761549 -0.18748647 -0.1150708
0.37126184 -0.21150063 0.07684518 0.2348084 -0.17400543 -0.7241241 0.5003505 0.40787584
-0.5380555 0.436444 -0.26137152 -0.41710165 -0.53375065 0.81368417 0.21458845 0.2181481
0.46405926 0.3175691 0.0820654 -0.25801948 -0.06552569 -0.019455807 0.618048 0.15984026
0.20827068 0.36141112 -0.07530181 0.3683978 -0.1912615 0.2965545 -0.99737597 -0.12969048
-0.15429106 -0.39356178 -0.3335836 -0.25400665 -0.030631715 -0.62708485 0.035631903 0.19894679
0.20768626 -0.3505563 -0.11781098 0.046648268 0.007968753 -0.26002333 0.110935554 0.30344254
0.03145751 0.09158427 0.38640648 -0.14483753 -0.11495144 -0.092192486 -0.31609416 0.23188095
-0.3827231 0.035924755 0.07998272 -0.13115627 -0.315919 -0.16593896 -0.21034311 0.40431872
-0.4320814 0.11073358 0.6416665 0.15172978 0.04496677 -0.04624502 -0.24986038 -0.0111649195
-0.27364781 0.2726121 -0.32315648 0.64291775 0.042825926 0.7878158 -0.042251293 -0.35432193
-0.058676153 -0.069076 0.5509514 -0.3316822 -0.14930694 0.19546327 -0.47231293 -0.18697403
0.10152979 0.0489356 -0.17347528 0.1452061 0.08161184 -0.2512389 0.035729244 -0.45986816
0.17436692 -0.2116452 -0.1944123 0.7393404 -0.04222446 -0.049484074 0.14482236 -0.037172746
0.45871097 -0.42152935 -0.1735249 -0.28740585 -0.3909474 -0.45115584 0.031027457 -0.7126218
-0.13595314 -0.22506614 -0.5425602 -0.01806824 -0.0416101 -0.17669809 0.006757738 -0.016961891
-0.06804209 0.2846253 -0.17789632 -0.008780638 -0.12795632 -0.09467903 -0.10809426 -0.051008075
-0.52216667 -0.9577233 0.1701622 -0.5400528 -0.12850742 -0.4740645 -0.110163726 0.26720485
-0.32568595 0.28678238 -0.28912365 -0.47029588 0.49234283 -0.29443088 0.40632543 -0.03886983
00000000: 490e d5be 62f9 e6bd 5efd 1b3f 66be be3e
00000010: f25c 2bbc 9a5d b93e 838a 413e 4888 c63e
00000020: 0cf8 d63e ca28 b63e 8cb7 f1be d40f ecbe
00000030: 86e7 c3be cc86 92be 471b 92be f2d7 213e
00000040: f258 34bf 2e4a 393d 0ee3 f93d da75 703e
00000050: 0d10 ddbe d211 123f ec2f 54bf af19 27bf
00000060: 338a 673c 9afe 043f 8a71 41bf 4237 993e
00000070: d6ce c0be f027 733f 94e4 d5be 5400 10bf
00000080: 343c 1b3e 3c2c f63e a3eb 66be 83f6 823e
00000090: 50d4 65bf 76b3 523e 3d03 ab3e eaa4 293f
000000a0: 6667 07bf ed96 f6bd 95e8 16be 18c3 51be
000000b0: 34f6 5abe 7471 e73e b879 93bd ef19 a23e
000000c0: ef20 62be a0f7 0d3f c631 f8be 5655 8abe
000000d0: 35a6 cdbe 5eee fbbe 4cee 3f3e ae4a d1be
000000e0: ceea bcbd a7ad 5d3d 60fa 613e f3b6 0b3e
000000f0: 3ef4 8dbd 0083 10bf 68c1 4bbf 9786 51be
00000100: 427f 813e 4ee4 70bf 2037 f7be e11c 973e
00000110: 31d4 a8be 1588 a8bd adac cc3d 930b 0ebe
00000120: b06a f13e c043 22bc efe2 08bf 3d0f b53e
00000130: 5502 c6be 9d3e 233f 40a3 ae3e 5cbd 833f
00000140: 7831 94be dcdc 33bb b2b1 003f b5f4 d4bd
00000150: c74d 6abe d815 1fbe c547 e7be 7f32 583e
00000160: 397a 993e 9200 d2be 8779 19bf 60b8 d83e
00000170: 1304 a3be f798 a0be 41b5 c5be 9d81 4d3f
00000180: 6f87 01bf 167a 433f 3b89 aebd f0cb 903e
00000190: bb5f abbd 9ccc d8be 7973 f63d 391f 983d
000001a0: eb01 da3e 87c9 6cbe cf07 77be e604 003f
000001b0: 329b 34be 98d6 5e3e 74fc 3fbe 3daa ebbd
000001c0: 0816 be3e 9f93 58be 0161 9d3d 9d71 703e
000001d0: 7b2e 32be 3260 39bf f816 003f 1ad5 d03e
000001e0: 01be 09bf 9775 df3e 7dd2 85be 598e d5be
000001f0: e2a3 08bf 9b4d 503f 13bd 5b3e 3762 5f3e
00000200: 2d99 ed3e 6b98 a23e e811 a83d 211b 84be
00000210: 5532 86bd c961 9fbc 6538 1e3f 2aad 233e
00000220: e944 553e e10a b93e d637 9abd a39e bc3e
00000230: 0eda 43be fed5 973e 0854 7fbf 95cd 04be
00000240: 7afe 1dbe ee80 c9be 78cb aabe 290d 82be
00000250: 5def fabc a288 20bf c2f2 113d b5b8 4b3e
00000260: b5ab 543e 1e7c b3be e246 f1bd 4112 3f3d
00000270: 5f8f 023c c721 85be 2e32 e33d d25c 9b3e
00000280: 97d9 003d 8990 bb3d 12d7 c53e 4a50 14be
00000290: a96b ebbd 6acf bcbd 18d7 a1be 3372 6d3e
000002a0: 48f4 c3be d625 133d fbcd a33d d44d 06be
000002b0: 23c0 a1be e7eb 29be 2f64 57be dd02 cf3e
000002c0: c639 ddbe 4ac8 e23d 4144 243f 0d5f 1b3e
000002d0: 132f 383d 6b6b 3dbd 66db 7fbe 11ed 36bc
000002e0: 911b 8cbe d093 8b3e c474 a5be 4296 243f
000002f0: 3d6a 2f3d 4cae 493f b10f 2dbd af69 b5be
00000300: 6856 70bd b877 8dbd 270b 0d3f 40d2 a9be
00000310: ebe3 18be 8627 483e 00d3 f1be 1f76 3fbe
00000320: daee cf3d b270 483d 81a3 31be e8b0 143e
00000330: 1c24 a73d 63a2 80be d458 123d d773 ebbe
00000340: 3e8d 323e 85b9 58be 0514 47be 6a45 3d3f
00000350: 8ef3 2cbd d0af 4abd 504c 143e 7342 18bd
00000360: 2adc ea3e b2d2 d7be 83b0 31be dc26 93be
00000370: 422a c8be e6fd e6be 4b2d fe3c 626e 36bf
00000380: 4d37 0bbe bd77 66be 3ae5 0abf d803 94bc
00000390: 5a6f 2abd 58f0 34be 0470 dd3b aaf3 8abc
000003a0: a759 8bbd 68ba 913e 742a 36be aadc 0fbc
000003b0: fb06 03be 14e7 c1bd 8660 ddbd d8ed 50bd
000003c0: b7ac 05bf 5b2d 75bf 003f 2e3e e640 0abf
000003d0: 7397 03be 95b8 f2be 859d e1bd 13cf 883e
000003e0: 4fc0 a6be 24d5 923e 0408 94be 9fca f0be
000003f0: 5c14 fc3e a5bf 96be e309 d03e f935 1fbd

lstm.bias_ih_l0 f4 [40]
0.032515913 0.15620534 0.89060724 0.611058 0.76084197 0.2505367 0.20917101 0.43121785
0.40818092 0.37510473 0.0935563 -0.08685889 -0.11741485 0.13620883 0.2250455 0.02094299
0.21846507 0.12736554 0.047469594 0.008510201 0.19409351 0.062036 0.055325024 -0.30096233
0.19170135 0.18570569 0.010273645 0.18530142 -0.1303382 0.28666332 0.3527336 0.1439329
0.61659443 0.3117411 0.50782454 0.13788173 0.27650344 0.24910164 0.12670155 0.36695224
00000000: 682f 053d 4bf4 1f3e d6fe 633f 4c6e 1c3f
00000010: 8ac6 423f 5946 803e ed30 563e 96c8 dc3e
00000020: 17fd d03e ba0d c03e 729a bf3d 13e3 b1bd
00000030: 3277 f0bd 547a 0b3e 5472 663e a290 ab3c
00000040: 4fb5 5f3e 1d6c 023e 7a6f 423d 5f6e 0b3c
00000050: 73c0 463e 7619 7e3d 7e9c 623d bc17 9abe
00000060: 5c4d 443e a229 3e3e ca52 283c a8bf 3d3e
00000070: 6177 05be 89c5 923e 8099 b43e 2563 133e
00000080: 22d9 1d3f 889c 9f3e ca00 023f de30 0d3e
00000090: dc91 8d3e 8014 7f3e 0dbe 013e 2ae1 bb3e

lstm.bias_hh_l0 f4 [40]
0.5491959 -0.040480826 0.42006984 0.5788832 0.21117592 0.009718387 0.15305641 0.020763895
0.09735887 0.6438676 0.35798728 -0.02175825 0.21016496 0.0023645258 0.17746289 0.22239083
0.22821604 0.0122218 0.2145711 0.033750925 -0.15815718 0.00620984 0.122928835 0.25605905
0.09608251 -0.10938192 -0.23680118 0.2330193 0.32644626 0.16635673 0.2933808 0.1409477
0.65942556 0.40586546 0.3345289 0.3182565 0.13751608 0.6037381 0.2740153 0.2665133
00000000: 1a98 0c3f 39cf 25bd 6513 d73e b031 143f
00000010: 803e 583e df39 1f3c d2ba 1c3e 0b19 aa3c
00000020: 1664 c73d 82d4 243f 1c4a b73e 5c3e b2bc
00000030: 7c35 573e 29f6 1a3b d5b8 353e 6cba 633e
00000040: 77b1 693e f23d 483c 87b8 5b3e 693e 0a3d
00000050: f5f3 21be ea7b cb3b 1dc2 fb3d 2c1a 833e
00000060: e8c6 c43d a103 e0bd 027c 72be 9d9c 6e3e
00000070: f723 a73e 6b59 2a3e 0236 963e 9854 103e
00000080: 1dd0 283f 99cd cf3e 5f47 ab3e 84f2 a23e
00000090: 04d1 0c3e 958e 1a3f bc4b 8c3e 6e74 883e

hidden_layer.weight f4 [10, 20]
0.06532563 -0.32649842 -0.13038917 -0.07982289 0.30426207 -0.181225 0.24399929 0.21922797
0.45941857 -0.23174898 0.30604768 -0.45409265 0.574183 0.34078327 0.13642333 0.09158343
0.059480514 -0.16794038 -0.021056388 0.16308309 -0.3004731 -0.38592422 0.48804435 -0.2452648
0.25979984 0.30338743 0.28273723 -0.0866818 0.25299612 -0.11393134 -0.0017995227 -0.16024901
0.15787192 -0.6029868 0.43360206 -0.14786656 -0.11942222 -0.6209405 -0.46576267 0.21680337
0.08437731 -0.31411666 0.33228728 -0.0196448 0.39462236 -0.08603014 0.20158522 0.127185
0.3630905 0.14946532 -0.020499727 0.04047628 0.4340097 -0.2600464 0.3926543 -0.17091064
0.02248713 -0.16843067 -0.3275272 -0.09504665 -0.3860775 0.11350147 0.067573644 -0.22324197
-0.06860102 0.2571409 -0.09823113 0.20779897 0.11715576 0.10258716 -0.0033015013 0.34586474
-0.25661406 -0.06065528 0.030056618 0.22010374 0.15032537 0.102889776 0.12325 0.037140362
-0.11898984 -0.32132176 0.60336906 -0.011991348 0.7571869 0.12081946 0.12787792 0.008933682
0.40590915 -0.087660044 0.017836189 0.14165244 0.5816252 -0.3670771 0.54453593 -0.020159662
0.15103535 -0.24702118 -0.4017519 0.2993724 0.029326288 0.40558115 -0.4692604 -0.069127046
-0.7473121 -0.37294266 0.12478728 0.012567356 -0.19414309 0.025979798 -0.045238897 -0.17462066
-0.2948265 0.1717183 -0.43087584 -0.12892164 -0.08944142 0.51756793 0.33386508 -0.5145358
-0.1358966 0.49145424 -0.30072653 0.29590142 -0.59084576 -0.33985102 0.27305767 -0.20655005
-0.61476004 -0.06450115 0.47888145 -0.13211888 -0.114267536 0.33392623 -0.3450294 0.17865843
-0.13762063 0.292366 0.38032433 -0.25959516 -0.095596395 -0.11453152 -0.18380743 0.006466997
0.16341949 0.12048549 -0.27467978 -0.111011855 -0.08620319 0.12851366 0.019874955 0.31245404
-0.075463355 -0.224415 -0.17495425 0.28522334 -0.14562455 0.17393349 -0.10860954 0.16424333
-0.23637828 -0.23351228 0.22230376 -0.25140315 0.2974389 0.28968814 0.09738737 0.1003771
0.26743978 0.1631647 -0.037846517 0.046123724 -0.08464587 0.16879183 -0.45858893 0.07047846
0.028588701 0.138543 0.3498807 -0.04296938 0.49427542 0.28683904 -0.6589553 0.15380889
-0.6355558 -0.03946999 0.31332874 0.0050029363 -0.33752272 -0.2059465 -0.43509364 0.16681671
0.5360096 -0.56125563 0.48178947 0.28177264 -0.066951446 -0.17519197 -0.33932742 0.5321951
00000000: 72c9 853d cd2a a7be bd84 05be 2f7a a3bd
00000010: 3dc8 9b3e 0c93 39be f3da 793e 4c7d 603e
00000020: e938 eb3e 9b4f 6dbe 48b2 9c3e d57e e8be
00000030: a8fd 123f 257b ae3e 8fb2 0b3e 1890 bb3d
00000040: d7a1 733d 90f8 2bbe 727e acbc 41ff 263e
00000050: 9cd7 99be dc97 c5be f3e0 f93e b226 7bbe
00000060: 7c04 853e 9955 9b3e efc2 903e 3a86 b1bd
00000070: b588 813e d654 e9bd f6dd ebba 5118 24be
00000080: 2da9 213e 585d 1abf 1701 de3e 556a 17be
00000090: a393 f4bd f5f5 1ebf 7278 eebe b401 5e3e
000000a0: 03ce ac3d e6d3 a0be 8f21 aa3e 22ee a0bc
000000b0: f10b ca3e 9230 b0bd 5b6c 4e3e c93c 023e
000000c0: ffe6 b93e 700d 193e 0bef a7bc 75ca 253d
000000d0: 8536 de3e cd24 85be fc09 c93e 3303 2fbe
000000e0: ee36 b83c 1779 2cbe a5b1 a7be d1a7 c2bd
000000f0: f3ab c5be 7573 e83d 0d64 8a3d 8b99 64be
00000100: b17e 8cbd f9a7 833e 672d c9bd 41c9 543e
00000110: 5cef ef3d 3819 d23d 005e 58bb 2f15 b13e
00000120: eb62 83be ac71 78bd 4c39 f63c e062 613e
00000130: e5ee 193e e0b7 d23d 7f6a fc3d 7e20 183d
00000140: f2b0 f3bd 4984 a4be 6576 1a3f 5c77 44bc
00000150: 00d7 413f 3170 f73d 6ef2 023e 945e 123c
00000160: 53d3 cf3e 1c87 b3bd 331d 923c 560d 113e
00000170: 64e5 143f 88f1 bbbe b566 0b3f e025 a5bc
00000180: 03a9 1a3e 1ff3 7cbe 6db2 cdbe 5747 993e
00000190: af3d f03c 55a8 cf3e e642 f0be 7b92 8dbd
000001a0: d94f 3fbf 57f2 bebe 7990 ff3d 50e7 4d3c
000001b0: 72cd 46be 96d3 d43c 6c4c 39bd c2cf 32be
000001c0: 80f3 96be ecd6 2f3e c29b dcbe 0904 04be
000001d0: 102d b7bd 557f 043f 5df0 aa3e 9eb8 03bf
000001e0: 7a28 0bbe e49f fb3e d4f8 99be 6480 973e
000001f0: ab41 17bf f400 aebe 37ce 8b3e db81 53be
00000200: ea60 1dbf 2e19 84bd f32f f53e 2c4a 07be
00000210: 1905 eabd 61f8 aa3e b2a7 b0be 3cf2 363e
00000220: 6cec 0cbe ffb0 953e dfb9 c23e a8e9 84be
00000230: 0bc8 c3bd 808f eabd 0438 3cbe 1ae9 d33b
00000240: 7057 273e 19c1 f63d d4a2 8cbe 2f5a e3bd
00000250: 4c8b b0bd 1699 033e cdd0 a23c faf9 9f3e
00000260: 888c 9abd 0ccd 65be 3527 33be cb08 923e
00000270: 9a1e 15be 9f1b 323e ae6e debd 672f 283e
00000280: 260d 72be d81d 6fbe 99a3 633e eab7 80be
00000290: e949 983e 0152 943e 0873 c73d 8292 cd3d
000002a0: deed 883e a614 273e f304 1bbd 3bec 3c3d
000002b0: d05a adbd c4d7 2c3e 2bcc eabe 0357 903d
000002c0: da32 ea3c 37de 0d3e 9023 b33e a900 30bd
000002d0: ab11 fd3e 91dc 923e 4bb1 28bf 1480 1d3e
000002e0: c9b3 22bf 49ab 21bd a06c a03e acef a33b
000002f0: c7cf acbe a4e3 52be 98c4 debe 00d2 2a3e
00000300: ed37 093f 73ae 0fbf 1cad f63e 8144 903e
00000310: d71d 89bd 8665 33be 53bc adbe f03d 083f

hidden_layer.bias f4 [10]
-0.24719289 -0.13550036 0.08946253 0.17091012 0.053560942 -0.049999777 0.035512928 0.25654373
0.028942639 0.2739957
00000000: 2220 7dbe 9bc0 0abe 2238 b73d 1003 2f3e
00000010: b862 5b3d 91cc 4cbd 0176 113d b359 833e
00000020: 1d19 ed3c 2a49 8c3e

output_layer.weight f4 [1, 10]
0.6001707 -0.8397637 -0.60895956 0.31292403 -0.6456303 -0.98485225 -1.2186358 0.120074175
0.33021808 0.6871756
00000000: c9a4 193f c1fa 56bf c6e4 1bbf 9437 a03e
00000010: 0748 25bf 471f 7cbf 42fc 9bbf 73e9 f53d
00000020: 5812 a93e bdea 2f3f
