pair_sampling/options_exp/model_s2.pt (torch_old, 6962 bytes, 8 tensors)

embedding.weight f4 [21, 10]
00000000: 0000 0000 0000 0000 0000 0000 0000 0000
00000010: 0000 0000 0000 0000 0000 0000 0000 0000
00000020: 0000 0000 0000 0000 7b5f d6bf 2e87 8fbf
00000030: f27a 0140 c1d1 103f d0af 7f3e 7b9e a5bf
00000040: 0ad2 a03f 2c1f 553f 43b0 c4bf 3e22 b9bf
00000050: b000 703f 3da7 fe3e 5bb4 263e 7e88 19bf
00000060: 9643 28bf dd59 1e40 3517 663f b2ee ccbf
00000070: 5765 2d3f c8e4 c1be ce4b 233d 8faf 23be
00000080: 9b7a c13f 314a b9bf fa41 cfbd 8566 1a3e
00000090: cf86 b73d 5945 51bf 4ae7 a23e 4363 33be
000000a0: 3416 e13e dccc 85be 3218 183f afd9 9ebe
000000b0: 2f6f 0ebf 05ef acbf 7eb0 90bf 8838 2e3f
000000c0: 2db2 80bf 4807 2dbe 9ece 3440 c173 98bf
000000d0: d8c9 703e 6a59 59be be35 a5bf c642 473f
000000e0: 5acd b53e c014 10be 8a00 e5be b06a 6fbf
000000f0: 4c8c 13c0 1014 703c eb65 03bf dc77 0140
00000100: 1335 89bf a7ef a1be 020e f0bd e215 03c0
00000110: 8474 2fbf aeea 793e 9441 4cbf a8f2 90bf
00000120: 728a dc3f c2ec cbbe 31b8 443f d467 24bf
00000130: bebf a7bf cfe3 81be b0b5 9bbf 641e 5ebf
00000140: 6fca 58bf ae7c 31bf 1cbb 90bf ae4f 69bf
00000150: ccfe fd3d a668 533f b8b1 b6bf b9e8 b7bf
00000160: 4ae8 5d3f 6c2d eebf 70e9 2640 e48a 833e
00000170: eff2 f4bf 93ac 1040 9111 62bf 25d4 bdbf
00000180: 2be2 efbd 7401 57bf 221e 0b40 c6ef a73f
00000190: a578 d3bf 6c91 14bf bfda d33f 4aa0 2b3e
000001a0: 2f3d e0bf 8d38 a1be 7906 c9bd d314 e8bf
000001b0: a76f 923d 477e 373f fef6 2d3f 3bd7 a63e
000001c0: 233c e83e 787f 14bf 1e93 083e 8e72 9abf
000001d0: 2c3f 9ebf 0fbb 313f 161a 1e3f 4b5c 033f
000001e0: cfe8 0abf b87b 9a3f 0ff4 4e3e ca08 1240
000001f0: 8906 413f d59f cbbf 54df 933e be12 1d3e
00000200: 84ad b9bf 3976 1f40 db0d 42be c4d3 5cbe
00000210: 668e 01bd f80c c4bf 8a0c 70bf f443 9abf
00000220: aa2c 49bd de5d d23d e020 6dbf 73c3 b93e
00000230: 7be8 51bf 7493 99bd cdb9 bebf 322f edbf
00000240: 6bc1 adbf c286 2cbf 700f 583e cb2a 0b3d
00000250: c7cb b7be 4e00 713f 4651 fc3f 4ca2 13c0
00000260: b53a dc3e 9756 e8bf 353a 6e3e fb46 933f
00000270: f25e 733e 6146 96bf 409e eebe fc4e b03f
00000280: 8e84 78bf 3c45 e6bd 1a52 0dbf dee1 9a3e
00000290: 1c02 b43c 0344 b2bd 2ea0 da3f 999e f0be
000002a0: d844 c3be 0e66 943f d8ee 7cbf 56d8 fbbe
000002b0: 384e a3be 043a 053f 671c 593e 4768 7d3e
000002c0: e8aa 29bf e807 51bd 2d82 7fbf c0c6 903f
000002d0: 6e77 5c3f 3d7e 263f f49b 71bd f60d 13bf
000002e0: 0cef 793e c911 233f a199 96be 452d 6abf
000002f0: 7675 363f 5511 ec3f 780b 15bf 63c2 b1bf
00000300: a3fb 04bf c800 0abf 9776 18c0 2fca 813e
00000310: bac9 8dbf 3351 053f 24e4 5ebf 5bca ddbe
00000320: eb1b f0bf 5e78 9a3f 64dc 203f b532 a63f
00000330: af7c 123f 9c03 273f 34e7 41be 98e4 973e
00000340: 117f 853f 228e 7abe
0.0 0.0 0.0 0.0 0.0 0.0 0.0 0.0
0.0 0.0 -1.6747888 -1.1213129 2.023129 0.5657006 0.24969411 -1.2938989
1.2564099 0.8325069 -1.5366291 -1.4463575 0.9375105 0.49736968 0.16279738 -0.59973896
-0.6572813 2.4742348 0.8987916 -1.6010344 0.6773276 -0.3786986 0.039867215 -0.15984939
1.5115541 -1.4475766 -0.10120006 0.1507817 0.089612596 -0.8174644 0.31817085 -0.17518334
0.43962252 -0.26132858 0.5941192 -0.31025454 -0.556384 -1.3510443 -1.1303861 0.6805501
-1.0054375 -0.16897309 2.825111 -1.1910325 0.23514497 -0.21225515 -1.2907026 0.77836263
0.35508233 -0.14070415 -0.44726974 -0.9352217 -2.305438 0.014653221 -0.5132739 2.0229406
-1.0719322 -0.31628153 -0.11721422 -2.0482106 -0.68537164 0.2440593 -0.79787564 -1.1324053
1.722975 -0.3982907 0.76843554 -0.6422093 -1.310539 -0.25369117 -1.2164822 -0.8676512
-0.8468389 -0.6933087 -1.1307101 -0.91137207 0.12402114 0.82581556 -1.4272985 -1.4367896
0.8668257 -1.8607612 2.607998 0.25691903 -1.9136637 2.260533 -0.88308054 -1.4830366
-0.1171306 -0.8398659 2.1737142 1.3120048 -1.6521193 -0.58034396 1.6551131 0.16760364
-1.7518672 -0.31488457 -0.09815688 -1.8131355 0.07150202 0.7167706 0.67955005 0.32586083
0.4535838 -0.58007 0.13337371 -1.2066209 -1.2363029 0.69426054 0.61758554 0.513127
-0.5426149 1.2069006 0.20210288 2.2817864 0.75400597 -1.5908152 0.28881323 0.15339181
-1.4506078 2.4915907 -0.18950598 -0.21565157 -0.031629942 -1.5316458 -0.93769133 -1.2051988
-0.04911486 0.1027181 -0.9262829 0.36281928 -0.8199536 -0.074988276 -1.4900452 -1.8530028
-1.3574651 -0.67393124 0.21099639 0.033976357 -0.35897657 0.9414109 1.9712303 -2.3067808
0.4301354 -1.8151425 0.23264392 1.1506037 0.23766688 -1.1740228 -0.4660511 1.3774104
-0.9707726 -0.11243674 -0.552034 0.30250448 0.021973662 -0.087043785 1.7080133 -0.46996
-0.3813846 1.1593645 -0.98801947 -0.4918849 -0.31895614 0.5204165 0.21202241 0.2474681
-0.6627641 -0.05103293 -0.9980801 1.1310654 0.86119735 0.65036374 -0.05898662 -0.5744318
0.24407595 0.63699013 -0.29414085 -0.91475326 0.7127298 1.8442789 -0.58220625 -1.3887447
-0.5194647 -0.5390744 -2.3822381 0.25349566 -1.1077187 0.52077025 -0.87066865 -0.43318447
-1.875852 1.2067983 0.6283629 1.2984225 0.572215 0.6523988 -0.18935853 0.2966659
1.0429403 -0.24468282

lstm.weight_ih_l0 f4 [40, 10]
00000000: 7121 373b daf0 0abf bb90 373e 86b4 bb3d
00000010: ea12 adbe 2a47 cebd e5aa 0a3e 8fb9 86be
00000020: 6ab6 00bf 48dc 23bd 54c4 ae3e 39c1 043e
00000030: e806 5abe 0945 33be e2c7 b9bd bf66 59bf
00000040: bae6 323e e57f 18be b4b9 d7be 7624 003f
00000050: c56a 113f 5104 e3be af59 babe a3f0 e73d
00000060: 0061 7f3d 661c a63b 235f 6c3e 43b4 ff3d
00000070: 627f 19bf 6a2d 0a3f c86c 013e 00a1 29bf
00000080: 378b dd3c 4492 30bf b37e b3be 356e 92be
00000090: c3a2 fcbe 3d36 5fbe 0b4c 98bb fa46 863d
000000a0: 5b29 57be f0fd ab3d dee2 3b3d 16ff e4bc
000000b0: e8cb 8bbd 5fff 97be b8a5 b13d eeb7 8ebd
000000c0: 8519 16be c2d6 7a3e 0ac1 5b3d 460d d1be
000000d0: 0d2d cfbc c2a6 f2bd 6247 93bd 710a 903d
000000e0: 8d2f 91be f2fb 53be 630b e1be edbc 613e
000000f0: baf8 38bf 2c8e c7bd e8bd 8d3c 31ed 75be
00000100: c8d5 8bbe 9166 27be b4cd bbbe b0e0 3a3e
00000110: 4e37 f7be f93c 513d 214a 16bf 3350 15be
00000120: d987 d1bc 26f6 2fbe 0ea0 eabe 4e4e 32be
00000130: 13b3 f8bd f80f 583d 7ae6 8cbe 14bf c43e
00000140: 3485 a1be b981 0b3e 160e 94bd 2806 35be
00000150: 0e97 d03d 9db9 37bd 91f0 cabe 8e4a c3bd
00000160: 8839 62be 121a e33d fc6c cebe eb72 98bd
00000170: 632a 15be ec92 a33e 8440 98be b2e2 b4be
00000180: 001a bf3d e535 833e 4341 80bd 4515 923e
00000190: 2de5 c93d 610a cabd 284c a13e dc97 f6be
000001a0: f9f0 ddbe f05f a7bd 7711 143e aed0 a9bd
000001b0: 6f3a f7bd 005a 41bf 9834 983e 1645 1fbe
000001c0: 3129 dbbd c23b da3d c4b5 01be 1981 823d
000001d0: 1272 853e 63e3 fa3d 00ed 0b3e 6426 19be
000001e0: 65f0 dabd 693e 7d3e 037d c13e 847a bd3e
000001f0: 7508 11bd 4596 b5bd ecb9 d3be 3d04 12bf
00000200: 6562 243f 5433 7dbe 9d95 3d3d 8a95 78be
00000210: 7c2e cbbe c7af 683e 6141 04be dd0b 373e
00000220: 71ba 13bd 68a3 ffbd 8c49 3fbe 85e1 fe3e
00000230: a3fc 71be 1977 85be 28e7 55bd ad08 7c3e
00000240: 7590 2d3d 7594 29bf d2e0 4a3d 8df1 933e
00000250: 21df 07be 7308 223e 3fbf 3abe 1881 f2bb
00000260: 7bef 5cbe 8578 9b3e f5ba a53e b86d f7bd
00000270: 6da7 abbd 7b4e a0be f0b0 9dbc aec6 2c3d
00000280: 3b10 753e 8e89 edbd 959c adbd 4003 5fbd
00000290: 2cae b3be 82b9 b6bd ed9e 8a3d 014c dcbe
000002a0: 265d cabd 0d42 c03e a8b8 ba3e 9426 493f
000002b0: bca0 923c 4e1b 923e 3cd0 1d3f 6ed5 623e
000002c0: 9cd2 b3bd 4ae1 a23e 3b11 4d3f 5c41 a63e
000002d0: f0c1 843e 094a c5bd 6ec5 af3d b5ca 5bbe
000002e0: 8228 a6be b2ef a4bd ebaf a6bc a40b 07bf
000002f0: c578 4e3e b27b 8a3d cd96 5ebe f0d9 a73e
00000300: c8a8 fbbd d83b c53e 6aac 85bd 7df3 223d
00000310: d232 113e 3484 78bd f294 b03d d5e6 eb3d
00000320: 7555 de3b fe05 95bd 0c0e 0abe 90eb 9bbe
00000330: eb03 37be 63b1 833e f5df 3ebe 01e4 f33d
00000340: b651 213e 3d7e ab3e fbbb 343e 72af 2cbe
00000350: 94a1 60be bf60 adbe a080 5cbe 5171 153e
00000360: b6de f8bd f3df b23d cb2c 92bc e931 413d
00000370: 9ff5 07bd a6cf dd3e 2203 ae3e 8a7c a43e
00000380: 72ed 5e3e 0c20 e3be 20d4 553d 0f0c 71bd
00000390: 4cf8 9d3e 8bdb 313e e9dc 10be bac0 f4bd
000003a0: 99bf 953e b82c 1cbe ff4f c2bd fc32 333e
000003b0: 7f98 08be fc5b 23bf 77dd 113e 9d0c 8fbe
000003c0: cae1 f8bd 7081 823e 4af4 8c3d 09c4 90be
000003d0: f068 57be 934d 62be 5b1d 33be 5810 083f
000003e0: 0ddf 893d 3f09 a3be b165 ca3d 1d9b 41be
000003f0: fb8d 33be faea d6bd 8e8b b4be a457 b93e
0.0027943517 -0.5427376 0.17926304 0.091652915 -0.33803493 -0.10072167 0.13541754 -0.26313445
-0.5027834 -0.040005 0.3413416 0.12964334 -0.21291697 -0.17506804 -0.09071328 -0.84922403
0.17470828 -0.14892538 -0.42133868 0.50055635 0.5680354 -0.4433923 -0.36396548 0.11325195
0.062348366 0.0050693033 0.23083167 0.12485554 -0.59959996 0.53975546 0.12639153 -0.6626129
0.027043922 -0.68973184 -0.350576 -0.28599706 -0.49342927 -0.21798034 -0.004647737 0.065565065
-0.2101187 0.08398044 0.045870654 -0.027953666 -0.068260014 -0.2968702 0.086741865 -0.069686756
-0.14658172 0.24495986 0.053650893 -0.4083044 -0.025290037 -0.11848213 -0.071913496 0.070332415
-0.2835659 -0.20701578 -0.43954 0.22044726 -0.72254527 -0.09743914 0.017302468 -0.24016263
-0.2731154 -0.1634772 -0.36680377 0.18249774 -0.48284382 0.05108354 -0.5870686 -0.14581375
-0.025577473 -0.17183742 -0.45825237 -0.17412683 -0.12143531 0.052749604 -0.2751959 0.3842703
-0.31546938 0.13623704 -0.07229249 -0.1767813 0.101850614 -0.04485475 -0.39636663 -0.095357046
-0.22092259 0.11088957 -0.40317523 -0.07443794 -0.1456695 0.3194803 -0.29736722 -0.35329205
0.09331131 0.25627056 -0.06262448 0.28531852 0.09858165 -0.09865261 0.31503415 -0.48162735
-0.4334791 -0.081725955 0.14459787 -0.082917556 -0.12071692 -0.75527954 0.29727626 -0.15553698
-0.10701216 0.10655929 -0.12666994 0.0637228 0.2606359 0.12250402 0.13664627 -0.14956051
-0.10690383 0.24730839 0.3779069 0.37007535 -0.035408456 -0.08866552 -0.41352785 -0.5703772
0.6421264 -0.24726611 0.04628526 -0.24275795 -0.39683902 0.22723304 -0.12915565 0.17875619
-0.036066476 -0.12482339 -0.186804 0.49781433 -0.2363153 -0.26067427 -0.0522224 0.24612685
0.042374093 -0.6624215 0.04953081 0.28895226 -0.1326871 0.15823536 -0.18237017 -0.007400643
-0.2157573 0.30365387 0.323692 -0.12081474 -0.08381543 -0.31309876 -0.01924941 0.042181663
0.23931973 -0.11598502 -0.08477131 -0.05444646 -0.3509382 -0.089221016 0.06768594 -0.43026736
-0.09881048 0.37550393 0.36469007 0.7857449 0.01789891 0.28536457 0.61645865 0.2215173
-0.08780405 0.31812507 0.80104417 0.3247174 0.25929213 -0.09633262 0.085825786 -0.21464045
-0.3245278 -0.08053531 -0.020347556 -0.5275214 0.20163257 0.06761874 -0.21737213 0.3278346
-0.12288052 0.3852222 -0.06527026 0.03978299 0.14179543 -0.060672954 0.08622159 0.11518637
0.0067850896 -0.072765335 -0.13481921 -0.30453157 -0.17872588 0.25721273 -0.1864012 0.11908723
0.15753826 0.3349475 0.17649834 -0.16863802 -0.21936637 -0.33862874 -0.21533442 0.14594008
-0.12151854 0.08734121 -0.017843625 0.04716674 -0.033193227 0.43322486 0.33986765 0.32126266
0.21770266 -0.44360387 0.05220425 -0.05884939 0.30853498 0.17368905 -0.1414677 -0.11950822
0.2924774 -0.15251434 -0.09487914 0.17499918 -0.13339423 -0.6381223 0.14244638 -0.2793931
-0.12152441 0.25489378 0.06882532 -0.28274563 -0.21036124 -0.22099905 -0.17491667 0.5314994
0.06731997 -0.31842992 0.09882677 -0.18906827 -0.1753463 -0.10494037 -0.35262722 0.36199677

lstm.weight_hh_l0 f4 [40, 10]
00000000: ecd1 c03b c967 ba3e d179 c1be d472 013f
00000010: 9421 b63d a682 65be 6f0b bf3e 51ae 61be
00000020: d492 0a3f a438 ecbe bee7 5d3e 1446 a63e
00000030: 8a86 303e 7634 d13d 88f9 2d3e 5a25 d9be
00000040: e1ed b33e 08a5 ab3e ab00 803e cadb df3e
00000050: 6b4f f4be b49a 21be f43c 283f 46c1 a4bd
00000060: 08fd e33e d1b3 8cbe 5cf9 ea3e eb46 a33e
00000070: b02f 053e 233e dbbe 27ce 483e 72f6 da3e
00000080: 003d c6be 136d 90bc 9e54 87be 0efc 7ebe
00000090: 5326 dfbd ccc8 0c3f 5a44 633e 90c7 6a3d
000000a0: 414a 1d3f 16fd 963d 963a adbe 837b f0bd
000000b0: 1f27 3a3f dea8 e0be 6843 efbc f422 273e
000000c0: a4fd a23e db98 1f3f c03f de3e c54b 813d
000000d0: 5bef 103e ed3d 4b3e 262b a63e a1d6 47be
000000e0: f9f0 2fbd 5923 aebe a3b0 db3d dd21 b03d
000000f0: d475 9c3c e437 86bd fbc7 efbe afa7 f43e
00000100: 72e1 8dbe 6614 8bbe 0631 f93e 005f c43d
00000110: 2068 6b3e aac4 27bf e23e 023f 7604 5b3e
00000120: 9e9e fcbb 51a8 1d3f 69d5 82be b477 8abe
00000130: e0e8 47be 7673 0e3d d421 043f c09f 85be
00000140: c7e6 c9bd 2a36 d13d 35f6 91bc 7512 2d3d
00000150: c71c d8bc a15d 1fbe bbf2 083e 43de b2be
00000160: d9ad 163e a101 d2be de18 ac3d fcdc 79bd
00000170: d2c4 b1be b487 393f 0d74 de3d a4f1 e7be
00000180: 7e3e 3d3e 8496 7f3e 8e89 013f bf1e cabe
00000190: 7eb9 813e d23d cd3e 1227 5dbe 80d1 913e
000001a0: f822 ee3d a7f2 823e 0eaf f83e eb90 c43c
000001b0: 734c 053d e22b 95be 55f0 a53e d87b 81bd
000001c0: ce35 1b3f ac9d 88be 676a 25bd d4f4 cf3d
000001d0: cdb0 493e 3c74 83bd 3634 c63c c618 503f
000001e0: ec96 9b3e 0476 06bf 3098 c43e 8d66 61bd
000001f0: 3639 00bf fc12 023d 0e6c 0f3f deed 3ebe
00000200: 8172 a5bd 4c86 883e 1fb8 fbbd afe9 9d3c
00000210: afa1 d0bd 8ab2 af3e 1c36 61be 2c67 43be
00000220: 7a12 52be 8003 26be 0fe8 e4bd 6555 1cbb
00000230: 6f3f 013d dbd5 ad3d b8a1 4c3e 2d72 823e
00000240: 1432 b3be de9f d7be 403d 80bd 9732 ad3e
00000250: cc4e 8abe 7b27 163e fccc 8cbe be8b 4abf
00000260: f596 613e d76c fd3e 92c0 28bf 82af fe3d
00000270: c5af df3c ce4a 19be 8d53 aebc 1ed5 ca3e
00000280: aea6 c1be 228d 1cbf e5df a33d c68e 99bd
00000290: 09ca 68bd acaf b3be 7611 bd3e 40b4 1abf
000002a0: 635d 41be c97f 2a3e 9319 a6be 9f97 afbe
000002b0: aa4d 0d3f 4d50 1d3e 2497 7dbe cba0 8bbe
000002c0: d064 ce3e 0f64 263e a928 af3d a411 1a3e
000002d0: 7fbc 7d3e cb57 513e 5516 44be 58cd bf3e
000002e0: 31d9 83be 3b79 e53e 0578 63bd d95a 8fbe
000002f0: 9236 c3bd 13ca 48be 6ad4 7d3d 4729 7ebe
00000300: 2d15 c83e 12e6 c53c 8995 05bf 5bbe acbe
00000310: 9f75 d23e 08bd 083f e707 683e dd61 fd3e
00000320: 05d4 973d cf1d 973e 1a96 2fbf 38f8 7d3e
00000330: 64a8 833e d04f 35bd cd7a 943d ec80 06be
00000340: aaaf 623e 2ae7 03bf 3369 693d 0415 6b3d
00000350: c3ff 32be ec54 b1bd 2aaf ff3d b1b3 dcbd
00000360: b0e9 9d3e 1913 19bd 3f53 89be 7b3f 22bf
00000370: 7e00 b53e 5009 59be 5599 3d3d 4e5a cb3e
00000380: d360 8b3e 87d9 6dbe 8749 c6bd d08f 2ebf
00000390: cbc9 6dbe 2e83 67bd fe62 c9be 305a a0be
000003a0: 076e 43be 61f7 e33e 9c17 b4bd 6e9c 163e
000003b0: 38e9 21bf 9efe e2be 4258 113e 69b1 78be
000003c0: 84d9 bd3d aa33 7ebe eb5d b63b b01e 64bd
000003d0: 6bc5 443e aa50 9a3e e87e 6dbc 2e02 343e
000003e0: 73bb 533d a377 a23d e41d e7bd e8a8 eb3e
000003f0: 590b 8b3d b05e a9be 2003 c33d 7ea9 903e
0.0058843996 0.36407307 -0.3778825 0.5056584 0.08893123 -0.2241312 0.3731341 -0.22039153
0.5413029 -0.46136963 0.21670434 0.3247534 0.17238823 0.10215084 0.1698972 -0.4241131
0.35142425 0.33524346 0.2500051 0.43722373 -0.4771684 -0.15781671 0.6571801 -0.080446765
0.44528985 -0.2748094 0.4589337 0.31890044 0.13006473 -0.42820844 0.19609891 0.42766148
-0.38718414 -0.017630136 -0.26431745 -0.24900839 -0.10895982 0.5499389 0.22194043 0.057319224
0.6144143 0.07372491 -0.3383376 -0.11742308 0.72715944 -0.43878835 -0.029206946 0.16321927
0.31834137 0.62342614 0.43408012 0.0631328 0.14153807 0.19847842 0.32454795 -0.19515468
-0.04295442 -0.34011343 0.1072705 0.08600209 0.019099154 -0.06553629 -0.4683226 0.47784182
-0.27711064 -0.27164 0.48670214 0.09588432 0.2298894 -0.6553446 0.508772 0.2138842
-0.0077093383 0.61584955 -0.25553444 -0.2704445 -0.19522429 0.03477808 0.5161412 -0.26098442
-0.098584704 0.10215409 -0.017817596 0.04225393 -0.02638091 -0.1556306 0.13373844 -0.34935197
0.14714755 -0.41016868 0.084031805 -0.061001763 -0.34720474 0.7247269 0.10861979 -0.45301545
0.1848087 0.24959761 0.50600517 -0.39476582 0.25336832 0.40086228 -0.21596935 0.28480148
0.116277635 0.25575754 0.48571056 0.023994884 0.03254361 -0.29135042 0.3240992 -0.063224494
0.60628974 -0.26682794 -0.040384676 0.10154119 0.1969635 -0.06418654 0.024194818 0.812878
0.30388582 -0.5252383 0.3839736 -0.05502944 -0.50087297 0.031756386 0.56024253 -0.18645427
-0.080784805 0.2666496 -0.12290978 0.019276468 -0.10187089 0.34315902 -0.21993297 -0.19082326
-0.20514861 -0.16212273 -0.11177074 -0.002385461 0.031554636 0.08488055 0.19983566 0.25477734
-0.34999144 -0.42114156 -0.062616825 0.3382766 -0.27013242 0.14663498 -0.2750014 -0.7911948
0.22030242 0.494971 -0.6591884 0.12435819 0.027305493 -0.14969942 -0.021280074 0.3961572
-0.3782248 -0.6115285 0.08001689 -0.07497935 -0.0568333 -0.35094965 0.36927384 -0.6043129
-0.1888328 0.16650309 -0.32441387 -0.34295365 0.5519663 0.15362664 -0.24764687 -0.27271113
0.4031129 0.16249107 0.08552677 0.15045792 0.24778937 0.20443647 -0.19149144 0.37461352
-0.2575164 0.44819054 -0.05553438 -0.27999 -0.09531893 -0.19608335 0.061970152 -0.24820434
0.39078656 0.024157558 -0.521813 -0.3373898 0.41105363 0.5341344 0.22659265 0.49488726
0.074134864 0.2951493 -0.6858841 0.24801719 0.2571441 -0.04426557 0.07249985 -0.13135117
0.22137323 -0.51524603 0.05698509 0.05739309 -0.17480378 -0.08658776 0.12484582 -0.10776461
0.30842352 -0.03737173 -0.26821324 -0.63378114 0.35351938 -0.21194959 0.046288807 0.39717335
0.2722231 -0.23227511 -0.09681993 -0.6818819 -0.23221509 -0.056521587 -0.39333338 -0.31318808
-0.19084941 0.44524673 -0.08793566 0.1470811 -0.6324649 -0.44334882 0.14193824 -0.24286427
0.092700034 -0.24824396 0.005565395 -0.05569333 0.19215934 0.30139667 -0.014495589 0.17578956
0.051692437 0.07932975 -0.11284998 0.46027303 0.06789274 -0.33080053 0.095220804 0.28254312

lstm.bias_ih_l0 f4 [40]
00000000: c3d3 ca3d fe01 0b3d 8d7c a7bd e262 293e
00000010: 736a 86bd f9b5 933e 4c20 9e3e 23e0 213f
00000020: d8fd 7a3e a26d 0c3f 376c ad3e 82a6 2e3e
00000030: d333 dc3e 31d7 2e3d cfd7 663c fda6 c83e
00000040: 71cc 21be 08f0 9fbc 3ddb a5bc 8edb 20be
00000050: 531c ca3c e520 66bd aec8 61be ae49 0c3e
00000060: 4b7a 76bd 9591 adbe a8ca 793b c9a2 a2be
00000070: a823 803e cd49 4ebc 6c0f 123f 5798 ca3e
00000080: e95c 973e a722 7c3e 79fc 24bd 2c29 8d3e
00000090: be6f 263f 165b 3e3f 4ab8 273e 2f96 043f
0.099036716 0.033937447 -0.08178053 0.16541627 -0.06563272 0.28849772 0.30884016 0.6323263
0.24510896 0.54854786 0.33871624 0.17055705 0.4300829 0.04268569 0.014089539 0.39189902
-0.15800644 -0.019523636 -0.020246143 -0.15708753 0.02467171 -0.056183714 -0.2204921 0.13699982
-0.06017522 -0.33900133 0.0038115177 -0.3176482 0.25027204 -0.012590838 0.5705478 0.3956935
0.29563072 0.24622594 -0.04027984 0.27570474 0.65014255 0.74357736 0.16378894 0.5179166

lstm.bias_hh_l0 f4 [40]
00000000: eacc d13e 4944 28be adbe a13e 5cac 173f
00000010: 6fca 583d cf37 b43e 6e22 563f 4780 3f3f
00000020: 6a07 803e 810b 943e 8c72 e03d ba3f c6bd
00000030: a5e5 ad3e c465 9a3e 569b 1c3e 9dec cd3e
00000040: d356 1fba b126 89be 42f1 983e 8949 89bd
00000050: b0f4 24be 3620 27be e12f 3a3e 1b5d 25bd
00000060: 6f33 ef3d 0015 893d 3b1d 293c 7167 c2bd
00000070: 938d 1a3e ae9f 223e 4406 2a3e 6c12 fc3c
00000080: 83bb 7b3e fb27 633e 0f3d 2f3d 4e87 d63e
00000090: dc7c 8b3e eaed 493f 350a ae3e 4b0b 463e
0.4097665 -0.16432299 0.31590787 0.59247375 0.05292743 0.3519883 0.83646286 0.7480511
0.25005656 0.28915027 0.10959348 -0.096801236 0.33964267 0.30155766 0.15293631 0.40219584
-0.00060783065 -0.26787332 0.29871565 -0.06703479 -0.16108966 -0.16320881 0.18182327 -0.040371995
0.11679732 0.066934586 0.0103219105 -0.09492386 0.15093069 0.15881225 0.16603953 0.030770503
0.24583249 0.2218322 0.04278284 0.41900104 0.27243698 0.78878653 0.33992162 0.19340245

hidden_layer.weight f4 [10, 20]
00000000: fe16 8abd 097c 03be 135b 7abe 964f 9b3e
00000010: e28b b6be c486 9bbe 3833 c33e 858d c63e
00000020: 2f9e 35be adff 90bd b380 cf3e a708 01bc
00000030: b286 3fbe dc08 243e 53fa 6cbe 2bb1 073d
00000040: cf92 2e3c 88c3 94bc 9c65 5b3e 10e3 a43d
00000050: 774f 7abe 1716 803d b2e1 923c 28a7 803d
00000060: 9318 1b3d a4db dfbe 7ba9 593e 0f5c a73e
00000070: f620 4e3e 3e6e 393e a17b a43e 95cc 2e3e
00000080: 5b83 4e3e bf18 48be be96 60bd 9dfb 28be
00000090: 5b22 9f3c 812f 053f da36 dfbd 5d9e e33e
000000a0: 1af4 983e 5029 e0bd 5ab9 88bd 5d84 fdbe
000000b0: 3687 ffbd 3557 163f 4236 c6be 6e55 e1be
000000c0: 756c 65be 3d27 123e ea68 b4be 1121 19bb
000000d0: 2eca 0c3f 073d f0bd a1e4 c23d 80b1 9bbe
000000e0: 36c3 143e 9de3 083f 2c8f 6cbe 7fbd 0c3e
000000f0: 6457 4f3e 4b27 4b3e 9d63 283e 9501 e7be
00000100: b134 9dbd 4fce 833e 3d42 e2be a797 08bf
00000110: 3be4 da3c beb5 603e 9819 ccbe 94cf 98be
00000120: 788e ed3e 45ed 6fbe 021f 323d f64e 4bbb
00000130: e702 2bbd fad6 db3e 5104 2bbe 1a69 533e
00000140: 7c69 67be 8ef7 33be 2184 1a3e 19c6 f93e
00000150: 5fb2 c4bc f73d b2bd 4c4b 343e dbfd 4b3e
00000160: 9fe3 16be 9f38 423e 58b5 c33d d07b 45be
00000170: c4e9 a53e dedd babd 7f16 9dbe 31ad a3be
00000180: 6b8d 983c 052f 9b3e 762a 7c3d 5489 913e
00000190: dede 84bd 2928 b23a c605 563e e340 07bf
000001a0: 7185 003d f53e 8c3e e683 b0be 6644 8abe
000001b0: f946 883d c804 883e e59b 9f3e 05aa 5f3e
000001c0: 0080 60be 7567 f43d 52f3 f3be 03f1 b13e
000001d0: ba98 97bd ccf9 56be 6631 693d 7a63 38be
000001e0: fa27 5a3e ecf5 113d 0c87 bbbd 0cde 0ebf
000001f0: 5ae0 eabd 5336 d63e 794d 1dbf b2f3 04bf
00000200: dbc3 33be ea4e 283e 8696 57be 3ad5 3bbe
00000210: 3857 3a3f 3328 c5be a6b7 8bbd d113 abbe
00000220: 39ac 633e f5df f23e 98a7 cb3d 9af8 d63e
00000230: 5700 a23d ff80 34be a0e5 0abe 5358 f33b
00000240: 5f42 4ebe 3cce 27be ceb7 40be 893f 223d
00000250: 4fc1 7ebe a8a7 fdbd 8b23 babd ced9 013e
00000260: d14d 7b3e ffc9 de3c a8ba 17be 638a 9fbd
00000270: 390e d8bb 5e32 a83e 526d c9bd b965 47be
00000280: eac9 33be 94fe 0e3e adec 463d 19ba 113f
00000290: 4f84 92be d079 dfbe 7a59 cb3e 0f41 ed3e
000002a0: 52cd 4f3e 6f2c 233e 61b2 0b3f af97 83bc
000002b0: 93a9 7b3d 7174 b43e 82da 75be 325c 6dbd
000002c0: 7141 0e3c 6839 aabd cf49 993e a93c 44be
000002d0: 777c 963e a1c2 313e fcff 99be 52d8 bfbe
000002e0: 8971 ba3d b95e ef3e 3325 b3be 581d 27bf
000002f0: f12c 88bd fcaa b0bd 593f dabe acae a7be
00000300: 9d10 4abd 616c 313c 243d 3e3e 87c8 71be
00000310: 7866 3d3e 8a71 ddbe 5f80 333d a085 b4be
-0.06742667 -0.12840284 -0.24448805 0.30334157 -0.35653597 -0.30376256 0.38125014 0.38779846
-0.17736124 -0.07080016 0.40527877 -0.007875598 -0.18703726 0.16019005 -0.23142366 0.033127945
0.010655119 -0.018159643 0.2142548 0.08051121 -0.24444376 0.06254213 0.017929886 0.062818825
0.037865233 -0.4372226 0.21256058 0.32687423 0.20129761 0.1810846 0.3212557 0.1707023
0.20167296 -0.1954069 -0.05483126 -0.16502233 0.019425562 0.5202561 -0.10899134 0.4445676
0.29873735 -0.1094538 -0.06675978 -0.49515048 -0.12476961 0.5872682 -0.3871327 -0.4401049
-0.22404654 0.1427278 -0.35236293 -0.0023365656 0.54996 -0.1173039 0.09516264 -0.3040886
0.14527592 0.5347231 -0.2310149 0.13744162 0.2024818 0.19839208 0.1644425 -0.45118394
-0.07676066 0.25743338 -0.4419116 -0.53356403 0.026720157 0.21944329 -0.39863276 -0.2984587
0.46397758 -0.23430355 0.043486603 -0.0031022406 -0.041750815 0.42937452 -0.16700865 0.20645562
-0.22598833 -0.17574903 0.15089466 0.4878395 -0.024010835 -0.08703225 0.17606848 0.19921057
-0.14735268 0.18966912 0.09556073 -0.19285512 0.32404912 -0.09124349 -0.30681226 -0.31968072
0.01862212 0.3030931 0.06156393 0.28425086 -0.06487821 0.0013592291 0.2090064 -0.52833384
0.03137726 0.27391782 -0.3447563 -0.2700531 0.06654162 0.26566148 0.31173626 0.21842201
-0.21923828 0.11933795 -0.47646576 0.3475419 -0.07402177 -0.20993727 0.056931876 -0.18006697
0.21304312 0.03563492 -0.091566175 -0.55807567 -0.11468573 0.4183832 -0.6144634 -0.5193435
-0.17555182 0.16436353 -0.21053514 -0.18343058 0.72789335 -0.38507232 -0.068221375 -0.33413556
0.22233666 0.4743649 0.09944075 0.41986543 0.07910221 -0.17627333 -0.13564157 0.0074263006
-0.20142506 -0.16387266 -0.18820116 0.039611373 -0.24878429 -0.123854935 -0.090888105 0.12680742
0.24541403 0.027195929 -0.14817297 -0.07790067 -0.0065934923 0.32850927 -0.09835304 -0.19472398
-0.17557493 0.13964301 0.048565555 0.5692459 -0.28616568 -0.43647623 0.39716703 0.46338698
0.20293167 0.15934919 0.5456906 -0.01606354 0.061441015 0.35245088 -0.24009135 -0.057949252
0.008682595 -0.083117306 0.29939124 -0.19163765 0.29391834 0.17359401 -0.30078113 -0.37469727
0.09103686 0.46751955 -0.34989318 -0.6527915 -0.06649197 -0.08626363 -0.42626455 -0.32750452
-0.04933225 0.010829062 0.18578011 -0.23611651 0.1849612 -0.43250686 0.043823596 -0.35258198

hidden_layer.bias f4 [10]
00000000: e232 633e bfad f1bc 66f9 9b3b 5790 973d
00000010: b71e d2bd 0837 6a3d 56da 6ebe e5d8 48be
00000020: e84c 063e 7bad 96bc
0.22187379 -0.029501794 0.004759955 0.074005775 -0.10259765 0.05718139 -0.23325476 -0.19613989
0.13115275 -0.018393269

output_layer.weight f4 [1, 10]
00000000: 587e cebe 4938 0f3f 31eb 36bf 2b3c 35bf
00000010: 5b1f 4c3f a57f da3e 8e51 3abf 3aa7 e73e
00000020: 4cf9 08bf 9017 033f
-0.40330768 0.5594526 -0.71452624 -0.70794934 0.79735345 0.4267551 -0.7278069 0.4524477
-0.53505397 0.5120783
