pair_sampling/options_exp/model_s3.pt (torch_old, 6962 bytes, 8 tensors)

embedding.weight f4 [21, 10]
0	0x00000000	0.0
1	0x00000000	0.0
2	0x00000000	0.0
3	0x00000000	0.0
4	0x00000000	0.0
5	0x00000000	0.0
6	0x00000000	0.0
7	0x00000000	0.0
8	0x00000000	0.0
9	0x00000000	0.0
10	0xbe8324c3	-0.25613984
11	0xbe1029c0	-0.14078426
12	0x3f64d677	0.8938975
13	0xbed9ad34	-0.42514956
14	0xbef3bf16	-0.47606725
15	0x3efd3ea3	0.4946185
16	0x3dc64e1b	0.09682866
17	0xbd77d795	-0.06050833
18	0x3f366fd0	0.7126436
19	0x3f1da666	0.6158203
20	0x3f11fe44	0.57028604
21	0xbfde683a	-1.7375557
22	0x3f0ed1c1	0.5578881
23	0x3f282291	0.65677744
24	0xbf4ceb6b	-0.8004672
25	0x3f874474	1.0567765
26	0xbf78da14	-0.9720776
27	0xbf48d59c	-0.7845094
28	0x3f0f078f	0.5587091
29	0x3e0da03b	0.13830654
30	0x3fc7ede1	1.561947
31	0x3efbbb42	0.49166304
32	0xbd962418	-0.07331103
33	0x3f8932a2	1.0718577
34	0x3e06fb3c	0.13181776
35	0x3f97deb3	1.1864837
36	0xbd48affb	-0.048995953
37	0xbd752569	-0.05985013
38	0xbf0d3571	-0.5515967
39	0x3f98154d	1.18815
40	0x3f8138b5	1.0095431
41	0x3e9c7a00	0.3056183
42	0x3dd28e51	0.10281051
43	0x3fd5a6a4	1.669148
44	0x3f2deb39	0.67937046
45	0xbf02b0d8	-0.5105109
46	0xbcdddf00	-0.027083874
47	0x3fb692e6	1.426358
48	0x3e3160a8	0.17322028
49	0xbeabda3e	-0.33564943
50	0x3f0a9cb3	0.54145354
51	0xbfb9cebb	-1.4516214
52	0x3f41ca86	0.7569965
53	0xbe8b0178	-0.27149558
54	0x3f59e24c	0.85110927
55	0xbe351df5	-0.17687209
56	0x3e50293e	0.20328233
57	0x3fc67cf1	1.5506879
58	0xbf1c8283	-0.61136645
59	0xbfb07698	-1.3786192
60	0x3edf4508	0.43607354
61	0x3e740ecf	0.23833774
62	0x40105bcf	2.2556036
63	0xbf8e0f2b	-1.1098379
64	0xbf6a9728	-0.91636896
65	0xbeab39b3	-0.3344246
66	0x3fadc301	1.3575135
67	0xbe175770	-0.14779449
68	0x3f69f05b	0.9138238
69	0xbfdec5a8	-1.740407
70	0x3fd530e3	1.6655544
71	0x40036320	2.052925
72	0xbd8a26db	-0.06745692
73	0xc017f2bf	-2.374191
74	0xbf52d486	-0.82355535
75	0x3f36708e	0.71265495
76	0x3ea6f358	0.32607532
77	0x3f3eadc0	0.7448387
78	0x3ed97c7a	0.4247778
79	0x3fa3d67d	1.2799832
80	0xbe7ef758	-0.24899042
81	0x3efa087c	0.48834598
82	0xbf2a69e8	-0.6656785
83	0xbe88cecb	-0.2672027
84	0xbecf0aff	-0.40438077
85	0xbf1237cb	-0.57116383
86	0xbf976177	-1.1826619
87	0xbf24493d	-0.6417425
88	0xbf020748	-0.5079236
89	0xbf939bdc	-1.153194
90	0xbf4400e1	-0.7656384
91	0xbfb19004	-1.3872075
92	0xbf3c8305	-0.7363742
93	0xbf9ca14b	-1.2236723
94	0x3f8b183e	1.0866773
95	0x3eaff917	0.34369728
96	0xbf018b76	-0.50603426
97	0xbf622074	-0.8833077
98	0x4028ed7e	2.6394954
99	0xbf9efee8	-1.2421541
100	0xbfb2b0b9	-1.3960181
101	0x3f3ccaa2	0.73746693
102	0xbf5f49f4	-0.8722222
103	0x3f537624	0.82602143
104	0x3dc73c19	0.097282596
105	0x3e9409cc	0.28913724
106	0xbf4af039	-0.792728
107	0xbd12a45c	-0.035801277
108	0x3f1fb42f	0.62384313
109	0x3f571d5e	0.84029186
110	0x3fbf77ca	1.4958432
111	0x3f2704a7	0.65241474
112	0x3f950a9f	1.1643866
113	0x3f5aa012	0.854005
114	0xbf15106b	-0.58228177
115	0xbf002af9	-0.5006557
116	0x3f387626	0.7205528
117	0xc008ca0c	-2.137332
118	0x3e97910b	0.29602847
119	0x3f7d88d7	0.99036926
120	0xbdc467f0	-0.09590137
121	0xbf32b06c	-0.6980045
122	0x3dada0ac	0.08477911
123	0xbd2b1fbd	-0.041778315
124	0x3f77eac8	0.9684262
125	0xbed81fc9	-0.4221175
126	0x3eaab101	0.33338168
127	0xbff6bba7	-1.9276017
128	0xbf25a502	-0.64704907
129	0xbee6d8df	-0.45087335
130	0x3fa415e2	1.2819178
131	0xbe733fe4	-0.23754841
132	0xbf810bcf	-1.0081729
133	0x3e8202bc	0.2539271
134	0x3f3445c7	0.7041897
135	0xc017b520	-2.37043
136	0xbeb180b2	-0.346685
137	0xbef78ec8	-0.4835112
138	0x3d841ed5	0.06451193
139	0x3f94f22c	1.1636405
140	0x3df775bf	0.12083005
141	0xbfd3569d	-1.6510807
142	0xbd712c32	-0.05888004
143	0x3f0b6be0	0.5446148
144	0x3fcc2a39	1.5950385
145	0xbe2cb040	-0.16864109
146	0x3e545b96	0.20738062
147	0x3dab2da9	0.08358318
148	0xbfe1a1e8	-1.7627535
149	0xbeae9604	-0.34098828
150	0xbf069458	-0.52570105
151	0x3fb784b9	1.4337379
152	0x3d923cdc	0.07140514
153	0xbd40785b	-0.04698978
154	0xbef9b51e	-0.48770994
155	0xbfd53a32	-1.6658385
156	0x3e602a9b	0.21891253
157	0xbfaf88e7	-1.3713654
158	0x3f0820d0	0.5317507
159	0xbe447ee3	-0.19189028
160	0xbcbc6008	-0.02299501
161	0xbf5890a3	-0.845957
162	0xbef5f5e6	-0.48039168
163	0xbdbd3efd	-0.0924053
164	0xbfcce2ce	-1.6006715
165	0x3fd95f0b	1.698213
166	0x3ecdfccc	0.4023193
167	0xbebc51ad	-0.36781064
168	0xbfc86d1a	-1.5658295
169	0xbe39b32e	-0.18134758
170	0x3ebbc300	0.3667221
171	0x3ff1aa4c	1.8880095
172	0xbf3dc9ef	-0.7413625
173	0x3f6650e3	0.89967173
174	0x3f74d1f9	0.9563289
175	0x3f37b77d	0.71764356
176	0xbfa54360	-1.2911186
177	0x3f443b82	0.766533
178	0xbe51add6	-0.2047647
179	0x3f024783	0.5089037
180	0xbf161184	-0.58620477
181	0xbf179675	-0.59213954
182	0xbeae9100	-0.34095
183	0xbf767269	-0.96268326
184	0x3dfc4291	0.12317384
185	0x3dbc54d6	0.09195869
186	0x3f0704f8	0.52741957
187	0x3f7ed451	0.9954272
188	0x3ed80cbe	0.42197222
189	0x3fe52eca	1.7904904
190	0xbcef4c5e	-0.02921122
191	0xbfd719df	-1.680477
192	0x3f900b95	1.1253535
193	0xbd897996	-0.06712644
194	0xbf1dcb50	-0.61638355
195	0xbf168409	-0.5879522
196	0x3ec91e8f	0.39281127
197	0x3e3bb368	0.18330157
198	0x3ed2d529	0.41178253
199	0x3f758543	0.95906466
200	0xbf926ad7	-1.1438855
201	0xbd0ab680	-0.03386545
202	0xbf333536	-0.7000307
203	0x3fa6525b	1.2993883
204	0x3ec09a76	0.37617844
205	0x3f9b9f2e	1.2157953
206	0x3fc49e00	1.5360718
207	0xbe928a64	-0.2862121
208	0xbd1f1ff1	-0.03884882
209	0xbfce1cb8	-1.6102514

lstm.weight_ih_l0 f4 [40, 10]
0	0x3e1a571a	0.15072289
1	0x3e6f5aea	0.23374525
2	0x3ea7551b	0.32682118
3	0x3e96b57a	0.2943533
4	0xbd599e72	-0.05312962
5	0xbe50ac88	-0.20378315
6	0x3ea8410c	0.32862127
7	0xbdcaae10	-0.09896481
8	0x3c25b818	0.010114692
9	0xbe8e6c18	-0.27816844
10	0x3d4c5c4e	0.049892716
11	0x3ea9893d	0.33112517
12	0x3e74268a	0.23842826
13	0xbd607307	-0.0547972
14	0xbe31688d	-0.17325039
15	0xbc59be5e	-0.013290016
16	0x3d8bd825	0.06828336
17	0xbe8b303c	-0.27185237
18	0x3d564997	0.052316274
19	0xbe3f5aee	-0.1868703
20	0x3ea0a2bf	0.31374165
21	0xbe206ad5	-0.15665753
22	0x3e80a360	0.25124645
23	0x3e6208d6	0.22073683
24	0x3e783bcc	0.2424156
25	0xbe535108	-0.2063638
26	0xbc17aabe	-0.009257017
27	0xbe79a41e	-0.24379012
28	0x3ec2c444	0.38040364
29	0xbde2875d	-0.11060975
30	0xbe01a909	-0.12662138
31	0x3cf0678a	0.029346246
32	0xbe50bc94	-0.20384437
33	0x3e1201de	0.14258525
34	0xbdfaead2	-0.1225182
35	0x3d88d478	0.0668115
36	0x3d7bce8f	0.061476287
37	0x3d1b5e79	0.037931893
38	0xbe6c48ab	-0.23074596
39	0x3da73f86	0.08166413
40	0x3dd54eff	0.10415458
41	0x3df09d10	0.11748707
42	0xbe6156e6	-0.22005805
43	0x3b162580	0.0022910535
44	0x3dbd0b48	0.09230667
45	0xbd645c7d	-0.055752266
46	0x3cceb89e	0.025234517
47	0xbda05435	-0.07828561
48	0x3d43ed10	0.047833502
49	0xbe0f6b5c	-0.14005798
50	0xbe48b22d	-0.19599219
51	0x3e14a17e	0.1451473
52	0xbe870624	-0.26371872
53	0x3c0f0ea7	0.008731521
54	0x3d94d894	0.072678715
55	0xbe053bb0	-0.1301105
56	0xbdc4977a	-0.09599204
57	0x3e0f3693	0.13985662
58	0x3da95b8c	0.08269414
59	0xbb9ea077	-0.0048409062
60	0x3eb9b7a0	0.36272907
61	0xbe5971e2	-0.21234849
62	0xbd96b9ca	-0.07359655
63	0x3dc76e77	0.09737866
64	0x3e475e7e	0.1946964
65	0x3dc30378	0.09522146
66	0x3e891ff5	0.26782194
67	0xbebcca68	-0.36873174
68	0xba81ba81	-0.0009897501
69	0x3d3129de	0.04325282
70	0x3eb127c2	0.34600645
71	0xbe64ca91	-0.22342898
72	0x3ddbf54e	0.107401475
73	0xbe4bcf2b	-0.19903247
74	0x3d1f4240	0.03888154
75	0xbe3b3228	-0.18280852
76	0x3da8cc2c	0.08242068
77	0x3dba1f21	0.090879686
78	0x3dbab749	0.0911699
79	0x3ea2e506	0.31815356
80	0x3dda019e	0.1064484
81	0xbdeff303	-0.11716273
82	0xbe247e5d	-0.16063829
83	0x3e320689	0.17385305
84	0x3e04b515	0.12959702
85	0xbc614f9f	-0.013751893
86	0x3e8c8595	0.27445665
87	0x3b7dab88	0.0038706977
88	0xbe2b4a82	-0.16727641
89	0xbd47e224	-0.04879965
90	0x3d6b27d2	0.057411022
91	0x3d183233	0.03715725
92	0x3ec074f5	0.3758923
93	0xbcdd9de3	-0.027052825
94	0xbea6c4b9	-0.32571962
95	0xbe371fe9	-0.17883267
96	0x3e866ed9	0.26256445
97	0x3d0ab0f1	0.03386015
98	0x3e31d271	0.17365433
99	0xbe63a218	-0.22229803
100	0x3d2c0a79	0.042002175
101	0xbe6bd668	-0.23031008
102	0x3de9de79	0.114193864
103	0xbd8314e6	-0.064004704
104	0x3ebfac0d	0.37435952
105	0xbe1c078a	-0.15237251
106	0xbe73f987	-0.23825656
107	0x3e1eafb9	0.1549672
108	0x3d7df207	0.061998393
109	0x3da5086b	0.08058246
110	0x3e5d5356	0.21613821
111	0x3db9254a	0.090403154
112	0x3d58f00e	0.05296331
113	0xbe69d492	-0.22834995
114	0xbe669fb8	-0.22521865
115	0x3d644f11	0.055739466
116	0xbd37c5ea	-0.04486648
117	0x3e34f690	0.17672181
118	0x3ccd593f	0.02506697
119	0x3daa6007	0.08319097
120	0xbea0dfa3	-0.3142062
121	0x3e89efb5	0.26940694
122	0x3dbea6cf	0.0930916
123	0x3e1e37f0	0.15451026
124	0xbe7dc506	-0.2478219
125	0x3e954166	0.29151458
126	0xbda00f40	-0.07815409
127	0xbe91a0a7	-0.2844288
128	0x3e41e8b5	0.18936427
129	0x3d3f16a3	0.046652447
130	0xbe3c6834	-0.18399125
131	0x3e76fbf1	0.24119546
132	0xbdde6927	-0.108599
133	0xbe62ab69	-0.221357
134	0xbe8ba66f	-0.27275416
135	0xbd865bef	-0.06560504
136	0x3eb44bd4	0.35214102
137	0xbe215058	-0.15753305
138	0xbc6fbb99	-0.014632129
139	0xbde526f4	-0.1118907
140	0xbe3df9d6	-0.18552336
141	0x3e0c5b28	0.13706648
142	0xbe232a65	-0.15934141
143	0x3e282772	0.16421297
144	0xbe836645	-0.25663963
145	0x3e1e14f8	0.15437686
146	0x3e64e2e3	0.22352175
147	0x3dd6a3a5	0.104804315
148	0xbd7a4bfc	-0.06110762
149	0xbe4dc181	-0.20093347
150	0x3db25903	0.08708384
151	0xbe10191f	-0.14072083
152	0xb8457ad0	-4.7082838e-05
153	0xbdac1efe	-0.08404349
154	0xbe83fac6	-0.25777262
155	0x3eb32cff	0.34995267
156	0xbdf72b9b	-0.12068864
157	0xbe1a1325	-0.15046366
158	0x3e33e5f9	0.17568196
159	0x3deed218	0.11661166
160	0xbe29c5c7	-0.16579352
161	0x3e833fc8	0.256346
162	0xbe0c0798	-0.13674772
163	0x3c4845c4	0.012223665
164	0xbd6739b0	-0.0564515
165	0x3e2c1fd8	0.16809022
166	0x3e3cb0f4	0.18426877
167	0x3e2792f4	0.16364652
168	0xbe9250de	-0.28577322
169	0xbe13312b	-0.14374225
170	0x3d83e803	0.06440737
171	0x3ce219c6	0.02760018
172	0x3e8e9710	0.27849627
173	0xbd1d24ad	-0.038365055
174	0x3e28d91b	0.16489069
175	0x3eba93e8	0.3644097
176	0xbe98abe3	-0.2981864
177	0x3e126643	0.14296822
178	0x3d291135	0.041276176
179	0xbc302792	-0.010751622
180	0x3e8f7102	0.28015906
181	0xbe8b2937	-0.27179882
182	0xbd916203	-0.070987724
183	0x3e79de31	0.24401166
184	0x3e5ef2e4	0.21772343
185	0xbe29e7fd	-0.16592403
186	0xbe005342	-0.1253176
187	0x3e4084cc	0.18800658
188	0x3d70a529	0.05875126
189	0xbe82d61f	-0.25553986
190	0x3e42593d	0.18979354
191	0x3e5c833c	0.21534437
192	0x3da34a9b	0.07973214
193	0x3e0c0b53	0.13676195
194	0xbdce6672	-0.10078134
195	0xbd8f8293	-0.07007327
196	0xbe5064c1	-0.20350935
197	0x3e3a495e	0.1819205
198	0x3e7c9986	0.2466794
199	0x3e370fa7	0.17877065
200	0x3e0f3748	0.13985932
201	0x3e56aa49	0.20963396
202	0xbe9e8dfd	-0.30967703
203	0xbe57dff1	-0.2108152
204	0xbda6f209	-0.08151633
205	0x3cd597c7	0.02607335
206	0x3ea3f68c	0.32024038
207	0xbe06ba25	-0.13156946
208	0x3dc5c851	0.09657348
209	0x3d804e35	0.06264917
210	0xbd040830	-0.03223437
211	0x3e27d029	0.16388
212	0x3ebc3c8e	0.3676495
213	0xbe3a0092	-0.1816428
214	0x3e9beb67	0.30453035
215	0x3d1f730e	0.038928084
216	0xbe837e73	-0.2568241
217	0xba137f4a	-0.00056265725
218	0xbe2da9a0	-0.16959238
219	0x3e96ed83	0.29478082
220	0x3e229932	0.15878752
221	0xbea9f4be	-0.33194536
222	0xbea253ae	-0.31704468
223	0xbe9d57bb	-0.30730996
224	0xbe802435	-0.25027624
225	0xbdb9769b	-0.09055825
226	0x3e5e78a8	0.21725714
227	0x3e9e7c64	0.30954278
228	0x3e386df4	0.18010694
229	0xbdeb65cf	-0.11494028
230	0x3d4f87f5	0.050666768
231	0xbd63784e	-0.055534653
232	0x3dd7d5d0	0.105388284
233	0x3e3f512e	0.18683311
234	0xbea203dd	-0.31643572
235	0x3e14876e	0.14504787
236	0x3db5d674	0.08878794
237	0xbe8c8252	-0.27443177
238	0xbe817dac	-0.25291193
239	0x3e1b42ce	0.15162203
240	0x3e495d66	0.19664535
241	0xbd1847a2	-0.03717769
242	0x3e2d39b9	0.1691655
243	0x3eac8a12	0.3369909
244	0x3d20c3b5	0.03924914
245	0xbe0cc984	-0.13748747
246	0x3e5333f2	0.20625284
247	0xbe5de3b8	-0.21668899
248	0xbae4535f	-0.0017419866
249	0x3e878f43	0.26476488
250	0xbe968519	-0.2939842
251	0x3def0e92	0.11672701
252	0x3e818e29	0.25303772
253	0xbea52bb6	-0.3225991
254	0x3e296371	0.1654184
255	0x3d1941cb	0.03741626

lstm.weight_hh_l0 f4 [40, 10]
0	0x3c0d4892	0.008623259
1	0x3e2ea1b2	0.1705387
2	0x3e4d2f59	0.20037593
3	0xbe08aff1	-0.13348366
4	0xbd824b7c	-0.06362054
5	0x3dea33fa	0.11435695
6	0xbea0b6ac	-0.31389368
7	0xbe3688e5	-0.17825659
8	0xbe8b2840	-0.27179146
9	0xbe4d3351	-0.20039107
10	0x3db0cba4	0.08632591
11	0x3e321ff6	0.17395005
12	0x3d0c787f	0.0342946
13	0x3ebaeff8	0.36511207
14	0x3e9e257e	0.3088798
15	0xbea00b99	-0.31258848
16	0xbe8732fc	-0.26406085
17	0xbc9e8127	-0.019348694
18	0x3df47967	0.11937218
19	0x3d977198	0.07394713
20	0x3ea6af60	0.32555676
21	0x3ebafbee	0.36520332
22	0x3deae24d	0.11468945
23	0x3ded7eb4	0.11596432
24	0x3e59fdba	0.21288195
25	0x3e145e9a	0.14489213
26	0xbea1a642	-0.31572157
27	0xbd387fee	-0.04504388
28	0x3e516b95	0.20451196
29	0xbe831a83	-0.25606164
30	0xbe16ad81	-0.14714624
31	0xbdb2b97a	-0.08726783
32	0x3deaf51b	0.114725314
33	0x3e438e6e	0.19097301
34	0x3de70997	0.11281126
35	0xbea162b8	-0.3152063
36	0xbecf1152	-0.40442902
37	0xbc03d1fa	-0.008045668
38	0x3e096ba6	0.13419971
39	0xbe511876	-0.20419487
40	0x3e561123	0.20904975
41	0x3db8eadd	0.090291716
42	0xbdd89cd5	-0.10576788
43	0xbe5a2e3f	-0.21306704
44	0x3e4a2c0c	0.19743365
45	0xbd88d1d7	-0.06680649
46	0xbd747717	-0.059683885
47	0xbeacf3d3	-0.33779773
48	0xbd6a1e83	-0.057158004
49	0xbe7033f9	-0.23457326
50	0x3e76e57f	0.24110983
51	0x3d4105e8	0.047124773
52	0xbd99def4	-0.07513228
53	0xbe93902b	-0.2882093
54	0x3ea1c24b	0.31593546
55	0xbe5909fc	-0.21195215
56	0x3e12478e	0.14285108
57	0x3e1b962b	0.15194003
58	0x3e816c14	0.2527777
59	0xbdd7056a	-0.104990795
60	0xbe0ed3b5	-0.13947947
61	0xbebb23de	-0.36550802
62	0xbc273f3a	-0.0102079455
63	0xbe207882	-0.1567097
64	0xbe10d4ce	-0.14143679
65	0x3d8ecbf8	0.06972498
66	0xbea7856c	-0.3271898
67	0x3e2c6955	0.16837056
68	0x3d5dce66	0.054151915
69	0xbd5dbc37	-0.054134574
70	0x3e86aec1	0.26305202
71	0xbd699478	-0.057026356
72	0x3e94f81d	0.29095545
73	0x3c84fb5e	0.016233142
74	0xbe2106e2	-0.15725282
75	0xbe135824	-0.14389092
76	0xbe8fabfb	-0.28060898
77	0xbe9f2adc	-0.31087387
78	0x3d0c08db	0.034188133
79	0xbe1bf9af	-0.15231965
80	0xbe1a840f	-0.15089439
81	0xbcbe6d56	-0.023245495
82	0x3e40e530	0.18837428
83	0x3dcbacd7	0.09945076
84	0xbe3c8919	-0.18411674
85	0xbe92f4e7	-0.2870247
86	0x3e6a90c4	0.22906786
87	0xbe35dff9	-0.1776122
88	0x3d84a521	0.06476808
89	0x3eb3c710	0.3511281
90	0xbe682ccc	-0.22673339
91	0x3cc04324	0.023469515
92	0x3e074963	0.13211589
93	0xbd161629	-0.036642227
94	0x3d37b1ef	0.044847425
95	0xbb858e21	-0.004075781
96	0xbeb0baf3	-0.3451763
97	0xbe5d9ed0	-0.21642613
98	0xbe23669d	-0.15957113
99	0x3ea90cae	0.33017486
100	0xbcc384c6	-0.023867022
101	0xbea53f83	-0.32275018
102	0xbddd0c72	-0.107933894
103	0x3d878be2	0.066184774
104	0x3e3f24cb	0.18666379
105	0x3e152f0d	0.1456873
106	0xbaf7575e	-0.0018870642
107	0xbda6d547	-0.08146148
108	0xbdb6c5c5	-0.0892444
109	0x3ea40bb9	0.32040194
110	0x3e9aa959	0.30207327
111	0xbe392479	-0.1808032
112	0xbdcd9795	-0.100386776
113	0xbe092a1b	-0.13394968
114	0x3e20a106	0.15686426
115	0xbcf9feec	-0.030517064
116	0x3df5b429	0.119972534
117	0x3e23dc47	0.16001998
118	0xbe5b72f7	-0.21430574
119	0x3bf288d3	0.0074015646
120	0x3cf4847a	0.029848326
121	0xbe0c0322	-0.1367307
122	0xbde03b35	-0.10948793
123	0x3c1bb4dd	0.00950357
124	0x3e6a11b1	0.22858311
125	0x3e6664a5	0.2249933
126	0xbe1f66ec	-0.15566605
127	0xbe842fd8	-0.25817752
128	0xbdd1641b	-0.10224172
129	0xbe77a88c	-0.2418539
130	0x3e9281bf	0.28614613
131	0xbe81eb12	-0.25374657
132	0xbd0cdd0c	-0.034390494
133	0xbd804c2e	-0.0626453
134	0xbda4b148	-0.08041626
135	0xbe58ffac	-0.21191281
136	0x3d18aa50	0.037271798
137	0x3e5afeb1	0.2138622
138	0x3d07d2e9	0.033160124
139	0x3e426283	0.18982892
140	0x3d0969de	0.03354823
141	0xbcd05289	-0.02542998
142	0x3e4f3086	0.20233354
143	0x3e68874d	0.22707863
144	0x3dff5e06	0.124691054
145	0xbe08795c	-0.13327545
146	0xbd295867	-0.041344073
147	0xbe953175	-0.29139295
148	0x3da223d9	0.07916994
149	0x3e1440be	0.14477822
150	0x3c9a8fad	0.018867338
151	0x3d427773	0.047477197
152	0x3de9fd12	0.114252225
153	0x3dbfe56c	0.093699306
154	0x3ea4cace	0.32185978
155	0x3d4d16be	0.050070517
156	0x3d660cb3	0.056164455
157	0x3d479093	0.04872186
158	0xbe374760	-0.17898321
159	0xbb41768e	-0.0029520127
160	0x3e01e7e5	0.12686117
161	0xbd95caa4	-0.07314041
162	0xbe966ab4	-0.29378283
163	0x3e4dec90	0.20109773
164	0x3e7d5000	0.24737549
165	0xbe42e93c	-0.19034284
166	0xbd591b32	-0.05300445
167	0xbe31cbe6	-0.17362937
168	0xbe089c2c	-0.13340825
169	0x3dde3922	0.10850741
170	0x3d810641	0.06300021
171	0xbdb4f304	-0.08835414
172	0xbe2cd232	-0.16877058
173	0x3e15d635	0.14632495
174	0xbd9a21ac	-0.07525954
175	0xbe252297	-0.16126476
176	0xbc83051e	-0.015993651
177	0x3ea36cd6	0.31918973
178	0xbe0d46da	-0.13796559
179	0xbdbe4a16	-0.092914745
180	0x3e37bcda	0.17943135
181	0x3e4ef80a	0.20211807
182	0x3e8e2071	0.27759126
183	0x3e8c1701	0.273613
184	0xbd548cfb	-0.051892262
185	0x3d985988	0.07438952
186	0xbd84c373	-0.064825915
187	0x3e36602d	0.17810126
188	0xbce0dbd7	-0.027448578
189	0x3e0500b1	0.12988545
190	0xbe8c7ffb	-0.2744139
191	0xbe9ea79b	-0.30987248
192	0xbdb4305d	-0.08798287
193	0x3e140dc7	0.1445838
194	0xbea6717c	-0.32508457
195	0x3d4b08fb	0.04956911
196	0x3e44ccfc	0.1921882
197	0xbea3216b	-0.31861433
198	0xbe7add7b	-0.2449855
199	0x3e753d47	0.23949157
200	0xbe8655e9	-0.2623742
201	0xbe280be1	-0.16410781
202	0x3d5d0b6e	0.05396598
203	0x3e5d6678	0.2162112
204	0x3e2b572d	0.16732474
205	0xbe74b152	-0.23895767
206	0xbd84119b	-0.064486705
207	0xb9a3099c	-0.00031096942
208	0x3e5e381e	0.21701095
209	0xbea45641	-0.32097057
210	0x3decff6d	0.11572156
211	0x3db105b6	0.086436674
212	0x3e304cf7	0.1721686
213	0xbe2e5fa4	-0.17028672
214	0xbd130437	-0.03589269
215	0xbdb132de	-0.0865228
216	0x3d6074dc	0.054798946
217	0x3e4b4c8e	0.19853422
218	0xbccce01a	-0.025009204
219	0xbe6dd6fe	-0.23226544
220	0xbca2bfa9	-0.019866781
221	0x3eaba132	0.3352142
222	0xbe938582	-0.28812796
223	0x3e9147d4	0.28375113
224	0x3e746f77	0.23870645
225	0x3e9a2ccc	0.30112302
226	0x3d0d5e2f	0.03451365
227	0x3d3f6650	0.046728432
228	0x3da6d55f	0.08146166
229	0x3e4435ed	0.19161196
230	0x3e03bea4	0.12865692
231	0x3d3ed99b	0.046594243
232	0xbcbe2830	-0.023212522
233	0x3e2cf09d	0.16888662
234	0xbdfa9141	-0.12234736
235	0x3d30931b	0.04310904
236	0xbe8953c4	-0.2682172
237	0x3dd06913	0.10176291
238	0xbe8de07b	-0.27710328
239	0xbdc57791	-0.09641946
240	0x3e07c4cf	0.1325867
241	0x3e29fedc	0.16601127
242	0xbd455a9c	-0.048182115
243	0xbe2b865e	-0.16750476
244	0x3e363a51	0.17795683
245	0x3e3232ba	0.17402163
246	0xbe998fcc	-0.2999252
247	0xbe05a8de	-0.13052699
248	0x3e465081	0.19366647
249	0xbe1885f6	-0.14894852
250	0xbe7606ba	-0.24026003
251	0x3de7f150	0.113253236
252	0x3e89ec55	0.2693812
253	0xbe855801	-0.26043704
254	0x3da71c0c	0.081596464
255	0xbe07dbfc	-0.13267511

lstm.bias_ih_l0 f4 [40]
0	0x3e963b93	0.29342327
1	0x3eb93319	0.36171797
2	0xbcc607c4	-0.024173625
3	0x3e1ab017	0.15106235
4	0x3e33989f	0.17538689
5	0xbe6a45cf	-0.22878192
6	0xbe230011	-0.15917994
7	0x3ea0df9f	0.3142061
8	0xbe54b4c0	-0.20772076
9	0x3dfd5548	0.12369782
10	0x3e8b1d0d	0.271706
11	0x3e0423e9	0.12904324
12	0xbe8ddae2	-0.27706057
13	0xbe061c8a	-0.13096824
14	0x3e64a0ce	0.22326967
15	0x3dde2b51	0.10848106
16	0x3dcadbd1	0.09905208
17	0xbe9a0606	-0.3008272
18	0x3d2656ec	0.04061024
19	0xbdb4ebcb	-0.088340364
20	0x3e02280e	0.12710592
21	0x3d70f9ab	0.058831852
22	0xbd0444a1	-0.032292012
23	0xbe2b03d5	-0.1670068
24	0x3e8685ca	0.26273948
25	0xbe51d9c8	-0.20493233
26	0xbe4cb1bc	-0.19989675
27	0x3e5fcc3d	0.21855254
28	0x3d5cecdf	0.053936835
29	0xbca2c46a	-0.019869048
30	0x3ea38229	0.31935242
31	0xbe689849	-0.22714342
32	0x3ddfa025	0.10919217
33	0x3ea311ec	0.3184961
34	0xbdab1be8	-0.08354932
35	0x3e00ebbc	0.12589926
36	0x3d9406d7	0.07227867
37	0x3db976f9	0.09055895
38	0xbe4113a4	-0.18855149
39	0xbe09121a	-0.13385811

lstm.bias_hh_l0 f4 [40]
0	0xbe27796f	-0.16354917
1	0xbd9576e2	-0.07298066
2	0x3e35b2f2	0.17744043
3	0x3e18bc16	0.14915499
4	0x3e652f77	0.22381388
5	0xbe925c0a	-0.28585845
6	0x3ea9e4a6	0.33182257
7	0x3d1da619	0.03848848
8	0x3df0aaab	0.11751302
9	0x3adb750a	0.0016743254
10	0xbe10d174	-0.141424
11	0x3e91ecae	0.28500885
12	0xbd058391	-0.032596175
13	0x3e866ba0	0.26253986
14	0xbc31e8a0	-0.010858685
15	0x3dde24b9	0.10846848
16	0x3e8b4bf5	0.27206388
17	0x3e9e2091	0.3088422
18	0x3e0b0efa	0.13579932
19	0x3defb7a9	0.11704952
20	0x3eadaff2	0.33923298
21	0xbdc58386	-0.09644227
22	0x3e6c9171	0.23102356
23	0x3d588222	0.05285848
24	0xbb20dd6d	-0.0024546043
25	0xbdbfb7fe	-0.093612656
26	0xbe8f0e3e	-0.27940553
27	0xbe61cac5	-0.22050007
28	0xbe6454c8	-0.22297966
29	0xbd664e9f	-0.056227323
30	0xbe9cc48b	-0.306187
31	0xbd4a76ec	-0.04942982
32	0x3df5cbb6	0.120017454
33	0x3e75a17b	0.23987381
34	0x3e9ee7ce	0.31036228
35	0x3e53270c	0.20620364
36	0x3e707469	0.23481907
37	0xbd15d747	-0.036582258
38	0xbe982a77	-0.29719898
39	0x3ea52d64	0.32261193

hidden_layer.weight f4 [10, 20]
0	0x3e222911	0.15835978
1	0xbb97e97d	-0.0046359883
2	0xbe5fe370	-0.21864104
3	0xbdac8027	-0.084228806
4	0xbe10b634	-0.14132005
5	0xbd03bbea	-0.03216163
6	0xbd7de75a	-0.061988212
7	0xbc96939d	-0.018380934
8	0xbdc922a9	-0.09821064
9	0x3e326ca5	0.17424257
10	0x3dca1064	0.098664075
11	0x3e3bc104	0.18335348
12	0xbe821372	-0.2540546
13	0xbb278578	-0.0025561731
14	0xbd32610d	-0.043549586
15	0xbe32ee65	-0.17473753
16	0x3d4c75ab	0.049916904
17	0x3b7b0828	0.0038304422
18	0xbe732857	-0.23745857
19	0x3d234b4e	0.039866738
20	0xbd89e87a	-0.067337945
21	0xbe26c4c5	-0.16285999
22	0x3e476ee7	0.194759
23	0x3e6fcdbc	0.23418325
24	0x3e22d1da	0.15900365
25	0x3db7f5bb	0.08982416
26	0x3e1e8b5e	0.15482852
27	0xbe0cdbf9	-0.13755788
28	0x3ca06533	0.019579506
29	0xbe148595	-0.14504083
30	0x3deccba8	0.11562282
31	0xbd002f40	-0.03129506
32	0x3ddd9669	0.10819704
33	0x3db24d3a	0.08706136
34	0xbe009616	-0.12557253
35	0xbc11d612	-0.008901136
36	0xbd8d473f	-0.06898355
37	0x3e461bae	0.19346496
38	0x3e57bcf6	0.21068177
39	0x3e2fefa8	0.17181265
40	0xbbd07918	-0.0063620917
41	0xbe6f2874	-0.23355275
42	0x3dff7e0c	0.124752134
43	0xbde42611	-0.11140073
44	0xbe1f81a9	-0.15576805
45	0xbe24faa4	-0.16111237
46	0xbda74794	-0.08167949
47	0x3e3bcd1f	0.18339966
48	0x3e3a2d6a	0.18181387
49	0x3dab88d6	0.08375709
50	0xbe2b6bc9	-0.16740336
51	0x3d67db80	0.056605816
52	0xbdaff549	-0.08591706
53	0x3b9cfa75	0.004790599
54	0xbdcdcaa0	-0.10048413
55	0xbe50a575	-0.20375617
56	0x3dab4cd2	0.08364262
57	0x3e2e4de1	0.17021896
58	0x3e147ae4	0.14500004
59	0x3e39c1ca	0.18140331
60	0xbe0c227e	-0.13685033
61	0x3e369d58	0.1783346
62	0x3e453dd6	0.1926187
63	0xbe15a91a	-0.14615288
64	0x3e1f0979	0.15530957
65	0x3e103563	0.14082865
66	0xbe17b25d	-0.14814134
67	0x3e16a86d	0.14712687
68	0xbe2cd726	-0.16878948
69	0x3cf4b399	0.029870795
70	0x3e74f3b3	0.23921089
71	0x3c21b8de	0.009870736
72	0x3d27da56	0.040979706
73	0x3dd814f5	0.10550872
74	0x3de36b70	0.111044765
75	0xbd1e6776	-0.038672887
76	0xbe4ae4d9	-0.19813861
77	0xbe9627f4	-0.29327357
78	0x3cac629d	0.021043116
79	0xbe8efe55	-0.27928415
80	0xbe4a5224	-0.19757897
81	0xbe05a753	-0.1305211
82	0xbe28e511	-0.16493632
83	0x3d06442e	0.032779865
84	0x3e2e20f7	0.17004763
85	0x3e215060	0.15753317
86	0x3e006ad4	0.12540752
87	0xbe489b76	-0.19590554
88	0x3e4e6e98	0.20159376
89	0xbe151030	-0.14556956
90	0x3da60da5	0.08108071
91	0x3d5a2fc3	0.053268205
92	0xbe08e90e	-0.13370153
93	0x3d338ca6	0.043835305
94	0xbda77b76	-0.08177845
95	0xbe76b07d	-0.24090762
96	0xbc2991e8	-0.010349728
97	0xbe956a35	-0.29182592
98	0x3e09ff21	0.1347623
99	0xbdd4ff45	-0.10400251
100	0x3cfc6170	0.03080818
101	0x3e783887	0.24240313
102	0x3de9b9dc	0.11412403
103	0xbe6e3c3a	-0.23265162
104	0x3e51312a	0.20428911
105	0xbe490d37	-0.19633947
106	0x3d473b2e	0.048640423
107	0xbc81e12d	-0.015854442
108	0x3defe3ab	0.11713346
109	0xbd21fa21	-0.039545182
110	0x3de089e9	0.10963804
111	0xbc5e76dc	-0.013578143
112	0xbd8ec6ce	-0.06971513
113	0x3ded2a81	0.115803726
114	0x3e55042d	0.20802374
115	0xbcc72fda	-0.02431481
116	0xbe032b29	-0.12809433
117	0xbe92039f	-0.28518388
118	0x3dbc534a	0.09195574
119	0x3cfb6426	0.030687403
120	0x3d84233e	0.064520344
121	0x3e575d85	0.21031769
122	0xbdbddafc	-0.092702836
123	0xbde589f2	-0.112079516
124	0xbd8a7acb	-0.06761702
125	0x3a9bcf17	0.0011887279
126	0xbdc908df	-0.09816145
127	0xbe413825	-0.18869074
128	0x3e6924a8	0.2276789
129	0x3dd6886e	0.10475241
130	0xbdb27d02	-0.087152496
131	0xbe5375d7	-0.20650421
132	0x3c90ff87	0.01769997
133	0xbded4615	-0.11585633
134	0xbe2660bf	-0.16247843
135	0xbddbafcd	-0.10726891
136	0x3c529a86	0.012854224
137	0xbdd66966	-0.10469322
138	0x3e1d252b	0.1534621
139	0xbd579135	-0.052628715
140	0x3e6da485	0.2320729
141	0xbe1ad3f5	-0.15119918
142	0xbe488c07	-0.19584666
143	0x3cf61564	0.030039497
144	0xbde0f737	-0.109846525
145	0xbe00cfaa	-0.12579218
146	0xbddaebf4	-0.10689536
147	0xbdf1e912	-0.11812033
148	0xbe0b2606	-0.13588724
149	0x3ca172c0	0.019708037
150	0x3df95853	0.1217505
151	0x3e0abd16	0.13548693
152	0x3d447f81	0.04797316
153	0xbdefa3e4	-0.117011815
154	0x3d8d500a	0.06900032
155	0xbd7c8f6e	-0.061660223
156	0x3ddb2dc5	0.10702089
157	0xbe01fe8f	-0.12694763
158	0x3d8049b5	0.062640585
159	0x3e430c5a	0.1904768
160	0x3deefbfc	0.11669156
161	0xbd07f1d4	-0.03318961
162	0x3b95486a	0.0045557516
163	0x3daefc43	0.08544209
164	0x3e26f23b	0.16303341
165	0x3e75c665	0.24001463
166	0xbdd7f5df	-0.10544943
167	0xbe5c7fc9	-0.21533121
168	0xbe5ee34b	-0.21766393
169	0x3e605a77	0.2190951
170	0xbcac10f3	-0.021004176
171	0x3cab11c5	0.020882497
172	0x3d5d5834	0.054039195
173	0xbd8f8e88	-0.070096076
174	0xbe66cee9	-0.22539867
175	0x3dfff38c	0.12497625
176	0x3e22e9d5	0.15909512
177	0xbdc1ccc5	-0.09462885
178	0xbd67d184	-0.056596294
179	0xbd33cba4	-0.04389538
180	0xbd96bf09	-0.07360656
181	0xbd6f2fda	-0.058395244
182	0x3dcf94e9	0.10135824
183	0xbd692a88	-0.056925327
184	0xbdfbd717	-0.122968845
185	0x3c5c7892	0.013456481
186	0xbdedb852	-0.11607422
187	0x3d03e90c	0.032204673
188	0xbda1d1da	-0.07901354
189	0x3e40648c	0.18788356
190	0x3c8fd228	0.017556265
191	0xbe382316	-0.17982134
192	0x3e218af7	0.15775667
193	0x3c93a363	0.018022245
194	0x3e2631b6	0.162299
195	0x3e2cb157	0.16864525
196	0x3dd9ec9a	0.10640831
197	0x3d7843e6	0.060611628
198	0xbe5c498d	-0.21512432
199	0xbe05d608	-0.13069928

hidden_layer.bias f4 [10]
0	0x3e294b71	0.16532685
1	0xbe3f4db6	-0.18681988
2	0xbd31471a	-0.0432807
3	0xbd5828da	-0.052773334
4	0x3d858e73	0.06521311
5	0xbdd7a98b	-0.10530385
6	0xbd9ba580	-0.07599926
7	0x3d8086d5	0.06275717
8	0xbe1e6f2c	-0.15472096
9	0xbe04dfb4	-0.12975961

output_layer.weight f4 [1, 10]
0	0xbe9a4c22	-0.3013621
1	0x3e9fc530	0.3120513
2	0x3e62f579	0.22163953
3	0xbeb8a487	-0.36063024
4	0xbdddf129	-0.10837013
5	0xbe714e39	-0.23564996
6	0xbe511c43	-0.20420937
7	0x3d76f819	0.060295198
8	0x3e23d16a	0.15997854
9	0xbe85bd85	-0.26121154
