pair_sampling/ignore.pt (torch_old, 112141 bytes, 21 tensors)

tcr_embedding.weight f4 [21, 10]
00000000: 0000 0000 0000 0000 0000 0000 0000 0000
00000010: 0000 0000 0000 0000 0000 0000 0000 0000
00000020: 0000 0000 0000 0000 1e18 15bf e945 48bf
00000030: fa65 0d40 ff4d 7d3d df5a b6bf a1ee 4b3f
00000040: 5698 893f 609a 16bf 8fda aabf 4c77 b63f
00000050: 30fd 3fbf 3901 63bf 044b b6bd 48b1 abbe
00000060: 0884 933f f1a2 963e 1bc8 8c3f 0db2 af3e
00000070: 1a13 913f ace5 0440 ac1f 97be cb0b e93f
00000080: 9bd5 e7bf 7dfd 583f 6461 efbe 06cc 17c0
00000090: 394d 163e 6407 1c3e ea7c e4bf a14f 2e3f
000000a0: 594d 31bf b099 2c3f d37c 1340 dde8 d4bd
000000b0: e871 973e 8c81 13c0 94d2 5cbf e196 cebe
000000c0: ccb7 093f 362e b1bf f833 05bf 8750 b23e
000000d0: b772 40bf aa4c 3cbe a0b6 fdbe 566e 833f
000000e0: 9ae0 11bf 825c 9fbf 7d9a 0dbf 94bb 70be
000000f0: 049d be3f df1e bd3f 3e67 323f e65b 0fc0
00000100: 7d84 7abe 3fc4 6b3f 5798 743e 7451 87be
00000110: 7513 303f 7c61 febc e6f0 91bf 79bc 02bd
00000120: 9ab0 043d 7849 15c0 9a7f 1fbf 32f2 0ebe
00000130: 6c0f e13f 396f 0c3f 74a3 e33a 65df 87bf
00000140: 94b8 29bf 1e87 a73e 50a3 e6be 804e 5c3f
00000150: da8a d73f c9cd bd3e f67a ccbd 0907 9cbf
00000160: a552 a43f 1c2e 39bf 9a2f 2f3f 5579 ae3f
00000170: 6a83 7fbf e687 39be 539e 4a3f 5b3a 0a3f
00000180: 963c 253f e9db 883f 4d83 f83e fa3d 423f
00000190: 587b 7e3f ed05 82bf ec89 bbbf 0638 be3e
000001a0: c614 f13e 898b 39bf ae38 083f f457 303f
000001b0: 36e2 593e a4e2 a73f 0fab 393f 5a03 543f
000001c0: 5749 14bf 32ce bfbe 23cd 7b3f ec2e 80bf
000001d0: 46fe 463f 22dd 9b3d 0174 d43f 783c 9bbf
000001e0: 9b4a 063f f531 3c3f 0596 9f3e 428a 81bd
000001f0: 53c6 ae3f 5f18 d1be 7c68 bbbf 9b67 403d
00000200: 50e1 e53f 7e13 4cbd 8007 f73e 328d e4be
00000210: 0b6d 28bd ca45 253f 56a5 4e3e b8dd b43e
00000220: 4908 c63f 1012 e13e a741 d93f f9ab 563f
00000230: e5a4 563e eaf3 d8bf 752d 39bf 85e1 b0bf
00000240: ff0c 9cbf 0708 0f3f b627 06c0 98cf 7abf
00000250: 56b3 bcbe f8cd ddbf 6c74 883e 2d70 8abd
00000260: c0eb 893c 0ba4 eebf f2bb 4740 c590 303f
00000270: 7193 6b3e 54ca 843d 2d46 afbf 7f34 28bf
00000280: 9dec 703e fa48 463e 4caa 95bd 6997 ce3f
00000290: fc5f 49bd ec07 f43f 2e21 58bf 6e56 973e
000002a0: 1051 203c 3710 8a3d 65cf ee3f 5225 37bf
000002b0: c301 acbf da0d 21bf 06a0 e9bd a625 5ebe
000002c0: 7108 ad3e 2132 71bf f2ed 5fbf 5621 ff3e
000002d0: fcc2 49bf 5b14 06c0 424a 2dbf 47a3 43be
000002e0: b1a8 283f 7cbc e0bf 676e c73c d189 3dbf
000002f0: 493e efbe f2ee 8dbc 7ec2 9bbe bff7 653e
00000300: e176 d6bf 0ab7 643f 1790 16bf 4b0d 7e3d
00000310: 9a17 2bbf 29bc d03f 9f09 92bf 1f77 ddbf
00000320: 1056 c73f 25e0 c8be 38ef ab3f c4eb 543f
00000330: e5c6 003e bbe7 7abf bf1a bebf 66fb b13f
00000340: 6bfd e83d 35e6 d4bf
0.0 0.0 0.0 0.0 0.0 0.0 0.0 0.0
0.0 0.0 -0.58239925 -0.78231674 2.2093492 0.06184196 -1.4246482 0.79660994
1.0749614 -0.5882931 -1.3347949 1.4255157 -0.7499571 -0.8867374 -0.08901027 -0.33533692
1.1524668 0.2942119 1.0998567 0.3431553 1.1333954 2.076518 -0.2951635 1.8206724
-1.8112062 0.8476179 -0.4675399 -2.3718276 0.14677896 0.15237194 -1.7850621 0.68090254
-0.6925865 0.6742201 2.3044937 -0.10395978 0.2957909 -2.304782 -0.86258817 -0.40349486
0.53796077 -1.3842227 -0.52032423 0.34827062 -0.7517504 -0.1838862 -0.49553394 1.0268047
-0.5698334 -1.2450106 -0.55313855 -0.23509055 1.4891667 1.4775046 0.69688785 -2.239984
-0.24464603 0.9209632 0.23886238 -0.2642933 0.6877969 -0.031052344 -1.1401641 -0.031918023
0.032394983 -2.3326092 -0.6230408 -0.13959578 1.7582831 0.5485721 0.0017367438 -1.061505
-0.6629727 0.32720274 -0.45046473 0.8605728 1.6839249 0.37071064 -0.099843904 -1.2189647
1.2837721 -0.7233598 0.6843201 1.3630778 -0.99809897 -0.18118247 0.79147834 0.53995293
0.6454557 1.0692111 0.48537675 0.7587582 0.9940696 -1.0158058 -1.4651465 0.37152117
0.4708616 -0.7247854 0.53211486 0.68884206 0.21277699 1.311604 0.7252664 0.82817614
-0.5792441 -0.37462002 0.9835989 -1.001432 0.7773174 0.07610537 1.6597902 -1.2127829
0.5245759 0.7351373 0.31169143 -0.06325199 1.3654274 -0.40838906 -1.4641261 0.046973806
1.7959385 -0.049823277 0.4824791 -0.44638973 -0.041119616 0.64559615 0.20180258 0.35325408
1.5471278 0.43959093 1.697316 0.8385616 0.2096134 -1.6949437 -0.72334987 -1.3818823
-1.2191466 0.55871624 -2.0961738 -0.9797301 -0.36855572 -1.7328482 0.26651323 -0.06759677
0.016836047 -1.8643812 3.1208463 0.689709 0.23005463 0.064839035 -1.3693291 -0.657051
0.23527761 0.19363776 -0.07307872 1.6139957 -0.049163803 1.9064918 -0.8442563 0.29558128
0.009784952 0.06741374 1.8657042 -0.7154132 -1.3438038 -0.6291176 -0.11407475 -0.21694049
0.33795503 -0.94217116 -0.8747245 0.4983012 -0.7881315 -2.0949924 -0.67691433 -0.19105254
0.658824 -1.7557521 0.024344636 -0.74038416 -0.46727207 -0.017325852 -0.30421823 0.22457789
-1.6755029 0.89341795 -0.58813614 0.062024396 -0.6683289 1.6307422 -1.1409186 -1.7301978
1.5573139 -0.3923351 1.3432379 0.8317225 0.12575872 -0.9800984 -1.4851912 1.3904846
0.11376461 -1.6632754

pep_embedding.weight f4 [21, 10]
00000000: 0000 0000 0000 0000 0000 0000 0000 0000
00000010: 0000 0000 0000 0000 0000 0000 0000 0000
00000020: 0000 0000 0000 0000 83d6 72bf c9a6 e63f
00000030: be8b 15bf f114 44bf 5131 69bf 0fa4 dfbe
00000040: 0180 a8bf a02b a8bc f3ad 39bf c9ac cd3d
00000050: 23d2 1f3f 419b bebf 4a4d 10bf c684 00bf
00000060: 7648 a8bf c10a 1abf 5401 893f b200 64be
00000070: 12fa edbe 582d 76bf 1384 50bc 42a9 8bbf
00000080: 8ee0 e4be 1cdc 6abf bae8 00bf e31a 40be
00000090: 1642 83be 3263 d23f 7e28 b0be 2039 9cbf
000000a0: fc03 0ebf a655 18bf 0774 263d 31a1 0bbe
000000b0: decc 023f a1e7 0b3f 084d 5b3e 75a4 ee3e
000000c0: eed9 453f 5ea7 04bf 1109 873e 149a aabf
000000d0: 76b7 73bd 5962 fe3d c4bd 71bd 4c3e f5bd
000000e0: 3cfa 15bf dd24 c8be 3660 b1bc 9050 6e3e
000000f0: 85fe 57be 39bd 703d 900d 70bf f9b1 85be
00000100: 1431 0240 f109 d4be 8c06 e73f ed05 e1bd
00000110: ff17 963e d340 10bf b8fa d6be 42be a1bd
00000120: e84f b83e 693e 5d3f 387e 37bf 1ccf 8d3e
00000130: 220b 4dbf 5627 ee3e 62fc 68be e494 943d
00000140: e92c 0a3f 1070 0d3f 0387 cc3e 0900 6f3d
00000150: b608 18bd 47f4 0d3f fab1 8c3e b621 17bf
00000160: ed35 e7bf 60a2 3c3f e7d2 55bf 18da c93f
00000170: 156c 023f e925 c2be a25d ffbe a161 abbe
00000180: d0bc ed3e d38d bf3d 07f4 613f a6ca 21bf
00000190: 41df 413f bb6c 273f 366e 7c3f 16a6 c43e
000001a0: 4d5b 283f 8005 0440 080f ee3e 3acf c3bf
000001b0: 3e1a 2e3e e5b8 a2bd 76e0 9f3e bced eebf
000001c0: ea04 863f 4559 783f 188b f5bd d96a b7be
000001d0: 112c 533f 64de b5bd 7cd1 1e3f 2337 b13f
000001e0: b915 cb3e 2918 c63d dfdf ad3f 64da a0be
000001f0: 778e 873f 1ebe 353f 0c02 bd3f e721 ea3d
00000200: b11b fbbe a4aa a9bf 82b3 3a3f cd50 17bf
00000210: efcc 6abf 2bb2 1ebf 7037 8a3e 017d 76be
00000220: 96a5 69be a612 2ebc 267c 7cbf 0f4d be3e
00000230: f2f7 b7bf 3b62 bc3f 78bb a1be 18dc 0dbf
00000240: d073 763f eaaf a4be c686 143f 6480 d5be
00000250: a418 e6bf 7a4c 10bf 1e2e 85bf 36b6 b4bf
00000260: 28f4 f83a 375e f2bf ad2c 0dbb 72a7 ae3e
00000270: fd24 b8be 83bf 1dbe 9926 a8be 5963 c7be
00000280: f067 fdbe f241 ecbe c72e e7be acc5 583f
00000290: 509f 683e bd17 8e3f f19f 333f ddad 243f
000002a0: 59f2 cebe 9ece 263f 355f 2fbe ee67 2e3f
000002b0: 1256 50be 1afe aa3d 40bf 7fbe b2df 533d
000002c0: 89b3 093c 26e8 a7bf 1643 393e d952 4cbf
000002d0: 1122 dfbe 3666 f7bf 74b3 0d3f 87b4 553e
000002e0: d3e3 163e 16c1 093f 7b79 f2be fedb bd3e
000002f0: cc02 15be 99c5 6c3e afc5 acbe ef44 86be
00000300: 4211 a13e a955 85bf 19c1 57bf 3fec 2b3f
00000310: 57ec 9abe c49a 0840 1386 8cbf b89d ea3d
00000320: 2b04 013f 737f 283f 027d 93bf fc93 8d3e
00000330: 3cee 00bf f721 b6bf 261d b1bf 7902 61bf
00000340: dcea 5c3f 20dd a8bd
0.0 0.0 0.0 0.0 0.0 0.0 0.0 0.0
0.0 0.0 -0.9485857 1.8019649 -0.58416355 -0.76594454 -0.91090876 -0.43679854
-1.3164064 -0.020528615 -0.7253105 0.10042722 0.6243002 -1.489113 -0.56367934 -0.50202596
-1.3147113 -0.6017266 1.070353 -0.2226589 -0.4647985 -0.9616294 -0.012726801 -1.0911028
-0.44702572 -0.9174211 -0.5035511 -0.18760256 -0.25636357 1.6436522 -0.34405893 -1.2204933
-0.5547483 -0.5950569 0.040637996 -0.13635708 0.5109385 0.5465031 0.21416104 0.46609846
0.7728566 -0.5181788 0.26374105 -1.3328271 -0.059501134 0.12421102 -0.059018865 -0.11974773
-0.5858495 -0.39090624 -0.021652322 0.2327292 -0.21093185 0.058774207 -0.93770695 -0.26112345
2.0342455 -0.41413835 1.8048873 -0.109874584 0.29315183 -0.56348914 -0.41988158 -0.07897617
0.35998464 0.86423355 -0.7167697 0.27697074 -0.8009511 0.46514386 -0.22752526 0.07254961
0.5397478 0.5524912 0.39946756 0.058349643 -0.037117682 0.5545086 0.27479535 -0.59035814
-1.8063332 0.73685265 -0.83524936 1.5769682 0.5094617 -0.37919548 -0.49876124 -0.33472922
0.46433115 0.09353223 0.8826298 -0.6319984 0.75731283 0.65400285 0.9860567 0.38407964
0.65764314 2.0628357 0.46495843 -1.5297616 0.17002198 -0.07945422 0.31225938 -1.8666301
1.047025 0.97011214 -0.11989421 -0.35823706 0.82489115 -0.08880308 0.620384 1.3844951
0.3966501 0.09672577 1.3583945 -0.3141662 1.0590352 0.7099322 1.476625 0.114322476
-0.49044564 -1.32552 0.7293016 -0.5910767 -0.91718954 -0.6199061 0.2699542 -0.24071123
-0.22817072 -0.010624563 -0.98626935 0.37168166 -1.4372542 1.4717478 -0.3158834 -0.5541396
0.96270466 -0.32165462 0.5801815 -0.41699517 -1.797627 -0.56366694 -1.0404699 -1.4118106
0.0018993663 -1.8935002 -0.0021541521 0.34112126 -0.3596572 -0.15405087 -0.32841948 -0.38942984
-0.4949336 -0.46144062 -0.45152876 0.84676623 0.22717023 1.1100994 0.70165926 0.64327794
-0.40419272 0.6515902 -0.17126162 0.68127334 -0.20345333 0.08349247 -0.249753 0.051727004
0.008404621 -1.3117721 0.18091998 -0.79813915 -0.43580678 -1.9328067 0.5535195 0.20869647
0.14735346 0.5381025 -0.47358307 0.37081903 -0.14551848 0.23122253 -0.3374457 -0.26224467
0.3145848 -1.0416766 -0.8427902 0.6715736 -0.30258438 2.1344461 -1.0978416 0.11455864
0.50396985 0.6581947 -1.1522524 0.27651966 -0.50363517 -1.4229115 -1.383702 -0.878944
0.86295867 -0.08245301

tcr_lstm.weight_ih_l0 f4 [120, 10]
00000000: 5117 773e c0a2 babe b07a afbe b580 74bf
00000010: 269d e8bc 1723 213e 7b8f 8f3e 8384 1ebf
00000020: c975 213e ef03 30bf a419 22be 7c3d 7f3d
00000030: f655 21bf 18e7 a23e 257c 34bd ce86 d4bd
00000040: d188 d3be d45e f5be d6ae 103f 818a e9be
00000050: ce22 cbbe 36f2 7dbe af4a 873d f3fa dfbc
00000060: 2eb9 f2bd a5ef 7e3e 3c00 e3bc 6db4 e6be
00000070: cd0a 843e 4d5c 273e ab68 243f 194b d4be
00000080: 5d86 a63e 9f16 04be fd3d a7be de19 b5bd
00000090: 292e 363e 6fe9 00bf 0825 943e c976 433e
000000a0: f67c 583e d43e d6be dc9a 693d 2204 d8be
000000b0: 874e 033f c7af 0bbe eca4 33bf 63e0 e5be
000000c0: 2398 1e3e 7c1c dbbe a9ff 653f c3cf 0fbf
000000d0: 3ad1 18bd afb8 113f c868 c83d b49e d13e
000000e0: 09f4 4a3c e69a 18be fa13 933e 6265 253f
000000f0: feec a1bc b3c5 8b3d f38c 903e 4e0d 073f
00000100: 50e0 813e 9dce 4dbe 0d65 82be 2a44 98be
00000110: 129d 1e3e e819 943e 658a 133f 8908 81be
00000120: 4238 773d 106a 25bf 7ab4 1ebe 6a9a 9fbe
00000130: 61f8 7a3e f08a d5bb 46e4 96be 6a58 c13d
00000140: 8563 d13d 9870 cbbd 459e 7f3d 94cf 82be
00000150: cb76 1a3f eac3 8cbd 538e 4c3f 8675 dcbe
00000160: 6c4a 47be 1b94 f83e d6bf c43e ca13 83be
00000170: dd94 a3be c74d 8f3e adb0 1b3e bbcf 5d3e
00000180: 2b78 fabe b283 04bf fb07 633e a9ed f73d
00000190: 2187 febc 60e0 cf3d 870e 3f3f e756 18bf
000001a0: 5ef2 bbbe d243 26bf 97fd aabe eea3 fabd
000001b0: fc2e c23d fb4b b0be 43f4 87be 313e c53d
000001c0: f705 0d3f 9bdf 51be ec6a 65be f90d 683e
000001d0: 8675 943d eaba a9bd 3079 85be 74ad 3b3d
000001e0: e0cb 353e 8fd5 abbe c83a b63d a9ee 73be
000001f0: 43a1 3abd 691b c73e e765 103e 3e04 ccbd
00000200: 8408 45bf 9bb9 823e ffb3 c13e c249 87be
00000210: 2a63 123e 05c6 2abe 90cf 023e 1580 93be
00000220: c82c 2abe 5123 e0be 727f 403e 883c 5abe
00000230: ea62 eebe 3fd1 a9be 4ebc b5bd 81d1 093f
00000240: 2409 a1bd 1fc4 193e 652f a93d 7a4f 3dbf
00000250: 5a97 2fbd 6351 d03d 5b8f ef3d d71e b73e
00000260: a1fb e23e b84c 273e c041 903f c96c 62bf
00000270: cb4b 88be eaf1 49bf 3ad1 043f 67dd 32be
00000280: 4ce1 31bf 83b4 593e 1be4 9c3e f5c3 193e
00000290: 2960 553c 5105 763e 3fc1 66be ad9d 733e
000002a0: 6856 f13e 0af5 8cbf 46b7 82bd 20dc 9abe
000002b0: cdea 2d3e 3a89 50be 22d2 923b 5a37 ac3d
000002c0: 1ade 82be 314d 9dbe e82e ca3e 0857 7fbc
000002d0: 80f6 32bf d07e 353e 37a2 323d 9da7 31be
000002e0: 22e8 9cbe 0d2a 01bf f943 c33e a4ea 7b3c
000002f0: 2010 7c3e 532f 1bbf 1f7a 67bd cff5 ce3e
00000300: 36fb 0a3f 13b3 22be a957 7dbe 41ac 7a3e
00000310: 5519 16bf ce4c c2be 5a4b f83d 020f 38bc
00000320: 820e 71bf 2786 9abe df07 4d3e 2e3c aa3d
00000330: 6d45 8dbe b471 54bf 1940 c0bd b0bb 56be
00000340: d51a 0cbe 9977 89bd 1f67 823e 40c6 113e
00000350: c353 0fbe 97c6 d8bc 751d 823e bf15 053e
00000360: e330 1c3e f98e 2b3e b8f2 0a3f df40 a4be
00000370: 94db 1c3f c728 cc3e 58d0 aa3e 277a 1a3e
00000380: 0100 cb3e 3553 f83d 0585 1e3f 308a f0bd
00000390: 97b2 633f 94e7 233f 4e03 adbd 20aa 713d
000003a0: e303 b43e fbca 95be 26a0 27be 47df 0fbf
000003b0: cd8e 68bf 9b0d 64be 2df1 91bd 9179 58bf
000003c0: fc2a 73be 9913 4dbf 7ca6 f0be e792 eb3e
000003d0: 1f22 783c f6d7 3ebe 15e3 05bf 5469 c53e
000003e0: 23df 763d d22c a0be a35e 843d 21a7 c53a
000003f0: e5eb b8be c020 813c fa16 cb3e a4fe 873c
0.24129988 -0.36452293 -0.3427329 -0.9550889 -0.028395247 0.15736042 0.28039154 -0.61920947
0.15767588 -0.68756 -0.15830094 0.062314495 -0.6302179 0.31816936 -0.044063706 -0.103772745
-0.4131532 -0.4792391 0.5651678 -0.45613483 -0.3967499 -0.24799427 0.06606042 -0.027341342
-0.118517265 0.24896105 -0.027710073 -0.4505953 0.2578949 0.16343804 0.6422221 -0.41463545
0.32524386 -0.12899254 -0.3266448 -0.088428244 0.17791046 -0.5035619 0.28934503 0.19088282
0.21141419 -0.4184481 0.05703245 -0.42190653 0.512917 -0.13641272 -0.70173526 -0.44897756
0.15487723 -0.4279517 0.8984323 -0.56176394 -0.03730891 0.5692243 0.097856104 0.40941393
0.012387284 -0.14902839 0.28726178 0.6460782 -0.019766327 0.068248175 0.28232536 0.52754676
0.2536645 -0.20098348 -0.2546772 -0.29739505 0.15489605 0.28926015 0.5763305 -0.25201824
0.060356386 -0.64614964 -0.15498534 -0.31172496 0.24508812 -0.006516807 -0.29471034 0.09440692
0.1022406 -0.09933585 0.062406797 -0.25548995 0.60337514 -0.06873305 0.7990467 -0.43058413
-0.19461983 0.48550496 0.3842761 -0.25601035 -0.3194951 0.27989027 0.15204115 0.21661274
-0.48919806 -0.5176345 0.22171013 0.12105877 -0.031070294 0.10150218 0.7463154 -0.595076
-0.3670835 -0.64947236 -0.333966 -0.12238298 0.09481618 -0.34432968 -0.26553544 0.09631003
0.55087227 -0.20495455 -0.22404069 0.2266158 0.07248978 -0.08287604 -0.2606902 0.045819715
0.17753553 -0.3356137 0.088979304 -0.2382151 -0.045563947 0.388881 0.14101373 -0.09961747
-0.7696612 0.2553223 0.3783264 -0.2642346 0.1429564 -0.16677101 0.12774491 -0.28808656
-0.16618645 -0.43776944 0.18798617 -0.21312153 -0.4655984 -0.33167455 -0.08873807 0.538353
-0.078630716 0.1501622 0.08260993 -0.73949397 -0.04286895 0.10171773 0.11697265 0.35765716
0.44332603 0.1633786 1.1270065 -0.8844724 -0.26620325 -0.78884757 0.51881754 -0.17467271
-0.694844 0.21260266 0.3064278 0.15016158 0.013023415 0.24025466 -0.22534655 0.23790617
0.47136235 -1.101228 -0.06382613 -0.30246067 0.169841 -0.20364848 0.004480616 0.08408995
-0.25560075 -0.30722955 0.39488912 -0.015584715 -0.6990738 0.17724156 0.04361173 -0.17349096
-0.30645853 -0.5045479 0.38137797 0.015375767 0.24615526 -0.60619086 -0.056512948 0.40421912
0.5428957 -0.15888624 -0.24740471 0.24479772 -0.58632404 -0.37949222 0.12123747 -0.011234047
-0.9416276 -0.30180475 0.20022534 0.083122596 -0.2759203 -0.82986 -0.09387226 -0.20970035
-0.1368211 -0.067122646 0.254693 0.14235783 -0.13996796 -0.026461883 0.254131 0.12996577
0.15253024 0.16753758 0.5427661 -0.32080743 0.6127255 0.3987486 0.3336208 0.1508566
0.3964844 0.121252455 0.6192172 -0.11745107 0.8894438 0.64025235 -0.08447896 0.059000134
0.35159215 -0.29256424 -0.16369686 -0.5620007 -0.90842897 -0.22270815 -0.07126079 -0.84560496
-0.23746866 -0.8010803 -0.47002017 0.46010515 0.015144854 -0.1863707 -0.52299625 0.3855692
0.060271394 -0.31284195 0.06463363 0.0015079716 -0.36117473 0.015762687 0.39665967 0.016600914

tcr_lstm.weight_hh_l0 f4 [120, 30]
00000000: 57ee f03e 5e63 27bf c8a1 4ebf b81b 3ebf
00000010: 75c9 843b de88 3fbf 8fb6 553f e4a1 e23e
00000020: 4cb4 d3bd c4ae 49bf dbf2 58bd be6f f53e
00000030: 7697 263e c30c 9cbf 53e0 acbe 85bf 563d
00000040: 50b4 51bf 8d19 7fbe b653 a23a 3d22 51be
00000050: 7519 9dbf 3b97 efbe d08c c63e 0391 8cbe
00000060: ba1f 803f 2a66 ccbe b519 78bf c0f0 003f
00000070: 4dd0 dfbe a1e3 65bf a194 87be 9360 113f
00000080: b0b7 213f b896 7d3e 0c09 0cbe c1ca 563e
00000090: 23ea 493e 4d26 b53e 5ab3 2e3f 7c8f 6f3b
000000a0: c27c fb3c 2ee1 bd3d e414 c73d 1a62 a3be
000000b0: b7b4 a9be 6d6c 8fbe 881a c13d 8695 acbe
000000c0: a11d 0b3f 2164 453e 61bc bfbe 7c27 80be
000000d0: 9723 883f c2f8 6dbf 93e6 da3d aed1 9fbe
000000e0: 5ba3 b9be 7cc2 063d 048b a0be 7cb6 a3be
000000f0: 5625 1dbf 9ed9 f3be 108e f7be b662 b6be
00000100: 7dca dbbe 9a4f e0bc cbd8 5e3d 0c20 0fbf
00000110: 8aff e7bd 4689 0dbe eea8 423e 40f1 22bf
00000120: d8f4 53bf 65ab 0dbf 5e6e 81bd d731 d63c
00000130: 0b2e 1c3b bf31 b9be aff7 563d 6b1d 91bd
00000140: 1aa5 2abe 4472 b7be 8565 16bf cce9 19bf
00000150: 7910 af3d 9002 07be 65bb c5be 847b 98bd
00000160: d4d9 88bf 7368 d6be 344d 543f 4221 0bbf
00000170: 5430 833d 774d 9fbd bab3 bfbe 9485 b3be
00000180: 71a2 40bf 6e8f cb3e 5f49 083f 0b98 d4be
00000190: a6d5 70bd 5bac aebd d88d 8e3e b666 08be
000001a0: 6a0d 923d 20a1 533e 4c29 54bf 6309 0a3f
000001b0: ebec 1d3f 282e 80be ac49 14bf 6801 51be
000001c0: 2414 5a3e c05b 7cbe f5d9 233e 5a3b 98bf
000001d0: 7cf2 eb3d 0832 293e 4954 2d3f 8339 04bf
000001e0: ff00 1f3b 714c 93bf da31 063f c6a6 153e
000001f0: e134 9abe 3ad2 353f b290 1bbf 047c 3cbc
00000200: e593 c53d f087 dd3d 9232 ee3d a2e6 403f
00000210: 5414 54be 44ed 17bf e6b2 f6be 5ff5 d73e
00000220: 625f 3b3c 6518 7a3e be37 fa3e 46b8 bc3f
00000230: 8531 17bf be7e dc3d c29d 43bd 1286 863d
00000240: 48c7 be3e c4c2 85bd 21e0 f2be 57b7 83bd
00000250: 4869 f0be 5c76 82bf 6770 7e3f e42b 053f
00000260: 83c7 99be 9e2e 42be 24db 1c3f 4961 033f
00000270: ad19 883e 70c1 013e c746 5a3e 9d9c b3be
00000280: be70 a5be f616 b33e 6dab 2b3e bd81 0abc
00000290: 6574 1dbe 22ef 31bf a488 95bd aa4a 0abd
000002a0: fc6b 633d 992c 2c3f 3ef4 9cbe 0a3d ad3e
000002b0: 6ee6 1f3e 5fe4 a3be 0ae5 853d 09e6 4c3f
000002c0: 3860 4fbf 5204 8fbd f877 86bd 8687 ffbe
000002d0: e9ff c93e 7c43 533f 7506 48bf 46ab c63e
000002e0: b290 d33e 45c7 a33e 2ac1 b33e 2ff0 573d
000002f0: 37ef a33e ea0b fbbe ee09 c03e fab4 a03e
00000300: c2d9 13be 1564 02bf 6898 f83d fe86 2dbf
00000310: 17b3 c3bf 1a2c 29be b1ee f3be f0b0 ce3e
00000320: 034a 9c3e bae9 06bf 26ee c8be c381 d2be
00000330: 73d2 a3bd 7e61 183d 8f16 683e 8be0 74bf
00000340: 6d89 21be deab efbe c425 b83f 2849 633e
00000350: ce5f 16bf 23eb 0fbe d0aa f93d e46b 4bbf
00000360: 48b1 063e 7b65 d0be 9251 40bd c69e 52be
00000370: 36e2 053d 4a0c 79bf af0f 053f 5e5b 083f
00000380: 0420 08be 488a 8a3f 6780 2b3f c6e7 67bf
00000390: 9625 cbbd e093 65be 29f6 143e 5811 3fbd
000003a0: ff50 ea3e 1417 a5bd 278b 683f e012 8f3f
000003b0: 2631 cc3e 5098 1ebe a897 9e3e 411e 36bf
000003c0: d842 7d3e 5871 3c3f 02e4 48bf c1dd 313f
000003d0: f415 123d c400 86be 964e ff3e 8b6d a5bd
000003e0: 09d8 483f 6250 d5be 9a8c 583d 6c20 803e
000003f0: 9327 113f 5838 ebbe b2d6 d73c 7fff 71bf
0.4705684 -0.65386 -0.8071561 -0.74261045 0.004052336 -0.7481822 0.8348169 0.44264138
-0.10337123 -0.78782296 -0.05296598 0.47936815 0.16268715 -1.2191395 -0.33764896 0.05242874
-0.8191576 -0.2491209 0.0012384567 -0.20423217 -1.2273394 -0.46795067 0.38779306 -0.27454385
1.0009682 -0.39921695 -0.96914226 0.50367355 -0.43713608 -0.8980046 -0.26480582 0.56787986
0.6317091 0.24764526 -0.13675326 0.20975782 0.19718222 0.35380784 0.6824242 0.003655403
0.030699138 0.09271465 0.097207814 -0.31910783 -0.33145687 -0.2801241 0.094288886 -0.33707827
0.54342085 0.19276477 -0.3744841 -0.25030124 1.0635861 -0.929577 0.1068851 -0.3121466
-0.36257443 0.03290032 -0.3135606 -0.31975162 -0.61385095 -0.47626966 -0.48350573 -0.35622185
-0.42927924 -0.027381707 0.05440597 -0.55908275 -0.11328037 -0.13821897 0.19009754 -0.6364937
-0.82795477 -0.5533965 -0.06319879 0.026146812 0.0023831155 -0.36170766 0.052482303 -0.07085689
-0.16664544 -0.35829365 -0.58748657 -0.6012237 0.08548064 -0.13184571 -0.38619533 -0.07445434
-1.0691476 -0.41876563 0.829303 -0.5434762 0.06405702 -0.07778447 -0.37441808 -0.3506285
-0.75247866 0.39757866 0.53236955 -0.4152225 -0.0587975 -0.08528968 0.27842593 -0.13320431
0.07131465 0.20666933 -0.82875514 0.53920573 0.61689633 -0.25035214 -0.57924914 -0.20410693
0.21296746 -0.24644375 0.16001113 -1.1893113 0.115208596 0.16522992 0.67706734 -0.51650256
0.0024262068 -1.1507703 0.5241982 0.146144 -0.30118468 0.71023905 -0.6076766 -0.011504177
0.09647349 0.10816944 0.11630739 0.7535192 -0.2071088 -0.59346414 -0.48183364 0.4217939
0.011436315 0.24423368 0.48870653 1.4743736 -0.59059936 0.10766362 -0.04775787 0.06568541
0.37261415 -0.06531289 -0.47436622 -0.06431454 -0.46955323 -1.019237 0.9939026 0.52020097
-0.30035028 -0.18963096 0.6127188 0.5132032 0.2658209 0.12671447 0.21316062 -0.35080424
-0.32312578 0.34978455 0.16764612 -0.008453784 -0.15376432 -0.6950551 -0.07301453 -0.03376261
0.055522904 0.6725555 -0.30655092 0.33835632 0.15615246 -0.3201017 0.06537826 0.80038506
-0.81006193 -0.06983246 -0.06565851 -0.49908084 0.39453056 0.8252485 -0.7813485 0.38802546
0.4132133 0.31987968 0.3510831 0.05271929 0.32018444 -0.49032527 0.37507576 0.31388074
-0.14438537 -0.50933963 0.12138444 -0.67784107 -1.5289029 -0.1652073 -0.47643045 0.40369368
0.30525216 -0.5270039 -0.39244193 -0.41114625 -0.079991244 0.03720235 0.22664855 -0.95655125
-0.1577508 -0.46810812 1.4386525 0.22195876 -0.58739936 -0.14054541 0.12190783 -0.79461503
0.13153565 -0.40702423 -0.04695279 -0.2056838 0.032686435 -0.97284377 0.51977056 0.53264415
-0.13293463 1.082345 0.669928 -0.90588033 -0.09919278 -0.22419691 0.14547028 -0.0466474
0.4576492 -0.080610424 0.9083733 1.1177635 0.39881247 -0.1548779 0.3097508 -0.71139914
0.2473253 0.7361045 -0.7847291 0.69478995 0.035665467 -0.2617246 0.49864644 -0.08077534
0.78454643 -0.4166289 0.052868463 0.25024736 0.5670101 -0.45941424 0.026347492 -0.9453048

tcr_lstm.bias_ih_l0 f4 [120]
00000000: 5e34 563f 4e6d 8f3e c542 c83e c9ba 043f
00000010: 52ad cd3e 2075 313f 9bec 323f a9d4 abbc
00000020: 137f 163f 85d7 8c3e dc54 39bd 6f14 aa3e
00000030: aa33 b03e 5101 fe3e 8bb8 f73e aeec 703e
00000040: 0aa8 5d3e 8e24 a53e 7b0f b53d c95a 013f
00000050: 9614 5a3e e28f f73e 133e 2c3f f592 e83e
00000060: 6296 d33e ddb3 053f 2f7d 063f beb9 073e
00000070: f10d 39be 8835 a03e 56a4 163e c09c 793c
00000080: e819 a83e 7efd 3abe 2360 4fbd 8c27 8dbe
00000090: 8cb2 253d 901f 8dbc 67e2 0cbe 7298 8b3e
000000a0: 4641 c8bb 25d7 d0bd 18d0 2c3e 2ba5 223e
000000b0: 0ff9 c13e bf72 213e beb4 8e3d efed b53d
000000c0: 6914 883e d6f0 253e af37 a83e 8265 46be
000000d0: 830e 6abe d288 b9be b0ed 5c3e 4be3 703c
000000e0: 1b42 bc3e bde1 093e 262d d63c 8a58 d83d
000000f0: 495e d53b 32e3 563e 59c3 d8be f006 3b3e
00000100: 1041 42bd b983 77bd 6d27 093e 973b dc3d
00000110: b6b0 a33d 7d9f d13c f142 ca3d 77ba 173d
00000120: 9d0d 6e3e 2b05 8bbd 714a 31be 3e21 493e
00000130: 53af dbbd f5e7 e3bd c783 4fbe ce7c e23c
00000140: de24 b83d 4eb0 493d b7ff e73d 4d25 bbbd
00000150: 3454 b53d 1217 ea3c a598 8bbd 3e62 8a3d
00000160: b98e 35be c12f febd c9a6 5f3f 8ab5 c83e
00000170: 23b2 8a3e ac9a 5a3f 948b c73e 88e1 313f
00000180: c521 213f 62b2 063f 7ed4 3f3f f609 4d3e
00000190: 941d f23e 9054 993e 692f 323f 18a1 453f
000001a0: 69a9 ed3e 4ad0 b13e 58ce 40bd 6d20 443e
000001b0: 4196 af3e 772e 293f 34d1 cc3e e8ec f93e
000001c0: d408 1f3f 3677 353f 7da4 153f 8556 763f
000001d0: 0697 ee3e f025 973e 4f2e ca3e 956d cc3e
0.83673656 0.2801308 0.3911344 0.5184751 0.40171295 0.69319344 0.6989228 -0.020975428
0.5878765 0.27508178 -0.045246944 0.33218715 0.34414417 0.4961038 0.48382983 0.23527786
0.21646133 0.32254452 0.08840843 0.5052915 0.21296915 0.4835196 0.6728222 0.4542462
0.4132567 0.52227575 0.52534765 0.13254449 -0.18071724 0.3129084 0.14711127 0.015235126
0.32832265 -0.18260762 -0.050628792 -0.27569234 0.04045348 -0.017226964 -0.1375824 0.27264744
-0.006111297 -0.101972856 0.16876256 0.15883319 0.3788533 0.15766428 0.069680676 0.08883273
0.26578072 0.16205153 0.32854983 -0.1937466 -0.22857098 -0.36237198 0.21575046 0.014702628
0.36769184 0.13465019 0.026144575 0.105637625 0.006511484 0.20985106 -0.42336538 0.18264365
-0.04742533 -0.060428355 0.13393946 0.10753553 0.07992689 0.025588745 0.09876049 0.03704306
0.2324738 -0.06788095 -0.17313553 0.19641587 -0.107268 -0.11128227 -0.20265113 0.027647402
0.08991407 0.049240403 0.113280706 -0.09137974 0.08853951 0.028575454 -0.06816224 0.067570195
-0.17730226 -0.12411452 0.8736387 0.39201003 0.27089033 0.8539226 0.38973677 0.6948476
0.62942153 0.5261594 0.7493361 0.20023331 0.4728819 0.2994733 0.6960359 0.77198935
0.46418312 0.34729224 -0.047071785 0.19152994 0.34294322 0.66086525 0.4000336 0.48813558
0.62122846 0.70885026 0.58454114 0.9622577 0.46599597 0.29521132 0.39488456 0.39927354

tcr_lstm.bias_hh_l0 f4 [120]
00000000: 232c 2d3f 93a3 c13d a670 243f 9198 103f
00000010: 184b de3e f49d 2e3f 8482 413f b479 3cbd
00000020: df80 313f c147 c33e feac 9ebd d1cc ad3e
00000030: 81da fb3e a5a6 e03e 9d4c c43e 8583 473e
00000040: 32f1 6a3e 5203 e43e 3288 173e b04f 1c3f
00000050: 1a5f 4c3e 6d3f a73e 6556 1e3f a2bf 903e
00000060: 3af5 db3e e53c fe3e 25d3 043f 692a 163e
00000070: 2a46 113d 3b55 c13e e98d b53d 2be3 143d
00000080: ec9e 993e 65a2 ca3a cb95 a8bd 9fb0 a1be
00000090: 48eb 8b3e f7d3 533d a862 25be 04a2 c83d
000000a0: 3cd4 91bc 5a68 8bbd f8eb 5cbb 9feb 773e
000000b0: 24d1 b43e b508 f83d 177e 74bd 8439 fa3d
000000c0: 06a4 953e 7f79 cb3d e8ff ca3e 8ec3 00be
000000d0: 091b b5be 4786 97be 2220 583e 315a d53d
000000e0: 4849 203e 8925 1d3d b4b0 163b cba5 fc3d
000000f0: 7eeb c6bd c576 283e 0a66 bfbe deea 8e3d
00000100: 3eaf 203e 5e35 61be 30f2 0d3e 9765 6b3d
00000110: 2ca3 ef3c eb43 4d3e e3d6 22bd 0c95 053e
00000120: 0045 5a3e dc50 f53d 06e1 8abe 8c15 6a3d
00000130: 1aff 9dbe 7d97 993d fc75 82be 8ca7 c43d
00000140: e68b f8bd 8b7c 67bd 22a1 59bd 081d 0f3d
00000150: f902 8abb b3db 40be c748 82bd 20b6 713e
00000160: 8261 6b3c 752c 82be 1bcb 533f 625c 9b3e
00000170: 88e4 9a3e ea3b 773f 5ff7 0c3f c59d 213f
00000180: e097 183f 0291 e93e 4fb0 333f c8d7 253c
00000190: 7cc8 063f d6f0 9f3e 1692 3f3f f4f6 313f
000001a0: 252f 163f e9d4 d83e e480 49be e191 b13e
000001b0: 2c51 e73e 67e3 e73e bd42 e13e 5c31 9e3e
000001c0: 471d 0e3f a7e3 343f 8830 013f 1ece 443f
000001d0: 9f3f 013f fa5b 0f3e c95b ca3e 6c2a fa3e
0.6764547 0.094550274 0.6423439 0.564828 0.43416667 0.6820977 0.75589776 -0.046014503
0.69337267 0.3814068 -0.077478394 0.33945325 0.49190143 0.4387714 0.383397 0.19483764
0.22943571 0.44533783 0.14798048 0.61059093 0.19958153 0.32665578 0.6185058 0.28271204
0.4296053 0.49655834 0.5188468 0.14664616 0.035467304 0.37760338 0.08864958 0.036349457
0.3000406 0.0015459774 -0.08231696 -0.31580064 0.27327943 0.051715817 -0.16150916 0.09796527
-0.017801397 -0.06807013 -0.0033709984 0.24210976 0.35315812 0.12111036 -0.05969056 0.122180015
0.29226702 0.09935283 0.39648366 -0.12574598 -0.3537219 -0.29594633 0.21106008 0.10417593
0.15652955 0.038365874 0.0022993507 0.1233631 -0.09712885 0.16451557 -0.37382537 0.06978391
0.1569185 -0.21993014 0.13861918 0.05746993 0.029252611 0.2004544 -0.039755713 0.13045138
0.21315384 0.11978313 -0.27124804 0.057149455 -0.3085869 0.07499597 -0.2548064 0.096022695
-0.121360585 -0.056515258 -0.053132184 0.034939796 -0.00421178 -0.18833809 -0.063615374 0.23604631
0.014366509 -0.25424543 0.8273179 0.3034392 0.3025248 0.96575797 0.5506496 0.6313136
0.5960674 0.45618445 0.701909 0.010122247 0.52649665 0.3123843 0.74832284 0.69517446
0.58665687 0.42349938 -0.19678074 0.3468161 0.45179117 0.45290682 0.4399623 0.30897033
0.55513424 0.7065987 0.5046468 0.7687701 0.50487703 0.1399993 0.39523152 0.4886049

tcr_lstm.weight_ih_l1 f4 [120, 30]
00000000: 207e 28bc e882 0d3f d729 55bd f455 b83e
00000010: 8556 ccbe f28c 1bbe 95bc 4d3d 83ed 69be
00000020: 9cd3 263e f1a1 0f3d a376 d1be 95c7 033f
00000030: f7d4 223f 0f0d 6e3d 0693 b03c 1bab 1dbe
00000040: 26d9 94bd ce91 9fbe c32b f93e 3604 f1be
00000050: d37a 81be d2d0 9fbe b42b dfbd eb31 d6be
00000060: 2416 b43e 4389 34be da51 a23e c24f 3d3e
00000070: a7fb ebbe a140 0c3e 6d9b 9a3e ce00 e2be
00000080: a62d 7a3e 0f52 41be 79e1 f23e dec2 5f3c
00000090: 13d8 b0be 9d5b 6dbc 0943 813e 9442 d63e
000000a0: f108 863e b349 d13e 9fef ba3d e1ca 723e
000000b0: fa0a 89bd e6bd 22be 3b3a edbe 9d44 843e
000000c0: aec6 37bf bf88 34be 4331 ca3e e0e6 9a3e
000000d0: 1f3b 243e a617 5cbd 61da e4bd e0c4 07be
000000e0: b17b 6ebe 4cb2 0e3e d52b 00bd 51ba 7fbf
000000f0: a6a2 193d 0d5a 5c3e 7147 6dbd 09f9 fdbc
00000100: 4e8f b33d 553a 163f f516 133e 4d08 3cbe
00000110: bb53 a7bd fa62 33bc 7dd2 1b3f 8063 d93d
00000120: 243d 4cbe 37d1 21bf da5d f0be cf4e 64bf
00000130: 3989 323e 1b8e ae3c c71d 04bf 663e c4bd
00000140: dadb b73e 7b03 4f3f 064a 8d3f cc87 d53e
00000150: cd2a 41bf 49bd 88bf 602f 43be 8db5 e4bd
00000160: cbc4 d83d 5457 81be 7730 bdbd fd7a 763e
00000170: aa96 5dbe 9bb0 bf3e 6fe4 393f 18db e03b
00000180: 8249 a9be 0ad4 55be 0a07 9b3e 035f 70bd
00000190: c77b 63be 1cde 853d 6861 fdbd 8bfe 373d
000001a0: 8c3d 973e e454 1bbe 9acf 10bf 4941 0f3f
000001b0: e71e 333c 9f4b da3d 6dfc 9dbd 3a6f a93e
000001c0: a66d 843f 4347 b0bd 177a bdbe bcc3 a6be
000001d0: 60c3 c23e 97f4 613e e567 f03e 643d e5be
000001e0: 1df6 333d 79eb d6be dc0b fabe 94f5 843b
000001f0: a7fc 16bf eb28 8abe 51db 9bbd 27c1 6fbe
00000200: 8f6b 49be ee68 be3e aa3b bdbe e28f 47be
00000210: ee9c 683e e189 8abd bae6 46be dd6e 693f
00000220: 212c c93e 1930 62be e408 74be 33c3 843e
00000230: a501 3fbe 2ab4 9fbe c936 36bf 2c05 6d3d
00000240: 84d7 b43e 6c1c 4a3f eee6 babe d96f 98bd
00000250: 2d5c 53be 9ed6 b1bd ef28 d83c edc8 c83e
00000260: 169b 433e 2727 9abd b035 d53e c49a 31bf
00000270: 2d6a 093f 0dff 3e3e 3166 813c 734d a1bd
00000280: 153d 71be 1f6e c83d 1e5a 1c3f 63c8 0f3f
00000290: 6bd6 ebbe dc94 6e3f 7ea4 023e 4c61 9dbe
000002a0: 6770 2f3e 7d80 91be 0890 07bf 7af2 9abd
000002b0: 1bb7 7f3e af24 033e 085c 433e 4281 b33d
000002c0: 9fd9 9abe 26ef 5ebc 60ae a3bc 7d27 1b3e
000002d0: 90a5 82bd fbcf 063d 8397 edbe 5aca 9ebe
000002e0: fbb1 64be 8d23 98be 354a 6bbe 1e0a 133e
000002f0: e868 03bf 4520 d13e 8c59 a93d 1570 6abe
00000300: efa2 82be 2331 00be bc0f e2be 3e23 efbe
00000310: db25 efbe e2cf 2cbd 6807 ebbd 7461 2b3f
00000320: 57de dcbd fb37 56be 3128 6abe e0c8 38be
00000330: ba17 153f 10ab 7b3e 0c47 83be 1b0b acbc
00000340: 3cde c2bc 0790 b33c 1341 273d d752 803e
00000350: 819d b8bd b8c4 2bbe ada2 9e3e 0a8d 22bf
00000360: 3482 b2be 0c3f 72be 4f2e 123e 23cf 5b3e
00000370: 2103 343f abfc 4abd fc89 c33c d0dd eabe
00000380: bbbc 8bbe 7f9a 273f 676a 37be 1344 cf3e
00000390: 4904 343f 41bd 57be 30d5 633f 1472 0fbe
000003a0: 8e70 9b3d ca63 db3e 6dd5 693e 6209 b2be
000003b0: a5b6 5b3d 9fe2 1ebf 3e07 4fbe fe7f cf3d
000003c0: 33c4 a43e 9730 c43f 1dff fbbd d9a3 fd3d
000003d0: 65be b63e 1bd7 edbe 5e2f 173f 2e1c bcbe
000003e0: 5676 07bf 1a14 2f3e f3e4 5f3e 2661 393d
000003f0: 61f2 e53e f362 853e 9d15 ba3e 3f41 003f
-0.010283977 0.5527787 -0.052041855 0.36003077 -0.3990976 -0.15190485 0.050228674 -0.2284451
0.1629166 0.03506655 -0.40910825 0.51476413 0.6360621 0.058117922 0.021554481 -0.15397303
-0.0726798 -0.31165928 0.486662 -0.47073525 -0.2528902 -0.31214005 -0.108970076 -0.4183496
0.35173142 -0.17630486 0.31703073 0.18487456 -0.46090433 0.13696529 0.30196705 -0.4414124
0.24431476 -0.18878959 0.47437647 0.0136573 -0.34539852 -0.014487174 0.25246456 0.4184767
0.26178697 0.4087654 0.09127735 0.23710205 -0.06691547 -0.15892753 -0.4633349 0.25833598
-0.71787536 -0.1763029 0.3949071 0.3025427 0.16038178 -0.05373349 -0.11174465 -0.13258696
-0.23289372 0.13935202 -0.0312918 -0.9989367 0.03750863 0.21518727 -0.05792946 -0.031002538
0.087675676 0.5868276 0.14364226 -0.18362541 -0.08170267 -0.010948891 0.60868055 0.10614681
-0.19945198 -0.6320986 -0.46946603 -0.8918275 0.17435159 0.021307996 -0.51607937 -0.09582214
0.3590992 0.80864686 1.1038215 0.41705167 -0.75455934 -1.0682765 -0.19061041 -0.111674406
0.1058441 -0.2526194 -0.092377596 0.24070354 -0.21639505 0.37439427 0.72614187 0.0068620555
-0.33063895 -0.20881668 0.30278808 -0.05868436 -0.22215186 0.065365046 -0.123720944 0.044920485
0.29539144 -0.15169102 -0.56566775 0.5595899 0.010932661 0.10658955 -0.07714162 0.33092672
1.0345962 -0.08607342 -0.3700721 -0.32571208 0.38039684 0.2206596 0.46954265 -0.447734
0.043935884 -0.41976526 -0.48837173 0.0040575955 -0.58979267 -0.26984343 -0.07610191 -0.23413526
-0.19669937 0.3718943 -0.36959583 -0.1948848 0.22716114 -0.067645796 -0.19423953 0.9118479
0.3929148 -0.2208866 -0.23831517 0.25930175 -0.18652971 -0.31192142 -0.71177346 0.05786626
0.35320675 0.7894962 -0.3650431 -0.07443208 -0.20640631 -0.08683513 0.026386706 0.39215794
0.1910213 -0.07526999 0.41642523 -0.6937678 0.53677636 0.18651982 0.015795799 -0.078761004
-0.23558457 0.09786629 0.6107501 0.5616514 -0.46062025 0.9319589 0.12758061 -0.30738294
0.17132722 -0.2841834 -0.5295415 -0.0756578 0.24972193 0.12806962 0.19078076 0.08764888
-0.30244157 -0.013606822 -0.01998061 0.15151782 -0.06379235 0.03291319 -0.46404657 -0.31013757
-0.22333519 -0.29714623 -0.22977526 0.14359328 -0.5133195 0.40844932 0.08269033 -0.22894318
-0.25514933 -0.12518744 -0.4415263 -0.46706575 -0.4670857 -0.04219044 -0.11476022 0.66945577
-0.107845955 -0.20919792 -0.22866894 -0.18045378 0.5823933 0.24576974 -0.25640142 -0.02100139
-0.02378761 0.021919264 0.040833544 0.25063202 -0.090144165 -0.16774261 0.30983487 -0.6349646
-0.34864962 -0.23656863 0.14275478 0.21465735 0.70317274 -0.04955737 0.023869507 -0.45872355
-0.27292427 0.6547012 -0.17911683 0.40481624 0.7031904 -0.21068288 0.88997173 -0.14008361
0.075898275 0.4284957 0.22835322 -0.34772784 0.05364098 -0.62064546 -0.20217606 0.101318344
0.32180938 1.5327328 -0.12304518 0.12384767 0.35692134 -0.46453175 0.5905665 -0.3674025
-0.5291494 0.17097512 0.21864681 0.045258664 0.44911483 0.26052055 0.36344615 0.5009956

tcr_lstm.weight_hh_l1 f4 [120, 30]
00000000: 4127 d73e b2b4 cebe 4902 833d 030f 79be
00000010: d0e7 b2bc c98b db3d ebf8 6abe cd1e 9c3e
00000020: 860f 1b3e b5a4 ecbe d45c 3d3e 8222 ac3e
00000030: f3c8 afbe 6a75 913e c3d6 e5bd dcb7 013f
00000040: e1ad 483f 65bd 83bd abb4 423e 5f14 8dbe
00000050: 4c32 253f 4bd4 d23c dbf8 9d3e 34e1 4a3f
00000060: a083 b2be 8ae3 8bbd 8c5c 14bf 9f9a d73e
00000070: 6748 853e b741 74bf 9d27 4e3f 5574 073f
00000080: 3a7f 1dbf 7b43 8fbe 0b3b 20be 55eb 673f
00000090: 2f68 6dbe 72c4 343e 6728 a63e f02c 973d
000000a0: c1b5 7bbf 74a9 d2be ef73 46bf cd69 3abf
000000b0: 2c26 fa3c 2f23 b1be c546 ddbd 4543 7f3d
000000c0: 3b17 1bbe e6fc efbc a928 84be c0da d23e
000000d0: a522 9ebe d649 afbe d984 393e fb09 22bf
000000e0: 1820 0f3f 8530 0e3e d36a 9ebe 3a37 ab3e
000000f0: 1e93 d0be fee2 803e 7007 7a3e 0887 8b3c
00000100: 66bf 8b3e e665 d73e 4e89 fd3d 9981 77bd
00000110: af78 c93e 3242 823e 70ee 9a3d f8a1 6ebd
00000120: 9f30 1e3e 1ca6 fa3d 6917 22be 169f b7be
00000130: 05e3 4bbf df3c 0b3e 1bbb 1d3e b8bd b3be
00000140: b1c1 98bc ade3 393f 4ba3 bc3c 461f 62be
00000150: 9c6c 9abe 45fe 253f 8015 febe d6a8 d0bd
00000160: ad5a e9be 115c ef3e d12a 5e3d ec5a 16bf
00000170: 4e0d fcbe 30c2 67bf e6d1 353e 422d 7dbb
00000180: 84ae 49bd 08bd b83e d170 f7bd 6de7 bdbd
00000190: 9b33 84be 9ef2 0dbf adcf dbbd ddba 903e
000001a0: 6c55 033f 2d9d 03bf d3bc 85be 9ddf 4d3c
000001b0: 450d b83d 4b65 f73d c391 65bf 424e 0b3f
000001c0: df00 2e3c 7589 d63e 70f5 debd d8ab 853e
000001d0: c44e 713e e714 3dbe 1398 cebb 1a70 d3bd
000001e0: 7b03 2ebe c2b3 923b 5a08 403e 2b14 483f
000001f0: fdd9 d83e 2459 dc3d dad1 46be 7598 6d3e
00000200: 634e 1b3f 6e81 8dbf 1d7d 8abd 32e9 0fbf
00000210: 12e6 cc3e 5f37 713f e07c 9e3e d546 763e
00000220: 5445 6b3f 6421 de3e 4f70 1b3f 3bd0 93be
00000230: 4ab3 fdbe ce0d 90be 5a0a e93d 0fdd 943e
00000240: 47c6 29bf 6296 dcbe 0112 913e 71af 38bf
00000250: 1359 1e3f 23ec 26be 4f22 5d3f 5a6d 58bf
00000260: 2382 0dbf d082 6e3f 45aa 013f 43b6 b33e
00000270: b0ee 123e 79ed bb3d acbf 5c3f 84c2 98be
00000280: b7a6 fbbd 1bde 173f fa90 c8bf 414c 133f
00000290: e8db babc fc33 d33d c919 ef3e e854 7dbe
000002a0: a100 073f 1646 f4be 61ed e03d 39bb 86be
000002b0: b8f6 06bf ff3d 343f 919d 12bf e64b 17bf
000002c0: ef07 ddbe 391d 57be 6e17 b53e 56c1 12bf
000002d0: 2f93 a73d baba 7cbf 905c a9be e52b 193e
000002e0: 059d 043e 655f e33d 33a1 823b a224 df3d
000002f0: 9766 c33e 280f d2be 6386 e73e ee7f b6be
00000300: 3586 36bd 8b54 453e 370d cd3e 3b65 bd3e
00000310: a679 df3e 198b 88bd 133e 15bc 2834 a5be
00000320: 9718 2b3f 59b7 3a3d 8e07 a5bd 9fde 6c3e
00000330: 7fea 023e 06b4 4dbf 6365 adbe a1bb abbe
00000340: 3fc8 1e3f 12cd c9be ceb5 97bd 508b 59be
00000350: afa7 053f d0f4 ac3d ab4c 9f3e 2ef8 13be
00000360: ea09 9b3e 4151 513e 89b1 d8be 93d7 853e
00000370: 0984 73bf ba71 c3be f58d 963e 756a e5be
00000380: fdef 68bf d06b babe 2dce 1dbf 797b a73e
00000390: e65a 1dbd 2781 bf3e 80bf d6be 0fef 2abe
000003a0: a191 43bf 5dab 46bf 8599 e33c ebf9 e03e
000003b0: 28b9 853e 4e5f 2f3e 8571 1dbf d596 f9be
000003c0: 57e0 11be 318f 72be f405 0dbe 6e84 c03e
000003d0: 1bfb ccbe e7a2 473e 85f3 a3be 608c b73e
000003e0: a965 f73e 495a 473f f1ff 17be c190 c23c
000003f0: 4d08 b9bd 3d02 e03e 84f8 23bf b19f fdbc
0.42022136 -0.40372235 0.0639692 -0.24322133 -0.021839052 0.10720021 -0.22946517 0.3049225
0.1514264 -0.46219411 0.18492442 0.33620077 -0.34333 0.28409892 -0.11222603 0.5067117
0.7839032 -0.064326085 0.19014232 -0.27554604 0.6452987 0.025735995 0.30853924 0.7924988
-0.34866047 -0.06830509 -0.57953715 0.42110154 0.260318 -0.9541277 0.80529195 0.52911884
-0.6152226 -0.2798117 -0.15647523 0.90593463 -0.23184274 0.17653063 0.324527 0.07381618
-0.9832421 -0.41144907 -0.7752065 -0.7281769 0.03053578 -0.34597155 -0.10804514 0.062320013
-0.1514558 -0.029295396 -0.2581227 0.41182518 -0.30885807 -0.3423602 0.18117084 -0.6329648
0.55908346 0.13885696 -0.30940875 0.33440572 -0.40737242 0.2517318 0.244169 0.017032161
0.27294463 0.4206993 0.123797044 -0.06042633 0.39349887 0.25441128 0.075650096 -0.058259934
0.15448235 0.12238714 -0.15829243 -0.3586356 -0.7964328 0.13597439 0.15403406 -0.3510568
-0.018647047 0.7261303 0.023027083 -0.22082242 -0.30160987 0.6484111 -0.49625778 -0.10188453
-0.45576993 0.4674993 0.05424005 -0.58732486 -0.492289 -0.9053068 0.17755851 -0.0038631712
-0.049238697 0.3608172 -0.12082065 -0.092726566 -0.25820622 -0.5544833 -0.107329704 0.28267565
0.5130222 -0.51411706 -0.26120624 0.012565521 0.08986906 0.12079867 -0.8967554 0.54416287
0.010620325 0.41901746 -0.10886657 0.2610767 0.23565203 -0.18465005 -0.0063047498 -0.10324116
-0.16993515 0.004476995 0.18753186 0.78155774 0.42353812 0.1075919 -0.1941599 0.23202689
0.60666484 -1.1055124 -0.06762145 -0.562152 0.4001928 0.94225115 0.30954647 0.24050458
0.9190266 0.4338485 0.60718244 -0.28869805 -0.4955085 -0.28135532 0.113789275 0.29074904
-0.6631817 -0.43083483 0.28334048 -0.721427 0.61854666 -0.16301017 0.86380476 -0.8454186
-0.552767 0.93168354 0.50650436 0.35099992 0.14348865 0.09176154 0.8622997 -0.29835904
-0.12287658 0.5932328 -1.5669243 0.5753823 -0.022809938 0.103126496 0.4669936 -0.2473942
0.52735335 -0.4770972 0.109827764 -0.26314715 -0.5272021 0.704071 -0.5727168 -0.59100187
-0.43170115 -0.21007241 0.35369438 -0.5732626 0.0818237 -0.9872242 -0.33078432 0.1495815
0.12950523 0.111021794 0.0039865016 0.10895659 0.38164207 -0.41027188 0.45219716 -0.35644478
-0.044561584 0.19270532 0.40049145 0.36991295 0.43647498 -0.06667156 -0.009109038 -0.32266355
0.66834396 0.04558501 -0.080580816 0.23131798 0.12784766 -0.8035282 -0.33866414 -0.33541587
0.620243 -0.3941427 -0.07407723 -0.2124455 0.5220899 0.08445132 0.3111318 -0.14450142
0.30281 0.20441152 -0.4232295 0.26141033 -0.95123345 -0.38172704 0.2940518 -0.44807783
-0.90991193 -0.3641038 -0.61642724 0.3271139 -0.038416766 0.37403223 -0.41942978 -0.16692756
-0.7639409 -0.7760523 0.027783165 0.43940672 0.26117826 0.171262 -0.6150134 -0.48747888
-0.14245735 -0.23687436 -0.13771802 0.37601036 -0.40035328 0.19495736 -0.32021728 0.35849285
0.48319748 0.7787214 -0.14843728 0.023750665 -0.090347864 0.43751708 -0.6405108 -0.030959936

tcr_lstm.bias_ih_l1 f4 [120]
00000000: 5935 023e 6c3d 6e3d 8336 243e 5dec d33e
00000010: cdfb 9a3d fda3 9dbc fc16 e83e 2a4b 9a3e
00000020: e7ae fb3e 9d04 0c3e a828 1d3f 9f4b 013f
00000030: 67b4 5b3e acf4 b93d 08af c53e 870b 5c3e
00000040: 38a1 9f3e 009d dc3e 51eb 9d3e 6159 863e
00000050: a806 60be d6c9 c73e 177e b83e 0c31 8b3e
00000060: baf9 c8ba fe0c 12be f421 df3e 74e3 a03e
00000070: e212 c13e b289 973d e219 5abd d86b 233e
00000080: 01f0 873e 31e4 ae3e 665c db3e 2b64 f83d
00000090: 59a4 293e 1370 903e e8b5 2e3e 543c 893e
000000a0: e04c aeb9 334c a53e 0e6d 0f3e 0485 463e
000000b0: dd3c f3bd 3109 ce3e 7d1b d33d 35e6 2e3e
000000c0: c1c0 9abd 53b1 aa3e fb6f 57be a855 603e
000000d0: 5043 ed3c 818e 14be 7dca 45be 785c 8a3e
000000e0: 78a7 9c3e 411e 81bd 6e4f 403e 69a7 803e
000000f0: ee9d 7dbc 374d 05be 7c30 f4bd 9c99 9abe
00000100: d70a 153d 2c6b 15bd c618 00be 2484 a53d
00000110: 613d cc3c 2ba0 a13b 1cbd 68be 28ec f4bc
00000120: bb34 f03c b6bf 93bd 8704 6abd f4ac 243c
00000130: 26ec 92be 6692 afbd ab78 543d 6561 fd3c
00000140: fc30 7dbe aabe ad3e 91f8 8ebe 63bd 6abd
00000150: c9c3 f9bd baa2 863e a49d 7cbe bf35 54bd
00000160: 66f7 71bd 9f00 cb3c 7fd7 7ebd b6ef b23e
00000170: 3aaa 9e3e 2386 ea3c a673 d83e 656d c63e
00000180: 6044 e63e a9a5 f23e 75f1 143f 68b4 823e
00000190: 3179 da3e 0912 143f deed cc3e 6bc8 3f3e
000001a0: 2834 453f 4ae0 0f3f fe1e 563e 534b 973e
000001b0: bd0c 1d3e 3ea5 223f 1c37 bfbd ddcb fb3e
000001c0: a490 043e bcc8 d13e 8759 d63e e014 903e
000001d0: 4c0d a83e 1a9e e33e 1880 a23e 46a8 c93d
0.12715663 0.058164045 0.1603642 0.41391268 0.075675584 -0.019243235 0.45330036 0.3013547
0.49156877 0.13673635 0.6139016 0.50506014 0.21455537 0.090798706 0.386101 0.21488772
0.31177688 0.43088531 0.30843595 0.26240066 -0.21877539 0.39021176 0.360337 0.27185857
-0.0015333213 -0.14262769 0.43580592 0.31423533 0.3770972 0.0739931 -0.05324734 0.15959108
0.26550296 0.3415847 0.42843932 0.121284805 0.165666 0.28210506 0.17061579 0.2680384
-0.00033245143 0.32284698 0.14006445 0.19386679 -0.11876843 0.40241387 0.10307977 0.17080005
-0.07556296 0.33338413 -0.21038811 0.21907675 0.028962761 -0.14507486 -0.19315524 0.27023673
0.3059652 -0.063045986 0.187803 0.25127724 -0.015479548 -0.13017736 -0.1192331 -0.3019532
0.03638729 -0.03647916 -0.1250945 0.080818444 0.024931611 0.0049324236 -0.2272839 -0.029897764
0.029322019 -0.072143 -0.057133224 0.010051001 -0.28695792 -0.08572845 0.05187289 0.03093023
-0.24725717 0.33934528 -0.27924016 -0.05730952 -0.12195546 0.26296026 -0.2466951 -0.05180907
-0.05907383 0.02478057 -0.06221723 0.3494851 0.30989248 0.028628414 0.42275733 0.38755336
0.4497404 0.47392014 0.58180934 0.25528264 0.42670587 0.5784002 0.40025228 0.18728797
0.7703271 0.5620161 0.2091026 0.29549655 0.1533689 0.6353339 -0.09336683 0.49178973
0.12945801 0.4097346 0.4186518 0.28140926 0.32822645 0.4445656 0.31738353 0.09846549

tcr_lstm.bias_hh_l1 f4 [120]
00000000: b129 753e 3739 713e f583 a53e 4ba8 c43e
00000010: 97e9 e3bd ac4b ea3d b77e c83e 5d00 d43e
00000020: c363 f33e 1b21 063e bb0d df3e 18b7 cf3e
00000030: 707a 833e 2c0e fb3c 52d0 dc3e 910d 803e
00000040: 5c18 b23e 8dd5 d53e d005 ef3e 775c c03e
00000050: fc8c 49be 61a0 9f3e 04af 753e fa0d 753e
00000060: a7a7 3b3e fbf1 0bbe 6d7f 053f b669 ed3d
00000070: 05e7 d23e cdb9 893d aef2 0d3e cafb 503e
00000080: f73e 263e 7486 ad3e 68b1 d33e dc17 4a3e
00000090: 7ed7 323e 0d7c 013f eaa9 693e 2c58 803e
000000a0: d044 d4bb 026a da3e 9c42 583e 69c1 d53d
000000b0: 9698 33bc 82cf 1c3e 6ee7 713d 8cbe 783e
000000c0: 283c 74bd cbd8 9c3e 8c12 3ebe c7c8 8a3e
000000d0: 5fdb b13c f2e3 dbbd 306e 32be 327b 413e
000000e0: e8bc 913e ce1c e73d 5250 9f3e 41fc 6d3e
000000f0: 985e 153e a8b2 0fbe b5d9 1bbd ff69 e2bc
00000100: cc53 cebd ebc2 1e3d c077 b5bb 2bdb 23bd
00000110: a879 0d3e 1ccb 22be fb33 0bbe 8a7d fabc
00000120: 1c9c c6bd 31c5 e0bb 8ede 033e 1c12 2abe
00000130: 4c46 cabc ac5c 9dbe ad78 363b c62f 873d
00000140: 9718 88be 53f6 7c3e 3b68 c0be 8a3c 573d
00000150: 8930 2a3e 2d4d 843e 84f7 03be 7a4e 663d
00000160: 93df 21bd d136 21be a40d ab3d 021c 013f
00000170: ec84 a43e 167f 5d3e 808b ee3e b1c8 e13e
00000180: b0c2 183f 0fa7 ec3e 951a eb3e dddc 723e
00000190: 8c83 be3e e222 c73e c441 af3e 2424 6a3e
000001a0: 3a0d 383f a5d4 bd3e 75c8 093e 81dc ee3e
000001b0: 8bcf dc3b 10e7 3d3f e3b9 99bd d8af da3e
000001c0: a922 cfbb 8d1e b03e c22a e73e d8f3 263e
000001d0: 9392 af3e 0403 e53e aaf6 f33e c528 a93d
0.23941685 0.23556982 0.32327238 0.38409647 -0.11128538 0.114402145 0.39159176 0.41406527
0.4753705 0.13098566 0.43565163 0.40569377 0.2567935 0.030646406 0.43127686 0.2501035
0.3478421 0.4176449 0.46684122 0.37570545 -0.19682688 0.31177047 0.23992544 0.23931113
0.18325673 -0.13666527 0.5214756 0.115924284 0.4119188 0.06724892 0.13862106 0.2040855
0.16234957 0.33891642 0.41346288 0.19735664 0.17465016 0.5057991 0.22818723 0.2506727
-0.0064779297 0.42659003 0.2111916 0.10437281 -0.010961672 0.15313533 0.0590586 0.24291438
-0.059627682 0.3063415 -0.18561763 0.27106306 0.02171105 -0.107368365 -0.17424846 0.18894652
0.28464437 0.11284791 0.31115967 0.23240758 0.14586866 -0.14032996 -0.03804942 -0.027638434
-0.10074577 0.038760107 -0.005537957 -0.040003937 0.1381594 -0.15897793 -0.13594048 -0.03057744
-0.09697744 -0.0068594445 0.12877867 -0.1660847 -0.024691723 -0.30734766 0.0027842924 0.06600909
-0.2658126 0.2470334 -0.37579522 0.05254797 0.16620077 0.2584013 -0.12887388 0.056227185
-0.039519858 -0.15743567 0.08352211 0.5043336 0.3213266 0.2163051 0.46590805 0.44098428
0.5967207 0.46221206 0.45918718 0.23717065 0.37209737 0.388938 0.34229863 0.22865349
0.7189518 0.37076297 0.13455375 0.46652606 0.0067386082 0.741807 -0.07506158 0.42712283
-0.0063212705 0.34398308 0.4514981 0.16303957 0.34291515 0.44728863 0.47649127 0.08259729
