pair_sampling/ignore.pt (torch_old, 112141 bytes, 21 tensors)

tcr_embedding.weight f4 [21, 10]
000000 00 00 00 00 00 00 00 00 00 00 00 00 00 00 00 00
       0.0 0.0 0.0 0.0
000010 00 00 00 00 00 00 00 00 00 00 00 00 00 00 00 00
       0.0 0.0 0.0 0.0
000020 00 00 00 00 00 00 00 00 20 0c 91 bf 20 e1 2b 3f
       0.0 0.0 -1.1331825 0.6714039
000030 83 4b 2b 40 80 f0 c1 bf fb 0c 10 bf dc 5f 4e bf
       2.6764839 -1.515152 -0.56269807 -0.8061502
000040 9f 41 70 3e 69 51 4d 3f 9a 6f c8 bf 7b 5d 30 c0
       0.23462532 0.8020235 -1.5659058 -2.7557056
000050 1b 02 76 bf ea 4c a8 3e 34 8b 8c be 3f 9c 33 c0
       -0.9609696 0.3287118 -0.27449954 -2.8064115
000060 0b 9b c3 bd 8b d7 e6 bd 32 cf 34 c0 e3 c7 df 3f
       -0.095510565 -0.1127158 -2.8251462 1.7482876
000070 e9 a1 15 3f 06 2a ee be a6 f6 8d bf d3 fd bd be
       0.5845018 -0.46516436 -1.1090896 -0.37107715
000080 df 00 03 3f ce fb bf 3e 60 d2 bc bf 10 f5 70 bf
       0.51173204 0.374968 -1.4751701 -0.94123936
000090 6b 3a 52 3f 1e 92 43 bf a2 07 1b 3f 3f 20 67 40
       0.8212039 -0.7639483 0.6055852 3.6113431
0000a0 73 31 34 bf 59 0b d1 3f 44 c2 72 bf 5e 32 7a be
       -0.70387954 1.6331588 -0.94827676 -0.24433276
0000b0 23 8d 12 bf 30 41 1a bf 05 51 3e bf bb 6a c6 3e
       -0.5724661 -0.6025572 -0.74342376 0.38753304
0000c0 d6 c0 12 40 b2 30 04 bf a8 6d 27 c0 65 2c 18 3f
       2.2930198 -0.51636803 -2.616068 0.5944274
0000d0 87 30 25 bf 6a 4b c0 be 2a 7a e9 3e ec e3 11 bf
       -0.6452717 -0.37557536 0.45601016 -0.56988406
0000e0 b3 53 01 bf e4 2f 19 bf b3 de 8d be 04 6f cb 3e
       -0.5051834 -0.598387 -0.2770897 0.39733136
0000f0 78 ad 47 be d6 ee 38 bf 78 35 01 bf 90 f0 ff bf
       -0.19499767 -0.72239435 -0.5047221 -1.9995289
000100 ac 41 1f 3e 32 82 2c bf c0 ff 24 bf 89 fd ef bf
       0.15552396 -0.6738616 -0.64452744 -1.8749248
000110 55 02 74 3e 5a 9a 4c bf 17 94 01 c0 9f 2e 1c 3f
       0.23829015 -0.7992302 -2.0246637 0.6100864
000120 b3 3b 91 3e 14 fc f0 3f 1a 4e 6e bf 85 a9 3d 3d
       0.2836586 1.8826928 -0.93087924 0.046304245
000130 12 3b c6 bf a7 72 25 3e 71 e3 64 3d 39 8b 19 bf
       -1.5486777 0.16157018 0.055880968 -0.5997806
000140 8f 31 ea bf b7 75 35 be 25 2c 81 3d 17 c2 8a bf
       -1.8296374 -0.17720686 0.06307248 -1.0840482
000150 a2 8c 1d be 87 ef a7 3f e6 0d e8 3f 7c c0 c2 be
       -0.15385678 1.3119973 1.8129241 -0.3803748
000160 53 23 15 3e 29 e5 08 3e 7f c1 2d bf 1c 9c 9e 3f
       0.14564256 0.13368668 -0.67873377 1.2391391
000170 98 73 87 3f 80 65 44 3f 9f 48 1e 40 4e 1d 20 40
       1.0582151 0.76717377 2.4731824 2.5017886
000180 e8 26 e6 bf cf a0 9f bf f2 10 a1 3e 8c c1 45 3f
       -1.7980623 -1.247095 0.3145824 0.77248454
000190 0f d6 bb 3f 65 6b 08 3f ea b6 23 be f3 d6 cb bf
       1.46747 0.5328887 -0.15987745 -1.5924972
0001a0 42 d6 f9 bf e7 ac 2d 3f 3b 3d fe 3f 03 a4 9e bf
       -1.9518511 0.67841953 1.9862436 -1.2393802
0001b0 6f c1 4c bf 11 29 89 3f 9d 2d cf bb 98 a6 89 3f
       -0.79982656 1.0715657 -0.006322576 1.0753965
0001c0 02 5f 2b 3f f3 0c 83 3f ed dd 0e 40 60 2b 16 c0
       0.66941845 1.0238327 2.2322953 -2.3463974
0001d0 0b a7 19 3f dc 4f 36 bf 6e f7 b0 be a9 91 9a 3f
       0.6002051 -0.71215606 -0.34563774 1.2075702
0001e0 f3 c6 0e be ab d3 b7 bf a5 f3 f9 3f 70 1f 0e bf
       -0.1394308 -1.4361471 1.952748 -0.5551672
0001f0 6e 1d 49 3f d6 d4 95 3f 12 f5 3f be 31 8a a8 be
       0.7856053 1.1705577 -0.1874583 -0.32917932
000200 10 b0 e6 3f d5 14 80 be 29 0f ec bf 97 e7 1d c0
       1.802248 -0.25015894 -1.8442127 -2.4672601
000210 61 ee cd bf 3b 70 5d 3f a6 6d 94 3f c5 4e 94 bf
       -1.6088372 0.86499375 1.1595962 -1.1586539
000220 fe 21 74 3f 94 4b 8b be 34 36 f3 bf df 29 a2 3e
       0.9536437 -0.272061 -1.9000916 0.3167257
000230 d8 4a a9 3f 3a cf 63 bf e7 5f a1 3f bc 8a 5c bd
       1.3225965 -0.8898808 1.2607392 -0.053843245
000240 76 0a 25 3e 2d 3e b4 be d3 40 12 bf e9 ca 1c 3e
       0.16117272 -0.35203686 -0.57130164 0.15311779
000250 af 17 15 be d2 57 fd 3f 7f 6e 9d 3d 45 0a 18 3e
       -0.14559816 1.9792426 0.07687091 0.14847668
000260 6c f6 ad bf e5 6a ab 3e 01 45 2c 3f 7d 95 b7 3e
       -1.3590827 0.33479992 0.6729279 0.35856238
000270 85 1f ba 3f 4e 3e b0 bf c2 0f 3f 40 8a 2d 7f 3f
       1.4540869 -1.3769014 2.9853368 0.9967886
000280 a7 81 03 40 91 72 07 3f 31 42 d4 3d 02 00 3f 3f
       2.0547884 0.5290919 0.103641875 0.74609387
000290 08 16 36 be 7d 68 54 3f 6d 82 6d bf ec 1c 91 3f
       -0.17781842 0.82971936 -0.9277714 1.1336951
0002a0 f9 55 20 bf 0b c9 22 3f 86 45 b9 3f ae 1b dd bf
       -0.62631184 0.6358802 1.4474342 -1.7274072
0002b0 6b 52 5f 3f 0b fb f5 3e d0 cc 95 bf d7 fa 30 3f
       0.87235135 0.48043093 -1.1703129 0.6913275
0002c0 3f 79 be bf 30 1e 26 bf 15 f1 c6 3e 91 36 2c be
       -1.4880751 -0.6488981 0.38855806 -0.1681769
0002d0 af 14 06 3f c3 d9 dc be 6b f1 99 bf 69 d7 14 bf
       0.5237531 -0.4313489 -1.20268 -0.5814119
0002e0 46 34 7d 3f f2 36 8f be a4 b3 d4 be 23 b9 07 3f
       0.9890789 -0.27971607 -0.41543305 0.5301687
0002f0 f6 c5 02 3f ee 8a 15 3f f6 31 a2 3f 70 5b 43 3f
       0.51083314 0.58415115 1.2671497 0.763114
000300 41 57 06 bf 09 d8 8a 3f 3f 72 ca bf d2 13 4b 3f
       -0.5247689 1.0847179 -1.5816115 0.7932712
000310 ff e5 d2 3e 92 02 a4 3e 8e f3 c0 bf 8b b6 03 c0
       0.41191098 0.3203321 -1.5074327 -2.0580165
000320 f8 b8 76 40 2f 49 26 40 db 33 d5 3f 1b 42 8e 3f
       3.8550396 2.5982168 1.665645 1.1113924
000330 ce 49 f5 3f 17 85 ae bd b2 77 85 3f 25 4c 2f 3e
       1.9163148 -0.085214786 1.0427153 0.1711889
000340 23 26 e8 3f 83 6a 4f 3d
       1.8136638 0.050638687

pep_embedding.weight f4 [21, 10]
000000 00 00 00 00 00 00 00 00 00 00 00 00 00 00 00 00
       0.0 0.0 0.0 0.0
000010 00 00 00 00 00 00 00 00 00 00 00 00 00 00 00 00
       0.0 0.0 0.0 0.0
000020 00 00 00 00 00 00 00 00 25 b0 34 bf c5 08 1c bf
       0.0 0.0 -0.70581275 -0.6095088
000030 39 93 99 3f 8d e4 d4 be 24 ac 1f c0 67 e9 67 3c
       1.1998054 -0.4158062 -2.4948816 0.014154769
000040 d8 47 8e be 9a 62 19 bf 40 19 b2 be 0f 7b 58 3f
       -0.27789187 -0.5991608 -0.3478489 0.8456277
000050 3a d5 a8 3e d5 b5 0c c0 ac b0 30 3f 76 cc 19 c0
       0.3297518 -2.1985981 0.6901958 -2.4031043
000060 f2 ba 10 3e 09 2e 87 3f 1f 3a 1b bf 03 32 9c be
       0.14133814 1.0560924 -0.6063556 -0.30506906
000070 ce 77 ed bf bd c3 7f 3f 80 f9 c6 3f aa 2e 6e 3f
       -1.8552186 0.9990805 1.5544891 0.93039954
000080 e2 97 05 be ca 36 98 be 4c 3a bd 3e 6c d2 13 40
       -0.1304622 -0.297293 0.3695854 2.3097181
000090 4b 83 f6 be 8e e8 b9 3f c5 13 f3 be cc d2 f5 3f
       -0.48147044 1.4524095 -0.4747602 1.9204955
0000a0 8d 08 53 3e 58 c0 a7 3d e3 5e 8c 3f a4 07 8c bf
       0.2060873 0.081909835 1.0966457 -1.0939832
0000b0 ab 63 29 3f 63 27 07 bf 98 30 c6 3c 7d a5 83 40
       0.66167706 -0.52794474 0.024193093 4.113951
0000c0 65 0b 17 40 fd 99 9a be a0 59 d8 3f 82 69 27 be
       2.3600705 -0.3019561 1.6902351 -0.16348842
0000d0 a7 a6 36 bc 73 48 f2 3f 14 d4 6d 3f 36 74 48 c0
       -0.011148131 1.892836 0.9290173 -3.132093
0000e0 5a f9 22 40 ac a3 02 3f 19 90 22 40 8a d9 82 be
       2.5464692 0.51030993 2.540045 -0.25556594
0000f0 32 5c 9f bf de 80 00 bf 74 35 19 3f c7 d5 c8 3f
       -1.2450011 -0.50196636 0.5984719 1.569024
000100 de 44 80 3d 9b f3 13 40 00 e3 75 be 9e 25 a7 3f
       0.062631354 2.3117435 -0.24012375 1.3058355
000110 63 7f 95 3f 68 91 0c 40 ac a2 e2 3f 22 1a f5 3e
       1.16795 2.196375 1.7705894 0.478715
000120 a9 8f 24 3e 15 d0 11 3f 78 87 12 40 c4 8e 24 3f
       0.16070427 0.56958133 2.2895184 0.64280343
000130 ff 8f b2 bf b4 a3 0a c0 eb 5a 9d be 8a 7f 76 bd
       -1.3950194 -2.1662416 -0.30733427 -0.060180224
000140 35 59 18 3e ff f1 87 3f d6 36 89 bf ad 71 04 bf
       0.1487778 1.0620726 -1.071986 -0.51735955
000150 e7 d9 43 3f 8f 37 91 3f 3b 22 6c 3f 03 59 b3 bf
       0.7650437 1.134508 0.9223973 -1.4011539
000160 59 58 14 c0 6f 55 2c bd 3c fd b0 bf c8 16 e0 be
       -2.3178923 -0.042073663 -1.3827281 -0.4376738
000170 9e 08 b5 be 67 39 61 bf be 09 e6 3f 76 6e e3 be
       -0.35358137 -0.87978214 1.7971723 -0.44420213
000180 67 08 43 be 6b 67 66 bf 97 19 48 c0 38 20 66 3f
       -0.19046174 -0.90001553 -3.1265619 0.8989291
000190 29 90 9e 3d 61 66 4c 3e c0 bc ba 3f 52 e8 bf 3f
       0.0774234 0.1996093 1.4588852 1.4992774
0001a0 f7 e5 48 bd d1 0c 7b 3e 74 4a 10 40 d1 35 ad 3e
       -0.049047437 0.24516608 2.2545443 0.3383012
0001b0 1a ed 17 3f ab 09 5f 3f 2c b2 3c 3f dc 64 19 be
       0.59346163 0.8712413 0.7370937 -0.14979881
0001c0 ee da 9e 3e aa 47 31 3f ec 56 05 3f 8b 76 30 c0
       0.31026405 0.69249976 0.5208576 -2.7572353
0001d0 b8 6d 8e be 1e b7 d3 3e f5 81 5f bf c1 fc 97 3b
       -0.27818084 0.41350645 -0.87307674 0.004638285
0001e0 7d 10 4f 3f 36 cf 09 bf 8d 67 b5 bf f7 f0 c4 be
       0.80884534 -0.53831804 -1.4172226 -0.38465092
0001f0 f9 eb 5d 3f 55 12 37 3f 41 cc f3 be c8 ff 09 40
       0.8668819 0.7151235 -0.4761677 2.1562366
000200 de bb b7 3f f3 02 12 bf 77 27 4c bd 86 8c 65 3e
       1.4354208 -0.5703575 -0.049842324 0.22416887
000210 14 b8 82 3e 1e e8 f6 3e 3b 2c 0a be bc 65 e0 3f
       0.25531065 0.48223966 -0.13493435 1.7531047
000220 ec 88 7e 3f 0a 87 4b bf 5a 91 ab 3f 9b e1 a2 bf
       0.99427676 -0.7950293 1.3403733 -1.2725099
000230 aa ee e2 bf 43 f6 ca 3f 86 5c 8a bf 46 2b ef 3f
       -1.7729084 1.5856403 -1.0809486 1.8685081
000240 6c 6b cf 3f c1 5c 13 bf ed 3d 37 bf 26 40 86 3f
       1.6204658 -0.57563406 -0.71578866 1.0488327
000250 0b 07 fd be dd 6f ce 3f 9c 41 13 3f 83 d5 a3 be
       -0.49419436 1.6127888 0.57521987 -0.31998834
000260 a7 6b 75 be bb 90 75 3f 1d 70 52 3e ed 21 c1 3e
       -0.23966847 0.95923966 0.2055058 0.37721196
000270 65 75 0f 3f 93 d8 eb 3d 13 76 80 3f 9f 97 dc be
       0.56038505 0.11515918 1.0036033 -0.43084428
000280 c2 0b d1 3f be f0 7c 3f fb 7f b0 be 8f 38 a6 3c
       1.6331713 0.98804843 -0.3447264 0.020290641
000290 07 f3 68 bf 4d 0c 77 bf 81 2e 05 bf 62 b1 eb 3e
       -0.9099583 -0.96503145 -0.52024084 0.4603377
0002a0 4c 75 9c 3e e0 8a 68 bf 85 ef d3 3e 0a 12 05 c0
       0.3055824 -0.90836906 0.41393676 -2.079226
0002b0 73 87 55 be 78 df 87 3e ed 5c fb bf 42 21 cb be
       -0.20852451 0.2653768 -1.9637734 -0.3967381
0002c0 df ed ce bf cb 97 08 3e 30 3a 5d 3f 38 d5 4c 3e
       -1.6166342 0.13339154 0.8641691 0.20003211
0002d0 91 19 11 bf 09 61 0d 3f ae cd 5c bd 74 72 d6 be
       -0.56679636 0.5522619 -0.05390709 -0.41884196
0002e0 05 0d e5 3e 04 4e 09 c0 f7 3b 42 bf a8 cd 1c bd
       0.44736496 -2.1453867 -0.7587275 -0.038282067
0002f0 02 13 53 c0 f3 d4 b4 be 46 ae 08 40 e6 d3 94 3f
       -3.2980351 -0.35318717 2.1356368 1.1627166
000300 45 ac 4a c0 51 38 81 bf ca f4 10 bf 7e d5 37 bd
       -3.1667645 -1.0095311 -0.5662352 -0.044881336
000310 32 e2 c9 3f ff 2e 62 3f 46 7e 1d be f9 8e 7b 3f
       1.5772154 0.8835296 -0.153802 0.98265034
000320 34 50 15 c0 63 f9 cc be e7 47 85 bf b5 7d 35 bd
       -2.3330202 -0.40034017 -1.0412568 -0.044309337
000330 c1 d5 6c bd d6 ac 86 3f 89 1b 57 bf 0b 01 27 be
       -0.05782104 1.0521495 -0.8402639 -0.16308992
000340 9d 94 21 3f b8 6b ee bf
       0.6311739 -1.8626623

tcr_lstm.weight_ih_l0 f4 [120, 10]
000000 ae 38 e4 3d 9a 35 59 3f 6c 2a d9 3e 19 73 23 3d
       0.11143623 0.84847414 0.42415178 0.039904688
000010 ac 29 92 be a6 36 0c bf c2 79 30 3e 4b 56 ba 3e
       -0.28547418 -0.54770887 0.17233947 0.3639396
000020 42 a4 91 3b 82 7d 1a bd 4e 46 aa bd 07 8f 57 3e
       0.00444463 -0.03771735 -0.08314191 0.21050654
000030 b4 f9 9a bf b7 ec 85 be a2 6e 12 3f ad 64 ff bd
       -1.2107453 -0.26157162 0.5720006 -0.12470374
000040 96 35 d6 3e 9d 65 64 bf 3b 50 0c 3f 10 d9 18 3f
       0.41837758 -0.8921755 0.5480992 0.5970621
000050 03 db 48 be b0 ac 94 3f 00 8f 49 3f a8 d0 a7 ba
       -0.19614796 1.16152 0.78733826 -0.0012803273
000060 31 3a fa bd bd aa 86 3e 3d 1e 60 3e bf 9e 62 be
       -0.122181304 0.26302138 0.21886535 -0.2213087
000070 64 18 bc be 7a 24 3b be c6 79 46 3e c6 f4 58 bf
       -0.3673736 -0.18275633 0.1938239 -0.84748495
000080 07 e6 ab 3e d7 15 75 bf a7 b0 cd 3e 44 ac bf bd
       0.33573934 -0.9573645 0.40173838 -0.09359029
000090 fb 78 3a 3f d6 66 35 bf 9a 5c 38 3f b4 55 11 3f
       0.7284085 -0.7086004 0.720163 0.567714
0000a0 ab b4 64 be ca 7d 99 3e 2b 07 17 3e 70 8d dd 3c
       -0.22334544 0.29978782 0.14748828 0.027044982
0000b0 a8 1f 51 3e 3f 49 74 3d ab 91 7e bf b1 55 18 3f
       0.20422232 0.059640165 -0.9944102 0.59505755
0000c0 5d 11 46 3f 09 c2 9a 3e e6 6b 4b be 61 fd 83 be
       0.77370244 0.30226162 -0.19865379 -0.2577925
0000d0 cb c5 76 3e dd 6c 77 3e d3 9f e6 3e 33 4b 33 be
       0.2409889 0.24162622 0.4504381 -0.17509155
0000e0 68 e7 1b be f4 f6 8b be af 13 f4 3e ad 8b 2b be
       -0.15224993 -0.27336848 0.47671267 -0.16752501
0000f0 ad f0 0d be 6e 08 58 be 79 0f 4e 3e bd d9 65 3c
       -0.13861342 -0.21096966 0.2012309 0.014028964
000100 17 84 80 3e f8 a4 1f 3f 2d 59 a1 be 1c 44 a8 3e
       0.25100777 0.623611 -0.31513348 0.32864463
000110 20 1a 8e be ac fe 34 bf 0d d2 eb 3e 73 00 bf 3e
       -0.27754307 -0.707011 0.46058694 0.3730503
000120 cc 26 3a 3d 42 09 b7 3e d5 ef 24 3f 24 ae c3 3d
       0.045447156 0.3574925 0.64428455 0.09554699
000130 24 bb 59 bf 27 54 64 be 32 ee 91 3e 6a 29 f2 3e
       -0.8505118 -0.22297727 0.2850204 0.4729722
000140 bc 62 1b be 15 32 61 3e 0c 40 2e be fa bb 28 3e
       -0.15174383 0.21991761 -0.1701662 0.16477957
000150 65 e1 28 bf 2a 89 b2 3d 85 e7 48 be 89 0c 94 bd
       -0.65968925 0.08717568 -0.19619568 -0.072289534
000160 35 1e ac be f3 3e b5 3e bf bb 47 3f cb 1e 4d 3f
       -0.33616796 0.3539959 0.7802085 0.8012511
000170 6c b4 ab 3e 4e 3a 13 3f c8 4e 60 3e 91 c3 df 3d
       0.33536088 0.5751084 0.21905053 0.10925973
000180 49 54 f5 be 9a f3 71 3d 2f 67 43 bb 3e de 93 3d
       -0.47915867 0.059070207 -0.002981614 0.07220124
000190 87 75 8e be 9e 32 55 3f df bf 84 3e c7 e2 81 3e
       -0.2782404 0.8328036 0.25927636 0.2536833
0001a0 21 b2 b9 3e 3c b9 38 bf 1d c3 43 3d 44 30 33 bd
       0.36268714 -0.72157645 0.047793496 -0.0437472
0001b0 9f ec ed 3d df 88 a2 3e 5e 83 45 bd e0 82 9c be
       0.116173975 0.3174505 -0.048220985 -0.305686
0001c0 c3 11 5e 3e dd 74 01 bf 37 87 d8 3c b3 17 44 bf
       0.21686463 -0.50568944 0.026431663 -0.7659866
0001d0 a6 a4 3c be 03 0b e8 be 85 c9 5f 3f ee 76 b0 3e
       -0.18422183 -0.453209 0.8741687 0.34465736
0001e0 05 c4 2d 3e 31 ad 96 3e 88 81 c0 3d b9 bd 95 be
       0.16969307 0.2942901 0.09399706 -0.2924631
0001f0 d0 c0 22 bf 27 e2 ec 3e 36 35 6a bf c7 06 41 3f
       -0.6357546 0.4626629 -0.91487443 0.75400966
000200 62 e9 4e 3f be 73 60 be ac b4 2d be 29 7b 3d bf
       0.80824864 -0.21919152 -0.16963452 -0.7401605
000210 40 96 d9 3e 4a 3b 38 bf 80 e5 36 bf 9e 84 36 3f
       0.42497444 -0.7196547 -0.7144394 0.7129611
000220 99 3b 07 be 28 e5 2c 3e 7e 86 6a bd 9c c1 56 3d
       -0.13206328 0.16884291 -0.057257168 0.052430734
000230 78 ca 84 3e 4a 00 b5 3e 13 8e 1d bf 5d 11 3e bb
       0.2593572 0.35351783 -0.61544913 -0.0029002049
000240 90 6a 4e bc fc 0e 78 be 18 7c e5 be f8 7f 5e bc
       -0.012598649 -0.24224466 -0.4482124 -0.013580315
000250 6d 58 2f be 38 80 74 3e 06 a9 a7 be c8 1c 81 3e
       -0.17123576 0.23877037 -0.32746142 0.2521727
000260 23 35 c3 3e f2 33 18 bf 30 3c b4 3c 43 39 51 3e
       0.38126478 -0.5945426 0.022001356 0.20432
000270 85 e3 e2 3e 1f 81 b7 3e 33 17 ee bd f1 fe d3 3e
       0.4431421 0.358407 -0.11625519 0.41405442
000280 c9 2d 2b 3e 64 53 b7 be 8a ad 03 3e 9a 08 19 be
       0.16716684 -0.3580581 0.12859169 -0.14944687
000290 e2 f4 0e 3e 4a 63 7f 3f f9 d7 85 be bf 70 a7 3d
       0.13960603 0.9976088 -0.26141337 0.081758015
0002a0 13 22 8d 3e e2 82 db bd c2 24 fe 3d 64 3e 0b be
       0.2756506 -0.10718323 0.12409355 -0.13598019
0002b0 9c 93 b2 3c ed e4 08 bf c3 d8 1e 3f 8e e6 d1 bd
       0.021798901 -0.53474313 0.620495 -0.10249053
0002c0 82 fe 4e 3f cf 28 33 bf dd 84 92 be 1a ad 3c be
       0.808571 -0.69984144 -0.28616992 -0.18425408
0002d0 fe 64 55 bd 8b 24 72 be ea 03 01 bf 1a 6a a6 be
       -0.052098267 -0.23646753 -0.503966 -0.32502824
0002e0 3f 7a 4f be bd 16 9f 3e 7d 95 3c bf d7 13 65 bf
       -0.20261477 0.31072035 -0.736656 -0.894834
0002f0 b3 87 1f 3f 44 c7 88 3d d1 1e f0 3d 75 23 fc 3d
       0.62316436 0.06678632 0.11724628 0.123114504
000300 c2 c3 94 3d ce 35 37 be 14 20 ba 3d a5 12 88 bf
       0.072639 -0.17891619 0.0908815 -1.063069
000310 9a bc 39 3e f2 a1 c3 bd 2e e9 da 3e 97 32 45 bc
       0.18138352 -0.09552373 0.42756027 -0.012035987
000320 70 fd c0 3e b6 08 51 be 54 d7 8b be e4 a7 3c 3f
       0.37693357 -0.20413479 -0.2731272 0.7369368
000330 cf 0b 1f bd 84 8d aa 3e 13 b1 00 3f ae 48 2a bf
       -0.03882962 0.33311093 0.50270194 -0.6651715
000340 c3 2b fc 3e 79 d3 22 3f cd 65 e8 3e d9 58 a5 3e
       0.49252138 0.6360393 0.45390168 0.32294348
000350 f7 f6 92 be e9 e8 98 3f 0e 45 b2 3e 98 8c 66 3d
       -0.28704044 1.1946079 0.3481831 0.056286424
000360 65 d7 25 3d a5 5b 01 bf da 78 00 bf d6 9d 60 bd
       0.04048862 -0.50530463 -0.50184405 -0.054838024
000370 0e 30 66 3e c7 fe 0e 3f 02 fd 9f 3c 71 2e 44 bf
       0.22479269 0.5585751 0.019529823 -0.76633364
000380 de 59 50 bf f7 11 26 be 9f be 87 be 50 4d 44 bd
       -0.81387126 -0.1621779 -0.2651262 -0.047925293
000390 27 0d d0 3b 80 d0 7b be f0 4d 61 3e 8a a0 9b 3e
       0.006349224 -0.24591255 0.22002387 0.3039592
0003a0 58 57 0f bf 76 72 85 3e 11 8b 64 3e 4f 3d 6e 3e
       -0.5599265 0.2606389 0.22318675 0.23265575
0003b0 e9 cb f3 be 57 b8 cf bd 67 ef bd 3d 59 ba a2 be
       -0.4761651 -0.10142582 0.09274178 -0.31782797
0003c0 3e c1 d8 bd 1e 5c f6 be 35 77 6d 3d 08 90 8c 3e
       -0.10583733 -0.48117155 0.057975013 0.27453637
0003d0 0a 0c a0 be 79 02 1d 3f f1 9e 91 bf 4b 35 d7 be
       -0.31259185 0.613319 -1.137663 -0.42032847
0003e0 b0 24 3e be c3 45 d0 be 94 32 74 3d 38 d0 76 3e
       -0.18568683 -0.40678224 0.059618548 0.24102867
0003f0 81 c2 f6 3e 56 50 7c bf 86 0e 27 3f 96 bc 3e be
       0.4819527 -0.9856008 0.65256536 -0.18626627

tcr_lstm.weight_hh_l0 f4 [120, 30]
000000 9b a0 ab be f0 ce ec be 41 39 a5 be a0 8f ad 3f
       -0.3352097 -0.4625163 -0.32270244 1.3559456
000010 40 c3 60 3f 40 87 1f be 8d 45 79 bf 7d a9 80 bf
       0.8779793 -0.15578938 -0.9737175 -1.0051724
000020 2a 15 7c be ee cc 00 bf 2f b4 82 3f 6e ce 00 c0
       -0.24617448 -0.503127 1.0211238 -2.0125995
000030 50 8a 8f bf 47 06 23 bf cf e8 fe 3d a4 79 b3 be
       -1.1214085 -0.63681453 0.124467485 -0.35053742
000040 1d 22 3e bf 7c c5 ea bd 66 b1 6d bf b8 3b 2d 40
       -0.742708 -0.114634484 -0.92848814 2.70677
000050 2f 83 39 bc dd 16 72 3f b4 c3 a9 be 04 13 6e bd
       -0.0113227805 0.94566137 -0.33157122 -0.058123603
000060 55 7c 58 be b3 b6 04 3f 53 f5 46 3e f0 86 9e 3d
       -0.21141179 0.51841277 0.19429521 0.07740581
000070 1e d0 c1 3e f3 81 c0 be ce 7f de be fd ea 71 be
       0.37854093 -0.37599143 -0.43456882 -0.23624797
000080 e6 a1 9e bf ba 73 50 bf 07 3b c8 3d 5e 57 f5 be
       -1.2393157 -0.81426585 0.097768836 -0.47918218
000090 a8 27 9b 3d 2b 59 0a bf 42 2a b6 3e e5 0f a6 be
       0.07575923 -0.5404231 0.35579115 -0.32434002
0000a0 3e 47 b1 3e b7 b1 b3 be 0c 99 bb 3d 0f 77 7b bf
       0.34624666 -0.35096523 0.09160051 -0.98228544
0000b0 81 e7 26 3f 63 31 16 3f c7 b3 db 3e 9d d5 b2 be
       0.65196997 0.5866911 0.42910597 -0.349286
0000c0 26 75 68 3e b3 3b 1d 3f 93 ef ca 3d 99 03 dd 3d
       0.22700939 0.6141922 0.099089764 0.10791702
0000d0 b3 dd dc be 00 6e b3 3f 3a 71 2c bf de 23 2f bf
       -0.43137893 1.4017944 -0.6736027 -0.68414104
0000e0 f8 3f 16 bc 2e 49 f4 bd fa 48 c3 be 41 31 6a 3e
       -0.009170525 -0.119280204 -0.38141614 0.22870351
0000f0 e4 47 cd 3d 54 b3 4b bf 4a cf 0f 3f 9e 51 a7 be
       0.10023478 -0.7957051 0.56175673 -0.32679456
000100 5b 43 a7 3f 2f 51 13 be 65 bd 08 be 13 d9 51 bd
       1.306743 -0.14386438 -0.13353498 -0.05123241
000110 61 a5 b7 be 78 4a 13 3e ca a5 4f bf 51 1d 9a bd
       -0.35868362 0.14383876 -0.8111235 -0.07525123
000120 12 c9 3e bf 8e 8f f1 be a4 c9 56 3f 41 77 d4 3e
       -0.7452556 -0.47179836 0.8390143 0.41497234
000130 31 71 29 3f 87 24 e0 be e3 35 61 bf cd ac fa bf
       0.6618834 -0.43777868 -0.8797285 -1.9583985
000140 d3 70 5a bf ac 90 69 bf 59 fa 63 bf 06 0b eb 3e
       -0.85328406 -0.91236377 -0.89053875 0.45906848
000150 8f 06 01 3f 6e 37 fe 3f 0f 4b 4d 3f b2 f5 b0 bc
       0.5040063 1.9860666 0.80192655 -0.021601532
000160 84 51 10 3e 15 8a d0 3e e8 e3 e3 be 57 c8 3b 3f
       0.14093596 0.40730348 -0.44509816 0.7335257
000170 93 48 1b be 7c 76 29 3e 1a 4f e1 be 74 95 5a be
       -0.15164404 0.16549104 -0.44005662 -0.21346074
000180 74 79 4b 3d f6 e1 29 bf 73 77 fb 3d ca 63 0c 3f
       0.049676374 -0.66360414 0.122786425 0.54839766
000190 63 1e d6 3e 9e 00 1c 3f e5 c6 9d bf bf 60 87 3f
       0.41820058 0.6093844 -1.2326323 1.05764
0001a0 31 80 08 3f 81 63 a5 be ac b0 f1 3c e5 b6 c7 3e
       0.53320605 -0.32302478 0.029503189 0.39006725
0001b0 e1 cb 13 bf 7a 62 2f bf 11 54 3e bf 4a aa 1a bf
       -0.5773297 -0.6850964 -0.74347025 -0.6041609
0001c0 8e bf 10 3f 8d a7 ca 3e b5 2f 19 be 6d 9b 04 3f
       0.5654229 0.39580956 -0.14959605 0.5179966
0001d0 eb 0e 0f bf a0 b9 4a 3c 7e b9 06 3f 1d ea b7 be
       -0.5588214 0.012373358 0.5262679 -0.35920802
0001e0 06 f6 59 bf 49 e2 66 3f 90 0b a4 bf 69 02 c6 3f
       -0.85141027 0.90189034 -1.2816029 1.5469486
0001f0 9c 55 50 bf 2a 62 59 bd c7 ea 46 3e 17 9a e0 be
       -0.8138063 -0.053072132 0.19425498 -0.4386756
000200 f3 c0 91 3f a6 0d 23 bd 77 22 7f 3e 3e 88 57 3f
       1.1387008 -0.039807938 0.24915491 0.84192264
000210 1d 78 5f be 6c 21 4d 3e bc e4 5a bf 6c 39 9b 3f
       -0.21823163 0.2003228 -0.8550527 1.2126899
000220 ca cf d8 3d 94 a4 49 bf 0c f7 6c bd 83 dc ef bd
       0.105865076 -0.7876675 -0.05785279 -0.11711981
000230 db 07 a0 bd b9 1f 92 be 62 ba 9b 3e 84 ab f5 bd
       -0.07813998 -0.28539827 0.30415636 -0.11995605
000240 0b f6 85 bf 94 33 10 3f 4b d5 50 3f 57 82 68 3e
       -1.0465711 0.563287 0.8157546 0.2270597
000250 60 b6 26 3f 9c cf 06 bf 8c f1 0a be 7a 84 00 3f
       0.6512203 -0.52660537 -0.13568705 0.50202143
000260 77 ab f1 3e bb a3 60 be 4e 88 0d bf 1e 22 9a be
       0.4720113 -0.21937458 -0.5528611 -0.30104154
000270 6c b5 07 3f eb 79 32 be cb 30 86 3e db dd ba bf
       0.530112 -0.1742932 0.262091 -1.4598955
000280 f0 06 93 3f 8b 9c c4 3f 27 58 85 bf 30 0d 11 be
       1.1486492 1.5360273 -1.0417527 -0.14165187
000290 e0 87 5f bd 92 d5 d0 3e 0b c8 79 3f 66 50 03 3f
       -0.05457294 0.4078794 0.97570866 0.51294553
0002a0 17 35 4c bd 58 d9 9d 3f f4 d6 b4 bc 2b ed 87 bd
       -0.049855318 1.2331953 -0.022075154 -0.06637033
0002b0 76 2b 37 be 46 48 61 3f 52 af d7 bd 21 75 7f bf
       -0.17887673 0.88000906 -0.105314866 -0.997881
0002c0 b2 ba a4 3e ec a7 c6 be 1c f9 9d 3e 8a 6d 77 bf
       0.32173687 -0.3879999 0.30854118 -0.9665152
0002d0 62 4d 59 3d 4f b3 3e 3e f3 59 05 bf c6 dd 46 3e
       0.053052314 0.18623088 -0.52090377 0.19420537
0002e0 b8 e5 0b 3f 7c 8d 2b 3f 8a 19 71 bd dd 7a 2e bf
       0.546474 0.67012763 -0.058862247 -0.68156224
0002f0 1a 27 1f 3f be e6 c6 3c 3c 09 9f bf 20 82 bb bf
       0.6216904 0.024279948 -1.2424693 -1.4649086
000300 25 04 c6 bf 17 62 17 3f 30 66 02 bf df 37 55 3f
       -1.5470015 0.5913405 -0.50937176 0.8328838
000310 29 4a 5b bf 24 5e 02 3e bf fe ba be 24 28 8a 3f
       -0.85660034 0.12731224 -0.3652248 1.07935
000320 f2 6d 41 3f df 60 fc 3e 41 31 03 3f cb 8f 40 bf
       0.7555839 0.49292657 0.5124703 -0.7521941
000330 8a a6 8f be 35 2a ba bc b6 59 57 bf d7 95 b9 3e
       -0.28056747 -0.022725204 -0.84121263 0.3624713
000340 5a 55 0d bf 4a 71 f3 be a1 49 cf 3e 5a ab ff 3e
       -0.5520836 -0.4754737 0.40485862 0.49935418
000350 b9 3b ca be 95 32 37 3f 01 38 62 3f 16 00 71 bd
       -0.3949869 0.7156156 0.88366705 -0.058837973
000360 47 c7 65 3f 5b 0f 5f 3f 3b 2b 11 3f d9 29 26 bf
       0.897572 0.87132806 0.5670659 -0.64907604
000370 6c 22 da be 1d e3 00 c0 dc a2 a7 bf 7d 34 87 3f
       -0.42604387 -2.013862 -1.3096576 1.0562893
000380 43 d6 67 be 86 f0 8c 3f ca 80 a6 3f 2f e6 bd bf
       -0.22640328 1.1010902 1.3008053 -1.4835871
000390 dc 5e 98 be 5f ce a7 3e ef dd 00 bf bf 78 3d 3e
       -0.29759872 0.32774636 -0.50338644 0.18503092
0003a0 d4 fe 1d bf e7 3d 58 3f 5e 3b 10 3f 75 c0 a7 3f
       -0.6171696 0.84469455 0.5634059 1.3105608
0003b0 5f b2 83 bf 26 0d 01 bf 59 ff 94 bf ba 58 1a 3f
       -1.028881 -0.5041069 -1.1640426 0.60291636
0003c0 9c f4 25 3f 1b 1d dc 3d eb 58 4d 3f a1 af f1 be
       0.6482637 0.10747739 0.80213803 -0.47204307
0003d0 4b 0f 08 3e 43 6c 85 bf df d2 82 3e 65 21 e9 3e
       0.13287084 -1.0423664 0.25551507 0.4553329
0003e0 f2 d2 3b 3f e3 28 1a 3f b1 ca 00 be 3b 69 31 be
       0.7336875 0.6021864 -0.1257732 -0.17325298
0003f0 99 17 85 be b6 3c 33 bf 35 b7 b1 be c7 06 83 bf
       -0.25994566 -0.7001451 -0.34710088 -1.0236443

tcr_lstm.bias_ih_l0 f4 [120]
000000 89 5d b4 3e bb bf 87 bd 82 7e 99 3e f2 e1 02 3f
       0.35227612 -0.066283666 0.2997933 0.51126015
000010 d6 5d ea 3e c6 66 5f 3e 77 9a 70 3d 97 3a e4 3e
       0.45774716 0.21816549 0.05874106 0.4457595
000020 95 de 92 bc 16 8b 10 3e fd 9a b2 3e 89 25 f2 3d
       -0.017928401 0.14115557 0.34883872 0.118235655
000030 cd 23 b2 3e 81 c0 c2 bc ef bb 59 3f ea dd 90 3e
       0.3479294 -0.023773434 0.8505239 0.28294307
000040 9a 08 1a 3f ba 01 be bd a0 50 3e 3f 90 c9 08 3f
       0.60169375 -0.09277673 0.74341774 0.5343256
000050 3b a9 5b 3e 25 bd 54 3e ab ff bc 3e a3 8c 13 3e
       0.21451275 0.20775278 0.3691381 0.14409117
000060 37 9f 25 3f cf bf 12 3f 99 56 c3 3c 4c 46 24 3e
       0.6469607 0.57323927 0.023845004 0.16042441
000070 9c 3b a6 3e ea ef 04 3f 81 d6 c9 bc e6 48 ff 3e
       0.32467353 0.5192858 -0.024638416 0.49860305
000080 ae d7 c7 3e aa 97 45 bd c9 b9 9b 3e 31 ae 00 3f
       0.39031738 -0.04824034 0.3041518 0.50265795
000090 99 c0 e4 be 8c aa 95 3e 21 ee b7 3b d9 eb f0 3e
       -0.4467819 0.2923168 0.005613104 0.47054937
0000a0 57 16 5a bd 6b fc 45 bd f0 03 8a 3e 43 eb 93 3e
       -0.05324396 -0.048336428 0.2695613 0.28890428
0000b0 3a 1e 5a 3e 4f 43 9d bc b2 46 66 3c 86 8e e7 bd
       0.21300593 -0.019197134 0.014054941 -0.11306481
0000c0 b0 3b 09 3e 16 bd a1 be 53 c7 c2 bc b6 c8 85 3e
       0.13401675 -0.31589574 -0.023776686 0.26129693
0000d0 71 76 02 3f a1 50 1b 3f d4 b0 ec 3c 66 17 0c 3e
       0.5096198 0.60669905 0.028892912 0.13680801
0000e0 ab 72 9b 3e 23 2f 5a 3e c7 87 3d be 5c 83 4d 3e
       0.30360922 0.21307044 -0.18508826 0.20069641
0000f0 16 71 87 bd 18 59 76 be dc 7f 02 3e bf 72 5c be
       -0.06613366 -0.24057424 0.12744087 -0.21528147
000100 e6 a0 38 be 3a 03 48 bd a3 51 81 be 93 ce 86 3e
       -0.18030128 -0.048831202 -0.25257596 0.2632948
000110 64 d9 55 3e 79 0b 00 be e4 34 a2 be e2 1a 08 bd
       0.20883709 -0.12504376 -0.31680977 -0.033228762
000120 fc 5a 15 be de bd 51 be 69 41 9e 3d 4c b5 54 bd
       -0.14585489 -0.20482585 0.0772732 -0.05193071
000130 e3 c8 78 3e af 28 b1 3e d7 87 12 bd 33 a3 84 3d
       0.24295382 0.34601352 -0.03577408 0.0647644
000140 6f 96 a6 bc 54 a3 22 3d 42 b3 d6 bd 6a 38 33 be
       -0.020335404 0.039706543 -0.104834095 -0.17501989
000150 6c 98 18 be a9 48 3e be c9 92 92 3d 31 71 83 be
       -0.14901894 -0.18582405 0.07156903 -0.25672296
000160 68 cf a8 3b 5a 7b 7a 3d df 34 68 3f f8 78 97 3e
       0.005151678 0.061152793 0.90705675 0.2958448
000170 83 77 ac 3e bb d3 16 3f 97 b9 0e 3f ee 79 04 3f
       0.3368493 0.58916825 0.5575194 0.5174855
000180 d0 9e de 3e 08 c8 41 3f ca f0 5e 3f bc f0 c1 3e
       0.4348054 0.7569585 0.87086165 0.37878978
000190 ed c8 89 3f 3e 9c 20 3f 02 81 4a 3f 86 30 10 3e
       1.0764443 0.62738407 0.791031 0.1408101
0001a0 91 d3 1a 3f da 1a 02 3f 6a 98 42 3f 29 92 22 3e
       0.60479075 0.5082222 0.76013815 0.15876068
0001b0 8f b3 08 3f cc fb ed 3e 95 16 ea 3e 31 1f 08 3f
       0.53398985 0.46481168 0.45720354 0.53172594
0001c0 f3 cb 0d 3e aa d1 1c 3f dd b8 81 3f 54 f7 37 3f
       0.13847332 0.6125742 1.0134541 0.7186177
0001d0 56 d9 f8 3d 31 86 9a 3d 2d 8f 0e 3f 86 e1 32 3e
       0.121508285 0.07545126 0.5568722 0.17468843

tcr_lstm.bias_hh_l0 f4 [120]
000000 c4 a8 87 3e ef a6 fe bd 8f 50 99 3e 7a de f6 3e
       0.26495945 -0.12434184 0.29944274 0.4821661
000010 dd 4b 24 3f 57 16 1f 3c 31 11 14 3d 25 35 25 3f
       0.6417826 0.009709916 0.036149208 0.6453422
000020 29 93 5f 3d ac 17 03 3e 61 39 d1 3e 0f d1 38 3d
       0.054583702 0.12801999 0.4086409 0.04512125
000030 35 03 05 3f 5c a2 f0 bd 90 51 56 3f 04 2a 98 3e
       0.5195802 -0.117497176 0.83718204 0.29719555
000040 27 cf 11 3f 8d 1d 03 3d 2f af 4c 3f 60 54 59 3f
       0.56956714 0.032010604 0.7995481 0.8489437
000050 11 dc 31 3e bd 67 64 3e c4 bb 78 3e cb 1c 91 3e
       0.17369105 0.22305198 0.24290377 0.2834228
000060 b7 fd 1c 3f fa 7b ca 3e 39 c2 b2 3d 8d fa 8e 3d
       0.6132464 0.39547712 0.08728451 0.069813825
000070 55 f0 89 3e cf e9 f9 3e 1d d5 6b 3e 07 54 85 3e
       0.2694117 0.48811194 0.23030515 0.2604067
000080 90 71 11 3f 04 37 e6 3d 45 6f 99 3e de 6d fc 3e
       0.5681391 0.11240962 0.29967704 0.49302572
000090 5a d1 ad be dc c3 d4 3e 74 16 df 3d 67 aa 27 3e
       -0.33948785 0.4155568 0.108929545 0.16373597
0000a0 ee f4 71 3e a4 e9 db 3d 72 43 0e 3f e3 f1 18 3e
       0.2362859 0.10737923 0.55571663 0.14936022
0000b0 42 d3 73 3e 97 0f 6d 3d 01 c6 9b 3c 0d 0c 43 bd
       0.23811057 0.057876196 0.019015314 -0.047618914
0000c0 80 89 26 3e 2a 81 37 be d6 da 60 bc 67 a5 16 3e
       0.1626339 -0.17920366 -0.01372405 0.14711533
0000d0 1f 32 9d 3e 2e 43 11 3f db 62 5d 3e 0e e9 b3 3d
       0.30702302 0.56743133 0.21619742 0.08784686
0000e0 4d f7 39 3e 42 d9 f9 3d 71 8a b1 bd 87 d0 b8 3e
       0.18160744 0.12199642 -0.08668984 0.36096594
0000f0 6e f9 93 3d 3e b8 e3 bd 3d c3 cb 3e b9 c5 90 be
       0.07225309 -0.11119126 0.39797392 -0.2827585
000100 d2 45 c7 3d b8 5d 2f 3d b5 6b da be 91 df 75 3e
       0.09730114 0.042813987 -0.426603 0.24011065
000110 2c 51 51 3e 5b a8 81 be 5c 4f 8d be d2 58 86 3d
       0.20441121 -0.25323758 -0.2759961 0.0655991
000120 b4 3a 4e be 62 67 a9 be ac 29 62 3e ae 2b 59 be
       -0.20139581 -0.33086687 0.22086209 -0.21208069
000130 9c 7a 40 3e 2b 28 0b 3e 1f b8 60 3e 0f b5 83 bd
       0.18796772 0.13589542 0.21945237 -0.064310186
000140 81 78 c6 bd d0 04 2e be aa 4e 30 3e b6 cc 4f be
       -0.09690953 -0.16994023 0.17217508 -0.20292935
000150 8d 3a 15 be e5 f0 be be df 9c 45 3e 44 b9 a1 be
       -0.14573117 -0.37293163 0.19298123 -0.3158666
000160 72 43 0b 3e 59 51 37 be 6c 79 71 3f d3 b4 ed 3e
       0.13599947 -0.17902125 0.943259 0.4642702
000170 9b 29 ba 3e 5c 25 0d 3f 64 a9 b9 3e b3 e8 10 3f
       0.36359867 0.5513513 0.36262047 0.5660507
000180 08 fe cf 3e 02 f9 f1 3e bb 56 44 3f 98 98 d8 3e
       0.40623498 0.4726029 0.7669484 0.4230392
000190 7d 50 57 3f 05 26 0c 3f b8 89 51 3f e2 0f f4 39
       0.8410719 0.54745513 0.8185077 0.0004655114
0001a0 8b e5 52 3f b5 5e 28 3f 15 24 43 3f 78 73 bd 3e
       0.82381505 0.6576951 0.7622693 0.37002158
0001b0 99 f0 18 3f 5b 18 00 3f 07 18 0e 3f 84 f8 10 3f
       0.5974212 0.50037163 0.5550541 0.56629205
0001c0 3b 98 4e 3e 55 a2 e5 3e f5 2d 8e 3f c6 06 2f 3f
       0.20175259 0.44850412 1.1107775 0.6836971
0001d0 04 43 6d 3e 16 cf ae 3e b9 ed 05 3f 69 2b e4 3e
       0.23170096 0.3414237 0.5231586 0.4456437

tcr_lstm.weight_ih_l1 f4 [120, 30]
000000 a7 d4 52 3f 77 85 6b be 58 a6 de 3e 5f 48 4f bc
       0.8235573 -0.23000132 0.43486285 -0.012651532
000010 f6 41 93 3e b9 5b 86 3e 7c 55 2b 3f 35 6b bb 3e
       0.28761262 0.26241854 0.66927314 0.3660523
000020 c4 42 1b 3f f9 a3 ec be a8 9d 5e bf cb 8f fe 3c
       0.6064875 -0.4621885 -0.86959314 0.031074425
000030 1a c2 85 be 45 33 91 be f6 aa 66 bf 95 21 7d 3e
       -0.2612465 -0.28359428 -0.90104616 0.24719842
000040 56 5d 5a 3f bb 51 c3 3e d7 7f 21 bf 85 31 8c 3f
       0.8529867 0.38148293 -0.63085693 1.0952612
000050 2a 33 e3 3e 5a 4c 27 be 0c 86 a0 be 8e c8 5b 3f
       0.44374973 -0.1633772 -0.3135227 0.858529
000060 41 de 8d be 68 63 48 bf d3 b8 44 bf 4d 10 2f be
       -0.2770863 -0.7827668 -0.7684452 -0.17096062
000070 0d f0 0e 3f a5 8f 17 3f df a4 63 3e a6 a7 49 3f
       0.5583504 0.5920356 0.22230862 0.78771436
000080 b5 64 62 3f 2f 27 ed 3e c9 c6 cf 3e a5 33 fe 3e
       0.88434917 0.46318957 0.4058135 0.49648777
000090 68 a3 a3 3e 82 4c 32 bf 98 51 05 be 47 1a 8e 3e
       0.31960607 -0.6964799 -0.13019407 0.27754423
0000a0 db 25 89 be 83 24 fa be f6 81 b7 be a7 37 59 3f
       -0.26786694 -0.4885598 -0.3584134 0.84850544
0000b0 a8 06 0f bf 91 37 ac 3d f3 53 8a be fc 76 1d bf
       -0.5586953 0.08409036 -0.27017173 -0.6150968
0000c0 a7 a6 c7 be 62 08 3f 3f 14 2b 86 3c 6d 0b f1 3e
       -0.38994333 0.74622166 0.016377963 0.4707903
0000d0 27 21 0c 3e c0 10 7f be a4 58 9b be 47 0a 40 3f
       0.13684522 -0.24908733 -0.30341065 0.7501568
0000e0 f7 4b 8e bf 65 1c 40 bf eb a5 28 bf af 1b 80 3f
       -1.1116933 -0.75043327 -0.6587817 1.0008448
0000f0 6f a2 8c be 23 f5 0a bf d2 05 99 be 71 2f 2f 3f
       -0.27467677 -0.542803 -0.29887253 0.68431765
000100 83 8f ce be 60 60 48 be 7e fc 5e 3f 86 b9 c3 bb
       -0.40343866 -0.19568014 0.8710402 -0.005973044
000110 da 25 d7 3e 2e 07 3c bf 7c 20 47 3f fe 57 90 3e
       0.42021066 -0.73448455 0.7778394 0.28192133
000120 fe d6 f0 bd 5c 12 91 3e 2a e9 05 3f a2 48 62 3d
       -0.117597565 0.2833432 0.52308905 0.05524505
000130 0f 45 e6 bd 16 08 db be ba 3d a6 be 53 b6 9e 3e
       -0.11243641 -0.42779607 -0.3246897 0.30998477
000140 14 bb 84 3d 06 72 8c be 65 76 95 be be 73 8e 3f
       0.06480995 -0.27430743 -0.2919189 1.1129072
000150 5e 81 a8 3e bf 70 85 3d b5 0f 6d be 79 f7 20 3e
       0.329112 0.06515645 -0.23150523 0.15719403
000160 a5 6f 86 bd 37 cd c8 3d bd e2 43 3e c5 b7 91 3f
       -0.06564263 0.098047666 0.19129463 1.1384207
000170 b7 1f e0 be 3d f4 0a 3f 79 42 f5 3e 6a 15 89 be
       -0.43774197 0.5427893 0.47902277 -0.2677415
000180 ec c3 f4 3e c6 8b 91 bc 72 e7 59 3f 30 d5 6f bf
       0.47805727 -0.017766844 0.8511878 -0.93684673
000190 8f 11 56 3e 99 14 a2 bd b6 9e 3e bf f6 d2 c7 be
       0.20905136 -0.07914085 -0.74460924 -0.39028138
0001a0 22 58 7f 3e c0 2f 0e 3d bd 91 c8 be 36 93 64 3c
       0.24935964 0.034713507 -0.3917369 0.013951113
0001b0 0a cd 0b bf 00 71 25 3f 85 e2 09 3f 2f 90 01 bf
       -0.5460974 0.6462555 0.53861266 -0.5061063
0001c0 e1 94 d3 be 6f d4 16 3e 80 74 d3 3d 47 a3 8f be
       -0.41324523 0.14729474 0.10324955 -0.28054258
0001d0 9e f9 1a bf 5a 65 45 3f c1 c0 dd 3e 09 aa a3 3e
       -0.60537136 0.77107775 0.43311122 0.31965664
0001e0 e8 28 94 bf cf 86 e5 3e 43 7e 59 3d dd 9b de bc
       -1.1574984 0.44829413 0.05309893 -0.02717393
0001f0 22 7a e4 3d be e0 0a 3f cf 60 56 be 24 1e a3 be
       0.111561075 0.5424918 -0.20935367 -0.31858933
000200 3d 3f 10 3e cf b8 09 3f 96 4b 66 bf 13 88 c9 be
       0.14086623 0.5379762 -0.89959085 -0.3936163
000210 1e 4b 07 be ab 8e 26 3d b9 6c 22 bd cf 57 31 bf
       -0.13212249 0.040663403 -0.039654467 -0.6927461
000220 4f 90 ea bd 55 0a 3f be 18 ea 26 3e e7 fc 7e 3e
       -0.11453306 -0.18656285 0.16300237 0.24901162
000230 44 6d 23 bf 5e da 9e 3e a4 8e 16 3e dc 7d 85 3d
       -0.638386 0.31025976 0.1470285 0.065181464
000240 50 17 da be c5 5e 71 be b8 62 13 bf 28 2f 68 3e
       -0.4259591 -0.23571308 -0.5757251 0.22674239
000250 7d 42 e9 be 26 c5 ce 3e ea 8f 68 3e 6c ec ad 3d
       -0.4555854 0.40384787 0.22711149 0.084923595
000260 fe 13 e5 3d e1 eb 6f be f5 02 9b bd 19 95 eb 3e
       0.11185454 -0.23429824 -0.075689234 0.4601219
000270 7b 08 69 3e 5c 13 93 be 2b 04 1b 3f 23 0b 49 3e
       0.22757141 -0.28725708 0.60553235 0.19633155
000280 6d 09 44 3d ed 1d 0c bf da 4a 8c be f6 ef a6 3d
       0.04786055 -0.54733163 -0.27400857 0.08151238
000290 b7 98 10 be 1a 64 9d 3e 5f 91 92 3e 1b 82 b1 3e
       -0.14120756 0.30740434 0.28626534 0.34669575
0002a0 a3 56 09 bf ce 38 8d 3f 62 7a 04 3d c2 54 a6 be
       -0.5364782 1.103296 0.032343276 -0.3248654
0002b0 68 86 ef be c0 33 6f 3f b7 6e 06 be 6e ac 1c 3c
       -0.4678223 0.9343834 -0.13128172 0.009562595
0002c0 56 02 6a be 02 2e 80 3e fd 1f 86 be f9 4c 76 3d
       -0.22852454 0.250351 -0.2619628 0.060132
0002d0 cf ab 0f bf da dd 97 3f 23 81 f6 bd 11 f2 a9 3e
       -0.56121534 1.1864579 -0.120363496 0.33192495
0002e0 1a f1 7f 3e f1 b3 f0 bd b4 42 ed 3e 3c 0c fb bd
       0.24994317 -0.11753071 0.46339953 -0.12258193
0002f0 90 cb a3 3e de 87 da bb d1 cb f7 3c e4 26 77 3c
       0.31991243 -0.0066690287 0.030248554 0.015084956
000300 cf d5 0b be 68 64 a1 bd ce fd 0c bf 2d b4 88 3d
       -0.1365578 -0.07880479 -0.55074775 0.06674991
000310 bc a3 72 3e 84 bf 3d bf e2 9e 17 bf 4a c8 a6 3f
       0.23695272 -0.74120355 -0.5922681 1.3029873
000320 ee 70 18 3f 41 61 20 3e 45 78 93 3e 58 fc 4e 3f
       0.5954732 0.156621 0.28802696 0.80853796
000330 54 68 e6 3d 8c 92 b4 be 1a 73 9a bd f1 fd 67 3e
       0.11250368 -0.35268056 -0.07541485 0.22655465
000340 7b 45 24 3e 3b 2f db 3e 73 04 1f 3f 02 8a 80 be
       0.1604213 0.4280947 0.62116164 -0.25105292
000350 24 ff f1 3d c7 1d f9 3e b6 7d 83 3e 93 64 7c 3c
       0.11816242 0.4865553 0.25681847 0.015404838
000360 74 0f 02 bd ea b4 cc bd 88 29 25 3e ac 3a 39 bf
       -0.03175302 -0.09995444 0.16129124 -0.7235515
000370 41 de f6 bd 43 16 6f 3d fa 83 d6 3d 2c 26 4b 3e
       -0.1205411 0.05837084 0.10474391 0.1983878
000380 cf f9 6c bf c7 ac 85 be b1 3b dd 3d c7 e6 8c be
       -0.9256868 -0.2610838 0.10802401 -0.2751982
000390 f6 3a 27 bf 68 20 e2 3e 8f 9b 71 be e8 34 b9 3f
       -0.6532434 0.4416535 -0.23594497 1.4469271
0003a0 ab 8b 09 3f 43 2b 73 3d c9 dc da 3e d2 95 13 3d
       0.5372874 0.05936743 0.4274657 0.03603155
0003b0 c6 4a c3 3d 91 7f 8e bd b5 45 fb 3e f1 be f6 3e
       0.09535746 -0.06957925 0.4907662 0.48192552
0003c0 03 fe 55 3f c0 ea 8b 3e 33 50 28 3e 17 d3 56 3e
       0.83590716 0.27327538 0.16436844 0.20978962
0003d0 be 24 73 3d eb a9 8e 3e c1 b6 8d 3e cc 9c 06 bf
       0.059361212 0.27864012 0.27678493 -0.52583003
0003e0 5f e1 44 3e 57 84 06 bf d9 ce 2c bf a3 d4 07 3e
       0.19226597 -0.52545685 -0.67503124 0.13264708
0003f0 00 a8 a3 bd 79 ef 5c 3f db 3a b9 3e 09 62 16 bf
       -0.07991028 0.86302906 0.36177716 -0.5874334

tcr_lstm.weight_hh_l1 f4 [120, 30]
000000 21 46 7b bd ff 2b 72 bf 23 1f 12 bf 50 54 e5 be
       -0.061346177 -0.9459838 -0.5707876 -0.44790888
000010 6f 99 98 bf da d9 81 3e 63 13 e5 3d 00 64 46 be
       -1.1921824 0.2536152 0.11185338 -0.19374084
000020 b7 6a 82 be 42 35 e8 be 5e 1b 4f bf 3d 70 4c bf
       -0.25472042 -0.45353132 -0.80901134 -0.7985876
000030 22 fe c6 bf 2e f4 83 bf 91 7e ae 3e 0b 41 0c 3e
       -1.5546305 -1.0308893 0.34080938 0.13696687
000040 14 c0 c0 3d d0 64 73 be 18 2e 29 bf ec 51 89 be
       0.09411636 -0.23768926 -0.6608596 -0.26820314
000050 ac 13 8e 3e e2 b0 52 bf 65 2f b9 3e 6a fe d3 3d
       0.27749383 -0.8230115 0.36168972 0.1035126
000060 41 e9 24 3f 56 55 10 3e fc 27 a2 be d3 d4 57 bf
       0.6441842 0.14095053 -0.3167113 -0.8430912
000070 c3 b7 09 bf a0 f2 91 3c cf 93 e7 be 27 b9 0c 3f
       -0.53796023 0.017815888 -0.45229957 0.5497002
000080 e7 5d d1 be 14 ed cd bf 5d e7 de 3e e0 40 13 bf
       -0.40891954 -1.6087976 0.4353589 -0.57520866
000090 f8 f4 85 bf 26 0f cc 3e f7 62 16 3f 71 74 31 3f
       -1.0465384 0.39855307 0.5874476 0.693183
0000a0 f5 5a bc bd 43 ab 92 be b4 60 28 3f 27 5c b3 3f
       -0.09197036 -0.28646287 0.6577256 1.4012498
0000b0 bd 0f 1e 3f 1d 58 c4 3f a3 b6 cc 3e 5b 17 8c 3d
       0.61742765 1.533939 0.3998309 0.06840392
0000c0 ef 63 44 be bf 3e 6e 3e 89 e2 0f 3e 25 e7 b5 3e
       -0.19178747 0.23266123 0.1405126 0.35527912
0000d0 38 86 91 3e db d2 bf bf 3b d6 13 bf 66 42 19 bf
       0.28422713 -1.4986223 -0.57748765 -0.5986694
0000e0 36 4f 20 bf 43 f4 39 3f 36 35 e5 bd b4 83 12 bf
       -0.62620866 0.7263834 -0.1119179 -0.57232213
0000f0 af 8e 0c 3d 9a f7 2f 40 db 9f dc be f2 25 42 3e
       0.03431576 2.7494874 -0.4309071 0.18959787
000100 e4 69 5f bd a4 ca ff 3e bf 2e e7 3e 43 cc 1c 3e
       -0.054544345 0.4995929 0.45152852 0.15312295
000110 9b 39 18 3f f3 5a b8 be 7a ea 67 bf 16 dd 98 3e
       0.594629 -0.3600689 -0.9059216 0.29856175
000120 d6 79 54 bf d9 fb c3 be 78 84 13 3f 5c 7f 92 3f
       -0.82998407 -0.38278082 0.57624006 1.1445117
000130 31 2f 1d bf e0 5c 1a 3f 1f ff 3a bf 5a 00 a4 3f
       -0.61400133 0.60297966 -0.73045534 1.2812607
000140 41 67 2e bf 97 ac 63 bf 8b 1f df bd 89 6f 6c 3f
       -0.681263 -0.88935226 -0.10894688 0.9235769
000150 44 05 27 bf 69 dc ad be 1f 6f 1a bf 66 89 a5 3f
       -0.6524241 -0.33957222 -0.6032581 1.2932556
000160 2f 6a 99 bb 7e a8 7c be 70 e4 13 3f 3b ca 98 3e
       -0.0046818475 -0.2467365 0.5777044 0.2984179
000170 89 3a 00 3f 4a f9 7b 3e 24 ea 20 bf 75 6f 24 3e
       0.5008932 0.24606815 -0.6285727 0.16058142
000180 63 c1 c6 bd 19 92 62 be a0 2f 7a 3f 4c e0 e2 be
       -0.09704854 -0.22126044 0.9772892 -0.4431175
000190 c1 9b 35 be a3 ac 56 be 48 e8 c6 3e 7f a0 f6 3e
       -0.17735197 -0.20964293 0.38849092 0.48169324
0001a0 ff d0 59 3f f3 cf 24 be ad 7e 3e be 85 87 5f bf
       0.8508453 -0.16094951 -0.1860301 -0.8731616
0001b0 12 ae ed bd 41 48 0c 3f 65 4c 64 3e d3 c8 5a be
       -0.11605467 0.5479775 0.22294767 -0.21365671
0001c0 dc 84 74 3f f5 59 01 be 5d 11 c4 3e b5 31 12 bf
       0.9551523 -0.12631972 0.38294497 -0.57107097
0001d0 70 e2 c9 be b1 6b d5 be e4 47 29 bf 24 d8 95 be
       -0.3943057 -0.41683725 -0.6612532 -0.29266465
0001e0 5f ab 4a bf 58 b7 11 bf 3c 3a 5b 3f a8 60 0c bf
       -0.7916774 -0.56920385 0.85635734 -0.54834986
0001f0 46 f0 04 bf a8 9e 16 bf ce 06 7c 3e e1 b3 78 3d
       -0.5192913 -0.5883584 0.24611971 0.06071842
000200 06 57 59 3c 08 b1 1b 3e 7c 8b c9 bf 8d eb 1d be
       0.013265377 0.15204251 -1.5745692 -0.15421887
000210 0b d9 2a bf ee 73 96 be 46 d3 11 bf d1 5b 32 be
       -0.6673743 -0.29385322 -0.56963 -0.17417838
000220 33 29 76 bf 3b 95 13 bf dd 1f 16 bf 99 af e5 be
       -0.96156615 -0.5764958 -0.5864237 -0.44860533
000230 4f d3 c4 3e 2f 55 45 bf a1 38 80 be ed 10 01 bc
       0.38442466 -0.77083105 -0.25043204 -0.007877571
000240 ea 00 e9 be 02 8d cb bd 9b b8 02 bf 87 25 1a 3f
       -0.4550851 -0.099390045 -0.51062936 0.6021351
000250 f9 a5 51 3e 8f 44 21 3f 92 a4 25 bf f1 fd fc 3e
       0.2047347 0.6299524 -0.6470424 0.49412492
000260 2b 3a 61 bd b5 5b 26 3f f8 2e 43 3f b1 61 56 3b
       -0.054987114 0.64983684 0.76243544 0.0032712037
000270 80 e4 27 3f 17 e8 98 be 74 44 0b 3f ef bc 31 bf
       0.6558304 -0.2986457 0.54401326 -0.69428915
000280 83 71 69 3f f1 e6 f5 be ed af b9 3d fd 12 08 bf
       0.9118883 -0.48027757 0.09066758 -0.53153974
000290 15 d1 05 bf 16 7b c5 3f 23 b2 08 3f 73 fa 31 be
       -0.5227216 1.5428188 0.53396815 -0.17380695
0002a0 ba e7 25 3e fd b8 82 3f c0 f4 a4 be 00 ab 8c bf
       0.16201678 1.0212704 -0.3221798 -1.0989685
0002b0 be b8 1e bf d2 e5 34 be c6 d0 2a bf 17 84 02 bf
       -0.62000644 -0.17665794 -0.66724813 -0.50982803
0002c0 a3 74 4d 3d 28 0c 24 3f 92 0c af 3e 96 f2 c8 be
       0.05016006 0.6408105 0.34189278 -0.39247578
0002d0 13 6a 13 3d 86 85 e8 3e 7b e6 b8 3e ff 4d 47 bd
       0.035989832 0.4541437 0.36113343 -0.048658367
0002e0 3b 2c 9a be 4f 70 20 3f 76 ae bc 3c fc e6 ad 3f
       -0.3011187 0.6267137 0.023032408 1.3586116
0002f0 35 93 59 bf 75 c3 53 bf 2c ad b0 bc 4e ce 74 3f
       -0.84990245 -0.8272012 -0.02156695 0.95627296
000300 96 99 76 3e b1 10 a3 bf aa 78 7f 3f dd 31 75 3f
       0.24082026 -1.2739469 0.99793494 0.9577921
000310 d0 3a 67 be a4 1a 4e bf b9 fa 9c 3d 41 46 3e bd
       -0.22581029 -0.805094 0.07665009 -0.046453718
000320 05 97 2b bf cc 82 36 3f d5 ad 19 3f 4d 4b db be
       -0.6702731 0.7129333 0.6003087 -0.42830887
000330 0e 01 e9 3e e2 07 5c bf 22 62 21 bf c8 63 02 bf
       0.45508617 -0.8594953 -0.63040364 -0.50933504
000340 7d 5a 8e 3f 0f 58 be bf 23 61 81 be f4 00 50 3f
       1.1121365 -1.4870623 -0.25269422 0.81251454
000350 8d 20 b3 be d2 9e 23 bd 0a f2 d2 3e dd 3d 21 3f
       -0.34985772 -0.039946385 0.41200286 0.6298502
000360 e5 31 00 be 04 14 e0 be 3f 7b 60 bc 65 b9 55 3f
       -0.12519033 -0.4376527 -0.013701259 0.83486015
000370 12 5e d7 be 60 9a e2 be 9f 2e 11 bf 32 fc a8 3f
       -0.42063957 -0.44258404 -0.56711763 1.3201964
000380 be bc 1f 3f 18 8a 03 bf 0c a1 c0 be 01 c1 1c 3d
       0.6239737 -0.5138259 -0.3762287 0.03827
000390 b2 d9 b9 3c 31 c4 14 3d 20 c8 99 be b6 82 8d bd
       0.022686813 0.036319915 -0.30035496 -0.06909697
0003a0 0d 45 39 bf 3f 7f a6 3e 41 a7 a0 3e 26 20 2f bf
       -0.7237099 0.32518956 0.31377605 -0.6840843
0003b0 c2 85 2b bf 2d 2e 06 bf 87 cf c1 3e 42 2b 4c 3e
       -0.67000973 -0.5241421 0.37853643 0.19938377
0003c0 ad be 87 bf f7 63 bc 3e 84 0b 76 bf c7 e7 5c bf
       -1.0605065 0.36795017 -0.9611132 -0.86291164
0003d0 dd 60 b9 bc 18 2a 94 3f 5d cf 17 3f 17 52 6b be
       -0.022629196 1.1575346 0.59300786 -0.22980534
0003e0 cd b5 1a bf 61 08 fe 3d fb df 17 3f 0b 4c 03 3e
       -0.60433656 0.12403942 0.5932614 0.12821977
0003f0 de f0 e9 3e 4d 73 46 bd ee 0e 63 3e e7 2e 56 be
       0.4569158 -0.048449803 0.22173664 -0.2091633

tcr_lstm.bias_ih_l1 f4 [120]
000000 e5 ad c8 bc 55 99 0e be 40 4d ca 3d 79 57 e4 bc
       -0.024496982 -0.13925679 0.098780155 -0.027873741
000010 e9 e8 0f 3f d9 f0 79 3e 80 19 05 bd 09 c9 21 3e
       0.5621477 0.24408282 -0.03249502 0.15799345
000020 2e 97 91 be 9f a1 a6 be 7a 06 37 be 9e ae cd bd
       -0.28435653 -0.32545182 -0.17873564 -0.10043071
000030 c0 bb 35 3e bf 5c 97 be 33 93 42 be 66 cf a5 3d
       0.17747402 -0.29562947 -0.19001465 0.08096199
000040 55 2e 8d be a4 9e 53 3e 71 7c 0c 3f c5 b5 bf 3e
       -0.2757441 0.20665985 0.5487738 0.37443367
000050 db d7 21 3e c6 cb ab bd be fd 0c bf 3b 14 37 be
       0.15804999 -0.08388476 -0.5507468 -0.17878811
000060 8a 79 88 3e c6 3c 80 3d 7e 93 8b 3e 58 63 3a 3e
       0.26655227 0.062615916 0.27260965 0.18201959
000070 77 ec a7 3d 67 39 8b 3e 2a 69 d7 bd ba 19 20 bb
       0.08199399 0.27192232 -0.10518105 -0.0024429397
000080 2d 60 06 3f 25 17 8e 3c 12 0c 61 3e f0 dd 8f 3e
       0.524905 0.01734502 0.2197726 0.28099012
000090 6b b6 7c bd 36 b6 c6 3e 2e fa 68 3d ea cb b1 3d
       -0.061697405 0.3881089 0.056879215 0.08681472
0000a0 cc 63 24 3e de ac 9e 3d 17 4c 0b 3c 8f cb 9d 3e
       0.16053694 0.077478155 0.008502028 0.30819365
0000b0 3c 91 9f 3e 42 38 1e 3d 33 9b d4 3d 08 dc 39 3e
       0.31165493 0.03862787 0.103811644 0.18150342
0000c0 96 54 6e 3e a2 6d d0 3d 8c 75 26 bd 32 d7 e2 3e
       0.23274454 0.10177161 -0.040639445 0.44304806
0000d0 19 69 84 3c dc 67 4a 3e f8 33 c5 3e fb 9d 21 3f
       0.016163396 0.19766182 0.38516212 0.63131684
0000e0 30 45 c7 3e cf 72 9b 3d 9f 82 be bc 09 3d cb be
       0.38919973 0.075902574 -0.023255644 -0.39695004
0000f0 3a f0 77 bd 65 11 88 be 8e 1a 33 3e f3 c5 b9 3c
       -0.060531832 -0.2657577 0.17490599 0.022677397
000100 64 c0 47 bd 5d 63 4d bd b4 10 96 3a b7 cd 26 3e
       -0.048767462 -0.05014359 0.001144907 0.16289411
000110 fc ab 6b be 2f c0 f9 be f2 59 48 3e 98 b1 01 3e
       -0.23014826 -0.48779437 0.19565561 0.12665403
000120 ff b6 bc 3e 66 70 80 3e 0b 5f 11 be b2 d5 f4 bd
       0.36858365 0.25085753 -0.14196412 -0.11954822
000130 05 bb 29 be ff 05 9d 3d df 1c 56 3e 04 25 64 3d
       -0.16575249 0.07667159 0.20909451 0.055699363
000140 bf 2b 93 3e 7c ae 44 be 58 d7 f1 bd 93 51 30 3e
       0.28744313 -0.19207186 -0.11808652 0.17218618
000150 fa 8d 26 be 7d 1d 2d be f0 e9 29 3e 21 1e b8 3e
       -0.16265097 -0.1690578 0.16593146 0.35960487
000160 b6 ee 74 3d 4a 62 e9 bd 1b bf 80 3e bc a2 3d be
       0.059797965 -0.113957 0.25145802 -0.1851911
000170 35 00 c4 3e f2 78 12 3f 7e 4b fd 3e 6c fc 4a 3e
       0.38281408 0.572158 0.49471658 0.19822854
000180 5f 5d 50 3a 23 8b 81 3e 25 b0 c5 3d 40 ca 1d be
       0.00079484837 0.25301465 0.096527375 -0.15409184
000190 3e c3 f1 3c 4d cc 53 3e aa f7 3b bd 54 2d d2 3c
       0.029512044 0.20683403 -0.045890488 0.02565638
0001a0 7f 1c 9d 3e c0 08 0c 3f 88 ad ba 3b 22 89 6a 3e
       0.30685803 0.5470085 0.005696956 0.22903875
0001b0 98 53 ea 3e b9 71 c6 3e 47 f5 c5 3e 2c d5 6a 3e
       0.45766902 0.38758639 0.38663694 0.22932881
0001c0 71 23 e1 3e 64 df b3 3e 13 a3 ac 3e 23 dc 3a 3f
       0.43972352 0.3513137 0.33718166 0.7299215
0001d0 62 42 2a 3f 11 4b 15 3f 7e 46 b5 3e 42 22 07 3f
       0.6650754 0.5831767 0.35405344 0.5278665
